best_dqn_model.pth (torch, 128719 bytes, 8 tensors)

fc1.weight f4 [128, 50]
0.051531985 0.07931062 0.058487665 0.045209445 0.09424868 -0.0077704294 0.120981105 -0.09854712
-0.101764224 0.137419 0.06357806 0.114660464 -0.080390014 0.13706425 0.10811189 0.13285786
0.11560922 0.006115166 0.109477356 -0.08803629 -0.11865958 -0.039635304 0.12059018 -0.124350086
-0.0062487265 -0.022481704 -0.016369902 0.022844907 0.012766698 0.09763808 -0.053135347 -0.09086897
-0.020380897 -0.09907146 -0.069882244 0.1169666 0.12807795 0.1012727 0.136011 0.08384263
0.046557333 -0.03289508 -0.008698776 0.14004728 -0.10871701 -0.027145723 -0.08831341 -0.112465456
-0.09080343 -0.11813911 -0.046679474 -0.030814538 0.0028332546 0.01745104 0.08268441 0.107004724
0.030942895 0.04787427 -0.000119661876 0.07430308 -0.021116499 0.10263348 0.009834247 -0.07062889
0.100347504 -0.057548705 0.05211777 0.089332946 -0.008856467 0.109080575 0.010931368 -0.13144054
0.009354694 -0.11933247 -0.044782694 -0.08686517 0.123761855 -0.082742274 0.029887866 0.05918087
0.042050797 -0.00012966269 0.043337174 0.11732743 -0.021823877 -0.11492217 0.075121626 0.029638272
-0.14089186 -0.08016465 -0.06645816 0.020171218 0.12583351 -0.037992492 0.033991426 -0.037976786
0.087830946 -0.058900107 -0.10742657 0.01697207 -0.0045895744 -0.039823614 0.113594145 0.037381556
-0.10150668 0.1389007 0.02718419 0.03753551 0.079694405 -0.068299256 -0.12880723 -0.094701536
-0.023595281 0.10546111 0.0933017 0.11182903 -0.092708096 -0.1325411 0.0062980554 -0.0007209496
0.048042744 0.12542754 -0.024791628 -0.03267859 -0.088309854 -0.119937845 -3.6327336e-05 0.1288074
-0.09791986 0.07044013 -0.009729083 -0.084192455 0.00940792 -0.07935909 -0.0002940145 -0.06725016
0.074053645 0.09357339 0.10052783 -0.034225147 0.08797578 -4.101961e-05 0.039661266 0.022352565
-0.008359718 -0.022218376 0.08076717 -0.05451633 -0.10613137 0.11761249 -0.0025011494 -0.094797716
-0.089592874 -0.057633076 -0.05370786 0.049479675 0.030851215 0.10409996 -0.1127303 0.11436408
0.08026246 0.10893403 -0.105333745 -0.094832785 -0.14022836 -0.10407737 0.11433567 -0.113214344
-0.12431536 0.12464592 -0.12869938 -0.12077697 0.0056874617 0.019354317 -0.08385429 -0.106732525
-0.027808966 0.12286145 0.034136962 0.08047196 0.12670702 -0.032362998 -0.075994045 -0.13120586
0.110684365 -0.06341704 -0.058131162 0.11433762 0.035530213 0.042118855 0.14063047 -0.05085829
-0.036273606 -0.08964002 -0.026711974 -0.058933284 0.05637092 0.0022172325 -0.05911163 -0.118373185
0.074217476 -0.09488274 -0.056587055 -0.010904957 -0.13510582 0.024870206 0.019002272 0.01069282
0.038662735 -0.113266475 -0.0065519437 -0.0976913 -0.07285517 0.034991235 0.11499424 0.04346107
0.104057305 0.021607904 0.05891278 0.03282492 -0.14090444 -0.075185075 0.09318329 0.13082118
-0.054181986 0.12418489 -0.07012582 -0.030777665 0.07446412 0.012772047 0.08198454 0.08380706
-0.019847246 0.13218655 0.038259715 0.094904654 -0.095001176 -0.019252738 0.025368808 -0.022403004
-0.01964145 0.1015593 0.08932372 0.052103683 -0.016656319 0.026914867 0.061646637 -0.0024127527
-0.022462511 0.13424726 0.021612858 0.1185033 -0.12648399 0.06905181 0.046085402 -0.08040474
00000000: 3413 533d 9b6d a23d c390 6f3d 8a2d 393d
00000010: 7405 c13d 169f febb f1c4 f73d 13d3 c9bd
00000020: c369 d0bd 91b7 0c3e 3735 823d 1bd3 ea3d
00000030: 85a3 a4bd 925a 0c3e c469 dd3d e40b 083e
00000040: 87c4 ec3d bb61 c83b aa35 e03d 5f4c b4bd
00000050: cb03 f3bd a158 22bd fcf7 f63d 42ab febd
00000060: 1ec2 ccbb 8d2b b8bc 2c1a 86bc 3e25 bb3c
00000070: 6a2b 513c 79f6 c73d 73a4 59bd 8319 babd
00000080: d7f5 a6bc fae5 cabd 6c1e 8fbd 2f8c ef3d
00000090: de26 033e 1068 cf3d 7846 0b3e afb5 ab3d
000000a0: e7b2 3e3d febc 06bd 5085 0ebc 8e68 0f3e
000000b0: 06a7 debd b560 debc a9dd b4bd 4a54 e6bd
000000c0: 26f7 b9bd ebf2 f1bd fa32 3fbd c56e fcbc
000000d0: 20ae 393b 7cf5 8e3c 7256 a93d 4b25 db3d
000000e0: f47b fd3c cf17 443d fbf2 fab8 372c 983d
000000f0: 82fc acbc 8131 d23d d21f 213c e1a5 90bd
00000100: fe82 cd3d 31b8 6bbd 7179 553d 31f4 b63d
00000110: b71a 11bc a365 df3d 7b19 333c 5998 06be
00000120: 6e44 193c 9564 f4bd 0f6e 37bd 5ee6 b1bd
00000130: db76 fd3d c874 a9bd 66d7 f43c a467 723d
00000140: 753d 2c3d 10f6 07b9 5282 313d 5d49 f03d
00000150: fdc7 b2bc 515c ebbd 5ed9 993d f6cb f23c
00000160: f545 10be 5d2d a4bd 371b 88bd 1c3e a53c
00000170: 80da 003e 049e 1bbd 983a 0b3d 8c8d 1bbd
00000180: b6e0 b33d 3d41 71bd 7602 dcbd 0309 8b3c
00000190: 2464 96bb 161e 23bd 0ca4 e83d 671d 193d
000001a0: bce2 cfbd fc3b 0e3e 61b1 de3c d6be 193d
000001b0: d236 a33d 7be0 8bbd 0be6 03be e1f2 c1bd
000001c0: e44a c1bc fffb d73d f614 bf3d 9e06 e53d
000001d0: bedd bdbd dbb8 07be eb5f ce3b 1cfe 3cba
000001e0: 78c8 443d 1470 003e d017 cbbc fcd9 05bd
000001f0: ccdb b4bd f9a1 f5bd 2e5e 18b8 16e6 033e
00000200: 358a c8bd ea42 903d bb66 1fbc 186d acbd
00000210: ad23 1a3c 0587 a2bd f525 9ab9 74ba 89bd
00000220: 70a9 973d 68a3 bf3d 89e1 cd3d ab2f 0cbd
00000230: a52c b43d 790c 2cb8 da73 223d ba1c b73c
00000240: 33f7 08bc 5003 b6bc 4269 a53d 844c 5fbd
00000250: 675b d9bd d1de f03d 53ea 23bb 4e25 c2bd
00000260: 787c b7bd a910 6cbd c6fc 5bbd 33ab 4a3d
00000270: b0bb fc3c 5c32 d53d 25df e6bd b737 ea3d
00000280: a560 a43d ce18 df3d 38b9 d7bd b137 c2bd
00000290: 0698 0fbe 8426 d5bd d228 ea3d ecdc e7bd
000002a0: 0d99 febd 5c46 ff3d c5c9 03be eb59 f7bd
000002b0: e35d ba3b f28c 9e3c ccbb abbd 9596 dabd
000002c0: a1cf e3bc c99e fb3d 33d3 0b3d 7cce a43d
000002d0: 7cbf 013e 108f 04bd c4a2 9bbd d45a 06be
000002e0: 7cae e23d cbe0 81bd f11a 6ebd d829 ea3d
000002f0: 2188 113d d284 2c3d 6f01 103e c850 50bd
00000300: a293 14bd 3095 b7bd 12d3 dabc 0764 71bd
00000310: 32e5 663d fd4e 113b 091f 72bd a46d f2bd
00000320: 55ff 973d e251 c2bd d4c7 67bd b4aa 32bc
00000330: 2e59 0abe 9abc cb3c a7aa 9b3c f030 2f3c
00000340: d15c 1e3d 41f8 e7bd b0b1 d6bb 6012 c8bd
00000350: 1735 95bd f852 0f3d 1a82 eb3d 3c04 323d
00000360: ff1b d53d 0f03 b13c 874e 713d 6c73 063d
00000370: 4149 10be a2fa 99bd e1d6 be3d fdf5 053e
00000380: eeed 5dbd a654 fe3d 209e 8fbd 7121 fcbc
00000390: a580 983d d941 513c 83e7 a73d 09a3 ab3d
000003a0: b196 a2bc e95b 073e 38b6 1c3d 5f5d c23d
000003b0: fa8f c2bd ebb7 9dbc 3fd2 cf3c 8186 b7bc
000003c0: 1be7 a0bc 53fe cf3d 5bef b63d ac6a 553d
000003d0: d572 88bc 917c dc3c 2f81 7c3d 461f 1ebb
000003e0: 4d03 b8bc 1d78 093e 730d b13c dcb1 f23d
000003f0: 0585 01be 096b 8d3d 0cc4 3c3d 3eab a4bd

fc1.bias f4 [128]
0.021081533 0.043635253 -0.0840528 0.016131394 0.0067461277 0.13776694 -0.025304344 0.029771687
-0.068407364 0.08539754 -0.12911038 -0.08396396 0.047378715 -0.042647235 0.10209947 0.05027502
-0.09433263 -0.067694664 0.11451817 0.022684118 0.10494831 -0.018269027 0.13623701 0.030626655
0.09316893 0.080329426 -0.1050136 -0.052197676 0.14229938 0.12287241 -0.04739573 0.07379401
-0.050684888 0.13896076 -0.015433974 -0.12309353 -0.02392809 0.066098906 0.039676834 0.12858479
0.13939716 0.09922875 -0.08677795 -0.063229464 0.00034425623 -0.084697895 0.08149393 -0.093574814
-0.11330133 -0.030424315 0.14203669 -0.09652325 -0.093346685 0.020160006 -0.0062689753 0.14107394
0.002187924 0.13348305 -0.11786425 -0.019917866 -0.050347622 -0.10288487 0.0008649705 0.12972419
-0.13058257 -0.074984655 0.090016894 0.085626855 -0.10352576 -0.031341963 0.092976466 -0.14237739
-0.07561404 -0.09725234 0.00047372142 -0.13082306 -0.026375156 0.026610527 0.0901733 -0.0005481936
0.043380022 -0.09355604 0.09646552 0.13804682 0.13274822 0.1367471 0.014359299 0.0067977724
-0.01833013 0.1012537 0.022683136 -0.056371037 0.13438763 0.009665465 0.02368729 -0.11734039
-0.036032848 -0.11634017 0.009312601 0.049941834 -0.039813835 -0.0056399517 0.09066998 0.12824585
0.014264349 0.10714377 -0.05431563 -0.0887097 0.09679831 0.0057910914 0.13516267 -0.08568451
0.037910745 0.12718321 0.13460086 0.10354452 -0.03395969 -0.13277711 0.08505593 -0.010472465
-0.012384295 -0.08699797 -0.08228126 0.10882321 0.066710666 -0.07927849 -0.041788064 0.00011786666
00000000: 2eb3 ac3c e1ba 323d e023 acbd fc25 843c
00000010: 9f0e dd3b c712 0d3e 0e4b cfbc c1e3 f33c
00000020: 2919 8cbd e8e4 ae3d 8335 04be 4cf5 abbd
00000030: 2f10 423d deae 2ebd 8719 d13d 2eed 4d3d
00000040: 7731 c1bd 80a3 8abd 8188 ea3d 0bd4 b93c
00000050: 24ef d63d eda8 95bc b781 0b3e c0e4 fa3c
00000060: 5acf be3d c183 a43d 5f11 d7bd 3bcd 55bd
00000070: eeb6 113e 88a4 fb3d 0622 42bd 5021 973d
00000080: f59a 4fbd bb4b 0e3e c7de 7cbc 7618 fcbd
00000090: d804 c4bc dd5e 873d 2d84 223d bbab 033e
000000a0: 21be 0e3e 7138 cb3d a3b8 b1bd 737e 81bd
000000b0: 4a7d b439 1776 adbd 4ae6 a63d 27a4 bfbd
000000c0: 870a e8bd 6a3c f9bc 1172 113e fbad c5bd
000000d0: 8c2c bfbd 9926 a53c fa6b cdbb b075 103e
000000e0: 4663 0f3b c8af 083e d062 f1bd cb2a a3bc
000000f0: 4f39 4ebd 4db5 d2bd 30bf 623a 6bd6 043e
00000100: 70b7 05be 8e91 99bd c75a b83d 225d af3d
00000110: 5005 d4bd 6e60 00bd 726a be3d 61cb 11be
00000120: 89db 9abd 3c2c c7bd d05d f839 7bf6 05be
00000130: b610 d8bc 52fe d93c c7ac b83d a6b4 0fba
00000140: 40af 313d 4f9a bfbd b78f c53d 255c 0d3e
00000150: 26ef 073e 6f07 0c3e 4443 6b3c d9bf de3b
00000160: 1229 96bc 1a5e cf3d fcd1 b93c 51e5 66bd
00000170: e99c 093e e65b 1e3c d90b c23c 2950 f0bd
00000180: 2e97 13bd c143 eebd e193 183c cf8f 4c3d
00000190: d513 23bd 58cf b8bb 2fb1 b93d e152 033e
000001a0: 04b5 693c 316e db3d 117a 5ebd 6ead b5bd
000001b0: 313e c63d 32c3 bd3b 1568 0a3e 5c7b afbd
000001c0: 4c48 1b3d 513c 023e cfd4 093e 260f d43d
000001d0: 5119 0bbd b9f6 07be ce31 ae3d b494 2bbc
000001e0: 80e7 4abc fe2b b2bd 1483 a8bd b4de de3d
000001f0: 9a9f 883d c35c a2bd f629 2bbd 2e2f f738

fc2.weight f4 [128, 128]
-0.043680053 0.056269985 0.08236557 -0.005901692 0.029227274 -0.06668773 0.052958865 0.075543255
-0.0025243117 -0.00967912 -0.046789907 -0.05343021 -0.019314187 -0.029660283 0.06129649 0.016907373
0.0040506492 0.014139439 0.010152498 0.044233076 0.0054968325 0.055378605 -0.005941584 0.06448056
0.060146555 0.007152011 0.026802193 -0.07346793 0.0799775 0.009639881 0.038547996 -0.069800384
0.016765919 0.07949082 0.0449775 -0.06238115 -0.06404891 0.026379097 0.08228166 0.054519705
0.014463422 0.07977961 -0.05954082 -0.0019157963 -0.01838326 0.012319462 0.038769092 -0.028255494
0.0692877 0.04832201 0.06693394 -0.011387382 0.050906383 0.033284407 0.07280782 -0.04079648
-0.03799226 0.037527964 0.063180715 0.0772979 -0.041112132 0.05759097 0.019173905 -0.07216904
-0.07432818 -0.067182735 -0.06965856 0.012388109 -0.06365907 -0.08940939 0.08145007 0.0635601
0.06789163 0.06774419 -0.050859213 0.03489296 0.051673517 -0.08737933 0.01592832 -0.08295968
0.0057281926 -0.012559845 0.07312699 -0.00916499 0.08060578 -0.002666853 0.028889123 0.064207666
-0.020981897 0.05708137 -0.021936165 -0.014118401 0.033286918 -0.049534082 -0.079986505 0.056711942
0.027934602 0.057999175 0.011667018 0.06397065 0.056515068 -0.031252835 -0.050481364 -0.038039453
0.004864531 -0.07486409 -0.052444704 -0.092459 0.04396299 0.07894499 -0.015448024 0.045316923
0.08376497 -0.040967155 -0.01104278 0.0022410317 -0.07284055 0.076398835 -0.081017695 0.071771614
-0.06875528 -0.067846246 0.055350512 -0.042337503 0.036827344 0.071241125 0.06490118 0.020404676
0.026874838 0.029461417 0.06520861 0.019540941 -0.013203893 -0.055936754 0.053545535 0.08055238
-0.042764973 0.032358762 -0.07557658 -0.03817723 0.0010283461 0.031593703 -0.0652421 -0.07967966
0.05161449 -0.009370712 -0.023578601 0.018526128 -0.046937477 0.045077477 0.021536522 0.043224055
0.017440317 -0.055615187 -0.01555376 -0.048270833 0.08016579 0.07554747 0.018721336 0.032128543
-0.021386744 -0.0699585 0.065976925 0.044576474 -0.02911448 -0.06286949 0.09059116 0.037896037
-0.02935924 -0.044272628 -0.035161816 0.013194685 0.07741108 -0.06678142 0.060909525 -0.023699421
-0.04956585 0.07523033 0.057736184 -0.04884015 -0.06284863 0.073212415 0.06303392 0.085738994
-0.0052351994 0.07202185 -0.0050996193 -0.015371058 -0.03293155 -0.0587332 -0.018367281 0.055715244
-0.07401238 0.050831847 -0.050050322 -0.02402867 -0.042234685 0.04500268 0.07732073 -0.07799517
0.012678625 0.06136223 -0.08047191 -0.039192785 -0.069580704 -0.033508033 0.08572779 0.013473906
0.025717678 -0.002410847 0.013159956 0.086621776 0.04970426 -0.0005938663 0.08632959 0.012167688
0.0038171473 0.06348808 0.077594765 0.0018346782 0.03345624 0.07695679 0.055598784 0.007048285
-0.021224685 0.004919696 0.005542357 0.00055404135 0.0012294347 -0.079616375 -0.07948483 -0.04095494
-0.025783755 -0.038360905 -0.010571913 -0.051963888 0.053445198 0.009733559 0.016318658 -0.058806013
0.08652727 -0.078566335 -0.030204259 0.087698825 -0.05427234 -0.028223692 -0.065168165 0.08180886
-0.06915783 0.07704266 -0.0034033377 0.039422084 -0.070764884 -0.061195284 0.061781723 -0.051169496
00000000: dbe9 32bd 5b7b 663d 48af a83d fb62 c1bb
00000010: 096e ef3c 9493 88bd 65eb 583d 6cb6 9a3d
00000020: ec6e 25bb 2c95 1ebc c6a6 3fbd a3d9 5abd
00000030: c938 9ebc 1ffa f2bc 0712 7b3d 5581 8a3c
00000040: 4fbb 843b 1ba9 673c aa56 263c be2d 353d
00000050: c61e b43b add4 623d 9eb1 c2bb 620e 843d
00000060: 3c5c 763d 6b5b ea3b 4690 db3c 5b76 96bd
00000070: 3ecb a33d 97f0 1d3c 81e4 1d3d 81f3 8ebd
00000080: ae58 893c 15cc a23d 543a 383d 6083 7fbd
00000090: 132c 83bd fa18 d83c 4983 a83d 0e50 5f3d
000000a0: fdf7 6c3c 7e63 a33d 13e1 73bd 751b fbba
000000b0: 7e98 96bc 92d7 493c 57cc 1e3d 1178 e7bc
000000c0: b6e6 8d3d 4ded 453d a914 893d 2492 3abc
000000d0: 3683 503d 3b55 083d 441c 953d 361a 27bd
000000e0: c69d 1bbd ecb6 193d e464 813d 5d4e 9e3d
000000f0: 3265 28bd 82e4 6b3d 9812 9d3c 5dcd 93bd
00000100: 5f39 98bd 1a97 89bd 26a9 8ebd 7ff7 4a3c
00000110: b05f 82bd 451c b7bd 4bcf a63d cc2b 823d
00000120: c40a 8b3d 77bd 8a3d c051 50bd eceb 0e3d
00000130: 9ca7 533d eff3 b2bd 1c7c 823c c4e6 a9bd
00000140: 90b3 bb3b cfc7 4dbc 9ac3 953d c128 16bc
00000150: a514 a53d 5ec6 2ebb e2a8 ec3c 4f7f 833d
00000160: 3ae2 abbc 28ce 693d 79b3 b3bc de50 67bc
00000170: dd57 083d 40e4 4abd f7cf a3bd c84a 683d
00000180: 1bd7 e43c 8b90 6d3d 0527 3f3c 0b03 833d
00000190: 587c 673d f902 00bd 8cc5 4ebd 42cf 1bbd
000001a0: a566 9f3b 5852 99bd 42d0 56bd 255b bdbd
000001b0: 8912 343d e9ad a13d b519 7dbc 3d9e 393d
000001c0: f88c ab3d 2dcd 27bd c7ec 34bc 46de 123b
000001d0: 6d2d 95bd fe76 9c3d 9bec a5bd fffc 923d
000001e0: 91cf 8cbd f9f2 8abd 38b7 623d 176a 2dbd
000001f0: 45d8 163d dee6 913d e9ea 843d b527 a73c
00000200: 9f28 dc3c 1259 f13c 178c 853d 5314 a03c
00000210: 2455 58bc f01d 65bd 9052 5b3d a5f8 a43d
00000220: 532a 2fbd 9f8a 043d e5c7 9abd ba5f 1cbd
00000230: 92c9 863a 6668 013d a69d 85bd 172f a3bd
00000240: b769 533d 9d87 19bc e927 c1bc 1bc4 973c
00000250: 8341 40bd 29a3 383d 5c6d b03c b50b 313d
00000260: ffde 8e3c c0cc 63bd 33d5 7ebc a3b7 45bd
00000270: f62d a43d a2b8 9a3d 7d5d 993c 3899 033d
00000280: 4133 afbc 6746 8fbd e91e 873d d295 363d
00000290: 7d81 eebc b8c1 80bd dc87 b93d e038 1b3d
000002a0: ca82 f0bc 3757 35bd d605 10bd 852e 583c
000002b0: b389 9e3d b2c4 88bd 447c 793d 4a25 c2bc
000002c0: 9005 4bbd 5c12 9a3d c77c 6c3d 9c0c 48bd
000002d0: c8b6 80bd 64f0 953d ee17 813d ed97 af3d
000002e0: 098c abbb 3180 933d b51a a7bb e4d6 7bbc
000002f0: 3ce3 06bd 3992 70bd fb76 96bc ab35 643d
00000300: cd93 97bd 0e35 503d 9101 4dbd c6d7 c4bc
00000310: 47fe 2cbd bb54 383d 555a 9e3d efbb 9fbd
00000320: 02ba 4f3c f656 7b3d 75ce a4bd 9d88 20bd
00000330: 5480 8ebd b83f 09bd 0d92 af3d a8c1 5c3c
00000340: e1ad d23c 4dff 1dbb db9c 573c c266 b13d
00000350: b296 4b3d b1ad 1bba 91cd b03d fc5a 473c
00000360: 1b29 7a3b 0a06 823d 01ea 9e3d 9679 f03a
00000370: 6909 093d 869b 9d3d 8dbb 633d 4df5 e63b
00000380: 64df adbc 6735 a13b a99c b53b 163d 113a
00000390: fc24 a13a e90d a3bd f1c8 a2bd 5ec0 27bd
000003a0: 7438 d3bc 5320 1dbd d135 2dbc 16d8 54bd
000003b0: 5ae9 5a3d 8179 1f3c b5ae 853c 93de 70bd
000003c0: 3635 b13d 63e7 a0bd ec6e f7bc 719b b33d
000003d0: ac4c 5ebd 5f35 e7bc e376 85bd 678b a73d
000003e0: 9fa2 8dbd 8bc8 9d3d 880a 5fbb 0d79 213d
000003f0: 2eed 90bd e8a7 7abd d50e 7d3d 1b97 51bd

fc2.bias f4 [128]
0.023709362 0.039820306 0.031429198 0.014371857 0.05225895 0.009388398 0.0617255 -0.0068593393
-0.0750562 -0.060598243 -0.08456149 -0.053558093 0.059728097 -0.02221602 0.011746634 -0.04205168
-0.08276507 0.0641094 -0.043446995 -0.026527917 0.020409347 0.06944933 -0.06785958 0.051970866
-0.036316298 -0.009262589 -0.029847346 -0.068369 -0.036845848 -0.06525397 0.087496236 0.012137273
-0.022620464 0.06312415 0.01589648 -0.08763004 -0.06887308 -0.08693963 -0.05341196 0.06639957
-0.070771895 -0.041120265 0.039554458 0.028217752 0.004798836 0.0018811271 0.047917146 -0.010234012
0.019119704 -0.037538696 0.081351414 -0.06290883 -0.07753245 0.03437023 -0.06696296 0.070295826
-0.08334651 -0.030265184 0.047459975 -0.049270436 0.06380105 0.05399422 0.0198318 -0.0068431343
-0.07456436 0.09007436 -0.0891631 0.06667239 -0.0807886 -0.07614771 -0.04600829 0.044388454
0.056735177 -0.026445419 0.038969066 0.040769327 0.021957621 -0.028127914 0.027265074 0.057230327
0.030948145 4.2896645e-05 0.0075115785 0.01965498 -0.023115875 0.028547013 0.062183417 0.057006396
-0.0013848691 -0.05665381 -0.0046723178 -0.029088693 -0.021468248 -0.008146387 -0.060531955 -0.035112716
0.052558526 0.07683965 -0.07616661 -0.032865956 -0.024608634 0.07219915 0.050770495 0.07648234
0.07941512 -0.07440237 -0.05831568 -0.037924666 0.067758374 -0.03087995 -0.027991703 -0.05183017
0.054573108 0.054215018 -0.0881705 0.07841672 -0.069851175 0.06746466 -0.060923826 0.08625204
0.057614576 -0.053179216 0.0072648884 0.09156098 -0.046933547 0.013815619 0.04420187 0.062500894
00000000: 233a c23c 9e1a 233d e7bb 003d f077 6b3c
00000010: 7b0d 563d ccd1 193c e1d3 7c3d 4fc4 e0bb
00000020: 11b7 99bd dd35 78bd 932e adbd bb5f 5bbd
00000030: 73a5 743d 5ffe b5bc f474 403c 623e 2cbd
00000040: bc80 a9bd ca4b 833d 7af5 31bd 1351 d9bc
00000050: 8131 a73c 733b 8e3d f7f9 8abd 67df 543d
00000060: 66c0 14bd 1dc2 17bc 6c82 f4bc 0c05 8cbd
00000070: aceb 16bd e0a3 85bd 3a31 b33d 6adb 463c
00000080: 8d4e b9bc 3c47 813d 5639 823c 6177 b3bd
00000090: 540d 8dbd 680d b2bd 80c6 5abd 7ffc 873d
000000a0: dbf0 90bd b96d 28bd db03 223d ea28 e73c
000000b0: 8e3f 9d3b 2790 f63a c544 443d 8fac 27bc
000000c0: eda0 9c3c 2dc2 19bd 929b a63d 58d6 80bd
000000d0: 55c9 9ebd ccc7 0c3d e023 89bd 42f7 8f3d
000000e0: 93b1 aabd b1ee f7bc 6465 423d cccf 49bd
000000f0: 20aa 823d 0b29 5d3d 4d76 a23c 5f3c e0bb
00000100: 33b5 98bd e878 b83d 259b b6bd 898b 883d
00000110: 7e74 a5bd 55f3 9bbd 3073 3cbd abd0 353d
00000120: 2563 683d 10a4 d8bc 079e 1f3d bdfd 263d
00000130: 78e0 b33c 836c e6bc 015b df3c 596a 6a3d
00000140: f786 fd3c eceb 3338 b023 f63b 7b03 a13c
00000150: 815d bdbc 6ddb e93c 0ab4 7e3d 8a7f 693d
00000160: 7f84 b5ba d30d 68bd 3e1a 99bb 694b eebc
00000170: 2ede afbc 6c78 05bc 5bf0 77bd 5ad2 0fbd
00000180: 9c47 573d 1b5e 9d3d 3dfd 9bbd 749e 06bd
00000190: 0c98 c9bc 26dd 933d b9f4 4f3d c6a2 9c3d
000001a0: 65a4 a23d 4560 98bd 6cdc 6ebd e556 1bbd
000001b0: e7c4 8a3d f3f7 fcbc db4e e5bc df4b 54bd
000001c0: 0d88 5f3d 9110 5e3d bc92 b4bd f298 a03d
000001d0: 220e 8fbd e92a 8a3d 438b 79bd e9a4 b03d
000001e0: 43fd 6b3d 73d2 59bd 4d0e ee3b 5384 bb3d
000001f0: 643d 40bd e85a 623c 050d 353d 7800 803d

fc3.weight f4 [64, 128]
-0.055167485 0.07518321 -0.067644835 -0.05635859 0.061416797 -0.013855392 0.030117715 0.022254474
-0.05113197 -0.025547324 0.07672016 0.0005837431 0.03005749 0.03777953 -0.08174996 0.0053040753
0.059754133 0.029129792 -0.07007833 0.05756012 -0.05115777 0.025121104 0.00577187 -0.06721467
0.008193707 0.07213138 0.055381026 0.0101217115 -0.006652278 -0.07597559 -0.060422525 -0.034027934
0.03752851 0.045539916 -0.0025880698 -0.02127405 -0.045972705 0.021758646 0.058928408 -0.06584501
-0.042647015 -0.061817773 -0.0807867 0.04511521 -0.07190456 -0.025072794 -0.07854337 -0.021866612
0.0808157 -0.021525888 0.020126302 -0.030824155 0.053465046 -0.027571073 -0.059815478 -0.030112408
0.00014319205 0.0291954 0.077755935 -0.06606157 -0.018697858 -0.03992709 -0.0775156 -0.014020513
-0.005830251 0.07834815 0.016523043 -0.046197634 0.075841665 -0.07594588 -0.072406426 -0.06513412
0.045434702 -0.045944087 0.048880786 -0.0327252 -0.029008267 0.012921539 -0.057011265 -0.07009548
-0.06809588 -0.018161003 0.058416564 -0.013242594 -0.035408076 0.052514475 -0.0072361343 -0.044328067
0.012566083 0.029377056 0.009332551 -0.038154062 -0.06712572 0.07061932 0.016961375 0.054474317
0.07359585 0.042601407 -0.025401011 0.07924354 -0.00826187 0.06304747 0.07097214 -0.02811686
0.04837206 0.009615229 0.02925878 0.058347426 0.07856696 -0.020959964 0.012827263 0.018015502
-0.005445042 -0.028530858 0.0004238768 -0.030215997 -0.0072887647 -0.042517602 -0.037133843 -0.074693196
-0.0051405923 -0.04930121 0.027448967 0.027886214 0.03349197 0.024333978 -0.030988837 0.07351227
0.08320874 -0.07948513 0.05364821 -0.056889333 -0.0051493784 -0.033643503 -0.033030804 0.022326794
0.03156861 0.042380158 0.08511328 0.007808655 -0.04998569 0.061274685 0.024116794 -0.07250549
-0.07824713 -0.004657611 0.0715512 -0.061097383 -0.07501131 0.061901182 0.00018708683 -0.051560856
-0.076693766 -0.00404648 -0.0127768 -0.054531693 0.03423239 0.024441333 0.08346233 0.009296691
-0.06797595 -0.05240032 -0.03690646 0.012350621 -0.03812997 -0.012005284 -0.006803571 0.04661141
0.088662066 -0.02059358 0.04870489 -0.07442156 0.06146998 0.09073309 -0.0017018387 0.009171874
0.0876594 0.037963588 0.06263446 0.06644328 -0.054202538 0.058429196 -0.006738825 0.0060683363
0.037562378 -0.037055485 0.055378247 0.087468445 -0.01009754 0.03831252 0.013789559 -0.031441394
0.07491473 -0.0620022 -0.031950407 0.07150177 0.062851116 -0.06576748 0.007918406 0.09556456
0.085552506 0.02231392 -0.050592504 -0.04283151 0.04095518 0.022752399 0.07599263 0.050429188
0.054982033 0.0034010059 -0.0743533 -0.059221357 0.0897653 -0.003334807 -0.037247524 0.049224183
0.043410707 -0.026639499 -0.0003388797 0.091355965 0.050108276 0.042241927 0.043268397 0.032116644
0.05382918 -0.0152219115 0.044473425 -0.025681209 0.009265275 0.00011908107 0.047696374 0.077423334
0.06533484 0.06291444 0.016452111 -0.06354504 0.06104819 0.031561226 0.09145024 -0.072881274
-0.02052011 -0.044969823 -0.06745948 -0.028520633 -0.08299769 -0.06575145 -0.07754255 -0.009148534
-0.049950693 -0.050238986 -0.026538134 -0.044977434 0.04963472 0.06387866 0.04028423 -0.0056909244
00000000: 4df7 61bd a8f9 993d 6089 8abd 44d8 66bd
00000010: 2e90 7b3d ba01 63bc 6db9 f63c 044f b63c
00000020: c26f 51bd 9f48 d1bc 761f 9d3d 5606 193a
00000030: 203b f63c b5be 1a3d 866c a7bd cfcd ad3b
00000040: c0c0 743d 9aa1 ee3c 3a85 8fbd 29c4 6b3d
00000050: cf8a 51bd c6ca cd3c f421 bd3b d8a7 89bd
00000060: e63e 063c 9eb9 933d 37d7 623d 89d5 253c
00000070: 5afb d9bb 1799 9bbd 9c7d 77bd e060 0bbd
00000080: 7fb7 193d 1088 3a3d 9b9c 29bb eb46 aebc
00000090: e04d 3cbd 303f b23c ea5e 713d c0d9 86bd
000000a0: a3ae 2ebd a234 7dbd 7f73 a5bd baca 383d
000000b0: b342 93bd 7665 cdbc 59db a0bd 9c21 b3bc
000000c0: b482 a53d 0f57 b0bc eadf a43c f082 fcbc
000000d0: 2afe 5a3d bbdc e1bc 1301 75bd 4cae f6bc
000000e0: d325 1639 312b ef3c 813e 9f3d 4a4b 87bd
000000f0: 402c 99bc 978a 23bd 80c0 9ebd 4bb6 65bc
00000100: b10b bfbb ff74 a03d 555b 873c bb39 3dbd
00000110: e052 9b3d 8389 9bbd d249 94bd 0a65 85bd
00000120: bd19 3a3d de2f 3cbd 3837 483d dc0a 06bd
00000130: bfa2 edbc ddb4 533c a584 69bd 388e 8fbd
00000140: da75 8bbd 62c6 94bc 3546 6f3d 77f7 58bc
00000150: 0f08 11bd 6b19 573d 181d edbb 5991 35bd
00000160: f9e1 4d3c 27a8 f03c 8ee7 183c 6f47 1cbd
00000170: 3679 89bd dda0 903d 95f2 8a3c 7620 5f3d
00000180: 6cb9 963d d07e 2e3d c815 d0bc 704a a23d
00000190: cb5c 07bc 081f 813d d759 913d 5455 e6bc
000001a0: c821 463d 3289 1d3c 1cb0 ef3c b6fd 6e3d
000001b0: b7e7 a03d 3bb4 abbc 7129 523c 3f95 933c
000001c0: 536c b2bb 8cb9 e9bc c83b de39 8a87 f7bc
000001d0: 97d6 eebb f026 2ebd a819 18bd bff8 98bd
000001e0: 6a72 a8bb 11f0 49bd a8dc e03c a171 e43c
000001f0: e02e 093d 0d58 c73c 4ddc fdbc 9a8d 963d
00000200: 5869 aa3d 1ac9 a2bd 3abe 5b3d ca04 69bd
00000210: 1ebc a8bb c5cd 09bd 4f4b 07bd aee6 b63c
00000220: 164e 013d d196 2d3d df4f ae3d bfdf ff3b
00000230: cbbd 4cbd 2afb 7a3d 9590 c53c c27d 94bd
00000240: 0840 a0bd df9e 98bb 6f89 923d 4041 7abd
00000250: 889f 99bd 188c 7d3d bd2c 4439 7a31 53bd
00000260: 9f11 9dbd 5698 84bb c955 51bc a05c 5fbd
00000270: 4337 0c3d 3139 c83c 4cee aa3d 2651 183c
00000280: fa36 8bbd b8a1 56bd 3a2b 17bd 425a 4a3c
00000290: 2c2e 1cbd d0b1 44bc 7df0 debb 9beb 3e3d
000002a0: 7594 b53d deb3 a8bc c77e 473d 556a 98bd
000002b0: f2c7 7b3d 45d2 b93d 3b10 dfba a145 163c
000002c0: c686 b33d b57f 1b3d 7f46 803d 6a13 883d
000002d0: 7b03 5ebd 7453 6f3d 5cd1 dcbb e5d8 c63b
000002e0: 02db 193d 7ec7 17bd 4dd4 623d a822 b33d
000002f0: 2770 25bc 97ed 1c3d 9aed 613c b1c8 00bd
00000300: e56c 993d 05f6 7dbd 6ede 02bd 856f 923d
00000310: 16b8 803d 1ab1 86bd 34bc 013c 5ab7 c33d
00000320: 2736 af3d afcb b63c 163a 4fbd 1870 2fbd
00000330: 9ec0 273d 3d63 ba3c 06a2 9b3d d68e 4e3d
00000340: d734 613d 69e3 5e3b 8b46 98bd 1892 72bd
00000350: dfd6 b73d c78c 5abb dc90 18bd 4c9f 493d
00000360: 6dcf 313d 143b dabc aaab b1b9 d618 bb3d
00000370: 563e 4d3d df05 2d3d 343a 313d be8c 033d
00000380: fc7b 5c3d 5365 79bc c429 363d 6661 d2bc
00000390: 61cd 173c 2abb f938 465d 433d 2090 9e3d
000003a0: 46ce 853d 49d9 803d 94c6 863c e723 82bd
000003b0: ab0d 7a3d 5846 013d 434a bb3d c742 95bd
000003c0: ca19 a8bc 4732 38bd 3228 8abd 1aa4 e9bc
000003d0: b1fa a9bd b2a8 86bd a1ce 9ebd bce3 15bc
000003e0: 1999 4cbd 65c7 4dbd 8066 d9bc 423a 38bd
000003f0: c74d 4b3d d1d2 823d 1401 253d ef7a babb

fc3.bias f4 [64]
0.032328606 -0.032211874 -0.07057788 -0.063322544 0.03919342 0.038542908 0.021498926 0.003652545
0.029641287 -0.087897465 -0.012634016 -0.06363002 0.06664304 -0.011045114 -0.01846635 -0.055932052
0.002330627 0.025241805 0.04505517 -0.00034137364 0.034481812 -0.01081893 -0.032105666 0.0320147
-0.0005013037 0.040422928 -0.04391159 0.012424724 0.050458454 0.092334695 -0.023568694 -0.022501877
-0.0047329594 0.014722494 0.09582586 0.007848458 0.07592141 -0.038139906 -0.046909746 0.012454843
0.025933875 -0.06705927 -0.004221891 0.052680742 0.073084235 -0.017258154 -0.042374697 -0.07130473
0.0009289849 -0.0651041 -0.023076277 -0.05556115 0.021825759 0.003936046 -0.04019636 0.037025575
0.011410936 -0.05229853 -0.019797463 0.041722193 0.07198114 0.04899868 -0.00026609108 -0.0213464
00000000: 006b 043d 99f0 03bd 238b 90bd 40af 81bd
00000010: 4889 203d 2bdf 1d3d 841e b03c 895f 6f3b
00000020: 49d2 f23c 9603 b4bd e7fe 4ebc 7550 82bd
00000030: 257c 883d 91f6 34bc be46 97bc 0219 65bd
00000040: 6fbd 183b e7c7 ce3c c58b 383d 65fa b2b9
00000050: cd3c 0d3d e241 31bc 3b81 03bd d921 033d
00000060: ec69 03ba 8392 253d a4dc 33bd 1291 4b3c
00000070: 86ad 4e3d f919 bd3d 2213 c1bc db55 b8bc
00000080: f116 9bbb 9e36 713c 5940 c43d d296 003c
00000090: af7c 9b3d 9738 1cbd 6f24 40bd 660f 4c3c
000000a0: 4773 d43c 5f56 89bd ca57 8abb c3c7 573d
000000b0: 30ad 953d f960 8dbc 1791 2dbd 3708 92bd
000000c0: 1f87 733a 4c55 85bd 760a bdbc 1794 63bd
000000d0: efcb b23c f2f9 803b f0a4 24bd 21a8 173d
000000e0: eff4 3a3c fc36 56bd 4a2e a2bc e4e4 2a3d
000000f0: d96a 933d d7b2 483d 2482 8bb9 a5de aebc

fc4.weight f4 [5, 64]
-0.09371201 -0.010197519 0.024636684 0.1106693 -0.05323105 -0.11257287 0.055651378 0.027838746
-0.052732777 0.074397415 -0.043803822 0.031972706 0.09437474 -0.03447938 0.0013452779 0.09002834
0.037622932 -0.04003783 0.0489944 -0.10334258 -0.106391735 -0.11429539 -0.05177497 -0.047696173
0.010343305 0.061644744 0.062100552 0.048881527 0.076979175 0.08273153 -0.097119264 0.06125154
0.010952032 0.09426932 -0.03131483 -0.06357451 -0.052681096 0.027767258 -0.044983536 0.080297925
-0.010338569 -0.01760173 -0.068883404 0.010210828 -0.053460263 -0.10809761 -0.011197632 -0.0031712814
0.093680836 -0.00031080737 0.08411841 -0.02167133 0.012098581 -0.12162387 -0.041708153 0.060358573
-0.13141231 -0.055694975 0.055326562 0.11722048 -0.022143902 0.051126026 0.114604264 0.058995835
-0.029468304 -0.10913887 0.08426224 0.042295855 -0.052368913 -0.091454856 -0.06557537 -6.0804636e-05
-0.0074938834 -0.10063681 0.010416353 -0.117136024 0.04747588 -0.031461835 -0.054443575 0.07253142
0.08582813 0.055985022 0.031123117 0.110397734 0.08147293 -0.012797261 0.022650674 -0.008340698
0.08904042 0.06558543 -0.06930202 0.073296264 -0.059561405 -0.05098897 0.11627375 0.012399024
0.02068197 0.018402243 -0.046168156 0.058349296 0.0034030783 -0.097023845 -0.030355442 -0.088758454
0.094790496 0.11823488 0.07964919 -0.09846077 0.026723212 -0.101880535 -0.057617486 0.01129545
-0.045176197 0.053548925 -0.10119679 0.100136474 0.07506137 0.011310179 0.012825232 -0.065626286
-0.10724366 -0.029635917 -0.0026845152 -0.10341205 -0.08187248 -0.056337826 0.06753325 0.06698355
0.01744502 -0.052781157 -0.08862539 0.10442724 -0.013354827 0.11318783 0.086517386 0.08547193
-0.062733285 -0.0993126 0.10935672 -0.06661842 0.047822632 0.05924152 0.0785697 0.08631252
0.06816038 0.011811149 -0.064314716 0.10376166 -0.09245372 0.066536784 0.082654215 0.04921343
0.017629381 0.12436424 -0.11304838 -0.10342655 0.015112612 0.07237058 0.06818456 0.015359557
-0.08509748 -0.11543725 -0.11927028 0.064560734 0.0473345 -0.087322906 0.0005548382 0.10399272
-0.015633516 -0.057096716 0.055361252 0.04847828 -0.09037283 -0.08438451 0.047711175 0.023684597
0.12180362 -0.06745961 0.053974047 0.012139652 0.015879942 -0.095371455 -0.00044319453 0.10932855
0.0048861234 0.044750083 -0.1237533 0.11234156 -0.08154765 -0.11598399 -0.09632645 -0.107481174
-0.015584453 0.0052249953 -0.002713515 0.037306014 0.030491762 0.013953373 0.09907816 0.017653361
0.01826414 0.048891198 0.015316563 -0.06414061 0.09721821 0.040192742 0.06518203 -0.12902349
0.11076823 -0.029307786 -0.046206616 -0.1269854 -0.037716806 0.07009466 0.11445307 -0.119733855
-0.08285609 0.107776865 -0.042571522 -0.028631222 -0.09372676 -0.02562559 0.08692783 0.015664367
0.09487215 0.06453538 0.043610275 -0.09292388 -0.006448438 -0.016594686 0.055113688 -0.122522786
-0.092946835 -0.105626665 0.10388903 -0.030938774 -0.10829375 -0.063077286 -0.0518527 0.07401548
-0.06270121 -0.0051495186 0.052894462 -0.085033216 0.018520897 0.015547544 0.0671782 0.017604368
-0.08680352 0.039323736 0.0070457114 0.008253768 0.060364928 0.054507203 -0.11332007 -0.08116931
00000000: 15ec bfbd 7f13 27bc dfd2 c93c 96a6 e23d
00000010: cd08 5abd 9b8c e6bd b3f2 633d 150e e43c
00000020: 53fe 57bd ac5d 983d a36b 33bd d0f5 023d
00000030: 8b47 c13d 403a 0dbd 0954 b03a c760 b83d
00000040: 811a 1a3d b5fe 23bd 5aae 483d 46a5 d3bd
00000050: e9e3 d9bd b413 eabd fe11 54bd 105d 43bd
00000060: f776 293c 337f 7c3d 265d 7e3d ff37 483d
00000070: 42a7 9d3d 266f a93d 77e6 c6bd e5e2 7a3d
00000080: 2770 333c 4610 c13d fb43 00bd 5a33 82bd
00000090: 22c8 57bd 2978 e33c a840 38bd 3d73 a43d
000000a0: 1a63 29bc 8131 90bc be12 8dbd 514b 273c
000000b0: 26f9 5abd 4862 ddbd 4676 37bc 46d5 4fbb
000000c0: bddb bf3d dcf3 a2b9 4646 ac3d 1388 b1bc
000000d0: 2039 463c f015 f9bd 2bd6 2abd 8d3a 773d
000000e0: f390 06be 6a20 64bd 1b9e 623d 4b11 f03d
000000f0: 2167 b5bc 8669 513d a4b5 ea3d 9ea5 713d
00000100: 8367 f1bc 3384 dfbd ae91 ac3d 6b3e 2d3d
00000110: c980 56bd af4c bbbd 614c 86bd 7b08 7fb8
00000120: 408f f5bb ac1a cebd 5aa9 2a3c 03e5 efbd
00000130: 1176 423d 20de 00bd 3a00 5fbd 5a8b 943d
00000140: a9c6 af3d 8d50 653d e8f5 fe3c 3518 e23d
00000150: 48db a63d 9aab 51bc e88d b93c 6ca7 08bc
00000160: d35a b63d a751 863d 38ee 8dbd 5a1c 963d
00000170: a9f6 73bd cfd9 50bd ef20 ee3d 4725 4b3c
00000180: 3c6d a93c 4dc0 963c d21a 3dbd acff 6e3d
00000190: 2e06 5f3b 70b4 c6bd faab f8bc fec6 b5bd
000001a0: 8521 c23d 2125 f23d 1d1f a33d cda5 c9bd
000001b0: a3ea da3c bea6 d0bd 5000 6cbd 8d10 393c
000001c0: ad0a 39bd 1e56 5b3d 4340 cfbd 5a14 cd3d
000001d0: c7b9 993d 544e 393c ec20 523c 1367 86bd
000001e0: 90a2 dbbd 06c7 f2bc b1ee 2fbb b2c9 d3bd
000001f0: c2ac a7bd 7ec2 66bd df4e 8a3d ac2e 893d
00000200: dce8 8e3c 0e31 58bd 3a81 b5bd f3dd d53d
00000210: 34ce 5abc 05cf e73d 0730 b13d e80b af3d
00000220: 4f7a 80bd 6864 cbbd 6af6 df3d 3d6f 88bd
00000230: aae1 433d 3ca7 723d 27e9 a03d 9ec4 b03d
00000240: ab97 8b3d 8d83 413c 6fb7 83bd fe80 d43d
00000250: 6058 bdbd 7044 883d 9d46 a93d 0694 493d
00000260: 7e6b 903c aeb2 fe3d e985 e7bd 4dd1 d3bd
00000270: e49a 773c 0737 943d 59a4 8b3d a7a6 7b3c
00000280: 9647 aebd 5d6a ecbd fa43 f4bd 6b38 843d
00000290: d2e1 413d 5ad6 b2bd 9072 113a 23fa d43d
000002a0: dc11 80bc 3fde 69bd 7bc2 623d 2991 463d
000002b0: 6415 b9bd c9d1 acbd cb6c 433d 3306 c23c
000002c0: 2d74 f93d 4428 8abd e413 5d3d 64e5 463c
000002d0: a716 823c 1c52 c3bd 905c e8b9 a6e7 df3d
000002e0: c61b a03b dd4b 373d 5f72 fdbd 5513 e63d
000002f0: 7402 a7bd 0489 edbd cd46 c5bd 171f dcbd
00000300: ef55 7fbc 7036 ab3b 3ad5 31bb 31ce 183d
00000310: dcc9 f93c b09c 643c 7ee9 ca3d c89d 903c
00000320: ad9e 953c 2342 483d 52f2 7a3c 275c 83bd
00000330: 571a c73d 25a1 243d 287e 853d bc1e 04be
00000340: 74da e23d e216 f0bc 2643 3dbd 7608 02be
00000350: f07c 1abd ca8d 8f3d 5f66 ea3d 0637 f5bd
00000360: 74b0 a9bd 1eba dc3d 7a5f 2ebd 068c eabc
00000370: d1f3 bfbd c2ec d1bc 3807 b23d 8f52 803c
00000380: 544c c23d 202b 843d b0a0 323d e04e bebd
00000390: 6b4d d3bb 94f1 87bc e4be 613d 3aed fabd
000003a0: e95a bebd cb52 d8bd c6c3 d43d 5073 fdbc
000003b0: 1dc9 ddbd aa2e 81bd 7f63 54bd 6e95 973d
000003c0: 7e69 80bd 4bbd a8bb dda7 583d e525 aebd
000003d0: 23b9 973c 20bb 7e3c b994 893d 0937 903c
000003e0: 0bc6 b1bd ed11 213d b6df e63b d03a 073c
000003f0: 3741 773d f242 5f3d 5a14 e8bd 183c a6bd

fc4.bias f4 [5]
-0.12821761 0.072906725 -0.06190329 0.08032614 -0.044987418
00000000: 7a4b 03be 1f50 953d 4e8e 7dbd 0882 a43d
00000010: ba44 38bd
