cartpole_dqn.pth (torch, 21222 bytes, 24 tensors)

fc1.weight f4 [24, 4]
0.26913062 -0.45644695 0.15419798 -0.19291854 0.7001917 0.6879801 0.46343485 0.38077748
-0.28597668 -0.102199286 0.2944378 0.065701865 -0.52206796 -0.27848798 -0.79008293 -0.25582504
-0.1137801 0.11164363 0.28332183 0.07852148 0.10940931 -0.3839325 -0.51600134 -0.18983822
-0.137724 0.16820562 0.47740677 -0.06536579 0.3475107 -0.22503413 0.24950396 0.09798313
-0.20184465 -0.44306022 -1.0803081 -0.50569904 -0.7359642 0.34372732 -0.109768584 0.115390465
-0.13045631 -0.2602197 -0.3332825 0.045837127 -0.34768504 0.36425483 0.47582904 0.060692113
-0.26977745 0.21603851 0.0103314025 -0.03396809 0.12875251 -0.097596295 -0.35623047 0.33427045
-0.12168332 -0.298538 -0.75199 -0.17634965 1.040943 -0.013574023 -0.39686152 -0.11530054
0.08792392 0.45011652 1.9731551 0.555867 -0.14299151 0.22555009 1.8424649 0.40009612
-0.12174302 -0.03926272 -0.48874384 -0.2019414 -1.0998737 -0.64659107 -1.3120973 -0.4408432
0.33032644 -0.18094218 0.10376472 -0.30537713 0.06861361 0.21985923 0.0029335362 0.25292104
0.4571244 0.68753725 1.5971909 0.5301441 0.23207077 0.05946585 0.22228962 -0.07358726
00000000: 7dcb 893e 6ab3 e9be 13e6 1d3e 708c 45be
00000010: c33f 333f 771f 303f 5547 ed3e 44f5 c23e
00000020: 896b 92be dc4d d1bd 8dc0 963e b38e 863d
00000030: 3fa6 05bf fa95 8ebe e042 4abf 80fb 82be
00000040: 8b05 e9bd 6aa5 e43d 8f0f 913e dfcf a03d
00000050: fd11 e03d cd92 c4be aa18 04bf f364 42be
00000060: 8507 0dbe 183e 2c3e a96e f43e 80de 85bd
00000070: ecec b13e 596f 66be f77d 7f3e 61ab c83d
00000080: 5db0 4ebe cad8 e2be 8947 8abf 7e75 01bf
00000090: 2668 3cbf 07fd af3e 5ace e0bd d651 ec3d
000000a0: 5796 05be 843b 85be 01a4 aabe b6bf 3b3d
000000b0: c603 b2be 9c7f ba3e dd9f f33e 4b98 783d
000000c0: 4520 8abe 3339 5d3e 0b45 293c 2022 0bbd
000000d0: b3d7 033e 91e0 c7bd d763 b6be 7f25 ab3e
000000e0: 1b35 f9bd f9d9 98be 6b82 40bf 0195 34be
000000f0: 9f3d 853f 9465 5ebc 6f31 cbbe b122 ecbd
00000100: 7511 b43d ac75 e63e 5990 fc3f 4d4d 0e3f
00000110: 5e6c 12be 9af6 663e e4d5 eb3f 66d9 cc3e
00000120: 6854 f9bd f2d1 20bd a23c fabe bac9 4ebe
00000130: a9c8 8cbf fe86 25bf cef2 a7bf 33b6 e1be
00000140: 8c20 a93e e848 39be 9982 d43d 645a 9cbe
00000150: 4b85 8c3d c722 613e 9240 403b de7e 813e
00000160: 360c ea3e 7102 303f c070 cc3f 86b7 073f
00000170: f6a3 6d3e 7792 733d e49f 633e ebb4 96bd

fc1.bias f4 [24]
1.2200334 -0.47583216 -0.49266833 -0.6634317 1.1186187 0.693489 1.0291085 1.12807
0.12886697 0.7608223 1.2680553 0.81655955 1.1728976 0.89714164 1.0528257 -0.4064207
-0.42675865 -0.43835077 1.2433819 -0.02942996 1.1904206 1.1342359 -0.2622643 1.0115168
00000000: 0e2a 9c3f 46a0 f3be 063f fcbe a9d6 29bf
00000010: e62e 8f3f 7f88 313f d4b9 833f 9964 903f
00000020: b4f5 033e 40c5 423f a34f a23f 0c0a 513f
00000030: 8221 963f 13ab 653f fec2 863f 6016 d0be
00000040: 1c80 dabe 836f e0be 2327 9f3f 1917 f1bc
00000050: b45f 983f a42e 913f 8247 86be 6279 813f

fc2.weight f4 [24, 24]
-0.22202499 0.09525479 0.17395592 -0.16648926 0.101443574 0.018665334 0.08259421 -0.24452607
-0.15654339 -0.15564804 0.0809191 -0.2285873 0.11943189 -0.0715366 -0.19052114 0.017478876
0.0200492 -0.23827292 -0.23599409 -0.030492214 0.008025997 -0.026141046 0.10297823 -0.105554536
0.8939615 -0.71580994 0.00060304784 -1.3467546 0.5541849 0.5208284 0.42500842 0.79232407
-1.4699844 0.662064 0.96949947 0.079941876 0.7970321 0.32479385 0.660149 -0.53730583
-0.032000333 -1.9942393 0.72186065 -0.37915236 0.49566185 0.778982 -1.0979688 0.33250448
0.6136769 -0.34977055 -0.09236291 -1.3511506 0.6302277 0.6142644 0.78879374 0.6286312
-0.89416766 1.0130068 0.68381673 0.60889035 0.5893755 0.6260618 0.95880467 -0.6831361
-0.523113 -2.3709388 0.83343387 -0.66458386 0.49222043 0.76374286 -1.0493981 0.5141035
-0.19284333 0.017814163 -0.02074866 -0.14021188 0.0020413126 -0.12835048 0.16924345 0.05175812
0.08773938 -0.028716056 -0.16771635 -0.07771675 -0.08723828 0.1341104 0.014406694 -0.16678575
0.02795977 -0.13681707 -0.118941344 -0.10972231 0.10850644 -0.03465294 -0.11992639 -0.041959535
-0.06716585 -0.14927018 -0.09135653 -0.02023593 0.039475475 0.104806215 -0.033627845 0.11795326
0.1777286 -0.09483153 0.059203368 -0.15153629 0.1290368 -0.18805361 -0.03685544 -0.18550153
-0.0035150463 0.13563004 -0.1665097 -0.17614119 0.058833282 -0.09246115 0.05960952 -0.016635155
0.8806501 -0.7119659 -0.0037445244 -1.1247798 0.7836987 0.41318938 0.7281694 0.39692548
-1.0391257 0.94984275 0.71761763 0.4853001 0.74216723 0.37340719 0.6746763 -0.5768555
-0.32163307 -2.2581773 0.49818903 -0.4751149 0.7738433 0.5971433 -0.8400739 0.6079288
-0.106059775 0.0033145626 0.0065374854 0.10975049 -0.06047146 0.026988085 -0.011650415 -0.12075283
0.017935319 -0.0025782555 -0.041571077 -0.17330816 -0.03724385 -0.04968262 0.0021417125 -0.032318287
-0.013700853 -0.108092114 0.033865485 -0.19937447 -0.15120909 -0.19521315 0.090943515 0.0636675
-0.1544841 0.07124774 -0.06857668 -0.09716555 -0.08434727 0.01782207 -0.013415031 -0.17319553
-0.08766976 -0.15504788 -0.06067988 -0.17080362 0.012455099 -0.08806586 0.0117284525 0.11076641
0.117378525 -0.2011907 -0.058256213 0.00854001 0.12110516 -0.07514062 -0.11639604 0.028410086
0.019087678 -0.06841808 0.06815595 0.20401044 -0.19629334 -0.07202923 0.1562431 -0.13890867
-0.0770393 0.15671842 -0.11631073 -0.05012363 -0.10706475 -0.14058891 0.09231447 0.1215294
-0.086036064 0.14265227 -0.00043610958 -0.17026591 0.027726524 0.09184535 -0.07819696 -0.20590982
0.745361 -0.28623846 -0.39231303 -1.1760199 0.8523332 0.74101645 0.5849671 0.49271116
-0.593258 0.7931343 0.7401696 0.6094447 0.7621571 0.38724554 0.85979265 -0.67687595
-0.7039523 -2.4489887 0.9002776 -0.58824015 0.58658314 0.6446755 -0.9357851 0.895148
0.23427466 -0.31760058 -0.6644482 0.5762706 0.17886719 -0.033716947 -0.16956592 -0.064796746
-1.3874042 0.117521144 0.30429986 -0.15419309 0.054636087 0.20055309 0.02449751 1.5474333
00000000: 855a 63be f114 c33d 8021 323e 297c 2abe
00000010: a6c1 cf3d 0be8 983c 2727 a93d 0b65 7abe
00000020: e94c 20be 3362 1fbe eab8 a53d ca12 6abe
00000030: b598 f43d c881 92bd f917 43be dc2f 8f3c
00000040: 383e a43c d1fd 73be 6fa8 71be cfca f9bc
00000050: 797f 033c bf25 d6bc 40e6 d23d fa2c d8bd
00000060: a9da 643f 523f 37bf db15 1e3a 7462 acbf
00000070: 10df 0d3f 0355 053f b49a d93e c0d5 4a3f
00000080: 7328 bcbf 077d 293f 1e31 783f 91b8 a33d
00000090: 4c0a 4c3f 614b a63e 86ff 283f e08c 09bf
000000a0: c812 03bd 3c43 ffbf dccb 383f 4220 c2be
000000b0: 64c7 fd3e 5d6b 473f 3e8a 8cbf 073e aa3e
000000c0: ee19 1d3f 2015 b3be c428 bdbd 81f2 acbf
000000d0: 9a56 213f 6f40 1d3f 63ee 493f f9ed 203f
000000e0: 2ce8 64bf 35aa 813f 9d0e 2f3f 3de0 1b3f
000000f0: 50e1 163f 9645 203f 3974 753f 02e2 2ebf
00000100: bcea 05bf 76bd 17c0 ec5b 553f 2b22 2abf
00000110: 5104 fc3e a784 433f ad52 86bf 499c 033f
00000120: b978 45be 02ef 913c 18f9 a9bc b493 0fbe
00000130: 8bc7 053b 4f6e 03be 284e 2d3e 5300 543d
00000140: b4b0 b33d ef3d ebbc d6bd 2bbe f629 9fbd
00000150: fca9 b2bd 3d54 093e 0e0a 6c3c e2c9 2abe
00000160: e30b e53c c619 0cbe 8597 f3bd 17b6 e0bd
00000170: a038 de3d 3ef0 0dbd f89b f5bd c3dd 2bbd
00000180: 408e 89bd 48da 18be 2219 bbbd d2c5 a5bc
00000190: 09b1 213d a4a4 d63d 5abd 09bd 7b91 f13d
000001a0: 7cfe 353e 0837 c2bd 3b7f 723d 542c 1bbe
000001b0: 3922 043e 2091 40be bbf5 16bd 1df4 3dbe
000001c0: b15c 66bb 9ae2 0a3e 8581 2abe 5b5e 34be
000001d0: 2bfb 703d 455c bdbd 1d29 743d 7346 88bc
000001e0: 4972 613f 6643 36bf b266 75bb c9f8 8fbf
000001f0: 7aa0 483f 8f8d d33e 4f69 3a3f d139 cb3e
00000200: 1202 85bf e528 733f cab5 373f 4179 f83e
00000210: acfe 3d3f 3a2f bf3e 96b7 2c3f cdac 13bf
00000220: 17ad a4be fa85 10c0 a212 ff3e 4342 f3be
00000230: 981a 463f 62de 183f 150f 57bf 39a1 1b3f
00000240: de35 d9bd 2239 593b 6738 d63b ddc4 e03d
00000250: ecb0 77bd 1e16 dd3c 62e1 3ebc 424d f7bd
00000260: 17ed 923c f3f7 28bb 6f46 2abd b277 31be
00000270: 028d 18bd 0180 4bbd f95b 0c3b 2e60 04bd
00000280: 8b79 60bc 665f ddbd 89b6 0a3d d228 4cbe
00000290: 8ed6 1abe f5e5 47be 9840 ba3d 1b64 823d
000002a0: 1431 1ebe 56ea 913d ee71 8cbd bbfe c6bd
000002b0: 43be acbd 97ff 913c b8ca 5bbc 2b5a 31be
000002c0: 348c b3bd dfc4 1ebe 778b 78bd 25e7 2ebe
000002d0: 7910 4c3c e05b b4bd b228 403c 80d9 e23d
000002e0: 2764 f03d ef04 4ebe 119e 6ebd 66eb 0b3c
000002f0: fb05 f83d 53e3 99bd 0c61 eebd 45bc e83c
00000300: c35d 9c3c c71e 8cbd 5995 8b3d 1de8 503e
00000310: 1f01 49be 1084 93bd 31fe 1f3e 133e 0ebe
00000320: c8c6 9dbd cb7a 203e 5234 eebd 6f4e 4dbd
00000330: c344 dbbd 8af6 0fbe 5e0f bd3d 68e4 f83d
00000340: ad33 b0bd 7013 123e a3a5 e4b9 305a 2ebe
00000350: bc22 e33c 6a19 bc3d ba25 a0bd 06da 52be
00000360: facf 3e3f d98d 92be 41dd c8be d287 96bf
00000370: 8232 5a3f 41b3 3d3f 67c0 153f a344 fc3e
00000380: c2df 17bf d90a 4b3f c17b 3d3f 9104 1c3f
00000390: ba1c 433f 0c45 c63e 5f1b 5c3f be47 2dbf
000003a0: 3836 34bf 3bbc 1cc0 9878 663f e896 16bf
000003b0: 502a 163f 7409 253f 9d8f 6fbf 6b28 653f
000003c0: b2e5 6f3e 8b9c a2be 4719 2abf 7886 133f
000003d0: f628 373e c81a 0abd b0a2 2dbe 28b4 84bd
000003e0: 7696 b1bf edae f03d 31cd 9b3e cbe4 1dbe
000003f0: 17ca 5f3d ca5d 4d3e 01af c83c 4b12 c63f

fc2.bias f4 [24]
-0.09567877 0.76680815 0.81303674 -0.14561258 -0.16658086 0.9022485 0.023800883 -0.11192746
-0.104634315 0.70928055 0.029373663 0.8516136 0.62847614 0.002416876 0.83860356 0.47028518
-0.16882871 -0.18535835 0.7234386 0.15962674 0.606614 0.839219 -0.20013091 0.60044104
00000000: 3bf3 c3bd 8a4d 443f 2d23 503f 771b 15be
00000010: 2c94 2abe c2f9 663f 12fa c23c 393a e5bd
00000020: 844a d6bd 6993 353f 09a1 f03c 5903 5a3f
00000030: d0e3 203f 7364 1e3b b9ae 563f 38c9 f03e
00000040: 6fe1 2cbe 94ce 3dbe 4633 393f 3175 233e
00000050: 0e4b 1b3f 0ed7 563f 1eef 4cbe 81b6 193f

fc3.weight f4 [2, 24]
0.056074787 0.5337153 0.8180362 0.1990886 -0.15876819 0.7109769 -0.1572546 -0.1703369
-0.07266825 0.86645293 0.358549 0.8951891 0.8219979 -0.95432913 0.79458535 -0.84030986
-0.0716375 -0.021038417 1.0194596 0.081495576 0.912554 0.8291297 0.099882744 0.80367327
0.003929336 0.918994 0.82445794 0.033649113 -0.16935784 0.8487802 0.013862987 -0.03799393
0.0642819 0.644883 -0.368399 0.7607514 0.77064383 -0.8501067 0.8626701 -0.35945457
-0.09762795 0.006403035 0.6552674 0.14504932 0.996457 0.7958574 -0.11685295 0.89052284
00000000: adae 653d 91a1 083f d26a 513f e2dd 4b3e
00000010: 2194 22be 9502 363f 5a07 21be cc6c 2ebe
00000020: 17d3 94bd dccf 5d3f bc93 b73e 1d2b 653f
00000030: 746e 523f ea4e 74bf f269 4b3f 8c1e 57bf
00000040: aeb6 92bd c258 acbc a77d 823f 27e7 a63d
00000050: 249d 693f d841 543f 538f cc3d 88bd 4d3f
00000060: a9c1 803b 3143 6b3f ad0f 533f a7d3 093d
00000070: 246c 2dbe a949 593f 9521 633c 869f 1bbd
00000080: 3ba6 833d 0d17 253f cb9e bcbe 9bc0 423f
00000090: ea48 453f 98a0 59bf f3d7 5c3f 6e0a b8be
000000a0: 2af1 c7bd 8dd0 d13b 9bbf 273f cf87 143e
000000b0: ce17 7f3f 50bd 4b3f 9950 efbd 4ef9 633f

fc3.bias f4 [2]
0.3638786 0.26798266
00000000: 4c4e ba3e 0635 893e

fc1.weight f4 [24, 4]
0.26979408 -0.45607516 0.15616883 -0.19250569 0.6848615 0.70745116 0.45535818 0.3485844
-0.28597888 -0.10220008 0.2944368 0.06570263 -0.5220342 -0.27826256 -0.7900292 -0.25594223
-0.11315714 0.11201108 0.28527 0.07894466 0.11016243 -0.3836948 -0.51398337 -0.18919256
-0.13705458 0.16867909 0.4793869 -0.06508794 0.3481633 -0.22454485 0.25146738 0.09821974
-0.20178868 -0.44488817 -1.0927864 -0.5051812 -0.7353204 0.3441476 -0.10780347 0.115737304
-0.12978652 -0.25986603 -0.33130744 0.046277218 -0.34702158 0.3646063 0.47780964 0.06117298
-0.2691295 0.21641307 0.012296024 -0.03354478 0.12936793 -0.097298875 -0.3542957 0.33478403
-0.12099347 -0.29825023 -0.75000507 -0.1757882 1.0389047 -0.0072489115 -0.41208845 -0.12145596
0.0960326 0.45257393 1.9747152 0.55403703 -0.13727562 0.22760746 1.8444424 0.3989533
-0.12106907 -0.038986787 -0.48676726 -0.20136437 -1.1020077 -0.6455446 -1.3108212 -0.44197145
0.33100796 -0.18055321 0.10574619 -0.30496475 0.069247365 0.2202541 0.0048853927 0.25330397
0.45478922 0.6925447 1.597325 0.5266801 0.23270555 0.059804816 0.22424074 -0.073099814
00000000: 7322 8a3e af82 e9be b9ea 1f3e 3620 45be
00000010: 1553 2f3f 851b 353f b524 e93e a879 b23e
00000020: d36b 92be 474e d1bd 6cc0 963e 1a8f 863d
00000030: 09a4 05bf 6e78 8ebe 5b3f 4abf dc0a 83be
00000040: eebe e7bd 1166 e53d e90e 923e bdad a13d
00000050: d79c e13d a573 c4be 6a94 03bf b2bb 41be
00000060: 0958 0cbe 36ba 2c3e 3372 f53e d34c 85bd
00000070: 7642 b23e 16ef 65be 55c0 803e 6e27 c93d
00000080: b1a1 4ebe 62c8 e3be 6de0 8bbf 8e53 01bf
00000090: f53d 3cbf 1d34 b03e 11c8 dcbd ae07 ed3d
000000a0: c2e6 04be 290d 85be 21a1 a9be 2e8d 3d3d
000000b0: d0ac b1be adad ba3e 77a3 f43e 8590 7a3d
000000c0: 58cb 89be 639b 5d3e 4375 493c 4066 09bd
000000d0: 0779 043e a244 c7bd 3f66 b5be d068 ab3e
000000e0: 6dcb f7bd 41b4 98be 5500 40bf d201 34be
000000f0: d4fa 843f 4788 edbb 42fd d2be e7bd f8bd
00000100: bdac c43d c5b7 e73e 78c3 fc3f 5fd5 0d3f
00000110: fb91 0cbe ee11 693e b016 ec3f 9b43 cc3e
00000120: 10f3 f7bd 9cb0 1fbd 8f39 f9be 7632 4ebe
00000130: 970e 8dbf 6942 25bf fdc8 a7bf 154a e2be
00000140: e079 a93e f1e2 38be 7591 d83d 5724 9cbe
00000150: 90d1 8d3d 4a8a 613e a515 a03b 0fb1 813e
00000160: 22da e83e 9c4a 313f 2575 cc3f 82d4 063f
00000170: 5d4a 6e3e e5f5 743d 5d9f 653e 5bb5 95bd

fc1.bias f4 [24]
1.2200611 -0.47902417 -0.49266714 -0.6634432 1.1186739 0.6934635 1.0291504 1.128129
0.12570564 0.76086235 1.2680728 0.81660974 1.1729393 0.89720523 1.0528353 -0.40409625
-0.42485446 -0.4356318 1.2433987 -0.030108063 1.1904541 1.1342889 -0.25648332 1.0115762
00000000: f62a 9c3f a842 f5be de3e fcbe 6ad7 29bf
00000010: b530 8f3f d386 313f 33bb 833f 8866 903f
00000020: fbb8 003e e0c7 423f 3650 a23f 560d 513f
00000030: e022 963f 3eaf 653f 4fc3 863f b4e5 cebe
00000040: 8686 d9be 220b dfbe b027 9f3f 2fa5 f6bc
00000050: cd60 983f 6130 913f c851 83be 547b 813f

fc2.weight f4 [24, 24]
-0.2220238 0.09525539 0.17395706 -0.16648926 0.10144384 0.01866549 0.0825946 -0.24452606
-0.15654339 -0.155648 0.08091971 -0.22858627 0.119432546 -0.07153645 -0.19052123 0.017478984
0.020049252 -0.23827204 -0.23599365 -0.030492183 0.008026006 -0.02614104 0.10297867 -0.10555434
0.8938669 -0.7235742 0.0006030465 -1.3464876 0.55410737 0.5206218 0.42505246 0.7922298
-1.4740927 0.66183156 0.9692339 0.0799653 0.79698205 0.32447785 0.6599119 -0.5339595
-0.030201683 -1.9880265 0.7217801 -0.3828186 0.49577722 0.7789033 -1.1040539 0.3326283
0.6136948 -0.35320392 -0.09236307 -1.3510474 0.63029474 0.6141621 0.78885216 0.6287765
-0.89688385 1.0129135 0.68378115 0.60895985 0.58937454 0.6261888 0.95867944 -0.6691488
-0.52109647 -2.3647373 0.83337003 -0.666389 0.4922658 0.763889 -1.047665 0.51423526
-0.19284333 0.017814163 -0.020748677 -0.14021188 0.0020413126 -0.12835054 0.16924345 0.05175812
0.08773938 -0.028716056 -0.16771646 -0.07771675 -0.08723828 0.1341104 0.014406694 -0.16678575
0.02795977 -0.13681707 -0.118941344 -0.10972231 0.10850644 -0.03465294 -0.11992639 -0.041959535
-0.06716585 -0.1492703 -0.09135653 -0.02023593 0.039475475 0.104806304 -0.033627845 0.11795326
0.1777286 -0.09483153 0.059203368 -0.15153629 0.1290368 -0.18805361 -0.03685544 -0.18550153
-0.0035150463 0.13563004 -0.1665097 -0.17614119 0.058833282 -0.09246115 0.05960952 -0.016635155
0.8806317 -0.71690786 -0.0037445372 -1.1246173 0.7837186 0.41305223 0.72822374 0.39699197
-1.0423002 0.9497041 0.7175061 0.48535523 0.742151 0.37338766 0.6745137 -0.566159
-0.31969503 -2.2519698 0.49811965 -0.47754106 0.77391267 0.5972165 -0.8411139 0.6080591
-0.106059775 0.0033145626 0.0065374854 0.10975052 -0.06047146 0.026988085 -0.011650415 -0.12075283
0.017935336 -0.0025782555 -0.041571114 -0.17330816 -0.03724385 -0.04968262 0.0021417125 -0.032318287
-0.013700853 -0.108092114 0.033865485 -0.19937447 -0.15120909 -0.19521315 0.090943515 0.0636675
-0.15448421 0.07124774 -0.06857668 -0.09716555 -0.08434727 0.017822087 -0.013415031 -0.17319563
-0.08766976 -0.15504788 -0.06067988 -0.17080362 0.012455101 -0.08806586 0.0117284525 0.11076641
0.117378525 -0.2011907 -0.058256213 0.00854001 0.12110521 -0.07514062 -0.11639604 0.028410086
0.019087752 -0.06841763 0.06815595 0.20400977 -0.19629245 -0.072028935 0.15624402 -0.13890801
-0.07703944 0.15671939 -0.11631075 -0.050123643 -0.107064575 -0.14058886 0.09231464 0.121529885
-0.086036064 0.1426512 -0.00043610824 -0.17026605 0.02772671 0.091846 -0.07819653 -0.20590967
0.74544954 -0.28687632 -0.39231366 -1.1760069 0.8524879 0.74098223 0.5850376 0.4929997
-0.59516716 0.7931287 0.7402752 0.60954386 0.7621889 0.38763747 0.85973835 -0.657536
-0.7017717 -2.4428072 0.90022963 -0.5889306 0.58659273 0.644955 -0.928466 0.8952873
0.23443261 -0.2812496 -0.6644464 0.57569396 0.17914471 -0.033503473 -0.16993497 -0.064116806
-1.3823602 0.11796776 0.3051088 -0.15438958 0.054477025 0.20229125 0.024753865 1.587021
00000000: 355a 63be 4215 c33d cd21 323e 297c 2abe
00000010: cac1 cf3d 5fe8 983c 5c27 a93d 0a65 7abe
00000020: e94c 20be 3062 1fbe 3cb9 a53d 8512 6abe
00000030: 0d99 f43d b481 92bd ff17 43be 1630 8f3c
00000040: 543e a43c 96fd 73be 52a8 71be beca f9bc
00000050: 827f 033c bc25 d6bc 7be6 d23d e02c d8bd
00000060: 76d4 643f 293c 39bf c415 1e3a b559 acbf
00000070: fbd9 0d3f 7847 053f 7aa0 d93e 92cf 4a3f
00000080: 12af bcbf cb6d 293f b61f 783f d9c4 a33d
00000090: 0407 4c3f f621 a63e fcef 283f 92b1 08bf
000000a0: 8569 f7bc a777 febf 95c6 383f cd00 c4be
000000b0: 83d6 fd3e 3566 473f a351 8dbf 424e aa3e
000000c0: 1a1b 1d3f 25d7 b4be d928 bdbd 1fef acbf
000000d0: ff5a 213f ba39 1d3f 37f2 493f 7ff7 203f
000000e0: 2e9a 65bf 26a7 813f 480c 2f3f cbe4 1b3f
000000f0: 40e1 163f e94d 203f 046c 753f 564d 2bbf
00000100: 9466 05bf db57 17c0 bd57 553f 7898 2abf
00000110: 430a fc3e 3b8e 433f e319 86bf eca4 033f
00000120: b978 45be 02ef 913c 21f9 a9bc b493 0fbe
00000130: 8bc7 053b 536e 03be 284e 2d3e 5300 543d
00000140: b4b0 b33d ef3d ebbc ddbd 2bbe f629 9fbd
00000150: fca9 b2bd 3d54 093e 0e0a 6c3c e2c9 2abe
00000160: e30b e53c c619 0cbe 8597 f3bd 17b6 e0bd
00000170: a038 de3d 3ef0 0dbd f89b f5bd c3dd 2bbd
00000180: 408e 89bd 50da 18be 2219 bbbd d2c5 a5bc
00000190: 09b1 213d b0a4 d63d 5abd 09bd 7b91 f13d
000001a0: 7cfe 353e 0837 c2bd 3b7f 723d 542c 1bbe
000001b0: 3922 043e 2091 40be bbf5 16bd 1df4 3dbe
000001c0: b15c 66bb 9ae2 0a3e 8581 2abe 5b5e 34be
000001d0: 2bfb 703d 455c bdbd 1d29 743d 7346 88bc
000001e0: 1471 613f 4687 37bf e966 75bb 76f3 8fbf
000001f0: c8a1 483f 957b d33e df6c 3a3f 8842 cb3e
00000200: 186a 85bf cf1f 733f 7bae 373f 7b80 f83e
00000210: 9cfd 3d3f ab2c bf3e eeac 2c3f ccef 10bf
00000220: 11af a3be 4620 10c0 8a09 ff3e 4380 f4be
00000230: 241f 463f 2ee3 183f 3e53 57bf c3a9 1b3f
00000240: de35 d9bd 2239 593b 6738 d63b e1c4 e03d
00000250: ecb0 77bd 1e16 dd3c 62e1 3ebc 424d f7bd
00000260: 20ed 923c f3f7 28bb 7946 2abd b277 31be
00000270: 028d 18bd 0180 4bbd f95b 0c3b 2e60 04bd
00000280: 8b79 60bc 665f ddbd 89b6 0a3d d228 4cbe
00000290: 8ed6 1abe f5e5 47be 9840 ba3d 1b64 823d
000002a0: 1c31 1ebe 56ea 913d ee71 8cbd bbfe c6bd
000002b0: 43be acbd a0ff 913c b8ca 5bbc 325a 31be
000002c0: 348c b3bd dfc4 1ebe 778b 78bd 25e7 2ebe
000002d0: 7b10 4c3c e05b b4bd b228 403c 80d9 e23d
000002e0: 2764 f03d ef04 4ebe 119e 6ebd 66eb 0b3c
000002f0: 0206 f83d 53e3 99bd 0c61 eebd 45bc e83c
00000300: eb5d 9c3c 8b1e 8cbd 5995 8b3d f0e7 503e
00000310: e300 49be e883 93bd 6ffe 1f3e e73d 0ebe
00000320: dbc6 9dbd 0c7b 203e 5534 eebd 734e 4dbd
00000330: ac44 dbbd 87f6 0fbe 750f bd3d a9e4 f83d
00000340: ad33 b0bd 2813 123e 75a5 e4b9 395a 2ebe
00000350: 2023 e33c c119 bc3d 8125 a0bd fcd9 52be
00000360: c8d5 3e3f 74e1 92be 56dd c8be 6587 96bf
00000370: a63c 5a3f 03b1 3d3f 06c5 153f 756a fc3e
00000380: e05c 18bf 7c0a 4b3f ad82 3d3f 110b 1c3f
00000390: d01e 433f 6b78 c63e d017 5c3f 4754 28bf
000003a0: 4fa7 33bf f456 1cc0 7375 663f 28c4 16bf
000003b0: f12a 163f c51b 253f f3af 6dbf 8c31 653f
000003c0: 1a0f 703e f3ff 8fbe 2919 2abf ae60 133f
000003d0: b671 373e f03a 09bd 6f03 2ebe ac4f 83bd
000003e0: 2ef1 b0bf 1599 f13d 3837 9c3e 4d18 1ebe
000003f0: 4d23 5f3d 7025 4f3e 9ec8 ca3c 8123 cb3f

fc2.bias f4 [24]
-0.09567859 0.7666918 0.81303996 -0.14561258 -0.16658099 0.9022121 0.023800883 -0.11192746
-0.104634196 0.7093577 0.0295318 0.85165685 0.6284973 0.002805621 0.83858836 0.47016698
-0.16882871 -0.18535796 0.72354496 0.15962674 0.6065934 0.8392345 -0.20013098 0.60041994
00000000: 23f3 c3bd ea45 443f 6323 503f 771b 15be
00000010: 3594 2abe 5ff7 663f 12fa c23c 393a e5bd
00000020: 744a d6bd 7798 353f acec f13c 2f06 5a3f
00000030: 33e5 203f 82de 373b baad 563f bab9 f03e
00000040: 6fe1 2cbe 7ace 3dbe 3e3a 393f 3175 233e
00000050: b449 1b3f 12d8 563f 23ef 4cbe 1fb5 193f

fc3.weight f4 [2, 24]
0.05607517 0.53391206 0.81820816 0.1990886 -0.15876831 0.7111401 -0.1572546 -0.1703369
-0.07266893 0.8666221 0.36007527 0.8953356 0.8221734 -0.95438814 0.7947648 -0.8401502
-0.0716375 -0.021038502 1.0196581 0.08149565 0.9127302 0.82931966 0.099882744 0.8038689
0.0039293584 0.91895515 0.82439923 0.033649113 -0.16935784 0.84873444 0.013862987 -0.03799393
0.064281814 0.6447853 -0.3684658 0.7607187 0.77055824 -0.8461982 0.8626016 -0.35944617
-0.09762795 0.006403012 0.6551158 0.14504932 0.99636704 0.79578424 -0.11685295 0.890426
00000000: 14af 653d 76ae 083f 1776 513f e2dd 4b3e
00000010: 2994 22be 470d 363f 5a07 21be cc6c 2ebe
00000020: 73d3 94bd f2da 5d3f c95b b83e b734 653f
00000030: f579 523f c852 74bf b575 4b3f 1514 57bf
00000040: aeb6 92bd f058 acbc 2884 823f 31e7 a63d
00000050: b0a8 693f 4b4e 543f 538f cc3d 5aca 4d3f
00000060: d9c1 803b a540 6b3f d40b 533f a7d3 093d
00000070: 246c 2dbe a946 593f 9521 633c 869f 1bbd
00000080: 2fa6 833d a610 253f 8da7 bcbe 76be 423f
00000090: 4e43 453f 72a0 58bf 75d3 5c3f 5409 b8be
000000a0: 2af1 c7bd 5cd0 d13b abb5 273f cf87 143e
000000b0: e911 7f3f 84b8 4b3f 9950 efbd f5f2 633f

fc3.bias f4 [2]
0.36422136 0.2675917
00000000: 397b ba3e c801 893e

exp_avg f4 [24, 4]
0.01015288 0.014986929 0.0012461602 -0.011258402 -0.008049237 -0.0038501797 -0.00061601796 -0.0026359386
-6e-45 -6e-45 -6e-45 6e-45 -7.295382e-19 -3.965214e-19 -9.248883e-20 -1.8447323e-19
0.009446905 0.0138377575 0.001145846 -0.010291217 0.010461533 0.015093971 0.0012433357 -0.011020074
0.009633641 0.014225355 0.0011915378 -0.010725625 0.0074821296 0.011127598 0.0009350426 -0.008463689
-0.00087794743 -0.005348242 -0.00028422225 0.0070200325 0.012030535 0.017756313 0.0014794637 -0.013348163
0.010986642 0.016215142 0.0013469917 -0.012173562 0.0066880276 0.009637756 0.0007958823 -0.007033652
0.010144388 0.014828669 0.0012291681 -0.011009878 0.0059933476 0.0087522 0.0007218322 -0.0064755944
0.012390038 0.017925035 0.0014775035 -0.013128943 -0.004867423 -0.0029690312 -0.00042162216 -0.00064681174
-0.009217221 -0.0054886052 -0.0017351469 -0.0029097039 0.0069444873 0.012311131 -0.004126538 -0.0142979305
0.011813635 0.017089747 0.0014054494 -0.012502699 -0.0010812599 -0.0014731502 -0.0006676341 0.0026889392
0.0096935835 0.014128458 0.0011738375 -0.010469736 0.0091845235 0.01348724 0.001120623 -0.01007327
-0.013311613 -0.00769883 -0.001065264 -0.0029017357 0.010037011 0.01444989 0.0011906782 -0.0105252005
00000000: 4458 263c bc8b 753c 3356 a33a 2975 38bc
00000010: f2e0 03bc 4c53 7cbb 447c 21ba b6bf 2cbb
00000020: 0400 0080 0400 0080 0400 0080 0400 0000
00000030: 5952 57a1 9f10 eaa0 1162 da9f 9dc9 59a0
00000040: 31c7 1a3c c3b7 623c 3630 963a 7e9c 28bc
00000050: da66 2b3c b44c 773c 6cf7 a23a 8a8d 34bc
00000060: 6bd6 1d3c 7711 693c 602d 9c3a 88ba 2fbc
00000070: a72c f53b 8750 363c a61d 753a 49ab 0abc
00000080: 0e26 66ba 4e40 afbb aa03 95b9 4d08 e63b
00000090: b91b 453c b075 913c 90ea c13a 41b2 5abc
000000a0: 5101 343c 9ed5 843c 8b8d b03a 9f73 47bc
000000b0: 3e27 db3b aee7 1d3c c2a2 503a 8d7a e6bb
000000c0: a634 263c f2f3 723c 0a1c a13a c662 34bc
000000d0: d863 c43b 6365 0f3c 5739 3d3a 3931 d4bb
000000e0: 96ff 4a3c 86d7 923c caa8 c13a c71a 57bc
000000f0: e77e 9fbb 1494 42bb 2b0d ddb9 cd8e 29ba
00000100: d403 17bc c2d9 b3bb de6d e3ba bbb0 3ebb
00000110: 958e e33b a0b4 493c e937 87bb de41 6abc
00000120: fa8d 413c ccff 8b3c 0e37 b83a 1fd8 4cbc
00000130: 10b9 8dba b816 c1ba 2b04 2fba ea38 303b
00000140: d6d1 1e3c 0c7b 673c 73db 993a 4189 2bbc
00000150: af7a 163c 96f9 5c3c dee1 923a 5b0a 25bc
00000160: f418 5abc 7846 fcbb 54a0 8bba 0c2b 3ebb
00000170: 4672 243c 3bbf 6c3c 8810 9c3a e471 2cbc

exp_avg_sq f4 [24, 4]
0.002706917 0.002918353 3.1341096e-05 0.00483257 8.821858e-06 8.850727e-06 4.459808e-08 5.7695047e-06
6.8224417e-06 1.2324679e-06 5.538734e-09 8.1000843e-07 0.0024202361 0.00037287595 1.8706038e-05 0.00059043104
0.0023911279 0.002508954 2.7416485e-05 0.0041588433 0.0023774612 0.0027970152 2.762207e-05 0.0046239374
0.0024473164 0.002593278 2.8469223e-05 0.004294618 0.0015550946 0.0016147394 1.8068207e-05 0.0026750385
0.002233153 0.00097043096 1.8084089e-05 0.001579682 0.0038840473 0.0041028988 4.4903387e-05 0.0067975014
0.0031304539 0.0034098136 3.6267098e-05 0.0056453235 0.0010728537 0.0011659658 1.232951e-05 0.0019314719
0.002656213 0.002835069 3.0589377e-05 0.0046970635 0.0009575034 0.0010109136 1.09262755e-05 0.0016758776
0.0036221414 0.0040450967 4.1760268e-05 0.006696452 3.673642e-06 3.932869e-06 3.5768167e-08 4.1918865e-06
3.0621053e-05 0.0003013222 9.609193e-06 0.00049483165 0.00033009786 0.004990264 0.0001700796 0.0084297955
0.0033418143 0.0037086331 3.8388065e-05 0.0061412076 0.0016842383 0.0010888618 1.2768538e-05 0.001693398
0.0023275719 0.0025241447 2.6948916e-05 0.004179441 0.0022670198 0.002376724 2.606572e-05 0.0039389497
4.4062417e-05 6.675047e-05 3.9811184e-06 9.0216294e-05 0.0025215268 0.0026691044 2.8783317e-05 0.0044247527
00000000: 8866 313b d741 3f3b 3f74 0338 895a 9e3b
00000010: 9701 1437 957d 1437 1c8c 3f33 ab97 c136
00000020: 54ec e436 466b a535 384f be31 5b6f 5935
00000030: d39c 1e3b 907e c339 e9ea 9c37 28c7 1a3a
00000040: 78b4 1c3b 436d 243b 74fc e537 e846 883b
00000050: 2ecf 1b3b 214e 373b f2b5 e737 6684 973b
00000060: 2863 203b fcf3 293b 31d1 ee37 deb9 8c3b
00000070: 51d4 cb3a aaa5 d33a 2e91 9737 b34f 2f3b
00000080: 175a 123b 8564 7e3a 49b3 9737 550d cf3a
00000090: 808b 7e3b 9c71 863b a556 3c38 93bd de3b
000000a0: 4d28 4d3b 2e77 5f3b 801d 1838 68fc b83b
000000b0: ff9e 8c3a 52d3 983a d8da 4e37 7129 fd3a
000000c0: dc13 2e3b 91cc 393b 184d 0038 d3e9 993b
000000d0: f700 7b3a a280 843a ff4f 3737 1fa9 db3a
000000e0: 7361 6d3b bb8c 843b bf27 2f38 e96d db3b
000000f0: b088 7636 16f7 8336 849f 1933 08a8 8c36
00000100: 1b6f 0038 c8fa 9d39 2b37 2137 97b7 013a
00000110: fc10 ad39 5e85 a33b 6557 3239 201d 0a3c
00000120: 5702 5b3b 8a0c 733b df02 2138 2f3c c93b
00000130: a9c1 dc3a 24b8 8e3a 7438 5637 02f5 dd3a
00000140: 2d8a 183b 1f6c 253b 5b10 e237 b1f3 883b
00000150: 4892 143b d0c2 1b3b b5a7 da37 4e12 813b
00000160: a9cf 3838 63fc 8b38 8c95 8536 8132 bd38
00000170: 3340 253b 24ec 2e3b b473 f137 84fd 903b

exp_avg f4 [24]
0.009690897 -0.007257327 6e-45 5.9747033e-19 0.009263106 0.010557991 0.008817951 0.00671649
-0.00043404408 0.01135056 0.01053591 0.0066885483 0.0098852 0.0060259155 0.01246512 -0.0051907105
-0.015732467 -0.019661382 0.012024877 -0.0024834198 0.0093357125 0.008830778 -0.010615894 0.010156386
00000000: 91c6 1e3c dfce edbb 0400 0000 9557 3021
00000010: 48c4 173c 6dfb 2c3c 2b79 103c 0016 dc3b
00000020: 6990 e3b9 b3f7 393c cf9e 2c3c 9c2b db3b
00000030: 89f5 213c 0b75 c53b 813a 4c3c d616 aabb
00000040: 60e1 80bc e810 a1bc fd03 453c dfc0 22bb
00000050: d1f4 183c f8ae 103c 49ee 2dbc f866 263c

exp_avg_sq f4 [24]
0.015971588 1.9111529e-05 3.2307344e-06 0.0014315691 0.013677805 0.015484089 0.014138259 0.008786386
0.0065831076 0.022370119 0.01868906 0.0063774087 0.015483273 0.005523991 0.022233471 1.2555828e-05
0.00039743198 0.0067869574 0.020375095 0.0060360716 0.013810832 0.0129578635 0.0003044253 0.014563489
00000000: d9d6 823c b251 a037 98cf 5836 7da3 bb3a
00000010: df18 603c fab0 7d3c 28a4 673c c6f4 0f3c
00000020: 1cb7 d73b 8a41 b73c cd19 993c 95f9 d03b
00000030: 8ead 7d3c 9802 b53b f822 b63c dfa6 5237
00000040: 6b5e d039 2065 de3b ace9 a63c 3dca c53b
00000050: d446 623c 384d 543c 469b 9f39 b39b 6e3c

exp_avg f4 [24, 24]
6e-45 6e-45 6e-45 0.0 6e-45 6e-45 6e-45 6e-45
0.0 6e-45 6e-45 6e-45 6e-45 6e-45 6e-45 6e-45
6e-45 6e-45 6e-45 6e-45 6e-45 6e-45 6e-45 6e-45
-0.00010781457 0.00058970664 -6e-45 -8.122106e-21 8.304683e-05 -0.0002822052 0.00041605067 -9.637658e-05
5.143206e-05 -0.00025369128 -0.0006099759 0.0003362964 0.00025719422 -0.000579527 -0.0003896312 0.00046596694
0.00013599278 0.00010809623 0.00015400446 -0.0004645915 0.0005974199 0.00011632882 0.00066450937 0.00055038225
0.0013819388 0.00092650513 -6e-45 -1.6786052e-20 0.0014798492 0.00049685076 0.0016906704 0.0014140892
0.00019762586 0.0004983273 0.0008516399 0.0013269965 0.0016700355 0.0006097736 0.0007654783 0.0007296945
0.00018159884 9.697776e-05 0.0016210617 -0.00033012519 0.0021415676 0.0016608385 0.001029518 0.0019267248
0.0 0.0 0.0 0.0 0.0 0.0 0.0 0.0
0.0 0.0 0.0 0.0 0.0 0.0 0.0 0.0
0.0 0.0 0.0 0.0 0.0 0.0 0.0 0.0
0.0 0.0 0.0 0.0 0.0 0.0 0.0 0.0
0.0 0.0 0.0 0.0 0.0 0.0 0.0 0.0
0.0 0.0 0.0 0.0 0.0 0.0 0.0 0.0
0.0008509244 0.000800127 -6e-45 -1.36137e-20 0.0009800773 0.00022148424 0.0012311235 0.0008755498
0.0001448812 0.00023233784 0.00033583847 0.00096968265 0.001162752 0.00019091323 0.0003569006 0.0006306917
0.00016390909 9.9839046e-05 0.0010954745 -0.00037338657 0.0015838802 0.0011079562 0.00089229335 0.0014294545
0.0 0.0 0.0 0.0 0.0 0.0 0.0 0.0
0.0 0.0 0.0 0.0 0.0 0.0 0.0 0.0
0.0 0.0 0.0 0.0 0.0 0.0 0.0 0.0
0.0 0.0 0.0 0.0 0.0 0.0 0.0 0.0
0.0 0.0 0.0 0.0 0.0 0.0 0.0 0.0
0.0 0.0 0.0 0.0 0.0 0.0 0.0 0.0
6e-45 6e-45 0.0 -6e-45 6e-45 6e-45 6e-45 6e-45
-6e-45 6e-45 6e-45 6e-45 6e-45 6e-45 6e-45 6e-45
0.0 -6e-45 6e-45 0.0 6e-45 6e-45 6e-45 6e-45
0.0020698449 0.0009902455 -6e-45 -1.9468082e-20 0.0020973783 0.00089029706 0.0022034643 0.0021095406
0.0002559048 0.0008754416 0.0016017952 0.0017236632 0.0022688757 0.0012324516 0.0013445829 0.0007789805
0.00018186193 7.5858836e-05 0.002259747 -0.00020024496 0.002748801 0.0023399252 0.0010948147 0.0024652672
0.0018263485 -9.946793e-06 6e-45 -1.278764e-20 0.0016563116 0.0010792906 0.0014045367 0.0017674983
0.00022965335 0.0011441858 0.002037894 0.0011125179 0.0016616735 0.0015811488 0.0016248138 -5.0919652e-06
00000000: 0400 0000 0400 0000 0400 0000 0000 0000
00000010: 0400 0000 0400 0000 0400 0000 0400 0000
00000020: 0000 0000 0400 0000 0400 0000 0400 0000
00000030: 0400 0000 0400 0000 0400 0000 0400 0000
00000040: 0400 0000 0400 0000 0400 0000 0400 0000
00000050: 0400 0000 0400 0000 0400 0000 0400 0000
00000060: 821a e2b8 8b96 1a3a 0400 0080 186c 199e
00000070: 6d29 ae38 f1f4 93b9 6021 da39 c81d cab8
00000080: c1b8 5738 de01 85b9 cae6 1fba f050 b039
00000090: 06d8 8639 66eb 17ba 6a47 ccb9 064d f439
000000a0: 4999 0e39 b9b1 e238 427c 2139 6a94 f3b9
000000b0: 2c9c 1c3a 8ff5 f338 7832 2e3a 8747 103a
000000c0: 2c22 b53a b5e0 723a 0400 0080 2f8a 9e9e
000000d0: 80f7 c13a 173f 023a 7c99 dd3a f658 b93a
000000e0: ca39 4f39 2ea2 023a 9640 5f3a 9dee ad3a
000000f0: 18e5 da3a 37d9 1f3a 61aa 483a f848 3f3a
00000100: 916b 3e39 8a60 cb38 ce79 d43a a714 adb9
00000110: 8b59 0c3b 7eb0 d93a e4f0 863a 288a fc3a
00000120: 0000 0000 0000 0000 0000 0000 0000 0000
00000130: 0000 0000 0000 0000 0000 0000 0000 0000
00000140: 0000 0000 0000 0000 0000 0000 0000 0000
00000150: 0000 0000 0000 0000 0000 0000 0000 0000
00000160: 0000 0000 0000 0000 0000 0000 0000 0000
00000170: 0000 0000 0000 0000 0000 0000 0000 0000
00000180: 0000 0000 0000 0000 0000 0000 0000 0000
00000190: 0000 0000 0000 0000 0000 0000 0000 0000
000001a0: 0000 0000 0000 0000 0000 0000 0000 0000
000001b0: 0000 0000 0000 0000 0000 0000 0000 0000
000001c0: 0000 0000 0000 0000 0000 0000 0000 0000
000001d0: 0000 0000 0000 0000 0000 0000 0000 0000
000001e0: 9210 5f3a 9dbf 513a 0400 0080 e893 809e
000001f0: f075 803a 393e 6839 a65d a13a 2785 653a
00000200: 40eb 1739 b79f 7339 7a13 b039 4d32 7e3a
00000210: 7c67 983a e12f 4839 631e bb39 0155 253a
00000220: 03df 2b39 ae60 d138 0696 8f3a 19c3 c3b9
00000230: 339a cf3a d738 913a cbe8 693a 895c bb3a
00000240: 0000 0000 0000 0000 0000 0000 0000 0000
00000250: 0000 0000 0000 0000 0000 0000 0000 0000
00000260: 0000 0000 0000 0000 0000 0000 0000 0000
00000270: 0000 0000 0000 0000 0000 0000 0000 0000
00000280: 0000 0000 0000 0000 0000 0000 0000 0000
00000290: 0000 0000 0000 0000 0000 0000 0000 0000
000002a0: 0000 0000 0000 0000 0000 0000 0000 0000
000002b0: 0000 0000 0000 0000 0000 0000 0000 0000
000002c0: 0000 0000 0000 0000 0000 0000 0000 0000
000002d0: 0000 0000 0000 0000 0000 0000 0000 0000
000002e0: 0000 0000 0000 0000 0000 0000 0000 0000
000002f0: 0000 0000 0000 0000 0000 0000 0000 0000
00000300: 0400 0000 0400 0000 0000 0000 0400 0080
00000310: 0400 0000 0400 0000 0400 0000 0400 0000
00000320: 0400 0080 0400 0000 0400 0000 0400 0000
00000330: 0400 0000 0400 0000 0400 0000 0400 0000
00000340: 0000 0000 0400 0080 0400 0000 0000 0000
00000350: 0400 0000 0400 0000 0400 0000 0400 0000
00000360: 3ca6 073b 20cb 813a 0400 0080 efde b79e
00000370: 2b74 093b d362 693a ff67 103b 3840 0a3b
00000380: f62a 8639 e47d 653a 54f3 d13a 8aec e13a
00000390: 6bb1 143b 378a a13a b73c b03a 7f34 4c3a
000003a0: 31b2 3e39 6716 9f38 4318 143b d9f8 51b9
000003b0: 3a25 343b 6e59 193b e37f 8f3a 5290 213b
000003c0: 1662 ef3a 27e1 26b7 0400 0000 3c8d 719e
000003d0: 9818 d93a fc76 8d3a 6e18 b83a 67ab e73a
000003e0: 1acf 7039 81f8 953a 308e 053b e8d1 913a
000003f0: 83cc d93a 8d3e cf3a b4f7 d43a a6db aab6

exp_avg_sq f4 [24, 24]
2.0433925e-22 4.980055e-22 1.8011472e-27 0.0 3.6897675e-22 4.306687e-28 3.5081422e-22 5.5018123e-22
0.0 2.2055341e-23 7.0675065e-23 2.1840908e-22 2.9217502e-22 3.0507003e-22 4.114628e-27 4.9190387e-22
2.3284681e-26 3.3356916e-24 1.7193788e-22 1.5430307e-26 5.2707137e-22 7.7844355e-22 1.0977538e-21 6.7136365e-22
0.00032508478 4.192879e-08 2.3425124e-09 3.5421058e-07 0.00030117322 0.00011008744 0.00025368124 0.00026932528
1.2975085e-05 0.00021090318 0.00041418974 0.00018219413 0.00034541686 0.0001962609 0.000280376 2.6286905e-08
7.278976e-08 1.3672219e-07 0.00036862257 6.1475694e-05 0.00027884712 0.00028326013 7.937684e-08 0.00020272438
0.00039735265 9.3348866e-08 2.5084541e-09 4.961081e-07 0.0003684808 0.00013665749 0.00031408793 0.00032508865
1.7838935e-05 0.00025986522 0.0005044263 0.00022510208 0.0004294337 0.00023513086 0.0003484036 5.91563e-08
6.084149e-08 1.1034664e-07 0.00046204086 7.64087e-05 0.00034954422 0.00034606428 1.3475093e-07 0.00025217028
0.0 0.0 0.0 0.0 0.0 0.0 0.0 0.0
0.0 0.0 0.0 0.0 0.0 0.0 0.0 0.0
0.0 0.0 0.0 0.0 0.0 0.0 0.0 0.0
0.0 0.0 0.0 0.0 0.0 0.0 0.0 0.0
0.0 0.0 0.0 0.0 0.0 0.0 0.0 0.0
0.0 0.0 0.0 0.0 0.0 0.0 0.0 0.0
0.00035962855 7.109847e-08 2.367813e-09 4.2768997e-07 0.0003334356 0.00012304378 0.00028311487 0.0002954677
1.5527987e-05 0.00023464052 0.0004571365 0.00020306997 0.00038655323 0.00021427346 0.00031361802 4.4943466e-08
6.336891e-08 1.1676567e-07 0.0004147501 6.873673e-05 0.00031373676 0.00031328373 1.0962027e-07 0.00022691966
0.0 0.0 0.0 0.0 0.0 0.0 0.0 0.0
0.0 0.0 0.0 0.0 0.0 0.0 0.0 0.0
0.0 0.0 0.0 0.0 0.0 0.0 0.0 0.0
0.0 0.0 0.0 0.0 0.0 0.0 0.0 0.0
0.0 0.0 0.0 0.0 0.0 0.0 0.0 0.0
0.0 0.0 0.0 0.0 0.0 0.0 0.0 0.0
1.797059e-22 3.1440552e-25 0.0 1.1234936e-25 2.1165223e-22 3.013493e-23 1.9875199e-22 1.7577943e-22
2.1330803e-27 9.362312e-23 1.8271928e-22 1.641457e-22 2.5007572e-22 9.0472804e-23 9.639996e-23 2.385727e-24
0.0 3.6799308e-30 2.4363632e-22 0.0 2.446901e-22 2.4022425e-22 2.026627e-23 2.0135695e-22
0.0003428915 1.04153e-07 2.0133788e-09 4.686904e-07 0.00031797815 0.00011899345 0.0002728128 0.0002784832
1.6455198e-05 0.00022499345 0.00043420153 0.00019519428 0.00037389222 0.00020042589 0.00030343843 6.621632e-08
3.9157698e-08 6.7914186e-08 0.00040426664 6.670622e-05 0.00030594363 0.00029846016 1.3864505e-07 0.00021973978
6.0689108e-05 8.326942e-10 4.5924298e-10 1.080008e-07 5.560344e-05 2.0922482e-05 4.6833175e-05 4.9732706e-05
2.949822e-06 3.8799033e-05 7.678393e-05 3.328983e-05 6.418666e-05 3.5764686e-05 5.2981977e-05 1.1271608e-09
00000000: ef07 771b 4f83 161c 9bb3 0e13 0000 0000
00000010: 6308 df1b ff7b 0812 df0d d41b 3648 261c
00000020: 0000 0000 614e d519 bfe1 aa1a 2b05 841b
00000030: e59b b01b 4d67 b81b 49ff a213 38ab 141c
00000040: ae99 e614 170b 8118 32dc 4f1b 7ad0 9814
00000050: 2c4c 1f1c 2745 6b1c 4be3 a51c 3fe8 4a1c
00000060: 2470 aa39 3115 3433 eaf9 2031 552a be34
00000070: c9e6 9d39 bfde e638 8500 8539 3a34 8d39
00000080: 91af 5937 e425 5d39 9b27 d939 5d0b 3f39
00000090: 1119 b539 62cb 4d39 6eff 9239 84cd e132
000000a0: 9850 9c33 e9cd 1234 af43 c139 83ec 8038
000000b0: 3a32 9239 8882 9439 e175 aa33 6992 5439
000000c0: c553 d039 1577 c833 3161 2c31 4a2c 0535
000000d0: a830 c139 b74b 0f39 2bac a439 a970 aa39
000000e0: d2a4 9537 853e 8839 7a3b 043a 6109 6c39
000000f0: 9e25 e139 768d 7639 f1a9 b639 0a13 7e33
00000100: f6a7 8233 b5f7 ec33 133e f239 9c3d a038
00000110: 0843 b739 f66f b539 0eb0 1034 b935 8439
00000120: 0000 0000 0000 0000 0000 0000 0000 0000
00000130: 0000 0000 0000 0000 0000 0000 0000 0000
00000140: 0000 0000 0000 0000 0000 0000 0000 0000
00000150: 0000 0000 0000 0000 0000 0000 0000 0000
00000160: 0000 0000 0000 0000 0000 0000 0000 0000
00000170: 0000 0000 0000 0000 0000 0000 0000 0000
00000180: 0000 0000 0000 0000 0000 0000 0000 0000
00000190: 0000 0000 0000 0000 0000 0000 0000 0000
000001a0: 0000 0000 0000 0000 0000 0000 0000 0000
000001b0: 0000 0000 0000 0000 0000 0000 0000 0000
000001c0: 0000 0000 0000 0000 0000 0000 0000 0000
000001d0: 0000 0000 0000 0000 0000 0000 0000 0000
000001e0: 878c bc39 ccae 9833 02b7 2231 439d e534
000001f0: f8d0 ae39 5005 0139 096f 9439 01e9 9a39
00000200: 1942 8237 d609 7639 d3ab ef39 2eef 5439
00000210: 4caa ca39 98ae 6039 196d a439 dd07 4133
00000220: 6d15 8833 9bc0 fa33 d172 d939 c026 9038
00000230: 097d a439 3b40 a439 6168 eb33 48f1 6d39
00000240: 0000 0000 0000 0000 0000 0000 0000 0000
00000250: 0000 0000 0000 0000 0000 0000 0000 0000
00000260: 0000 0000 0000 0000 0000 0000 0000 0000
00000270: 0000 0000 0000 0000 0000 0000 0000 0000
00000280: 0000 0000 0000 0000 0000 0000 0000 0000
00000290: 0000 0000 0000 0000 0000 0000 0000 0000
000002a0: 0000 0000 0000 0000 0000 0000 0000 0000
000002b0: 0000 0000 0000 0000 0000 0000 0000 0000
000002c0: 0000 0000 0000 0000 0000 0000 0000 0000
000002d0: 0000 0000 0000 0000 0000 0000 0000 0000
000002e0: 0000 0000 0000 0000 0000 0000 0000 0000
000002f0: 0000 0000 0000 0000 0000 0000 0000 0000
00000300: 4840 591b 8b9b c216 0000 0000 ef14 0b16
00000310: 31df 7f1b 3db9 111a c346 701b 1981 541b
00000320: 0200 2913 e85d e21a e1e4 5c1b a270 461b
00000330: 5829 971b f4bf da1a af14 e91a 3196 3818
00000340: 0000 0000 9646 950e e544 931b 0000 0000
00000350: f6e7 931b e734 911b db00 c419 f56c 731b
00000360: 1ec6 b339 b8aa df33 bc5b 0a31 51a0 fb34
00000370: 4eb6 a639 1f8c f938 5008 8f39 6201 9239
00000380: 4509 8a37 38ec 6b39 8ba5 e339 11ad 4c39
00000390: f706 c439 6a29 5239 d116 9f39 cf32 8e33
000003a0: 582e 2833 38d8 9133 c0f3 d339 a1e4 8b38
000003b0: 0f67 a039 a57a 9c39 76de 1434 f369 6639
000003c0: 6f8c 7e38 a5e3 6430 b478 fc2f 11ee e733
000003d0: bd37 6938 b082 af37 bd6e 4438 1698 5038
000003e0: 8ef5 4536 25bc 2238 0f07 a138 afa0 0b38
000003f0: f39b 8638 0a02 1638 f738 5e38 72ea 9a30

exp_avg f4 [24]
6e-45 6.749706e-05 0.001319776 0.0 0.0 0.0008717844 0.0 0.0
6e-45 0.0018744407 0.0014823141 0.0017390659 0.0014468669 -0.001752544 0.0011529743 -0.002360826
0.0 6e-45 0.0024203935 0.0 0.0013112178 0.0014206878 0.0 0.0011285143
00000000: 0400 0000 358d 8d38 56fc ac3a 0000 0000
00000010: 0000 0000 7688 643a 0000 0000 0000 0000
00000020: 0400 0000 cbaf f53a 354a c23a 5ef1 e33a
00000030: cca4 bd3a 9eb5 e5ba 661f 973a 16b8 1abb
00000040: 0000 0000 0400 0000 779f 1e3b 0000 0000
00000050: 2bdd ab3a 5f36 ba3a 0000 0000 a8ea 933a

exp_avg_sq f4 [24]
1.6228893e-22 0.00023060625 0.00028391826 0.0 0.0 0.00025636793 0.0 0.0
1.9707671e-22 0.00024593232 4.292068e-05 0.00029131514 0.00026760504 0.00030785234 0.0002888619 0.00017275609
0.0 1.6544131e-23 0.0003087057 0.0 0.0003833061 0.000278339 0.0 0.0003019212
00000000: fe31 441b e5ce 7139 ddda 9439 0000 0000
00000010: 0000 0000 1f69 8639 0000 0000 0000 0000
00000020: 4a40 6e1b 7af0 8039 bb05 3438 a8bb 9839
00000030: 574d 8c39 3e67 a139 6372 9739 dc25 3539
00000040: 0000 0000 4901 a019 c7d9 a139 0000 0000
00000050: 79f6 c839 07ee 9139 0000 0000 2d4b 9e39

exp_avg f4 [2, 24]
6e-45 0.034618936 0.038694438 0.0 0.0 0.037078053 0.0 0.0
-6e-45 0.04022557 0.0012312706 0.040119607 0.038219474 0.0065667992 0.036468852 0.010337471
0.0 -6e-45 0.040733337 0.0 0.036407292 0.036087736 0.0 0.03929008
6e-45 -0.022169344 -0.024059217 0.0 0.0 -0.022722062 0.0 0.0
-6e-45 -0.024453916 -0.0021853093 -0.024644306 -0.023430493 -0.002659868 -0.022828883 -0.0073220427
0.0 -6e-45 -0.024704559 0.0 -0.022865012 -0.022482637 0.0 -0.024071116
00000000: 0400 0000 96cc 0d3d 0f7e 1e3d 0000 0000
00000010: 0000 0000 28df 173d 0000 0000 0000 0000
00000020: 0400 0080 91c3 243d 9662 a13a 7554 243d
00000030: 068c 1c3d 4e2e d73b 5d60 153d 7f5e 293c
00000040: 0000 0000 0400 0080 00d8 263d 0000 0000
00000050: d01f 153d bcd0 133d 0000 0000 a3ee 203d
00000060: 0400 0000 7c9c b5bc d617 c5bc 0000 0000
00000070: 0000 0000 9e23 babc 0000 0000 0000 0000
00000080: 0400 0080 9453 c8bc 6837 0fbb dbe2 c9bc
00000090: 4ef1 bfbc 2e51 2ebb a303 bbbc bfed efbb
000000a0: 0000 0000 0400 0080 3761 cabc 0000 0000
000000b0: 684f bbbc 822d b8bc 0000 0000 ca30 c5bc

exp_avg_sq f4 [2, 24]
1.0690105e-28 0.019493805 0.024187353 0.0 0.0 0.022047637 0.0 0.0
5.056128e-23 0.025599664 8.3492974e-05 0.025960123 0.02340198 0.00018477104 0.021631345 0.00250016
0.0 6.132263e-23 0.026598595 0.0 0.02210741 0.02078053 0.0 0.024554417
1.8548778e-26 0.018842032 0.023062045 0.0 0.0 0.021018228 0.0 0.0
1.5877138e-26 0.024165127 0.00010735577 0.02465956 0.022190528 0.0003301203 0.020651456 0.0025338572
0.0 5.8872287e-24 0.025032422 0.0 0.021023728 0.019844508 0.0 0.023363734
00000000: 6083 0711 79b1 9f3c 8e24 c63c 0000 0000
00000010: 0000 0000 3f9d b43c 0000 0000 0000 0000
00000020: d57f 741a 63b6 d13c f318 af38 53aa d43c
00000030: 82b5 bf3c 19bf 4139 3834 b13c b9d9 233b
00000040: 0000 0000 df44 941a 4ce5 d93c 0000 0000
00000050: 991a b53c ee3b aa3c 0000 0000 5826 c93c
00000060: bdb2 b714 9b5a 9a3c 9dec bc3c 0000 0000
00000070: 0000 0000 6b2e ac3c 0000 0000 0000 0000
00000080: 543d 9d14 f2f5 c53c 3124 e138 d802 ca3c
00000090: e9c8 b53c ff13 ad39 3e2d a93c 120f 263b
000000a0: 0000 0000 4ac0 e318 cb10 cd3c 0000 0000
000000b0: f439 ac3c f390 a23c 0000 0000 4d65 bf3c

exp_avg f4 [2]
0.0037101232 -0.0020883926
00000000: 8a25 733b 6add 08bb

exp_avg_sq f4 [2]
0.0001882045 0.00017753053
00000000: c358 4539 7d27 3a39
