cartpole_dqn_solved.pth (torch, 21460 bytes, 24 tensors)

fc1.weight f4 [24, 4]
00000000: 331f 93be 45e2 20bf d5a1 b4bf 588c d63d
00000010: 66f1 e03e 75c8 04bf 47c8 6e3e 884f d6be
00000020: 88eb 0dbf a5ce 2a3d c9ee 3cbf b1db 273d
00000030: 163d fb3e f143 633e 68ba 55be 8387 c13d
00000040: 473b 853e 2e01 90be 3ad7 b43e 2506 66be
00000050: 945f a13e 9e5d 0b3f b94e 7240 0f53 8a3f
00000060: db96 52bf dbb4 6bbf d240 43c0 51a3 a5bf
00000070: d5fe 0ebc 691a de3e c2e0 513e 7f88 aa3e
00000080: 9d8a fa3e d536 b5be 780f 2b3f 1016 b8bd
00000090: cdcd c3be 4ae1 c63e 1694 b23f b1f8 373f
000000a0: c493 ea3e 816d 0fbe 3f41 04be 5f71 3d3e
000000b0: 0ddc e0be a6c1 6b3f 515d c73f 07bf 2e3f
000000c0: 4a06 d6bf e368 adbf 9e08 9fbf f0e7 11bf
000000d0: f53f da3e 270d 383e c3cb 5340 f4d8 913f
000000e0: d198 e1be e88d 0fbf 6385 05be a670 553e
000000f0: ea4c 88be 6bde 84be 7a48 d53e 3207 75be
00000100: 1fe4 1b3e 5d39 14bf d513 83be 4fc8 52be
00000110: c0eb 96bf 49ba e6bf a4e2 0cbf 05d0 debe
00000120: 03b0 213e 839b 5b3f 9e81 2940 0f82 3c3f
00000130: 8513 b23f c3e6 e13e 74ee 08bf 2d88 ea3d
00000140: 262c e8bd 9367 a23e de3d 073f 55e0 cf3e
00000150: c790 8dbe 272e 833e f668 883e 7404 e63d
00000160: 4d95 303f 226f 233c 72b1 053d ac78 763e
00000170: 76dc 293e ab20 c2be 74c6 113e 4ff1 4dbe
-0.2873474 -0.6284526 -1.4111887 0.10475987 0.43934172 -0.51868373 0.23318587 -0.41857553
-0.5543752 0.041700978 -0.7380186 0.040981 0.49070042 0.22193886 -0.2087189 0.09449675
0.26021788 -0.281259 0.35320455 -0.22463281 0.31518233 0.54439723 3.7860548 1.0806597
-0.8226144 -0.9207284 -3.0508313 -1.2940465 -0.008727749 0.43379524 0.20495895 0.33307263
0.4893388 -0.35393396 0.6682048 -0.08988583 -0.3824295 0.38843757 1.3951442 0.7186385
0.4581586 -0.14006616 -0.12915514 0.18500279 -0.43917885 0.9209236 1.5575353 0.68260235
-1.6720669 -1.3547634 -1.2424505 -0.56994534 0.4262692 0.17973767 3.3093116 1.1394334
-0.44061902 -0.56075907 -0.13039164 0.20843753 -0.2662118 -0.2595094 0.41656858 -0.23928526
0.1522374 -0.5790003 -0.25601068 -0.20584224 -1.1790695 -1.80256 -0.55033326 -0.4351808
0.157898 0.8578417 2.6485362 0.73635954 1.3912207 0.4412137 -0.5348885 0.11451755
-0.11336546 0.31719646 0.52828777 0.4060084 -0.2764952 0.2562115 0.2664258 0.11231318
0.68977815 0.009975227 0.03263993 0.2406947 0.16588005 -0.3791555 0.1423586 -0.20111583

fc1.bias f4 [24]
00000000: db14 3b3f 3af7 26bf 09c4 963f 3943 62bf
00000010: d956 933f fd18 24bd e523 243d 7fad 6e3f
00000020: eeb3 1dbf 4d56 893f b9d5 a33f 2f28 793f
00000030: 2272 30be 9b0c 1d3e bfb8 d2be b23a 11bf
00000040: 42ea 703f cfd3 e23d fea9 c2be e3b1 13bf
00000050: 4679 8f3f d99a b1be 9597 9f3f 294f 623f
0.730787 -0.6522099 1.1778575 -0.88383824 1.1510879 -0.040062893 0.040073294 0.93233484
-0.61602676 1.0729462 1.2799598 0.9732694 -0.17231038 0.1533684 -0.41156575 -0.56730187
0.9410745 0.110755555 -0.3802032 -0.5769331 1.1208885 -0.34688452 1.2468134 0.8840204

fc2.weight f4 [24, 24]
00000000: 5f49 33be ea38 ba3d 441d ed3d e938 b3bd
00000010: 4c08 5b3d 985d 4a3c 3017 32be f29a 06bd
00000020: a64a 05be 3607 153c 1ea4 933d 9dda 3abd
00000030: f561 1a3e 6547 ce3d 7255 793d e36e 48be
00000040: d9dc 5d3d 7394 e2bc b0d0 c4bc 4deb f7bd
00000050: 47ae 96bd 0909 ec3b 5200 2fbe 5414 3abe
00000060: c48b 153d 9772 c03a 7273 5fbd f9ff b23d
00000070: 00f8 fa3d 0495 03be f783 c9bd b682 ddbd
00000080: a60e f6bd 4820 05be 5105 8abd 311d 0f3e
00000090: 59fb 063e bc6d 82bd ef3f 0c3d 2404 86bd
000000a0: d953 47be 373e cf3d c5ef 97bd 0276 c0bd
000000b0: 6f00 8ebd 4d23 e4bd 836e b5bd ab04 12bd
000000c0: 97ca 4e3f fbfe f2be 1bfd 49bc 199b acbf
000000d0: aab0 543e 0cfe 6cbf 8606 88be bb3b 053e
000000e0: e970 12bf b37f aa3e 8caf ce3e deb6 e23e
000000f0: eba8 5fbd bac8 8abf a5cf 3cbd 0882 36bc
00000100: a95d ad3e a4cd 0abf ef9e c53e 7d8b 06be
00000110: 601c 993e 366f 44bc 7a8a c83e 38f7 003e
00000120: a326 3c3e 5694 bfbf 02e9 723f 823b 97bf
00000130: 3389 003f c94a 1bbf d219 ebbf ad70 1c3f
00000140: 3e4a a6bf dfd7 893f 3892 383f cc01 3d3f
00000150: 65f6 aebf d6d0 07be 91cc 36bb 3d06 933d
00000160: 0b91 2d3f e7f7 023e 763f b3bf 93dc e3be
00000170: d888 333f 91af 4abe 2879 0e3f 3cc7 183f
00000180: 4726 6cbf aa2a a13f 5e6b 95c0 661d d83f
00000190: cb30 1fbe b1a9 a53f 9ab3 eb3e d322 d73c
000001a0: 13cc 893f 8a96 a3bf 3bb5 53be 28ba c2bf
000001b0: 758d 733f 74f5 8f3f 1211 453d a1ac 003e
000001c0: acfc f4be 3783 783e a555 0240 c4bb a43f
000001d0: a1db 58be 6284 373d 6709 33bd 0bf9 40be
000001e0: f741 9c3e 69a1 a4bf 8e12 443f fc47 98bf
000001f0: 4788 523f ce1f 8dbf e4a2 acbf 6b11 3d3f
00000200: 2072 9fbf 9825 3f3f f9f4 363f 053c 953f
00000210: e88f f3bf 7cef 15bf 53de bebd cb78 aa3d
00000220: 906b 3f3f e825 42bf eace acbf ccb2 cdbe
00000230: 8eac 693f 1768 213d 14e0 503f 92e0 4e3f
00000240: 96bd acbd 2ba7 9e3d 4bb9 47be ba5e 973d
00000250: 9abd 31be 9e70 67bd b924 07be 0415 37be
00000260: d02a e53c 66ae 36be 1177 1cbe 6f99 81bd
00000270: c9c8 0ebe 9659 d23c 0e6a 8e3d 4290 70bd
00000280: e9eb eb3d 84cf c0bc 8ea8 17be 004b ce3d
00000290: 8fc0 34be 39a3 143e 4cf5 1f3e 6c98 00be
000002a0: ef76 dd3e 749b a4bf e2d1 403f 0510 88bf
000002b0: 6302 293f 74e8 2bbf a425 bfbf 3a7d 2d3f
000002c0: e9cf a5bf 9214 5b3f f41d 0e3f 8271 8b3f
000002d0: 108a c5bf 4e6e 15bf b9ff ad3e ab09 d13b
000002e0: 9a79 5a3f 18e8 4f3e 00f2 a1bf eefc adbe
000002f0: ab93 6e3f f3a5 843d 91c3 493f 0d0a 383f
00000300: 1fce 8c3f 17d9 893e b30b 4e3f 2dc2 5b3d
00000310: a5b7 ee3e 4318 c7bf c2f1 db3f 5914 1b3f
00000320: 4d8c 8dbe a88c 1d3e b65f e63e f916 c1be
00000330: 4c94 e4bf 12e3 99bf be1c 363b 4d1a 613e
00000340: ecf4 9a3e 3f2b 20bf f1b8 8fbf 78e7 2ebe
00000350: db21 ad3e e359 20bd 0377 943e 202e 0c3f
00000360: 4836 c63c 8a49 a3bf 0a8d 143f 4a4d 85bf
00000370: 845d 463f 8563 5abf a375 dfbf 48dc 263f
00000380: adf5 8bbf 6493 3f3f 3050 0a3f c7ef 873f
00000390: e3eb e2bf c187 39bf 7d1f 88be 485f a53d
000003a0: 185c 083f 9e36 5abf 5fde a1bf e67d 1ebf
000003b0: e8c0 4e3f 6084 873d 20c6 0d3f 55ad 083f
000003c0: b8cf ca3e c662 bdbf 5ea3 633f ca88 97bf
000003d0: 4e42 173f 3f01 6fbf 5695 e7bf 623f 4e3f
000003e0: 93fe b6bf 3b6c 853f b31d 203f c381 373f
000003f0: 3559 a8bf 9fc6 ccbe 5e0a 973e b656 5cbe
-0.17508458 0.09092887 0.115778476 -0.08751089 0.05347471 0.012351416 -0.17391658 -0.03286261
-0.13016757 0.0090959575 0.07209037 -0.045618642 0.1507643 0.10072211 0.060872503 -0.1957355
0.054165695 -0.027658677 -0.024025291 -0.12105427 -0.073574595 0.0072032255 -0.17089966 -0.18171817
0.036510244 0.0014682588 -0.054553457 0.08740229 0.122543335 -0.12849814 -0.098396234 -0.10815947
-0.12014513 -0.13000596 -0.06739295 0.1397598 0.13181819 -0.063685864 0.03424066 -0.065437585
-0.19465579 0.101192884 -0.07418779 -0.09397508 -0.069336765 -0.111395456 -0.08858969 -0.035648983
0.8077788 -0.4746016 -0.012328411 -1.3484832 0.20770517 -0.92575145 -0.26567477 0.13011067
-0.5720354 0.33300552 0.40368307 0.44280142 -0.054604452 -1.0842507 -0.046096463 -0.0111394
0.3386052 -0.5422003 0.3859782 -0.13139148 0.2990446 -0.011989405 0.3916815 0.12594306
0.18374114 -1.4967144 0.9488679 -1.1815035 0.5020935 -0.6066099 -1.8367255 0.6110943
-1.2991407 1.0769004 0.7209811 0.73830867 -1.3668944 -0.13263258 -0.0027892927 0.07178924
0.67799443 0.1278988 -1.4003742 -0.44504222 0.7013068 -0.19793536 0.5565362 0.5967901
-0.92245907 1.2591145 -4.6693563 1.6883972 -0.15545957 1.2942411 0.46035463 0.026261723
1.0765404 -1.2780316 -0.20674603 -1.521306 0.9513772 1.1246781 0.048111983 0.12565853
-0.47849023 0.24268804 2.0364773 1.2869802 -0.21177532 0.044803984 -0.04371014 -0.18845002
0.30519077 -1.2861758 0.7659081 -1.1896968 0.8223919 -1.1025331 -1.348721 0.738547
-1.2456703 0.7466674 0.7146755 1.1658942 -1.9028292 -0.5856855 -0.09319749 0.08323821
0.747735 -0.7583909 -1.3500645 -0.40175474 0.9127892 0.03940591 0.81591916 0.8081142
-0.08434598 0.077467285 -0.19504277 0.073911145 -0.17357484 -0.056503884 -0.13197602 -0.1787911
0.027974516 -0.17839965 -0.15279795 -0.06328093 -0.13943781 0.025677484 0.06953822 -0.058731325
0.11519606 -0.023536451 -0.14810392 0.10072899 -0.1765158 0.1451539 0.15620917 -0.12558144
0.43254802 -1.285994 0.75320256 -1.0629889 0.66019267 -0.6715157 -1.4933362 0.67769206
-1.2954074 0.8557826 0.55514455 1.0894015 -1.5432758 -0.58371437 0.33984163 0.0063793263
0.853418 0.2030338 -1.2651978 -0.33982033 0.93194073 0.06476965 0.78814036 0.71890336
1.1000403 0.2692344 0.804866 0.053651977 0.46624485 -1.5554279 1.7183154 0.60577923
-0.27646104 0.15385687 0.44994897 -0.3771284 -1.7857757 -1.2022421 0.0027788128 0.21982689
0.30264986 -0.6256599 -1.1228315 -0.17080486 0.33814892 -0.039148223 0.2899705 0.5475788
0.024195805 -1.2756817 0.5802771 -1.0414212 0.77486444 -0.85308105 -1.7457775 0.6517987
-1.0934349 0.74834275 0.54028606 1.0620049 -1.7728237 -0.7247277 -0.26586524 0.08074814
0.53265524 -0.8523959 -1.2645987 -0.61910856 0.807631 0.066170454 0.5538044 0.53389484
0.39611602 -1.4795768 0.88921154 -1.183862 0.5908555 -0.93361276 -1.8092449 0.80565464
-1.429644 1.0423654 0.6254532 0.71682376 -1.3152224 -0.39995286 0.29500097 -0.21517453

fc2.bias f4 [24]
00000000: 96dd 3abe eedd dcbc fc71 003e 41e1 363f
00000010: 11a6 75be 3925 323f 2495 1cbe 7ce5 1e3f
00000020: be68 3f3e c1b3 4b3f 998d 383f 11db 433f
00000030: 13c6 4cbe b714 6e3e bcd8 febd 0cba 573f
00000040: 5b14 f73b 33c4 633f 99ed fa3d d869 5a3f
00000050: b1c1 0f3e d129 203f 5428 2b3d f5ef c6bb
-0.18248591 -0.026961293 0.12543482 0.7143746 -0.2398913 0.6958805 -0.15291268 0.62068915
0.186923 0.7957116 0.7209106 0.76506144 -0.19997434 0.2325009 -0.124436826 0.8426826
0.0075402684 0.8897125 0.122523494 0.85317755 0.14038731 0.62563807 0.041786507 -0.0060710856

fc3.weight f4 [2, 24]
00000000: 9227 2a3e 097e dbbd 2815 973f 5e73 2b3f
00000010: b2a3 17c0 8991 b03f 6390 303e 4027 5c3f
00000020: e5c9 e23e 9f4b aa3f e250 923f 6ed3 a13f
00000030: 76c7 3d3d af19 0bc0 58a8 863b c69b 903f
00000040: 8b1a 32c0 ffd2 823f f302 47c0 7f86 9a3f
00000050: acba efbb 702d 8d3f bf25 3d3c 3738 f93d
00000060: da55 7ebd 921a bcbd 49cb 563e bfc0 8a3f
00000070: de6a 0bc0 c139 923f d333 21be f91a 833f
00000080: 5a3b 51bf 04a6 9f3f 2095 b53f 1a8f b53f
00000090: ff75 4fbe 6595 27c0 7a83 06be 50f9 973f
000000a0: 9213 4cc0 63b9 8d3f dd86 33c0 4516 973f
000000b0: b4cd 03be 9c97 853f 29a0 e6bc 24bf 333e
0.16616657 -0.10717399 1.1803331 0.6697291 -2.3693662 1.3794414 0.17242579 0.8599739
0.44294658 1.3304328 1.1430933 1.2642648 0.0463328 -2.1734426 0.0041094236 1.1297538
-2.78287 1.0220641 -3.109555 1.2072295 -0.007315954 1.1029491 0.011544644 0.12168925
-0.062093593 -0.091847554 0.20975985 1.0840071 -2.1783977 1.1423875 -0.15742426 1.0242606
-0.8173119 1.2472539 1.4186134 1.4184296 -0.20259856 -2.6184933 -0.13136092 1.1872959
-3.1886945 1.10722 -2.8051064 1.1803671 -0.12871438 1.0436893 -0.028152542 0.17553383

fc3.bias f4 [2]
00000000: 7c4d 033f bcb3 d73e
0.51290107 0.42129314

fc1.weight f4 [24, 4]
00000000: 7c5d 92be 9b6e 1fbf d8ce b4bf 2bb3 d83d
00000010: 1c29 e13e fb99 04bf 4773 7d3e 9f6c d5be
00000020: 9d98 0dbf e54e 3d3d 105c 3dbf 3edf 283d
00000030: 5672 fb3e f99d 633e c771 46be 0bfa c83d
00000040: 1103 853e e068 8dbe a6af b33e 1c08 68be
00000050: a23c a13e b521 0c3f cc31 7140 6950 893f
00000060: 0232 55bf 1aa2 6ebf 97c9 42c0 5a5f a4bf
00000070: 3434 1abc 5685 e03e be42 503e 02a1 a93e
00000080: 965f fa3e 291c b4be 9077 2e3f cb62 bbbd
00000090: 9b47 c4be 7ae4 c83e ff55 b23f 8570 373f
000000a0: 285d ea3e 9333 0abe 1608 06be af84 3b3e
000000b0: 6a8f e1be 78b5 6b3f 9cfe c63f 097b 2e3f
000000c0: 3dd5 d5bf 72c1 acbf 36d7 a0bf 6e5c 15bf
000000d0: 8079 da3e 10c5 3c3e 4ebc 5240 1d4c 903f
000000e0: d679 e3be 7371 0ebf 01ed bdbd ea8d 533e
000000f0: 324d 88be aede 84be 4048 d53e 9907 75be
00000100: 332a 1b3e 64f5 12bf 4873 84be f11e 55be
00000110: f816 97bf 4e33 e6bf 7b23 13bf 2e70 e8be
00000120: d134 203e 45df 593f 5466 2940 7224 3c3f
00000130: 3422 b23f f093 de3e 7f43 07bf 5cac f53d
00000140: a696 e9bd 19d4 a43e ced9 063f 07ec ce3e
00000150: 7790 8dbe 422e 833e 5269 883e 3d04 e63d
00000160: 6f7e 303f 6386 753c 6a0e fc3c f8a5 743e
00000170: cb41 293e f291 bfbe 6e2f 0f3e 1a17 50be
-0.28586948 -0.62278146 -1.4125624 0.105810486 0.43976676 -0.51797456 0.24751006 -0.41684434
-0.55310994 0.046217818 -0.739686 0.041228525 0.4911067 0.2222823 -0.1937934 0.09813317
0.25978902 -0.27619076 0.35094947 -0.22659343 0.31491572 0.5473893 3.7686644 1.0727664
-0.8327943 -0.932161 -3.043554 -1.2841599 -0.00941186 0.43851727 0.2033796 0.33130652
0.4890105 -0.35177734 0.6815119 -0.09149703 -0.3833588 0.39236814 1.3932494 0.71656066
0.45774198 -0.13496237 -0.13089022 0.18312334 -0.4405473 0.92073774 1.5546451 0.68156487
-1.67057 -1.3496535 -1.2565677 -0.5834416 0.42670822 0.18434548 3.2927432 1.1273228
-0.4442889 -0.5564186 -0.092737205 0.20659605 -0.26621395 -0.2595114 0.41656685 -0.2392868
0.15152816 -0.57405686 -0.25869203 -0.20812584 -1.1803885 -1.7984407 -0.57476014 -0.45398086
0.15645148 0.8510631 2.6468706 0.7349311 1.3916688 0.43472242 -0.52837366 0.119957656
-0.11405687 0.32193068 0.52676094 0.4041445 -0.2764928 0.2562123 0.26642853 0.11231277
0.6894292 0.014985654 0.030768592 0.23891437 0.16529004 -0.37416035 0.13982937 -0.20321313

fc1.bias f4 [24]
00000000: 2590 3a3f d9bc 26bf 65c2 963f e90e 62bf
00000010: 7f19 933f e614 2ebd 17c4 e73c 6a34 6e3f
00000020: e7ca 1dbf ef19 893f 2899 a33f 66f3 783f
00000030: 0460 2ebe b1ef 193e f494 d6be 5c3a 11bf
00000040: 2b64 703f abd2 e13d e582 c5be 9adf 13bf
00000050: cd3c 8f3f a69a b1be 415e 9f3f 5ccd 613f
0.728762 -0.6513191 1.1778075 -0.88304 1.1492156 -0.0425004 0.028291745 0.9304873
-0.6163773 1.0711039 1.2781115 0.97246397 -0.17028815 0.15032841 -0.41910517 -0.56729674
0.93902844 0.1102651 -0.38576427 -0.57763064 1.119043 -0.346883 1.2450639 0.8820398

fc2.weight f4 [24, 24]
00000000: 1e49 33be ea38 ba3d 6c1d ed3d e938 b3bd
00000010: 8308 5b3d b65d 4a3c 3017 32be d39a 06bd
00000020: a64a 05be 6707 153c 53a4 933d 9eda 3abd
00000030: 1b62 1a3e aa47 ce3d 7255 793d e36e 48be
00000040: 1fdd 5d3d 2994 e2bc 9fd0 c4bc 4deb f7bd
00000050: 10ae 96bd 0909 ec3b 3d00 2fbe 2e14 3abe
00000060: c48b 153d 9772 c03a 7273 5fbd f9ff b23d
00000070: 00f8 fa3d 0495 03be f783 c9bd b682 ddbd
00000080: a60e f6bd 4f20 05be 5105 8abd 311d 0f3e
00000090: 59fb 063e bc6d 82bd ef3f 0c3d 2404 86bd
000000a0: d953 47be 373e cf3d c5ef 97bd 0276 c0bd
000000b0: 6f00 8ebd 4d23 e4bd 836e b5bd b404 12bd
000000c0: abd8 4a3f 98cc f0be 52a9 8cbc 775f a9bf
000000d0: 5195 523e d26f 69bf 88ad 8abe 1f46 053e
000000e0: 0dc9 10bf 3307 a93e 85f2 cd3e a492 e33e
000000f0: d795 01be 4388 89bf b5d2 c9bd ba81 36bc
00000100: 611a ab3e e591 1abf ed97 d43e 58fd 02be
00000110: 5e71 983e 366f 44bc f649 c83e 148d fb3d
00000120: 1704 3a3e 6060 bfbf 6496 723f b78f 97bf
00000130: 4617 003f 4ce9 19bf 5497 e9bf 0711 1c3f
00000140: 1761 a6bf d19f 893f b81b 383f 9eb7 3c3f
00000150: 2b11 aebf 1e10 04be 7e12 1a3a 8306 933d
00000160: d712 2d3f 0152 0c3e 9a40 b3bf cf36 e4be
00000170: 491f 333f beaf 4abe c604 0e3f 5250 183f
00000180: 719f 6cbf 12d4 a03f 765c 95c0 02f3 d73f
00000190: 32c8 1fbe 6ed2 a53f 51b3 eb3e f8be d43c
000001a0: c2c3 893f 0f68 a3bf 262c 54be 6e89 c2bf
000001b0: dd8d 733f 2a10 903f 1311 453d a1ac 003e
000001c0: af46 f5be 6583 783e 108c 0240 1fa3 a43f
000001d0: b2ed 58be b584 373d 4c02 35bd 858e 41be
000001e0: 5093 993e cd4f a4bf 6d66 433f 01fb 97bf
000001f0: 2606 523f c843 8cbf 9a12 acbf 23cc 3c3f
00000200: b54d 9fbf 8f83 3e3f 8e83 363f 2924 953f
00000210: 4994 f4bf b198 14bf 22a8 02be dc78 aa3d
00000220: abb3 3e3f 4579 41bf 2548 acbf a057 cdbe
00000230: 7f3d 693f c567 213d 1985 503f db44 4e3f
00000240: 96bd acbd 2ba7 9e3d 4bb9 47be ba5e 973d
00000250: 9abd 31be 9e70 67bd b924 07be 0415 37be
00000260: d02a e53c 66ae 36be 1177 1cbe 6f99 81bd
00000270: c9c8 0ebe 9659 d23c 0e6a 8e3d 4290 70bd
00000280: f5eb eb3d 84cf c0bc 8ea8 17be 004b ce3d
00000290: 8fc0 34be 39a3 143e 4cf5 1f3e 6c98 00be
000002a0: 595b db3e 935a a4bf 6847 403f ed24 88bf
000002b0: a081 283f 834b 2abf ee45 bebf 8826 2d3f
000002c0: 46ce a5bf 7e8c 5a3f 0b9f 0d3f b159 8b3f
000002d0: e665 c5bf e650 14bf 8b7b ad3e eb09 d13b
000002e0: 6ed1 593f ba5e 533e 37bd a1bf c805 aebe
000002f0: 7222 6e3f a7a5 843d 2652 493f be77 373f
00000300: c241 8c3f 620e 8a3e 6a85 4d3f 5ef4 783d
00000310: b0a3 ee3e ea07 c7bf fc95 d83f fa6b 1b3f
00000320: c750 8cbe 8716 1f3e 0396 e63e 2f47 bfbe
00000330: 8d6f eabf 9a93 99bf 6629 64bc 091a 613e
00000340: 8b52 9a3e 925f 2cbf 9452 8fbf acd9 2cbe
00000350: ac9b ad3e 3c5a 20bd cae9 943e 0403 0c3f
00000360: f15e ac3c 62fd a2bf c324 143f 2a24 85bf
00000370: cff6 453f e0cd 58bf a34c debf 929e 263f
00000380: 86dd 8bbf 9303 3f3f e9f1 093f 74d0 873f
00000390: 4479 e0bf 2e52 38bf 1cf3 7cbe 645f a53d
000003a0: 11d5 073f d1dd 53bf 6775 a1bf 4861 1ebf
000003b0: 0863 4e3f 0784 873d c774 0d3f a136 083f
000003c0: 87da c83e df23 bdbf 1b20 633f 4aa7 97bf
000003d0: 25c3 163f ee6d 6dbf 77a2 e6bf d5e6 4d3f
000003e0: a200 b7bf 9e29 853f 7d9f 1f3f 9d4d 373f
000003f0: 0619 a8bf 909a cabe 98d9 963e 8056 5cbe
-0.1750836 0.09092887 0.115778774 -0.08751089 0.053474914 0.012351444 -0.17391658 -0.032862496
-0.13016757 0.009096003 0.07209077 -0.045618646 0.15076487 0.100722626 0.060872503 -0.1957355
0.054165956 -0.027658539 -0.02402526 -0.12105427 -0.073574185 0.0072032255 -0.17089935 -0.1817176
0.036510244 0.0014682588 -0.054553457 0.08740229 0.122543335 -0.12849814 -0.098396234 -0.10815947
-0.12014513 -0.13000606 -0.06739295 0.1397598 0.13181819 -0.063685864 0.03424066 -0.065437585
-0.19465579 0.101192884 -0.07418779 -0.09397508 -0.069336765 -0.111395456 -0.08858969 -0.035649016
0.7923686 -0.47031093 -0.017170582 -1.3232259 0.20564772 -0.9118625 -0.2708552 0.1301503
-0.5655678 0.33013305 0.4022409 0.44447815 -0.12654816 -1.0744709 -0.09854642 -0.011139328
0.33418563 -0.6037887 0.4152216 -0.12791955 0.29773992 -0.011989405 0.39118928 0.12282768
0.18165623 -1.4951286 0.9476073 -1.1840733 0.5003551 -0.6012161 -1.8249307 0.6096348
-1.299838 1.0751897 0.71917295 0.7371768 -1.3598989 -0.12896773 0.00058773893 0.071789764
0.6760687 0.13703157 -1.400409 -0.44573066 0.6996961 -0.19793603 0.55476034 0.5949756
-0.9243079 1.2564719 -4.6675367 1.6871035 -0.15603712 1.2954843 0.46035245 0.025969967
1.0762866 -1.2766131 -0.20719966 -1.519819 0.9513834 1.1254933 0.048111986 0.12565853
-0.4790549 0.24268873 2.0397987 1.2862281 -0.21184424 0.044804294 -0.044191644 -0.18902023
0.29995203 -1.2836853 0.76328164 -1.1873475 0.8204063 -1.0958185 -1.3443177 0.7374899
-1.2445589 0.7441949 0.71294487 1.165166 -1.9107753 -0.5804549 -0.1275945 0.08323833
0.744929 -0.7557567 -1.3459517 -0.40105915 0.9110946 0.039405603 0.8145309 0.80573815
-0.08434598 0.077467285 -0.19504277 0.073911145 -0.17357484 -0.056503884 -0.13197602 -0.1787911
0.027974516 -0.17839965 -0.15279795 -0.06328093 -0.13943781 0.025677484 0.06953822 -0.058731325
0.115196146 -0.023536451 -0.14810392 0.10072899 -0.1765158 0.1451539 0.15620917 -0.12558144
0.4284313 -1.2840141 0.7510896 -1.0636269 0.6582279 -0.6652147 -1.4865091 0.6763692
-1.2953575 0.85370624 0.55320805 1.0886747 -1.5421722 -0.5793594 0.33883318 0.006379356
0.8508519 0.20641604 -1.2635869 -0.33988786 0.9302131 0.06476908 0.78640974 0.7166709
1.0957568 0.26964098 0.802817 0.06077992 0.4660926 -1.554929 1.6920772 0.60711634
-0.27405378 0.15535937 0.45036325 -0.37358996 -1.8315293 -1.199817 -0.013925886 0.21982588
0.301411 -0.6733333 -1.1197076 -0.1687991 0.3390783 -0.039148554 0.29084617 0.546921
0.021041365 -1.2733576 0.57868594 -1.0401661 0.77329725 -0.8468914 -1.7367138 0.6508571
-1.0926979 0.7461483 0.5388475 1.061049 -1.7537007 -0.72000396 -0.24702114 0.08074835
0.5305949 -0.8276034 -1.2613953 -0.6186719 0.8061986 0.06616979 0.55256313 0.5320836
0.39229223 -1.4776572 0.88720864 -1.1847928 0.58891517 -0.92745864 -1.801833 0.80430347
-1.4297068 1.0403326 0.62352735 0.71602803 -1.3132637 -0.39571047 0.29462886 -0.21517372

fc2.bias f4 [24]
00000000: 5add 3abe eedd dcbc d987 fc3d 7073 363f
00000010: e21c 76be 45a5 313f 2495 1cbe 5e67 1e3f
00000020: 7651 3f3e a551 4b3f 3d11 383f 6f73 433f
00000030: 14c6 4cbe efc4 6e3e 7ed8 febd 7735 573f
00000040: 8b3f 1e3c 4941 633f 6a81 fc3d cce1 593f
00000050: cac1 0f3e 42b8 1f3f a428 2b3d fbef c6bb
-0.18248501 -0.026961293 0.123305984 0.71269894 -0.24034455 0.69392806 -0.15291268 0.61876476
0.18683419 0.79421455 0.71901304 0.7634801 -0.19997436 0.23317312 -0.12443636 0.84065956
0.0096587045 0.8877149 0.12329371 0.85110164 0.14038768 0.6239053 0.041786805 -0.0060710884

fc3.weight f4 [2, 24]
00000000: 0028 2a3e 097e dbbd dd74 963f 38eb 2a3f
00000010: 1e71 16c0 1563 b03f 6390 303e 1a8c 5b3f
00000020: d1fe df3e 681b aa3f 09f5 913f 83a9 a13f
00000030: 76c7 3d3d 0b0e 0cc0 1ba8 863b 754d 903f
00000040: 18e9 30c0 7285 823f 57c6 45c0 173a 9a3f
00000050: f4ba efbb f606 8d3f ba25 3d3c 4238 f93d
00000060: a255 7ebd 921a bcbd 388b 533e 1e82 8a3f
00000070: 90dc 0bc0 f3de 913f d333 21be 2ddf 823f
00000080: 3185 51bf 7a38 9f3f 755a b53f b82a b53f
00000090: 0376 4fbe 016d 27c0 c683 06be 60b9 973f
000000a0: 2183 4cc0 6b7d 8d3f 19e3 33c0 19d1 963f
000000b0: 06ce 03be 933c 853f 7ca0 e6bc 24bf 333e
0.16616821 -0.10717399 1.1754414 0.66765165 -2.3506541 1.3780237 0.17242579 0.85760653
0.43749097 1.3289614 1.1402904 1.2629856 0.0463328 -2.188357 0.004109395 1.1273638
-2.764227 1.0196974 -3.0902307 1.2048978 -0.0073159877 1.1017749 0.011544639 0.121689335
-0.062093385 -0.091847554 0.20658576 1.0820959 -2.185337 1.1396164 -0.15742426 1.0224358
-0.8184386 1.243911 1.416823 1.4153662 -0.20259862 -2.616028 -0.13136205 1.1853447
-3.1955035 1.10539 -2.810736 1.1782562 -0.1287156 1.0409111 -0.028152697 0.17553383

fc3.bias f4 [2]
00000000: b5a9 023f 6f6e d73e
0.510402 0.42076442

exp_avg f4 [24, 4]
00000000: bd0c 71bf c681 1fbe 189c a33c 0e52 4d3e
00000010: 80ac 82bf 2285 23bf c359 68bc 3085 073f
00000020: 301d c1c0 b829 3abe 7127 ce3b 26be f4be
00000030: 7cfc 873f ca39 cebe c114 b03b 4ffe 453f
00000040: 5ebb e9be 5116 5abd c973 4c3d 24c5 e03e
00000050: 7e3b c63e aeff 1abf 3c52 52bd f345 d13e
00000060: 15f8 dfbd b936 713d c2fe 713c 0e00 ddbe
00000070: 58b8 1fbf 9366 9bbc a2db 513d f03d db3e
00000080: 83c6 793f 289c b4be 0cfe d03b 3fa1 323f
00000090: 6cda dfbf a1f5 833e 5dd8 4a3d 8cbf 34bd
000000a0: 4b02 e0be 9b81 09bd e5df 4d3d e1bd df3e
000000b0: e479 32c0 ca12 ed3e a0d9 e13c 596e ebbe
000000c0: c0fd dfbd 740a eebd 800f 043c c017 16be
000000d0: 0588 283e 5091 afbe f1d4 efbc 77dd 513e
000000e0: f093 ea3c dba3 bb3d 77d4 c43b ba22 1cbd
000000f0: 0400 0080 0400 0080 0400 0080 0400 0080
00000100: daef 67bf 9668 e03b 0896 4f3d 7952 983e
00000110: e6d4 a5bc 4dd7 c5bc 65f3 93bb af77 88bd
00000120: 20ca 693f 0d41 4abf 42f6 3fbd 4bb1 423f
00000130: 3024 863f 3071 efbd a2ea 89bb 9f2f 303e
00000140: b44a 4bbf 2fe8 873c 20af 5e3d 0f2f cf3e
00000150: 0400 0000 0400 0000 0400 0000 0400 0080
00000160: ad41 bbbe ff5c 8ebd 8c99 423d 813f f33e
00000170: 5f17 17bf 63e4 1cbd ccd1 463d dd05 c23e
-0.9416006 -0.15576848 0.019971892 0.20050833 -1.0208893 -0.6387502 -0.014181557 0.52937603
-6.034813 -0.18179977 0.006291323 -0.47801322 1.0623927 -0.40278465 0.005373568 0.7734117
-0.45650762 -0.05324394 0.04991511 0.43900406 0.38717264 -0.60546386 -0.051347956 0.4087368
-0.1093599 0.05889008 0.014770212 -0.43164104 -0.6239066 -0.01896981 0.05123485 0.42820692
0.9756853 -0.35275388 0.006377941 0.6977729 -1.7488532 0.25773337 0.049522746 -0.044127986
-0.4375175 -0.033570867 0.05026235 0.43699554 -2.7886896 0.46303397 0.027569592 -0.45982626
-0.10937071 -0.116230875 0.008060336 -0.14657497 0.16458137 -0.34290552 -0.029276343 0.20494638
0.028634995 0.09162112 0.006006773 -0.038119055 -6e-45 -6e-45 -6e-45 -6e-45
-0.9060036 0.006848405 0.05068019 0.29750422 -0.02024312 -0.024150515 -0.004515099 -0.06663453
0.91324043 -0.7900551 -0.04686571 0.7605178 1.0479794 -0.11691511 -0.0042088786 0.17205666
-0.7941086 0.016590206 0.05436623 0.4046559 6e-45 6e-45 6e-45 -6e-45
-0.36573544 -0.06951331 0.047509715 0.47509387 -0.59020036 -0.038303744 0.04853992 0.37895098

exp_avg_sq f4 [24, 4]
00000000: 6428 2d42 1e10 9540 f778 ce3d 773b cd40
00000010: ee90 ef43 566a b140 ed72 9a3c a7a2 9040
00000020: cadc 0145 8eba 6842 c099 4a3f cab3 8042
00000030: 8950 db43 3a77 a840 1c7f 943c b400 8640
00000040: 34f8 0d43 9253 f341 daa5 2c3f 8bc2 2742
00000050: 4cfa ab43 82a2 0541 0a47 a73d 2fa7 e640
00000060: 33e9 3a41 3206 de42 618f 1940 5f83 1443
00000070: 314b 4443 489c 1242 3251 4a3f 298d 4542
00000080: c1fd 1a44 01f4 db40 36d7 b33c f145 8640
00000090: e930 3544 20ad 5e42 1eb4 843f 1ee1 8842
000000a0: 94ec 0f43 6882 f541 0cbd 2c3f bef5 2742
000000b0: 7672 bb44 6ddf 9c42 647a 8e3f 3e70 a042
000000c0: 27e5 8c3f e574 1341 7cd6 893d e93d 9c40
000000d0: 8bf2 ff42 e180 4040 19a1 ba3c 9563 1640
000000e0: c519 153d 4c50 963e a151 a63a 473a 213e
000000f0: 11ee b222 14c5 4923 995d a820 b60e 2821
00000100: 2de9 6f43 2081 0b42 0175 403f 4d91 3d42
00000110: 0e1d 933d 1c62 173f abcf 973b 9f4a 9f3e
00000120: 0c96 ff43 f8d9 dd40 40e5 af3c 97c1 9540
00000130: 0d21 8143 4617 a441 ad08 db3e 2eda d941
00000140: f83d 8543 c1fa 3042 5344 703f 75e3 6b42
00000150: 6ecd 9f0e b09b 1712 fe49 c90e 6851 3b12
00000160: 3edc fd42 be0a e541 de75 223f 178a 1d42
00000170: d56a 1743 6331 e841 2ceb 233f 7ee6 1f42
43.289444 4.6582174 0.10081666 6.413509 479.13226 5.5442305 0.018853629 4.519855
2077.7993 58.182182 0.79140854 64.35115 438.62918 5.264554 0.018127017 4.187586
141.96954 30.415806 0.6744057 41.939983 343.95544 8.352175 0.081678465 7.207908
11.681933 111.0121 2.3993762 148.51317 196.29372 36.65262 0.79030144 49.38785
619.9649 6.8735356 0.021953207 4.196038 724.7642 55.669067 1.0367467 68.43968
143.92413 30.688675 0.6747596 41.989983 1499.5769 78.43638 1.1131101 80.21922
1.1007432 9.216039 0.06730363 4.8825574 127.97372 3.0078661 0.022781895 2.349828
0.03640153 0.29358137 0.0012689122 0.15744887 4.849906e-18 1.0937965e-17 2.8522245e-19 5.6940084e-19
239.91084 34.8761 0.75178534 47.391895 0.07183276 0.5913408 0.0046329102 0.3111162
511.17224 6.9328575 0.02147162 4.6798816 258.2582 20.511364 0.42780057 27.231533
266.48413 44.244877 0.93854254 58.972126 3.9394348e-30 4.78391e-28 4.9621577e-30 5.9107137e-28
126.93016 28.630245 0.634611 39.384853 151.41731 29.024115 0.6403072 39.97509

exp_avg f4 [24]
00000000: a1bb 19bf 45ce d6be bb70 54c0 cb08 303f
00000010: 35b0 93be aed7 0ebf 9903 b6be e129 c6be
00000020: b63c 0d3f f320 88bf dcbe 93be 1118 cfbf
00000030: d355 b4be fe10 25bf 2855 89bd 0400 0000
00000040: 5c4f 0fbf d934 70be d1a8 adbe c2a3 563f
00000050: 45c3 f9be 0400 0000 56ea 62be cbcd bdbe
-0.60051924 -0.41954246 -3.3193805 0.68763417 -0.28845373 -0.5579785 -0.3554962 -0.38703826
0.5517076 -1.0635055 -0.28856552 -1.617922 -0.3522173 -0.64479053 -0.067056954 6e-45
-0.5598047 -0.2345766 -0.3391786 0.83843625 -0.4878179 6e-45 -0.22159705 -0.3707107

exp_avg_sq f4 [24]
00000000: 1360 af41 ec1d dc42 b8a8 2144 20fd c942
00000010: 31b9 1b43 4e42 5b43 63ca a442 ca24 4243
00000020: 603e 2b43 d5eb c143 8a96 1c43 e254 1b44
00000030: f4ab e940 7012 9742 415e 4d3d 2696 fb22
00000040: ef49 4643 eaa8 023f cb64 f542 c6a4 0a43
00000050: 938e 7343 f958 5f11 9419 1343 c320 1943
21.921911 110.05844 646.6362 100.994385 155.7234 219.259 82.39529 194.1437
171.24365 387.84244 156.58804 621.3263 7.3022404 75.53601 0.050138716 6.8192662e-18
198.2888 0.5103899 122.69686 138.64365 243.55693 1.7619015e-28 147.09991 153.12798

exp_avg f4 [24, 24]
00000000: 0400 0000 0000 0000 0400 0000 0000 0000
00000010: 0400 0000 0400 0000 0000 0000 0400 0000
00000020: 0000 0000 0400 0000 0400 0000 0400 0000
00000030: 0400 0000 0400 0000 0000 0000 0000 0000
00000040: 0400 0000 0400 0000 0400 0000 0000 0000
00000050: 0400 0000 0000 0000 0400 0000 0400 0000
00000060: 0000 0000 0000 0000 0000 0000 0000 0000
00000070: 0000 0000 0000 0000 0000 0000 0000 0000
00000080: 0000 0000 0000 0000 0000 0000 0000 0000
00000090: 0000 0000 0000 0000 0000 0000 0000 0000
000000a0: 0000 0000 0000 0000 0000 0000 0000 0000
000000b0: 0000 0000 0000 0000 0000 0000 0000 0000
000000c0: 34f6 cdbc fdcf 923b 9072 35bd 095a 843c
000000d0: 2541 393d a5a3 a23d cf82 8cbd 9fc7 603d
000000e0: 296c 6a3c 2383 3c3d a9a2 c33d 0d5e 493d
000000f0: cbf5 a7bc 7811 e23d 202e 6cbb 0400 0000
00000100: de69 5a3c b116 b6bc f881 c43c 35f9 1c3e
00000110: 4f4a 523d 0000 0000 a7d6 073e 6127 bf3c
00000120: d1d0 5dbb aed7 293a 78b4 a2bb 9c2b 69bb
00000130: 8474 febd 6c1f ffbc c14e 9abc f972 74bd
00000140: eabe 70bc 9b93 7fbb bfe2 1dbe 287c 0d3c
00000150: e795 fabc 952b 59bd 06ba 85bc 0400 0000
00000160: bc23 bebd b3e5 31bc 7ac9 01bc 6141 0ebe
00000170: fe83 62bd 0400 0080 6abc 3cbe 62a2 b9bd
00000180: 2933 5e3c 5592 c2bb cda1 8c3c 73fe 31bc
00000190: 3a3a 8f3d 9b35 933d 0400 0000 a7da 493d
000001a0: 82e9 543c 6208 703d 0fb0 e53d c058 cd3c
000001b0: 0400 0000 c2b1 dd3d 0400 0080 0000 0000
000001c0: 9fef 863d 0400 0000 8dd5 023c e709 6c3d
000001d0: 4250 7a3d 0400 0000 e220 fe3d 48c2 653d
000001e0: 2f01 193b 46fc 683b 41d6 a8bc 8763 053c
000001f0: 4175 93bd 402b 023d 0a47 6dbd 1c01 58bc
00000200: daa3 5dbb 50fc 2c3d b22a 80bd 7691 343d
00000210: 2fdf 61bc 46c1 243d ba92 7abb 0400 0000
00000220: e0e8 74bd d43b 683c ce7f 253c 418c bcbc
00000230: cdde bbbb 0400 0080 d161 8dbd f26e 63bd
00000240: 0000 0000 0000 0000 0000 0000 0000 0000
00000250: 0000 0000 0000 0000 0000 0000 0000 0000
00000260: 0000 0000 0000 0000 0000 0000 0000 0000
00000270: 0000 0000 0000 0000 0000 0000 0000 0000
00000280: 0000 0000 0000 0000 0000 0000 0000 0000
00000290: 0000 0000 0000 0000 0000 0000 0000 0000
000002a0: 844f 16bc 5b35 cf3a afc7 6cbc af10 2a3a
000002b0: c979 cfbd 440a 20bc db94 02bd 581a 28bd
000002c0: a795 20bc 1b22 d63b ed43 efbd 94b8 9a3c
000002d0: 65ff 06bd 37fc babc 27f4 82bc 0400 0000
000002e0: e3f8 a4bd 6401 82bc f26f a5ba 4795 b7bd
000002f0: c712 1cbd 0400 0080 7e93 0abe 310e 9cbd
00000300: 4385 0abd 7b70 633b 90f3 31bd 21d4 8a3c
00000310: e50f 133e 8ff4 ba3d 3dfd 38bd d4a0 c83d
00000320: 9baf d13c 38df 033d 8184 593e c325 013d
00000330: f44e 16bc 84b1 073e 501c 083b 0400 0080
00000340: 8feb ac3d 61d8 15bd 32bb df3c 0cf7 833e
00000350: 4bb2 b13d 0400 0080 0f95 8c3e 889d c03d
00000360: 21a4 253d ef45 4d3b bb01 7b3c 509e bd3b
00000370: f1be 82bd 8a6b 9f3c e37d 97bc d43d 74bc
00000380: 727d e0bb 3e8d 503d f70c 81bd 0051 273d
00000390: 8539 ba3c 07ce b83c dd60 a3b5 0400 0000
000003a0: 8769 24bd 5d2e 813d e3a6 cb3b 5bd5 6abd
000003b0: b721 bab9 0400 0080 0820 aabd 4b13 32bd
000003c0: 8d88 3bbc 9f01 023b 3c27 93bc cc8a 3a38
000003d0: 3743 13be e042 91bc f089 28bd d66a 76bd
000003e0: 27b5 6cbc 231c e03b af14 2cbe d755 c33c
000003f0: 7875 37bd 7c68 19bd e46f b4bc 0400 0000
6e-45 0.0 6e-45 0.0 6e-45 6e-45 0.0 6e-45
0.0 6e-45 6e-45 6e-45 6e-45 6e-45 0.0 0.0
6e-45 6e-45 6e-45 0.0 6e-45 0.0 6e-45 6e-45
0.0 0.0 0.0 0.0 0.0 0.0 0.0 0.0
0.0 0.0 0.0 0.0 0.0 0.0 0.0 0.0
0.0 0.0 0.0 0.0 0.0 0.0 0.0 0.0
-0.025141813 0.0044803605 -0.04429871 0.016156213 0.045228142 0.07941369 -0.06860887 0.054877874
0.014308014 0.0460235 0.09552509 0.04916196 -0.020502945 0.11038488 -0.0036038235 6e-45
0.013330905 -0.022227617 0.023987755 0.1532944 0.051340397 0.0 0.13265477 0.023334207
-0.0033846388 0.0006478977 -0.004965361 -0.0035578972 -0.12424567 -0.031142913 -0.01883638 -0.05967996
-0.014693955 -0.0038997892 -0.15418528 0.008635558 -0.030589057 -0.05302008 -0.016324054 6e-45
-0.092841595 -0.010857987 -0.007921571 -0.13892128 -0.05530166 -6e-45 -0.1843125 -0.09064175
0.013562002 -0.0059378543 0.017166996 -0.010863888 0.06993528 0.07187959 6e-45 0.04928079
0.012995126 0.058601744 0.11215221 0.025066733 6e-45 0.1082492 -6e-45 0.0
0.06588673 6e-45 0.007985485 0.05762663 0.061111696 6e-45 0.12408616 0.056093484
0.0023346653 0.0035550757 -0.020609977 0.008141405 -0.07200099 0.031779528 -0.057929076 -0.013183858
-0.0033819587 0.04223281 -0.062581435 0.044084035 -0.013786121 0.040223382 -0.0038234429 6e-45
-0.0597924 0.01417442 0.010101272 -0.023016097 -0.005733347 -6e-45 -0.069034226 -0.055525728
0.0 0.0 0.0 0.0 0.0 0.0 0.0 0.0
0.0 0.0 0.0 0.0 0.0 0.0 0.0 0.0
0.0 0.0 0.0 0.0 0.0 0.0 0.0 0.0
-0.009174231 0.0015808748 -0.014451905 0.00064874714 -0.101306506 -0.0097680725 -0.03188024 -0.04104075
-0.009801305 0.0065348274 -0.11682878 0.018886842 -0.032958407 -0.022825344 -0.015985562 6e-45
-0.08055284 -0.015869804 -0.0012621863 -0.08964019 -0.038103845 -6e-45 -0.13532826 -0.07619894
-0.033818495 0.0034704495 -0.04344517 0.016946854 0.14361532 0.09128677 -0.04516338 0.097963005
0.02559643 0.0321953 0.21241952 0.031530153 -0.009174097 0.1325131 0.0020768829 -6e-45
0.08443367 -0.036583308 0.027310941 0.2577442 0.08676585 -6e-45 0.27457473 0.09405047
0.04043973 0.0031322201 0.015320237 0.0057866946 -0.063840754 0.019460458 -0.018492645 -0.014907319
-0.0068508917 0.05091595 -0.06301301 0.040848732 0.022732506 0.022559179 -1.2172637e-06 6e-45
-0.0401397 0.06307671 0.006214963 -0.057332378 -0.00035501804 -6e-45 -0.08306891 -0.04347543
-0.01144613 0.0019837392 -0.017963044 4.447512e-05 -0.14381109 -0.017732084 -0.041147172 -0.06016048
-0.014447487 0.0068392917 -0.16804765 0.023844643 -0.04478976 -0.03745316 -0.02202601 6e-45

exp_avg_sq f4 [24, 24]
00000000: a6e9 f613 0000 0000 9b1e a011 0000 0000
00000010: c268 3e12 38d7 b314 0000 0000 d2e3 e611
00000020: 0000 0000 58b1 0d14 5d3a 9713 7471 7412
00000030: 32de 6013 06f5 6914 0000 0000 0000 0000
00000040: 5689 0712 1a2e a814 3b9c 5a13 0000 0000
00000050: f11e 4013 0000 0000 ebb7 8113 5494 8011
00000060: 0000 0000 0000 0000 0000 0000 0000 0000
00000070: 0000 0000 0000 0000 0000 0000 0000 0000
00000080: 0000 0000 0000 0000 0000 0000 0000 0000
00000090: 0000 0000 0000 0000 0000 0000 0000 0000
000000a0: 0000 0000 0000 0000 0000 0000 0000 0000
000000b0: 0000 0000 0000 0000 0000 0000 0000 0000
000000c0: 1426 453e e2ae 1d3a d2e5 7b3f 4b3c 1c3a
000000d0: dccd 3e40 972a bc3d 2435 3d3e 97be bf3f
000000e0: 13b2 e63b 9699 183f fe32 8440 9f64 213f
000000f0: 31b4 ca3b c90f b53e c3b7 8b3a 2f57 6621
00000100: 1c62 c13f 8dc2 4f3c 3457 a03a f2bd ab3f
00000110: 19b3 c43f 0000 0000 dc6d a940 27fc c43f
00000120: 2408 183f f00e b83a 480e 8b3f 2b34 7d3b
00000130: 5577 7b40 5c37 c63e 172b 873d 7a70 f23f
00000140: 8f33 9c3c dedb b13f d764 c440 979c 643f
00000150: a358 9f3d 981a 8f3f 7a30 923c 434e a420
00000160: 73a2 1540 1f7a 193e b5cf 163c 7877 d53f
00000170: b8c2 1340 5689 8e0f d7a1 f340 dd99 0a40
00000180: 4b92 7e3c 1308 e43b 5537 dd3b d43f 903c
00000190: 6e78 da3f 0a0e f03e d996 571c ea2f 3a3f
000001a0: d851 973d 8ade 273e 773d 4f40 fd1e be3d
000001b0: 6a1a ab1a 689c 703f e435 250f 0000 0000
000001c0: deaf 553f 7368 7d1b 82b8 253d 5367 6840
000001d0: b60a 2e3f 41bd c70e 9cf1 9840 32f3 5a3f
000001e0: 9ae5 4d3f 27da 0d3b 5899 0d40 6f0c a73b
000001f0: 93ab f040 57dd 063f 8e37 863e 9002 6d40
00000200: 7af6 ec3c af91 0940 747b 3341 8a1b d53f
00000210: 067e d33b 716f cc3f 65e7 9937 2403 e421
00000220: 945b 8540 cf95 723c a715 4d3c 5207 5640
00000230: d519 8640 c84f 600f 9c22 6241 72c0 8040
00000240: 0000 0000 0000 0000 0000 0000 0000 0000
00000250: 0000 0000 0000 0000 0000 0000 0000 0000
00000260: 0000 0000 0000 0000 0000 0000 0000 0000
00000270: 0000 0000 0000 0000 0000 0000 0000 0000
00000280: 0000 0000 0000 0000 0000 0000 0000 0000
00000290: 0000 0000 0000 0000 0000 0000 0000 0000
000002a0: 74f3 143f a077 b73a 8f9a 9b3f f5b1 6f3b
000002b0: 5ea0 8840 dc1a be3e a30b d63d 47e0 0440
000002c0: 301f 9b3c a9d7 b23f c282 d140 b6ce 753f
000002d0: 9bb9 9a3d 47d6 8b3f 943f 8c3c 25da 1b21
000002e0: 934b 1e40 cc7f 153e b080 103c 74d0 ec3f
000002f0: 4c40 1d40 6786 850f 33b9 0241 40e2 1440
00000300: 1e32 993e 7240 573a 389c 0b3f de60 093b
00000310: bf4b fb3f c5cd 4e3e f894 ec3c f03d 6e3f
00000320: fde6 283c 8ea1 333f a137 4440 4346 e03e
00000330: b335 393b 702b 143f e5ce e937 13f7 831b
00000340: 1bd0 973f 3299 cd3b 272e 983b f697 473f
00000350: 7c9a 933f 5ddb 2d0f d9cc 7140 9590 8b3f
00000360: cfb6 623f 8bd9 193b 1a24 1140 84bc bc3b
00000370: 435b fa40 e316 173f 56ed 783e 38bc 7540
00000380: a551 013d 6e3a 1540 f471 3c41 c511 df3f
00000390: bb59 9a3b 30d4 e13f e31b ec35 3398 c621
000003a0: f975 8c40 b25a 513c 7194 663c 4503 5d40
000003b0: def6 8c40 9b43 c50d 34cb 6c41 27a0 8640
000003c0: 2c2e 8d3f 1398 2d3b 5ab4 1040 eb20 e43b
000003d0: de3a ff40 62c4 343f 12a7 3e3e e6eb 7740
000003e0: febc 123d 1ae3 2840 8134 4441 99e5 e53f
000003f0: ae93 123e 7e9c 0440 7a10 053d aa8c 8a21
6.2329526e-27 0.0 2.526241e-28 0.0 6.0082553e-28 1.815927e-26 0.0 3.6428007e-28
0.0 7.153656e-27 3.817531e-27 7.7132666e-28 2.8382326e-27 1.1811816e-26 0.0 0.0
4.276777e-28 1.6981849e-26 2.7592496e-27 0.0 2.4249062e-27 0.0 3.2745535e-27 2.0286253e-28
0.0 0.0 0.0 0.0 0.0 0.0 0.0 0.0
0.0 0.0 0.0 0.0 0.0 0.0 0.0 0.0
0.0 0.0 0.0 0.0 0.0 0.0 0.0 0.0
0.19252807 0.0006015134 0.9839755 0.0005959912 2.9813147 0.09187811 0.18477303 1.4980038
0.007040271 0.59609354 4.1312246 0.6304416 0.0061860313 0.35363606 0.0010659624 7.804242e-19
1.5108066 0.012680662 0.001223302 1.3417342 1.5367156 0.0 5.2946606 1.5389451
0.5938742 0.0014042538 1.0863733 0.003863583 3.9291584 0.3871411 0.066000156 1.8940575
0.019067554 1.3895223 6.1373096 0.8930144 0.07780578 1.1179991 0.017845381 2.783447e-19
2.33804 0.14987992 0.009204795 1.6677084 2.3087597 1.4055181e-29 7.613506 2.165641
0.015537809 0.0069589703 0.006750981 0.01760856 1.7068002 0.4688571 7.13325e-22 0.7272936
0.07388657 0.16393486 3.2381265 0.09283254 7.0766617e-23 0.93988657 8.145507e-30 0.0
0.8347148 2.0961419e-22 0.040459163 3.6313064 0.67985094 4.9239532e-30 4.7794933 0.85527337
0.8042847 0.0021644922 2.2124844 0.0050979177 7.520944 0.5268149 0.2621426 3.7032814
0.028926123 2.1495168 11.21764 1.6649029 0.006454232 1.5971509 1.8346773e-05 1.5450712e-18
4.167429 0.014806225 0.012517369 3.3441968 4.1906533 1.1059418e-29 14.13345 4.023492
0.0 0.0 0.0 0.0 0.0 0.0 0.0 0.0
0.0 0.0 0.0 0.0 0.0 0.0 0.0 0.0
0.0 0.0 0.0 0.0 0.0 0.0 0.0 0.0
0.5818398 0.0013997443 1.2156543 0.0036574577 4.269576 0.37129867 0.10451438 2.0761888
0.01893577 1.3972064 6.5472116 0.9601854 0.07554933 1.0924767 0.01712016 5.2804755e-19
2.4733627 0.14599532 0.008819744 1.8501115 2.4570494 1.3166582e-29 8.170215 2.3263092
0.2992105 0.0008211202 0.54535246 0.0020962278 1.9632491 0.20195682 0.028879628 0.9306326
0.010308978 0.7016839 3.0658953 0.43803605 0.0028260767 0.5787878 2.7872107e-05 2.18318e-22
1.1860384 0.006274366 0.0046441737 0.7796625 1.153152 8.571806e-30 3.778128 1.0903498
0.88560194 0.0023475613 2.2678285 0.0057597775 7.8236403 0.590193 0.24309286 3.839613
0.031572003 2.3316913 11.777821 1.7427298 0.0047104037 1.764288 1.7591486e-06 1.3457289e-18
4.389401 0.012777971 0.014073477 3.4533246 4.405135 1.2157338e-30 14.79961 4.20705
1.1029716 0.0026488348 2.2610078 0.006961932 7.975936 0.70612156 0.1861842 3.873773
0.03582477 2.6388612 12.262818 1.7960693 0.14314148 2.0720515 0.032486416 9.388477e-19

exp_avg f4 [24]
00000000: 0400 0000 0000 0000 f0ba ca3c 40a7 94bd
00000010: 9185 473d b23b 27bd 0000 0000 88e7 73bd
00000020: 3a1d a53d 545a f6bc 98f3 acbd fd83 5abd
00000030: 0000 0000 9151 f93d 0400 0000 c89c 82bd
00000040: 7e28 123e faad 78bd bba3 313d 2c01 76bd
00000050: 0400 0000 3fc3 30bd 0400 0000 0000 0000
6e-45 0.0 0.024747342 -0.07258463 0.048711363 -0.040828414 0.0 -0.059546977
0.08062215 -0.030072369 -0.08444899 -0.05334853 0.0 0.12173761 6e-45 -0.0637756
0.14273259 -0.060712792 0.043369036 -0.06005971 6e-45 -0.04315495 6e-45 0.0

exp_avg_sq f4 [24]
00000000: e019 9e13 0000 0000 0033 c93f 0fb6 0440
00000010: c771 243f 2f76 7d40 0000 0000 c71f 1040
00000020: 4fbe 843f 3cde 8340 679d 8640 c45b 9140
00000030: 0000 0000 023b 0a40 1d70 771c cabc 5740
00000040: ec5e a43f 7e8d 3640 5ae5 4b3f f8e5 6340
00000050: 3f39 6b17 c792 3740 5054 d215 0000 0000
3.9910322e-27 0.0 1.5718689 2.073612 0.6423611 3.9603384 0.0 2.2519395
1.0370578 4.120878 4.206714 4.542452 0.0 2.1598516 8.187035e-22 3.3708978
1.2841468 2.852386 0.7964684 3.5609112 7.600485e-25 2.8683336 8.4951346e-26 0.0

exp_avg f4 [2, 24]
00000000: 0400 0000 0000 0000 b572 e9bc 80d3 a13e
00000010: 9f81 823e 04a2 ad3e 0000 0000 b2cf a63e
00000020: 2242 6bbe 8220 793e 5427 6a3e 089a 9d3e
00000030: 0000 0000 ba0f 323e 0400 0080 f9f5 803e
00000040: 686d 773e 3dac 9d3e 0ecc 3c3e e2cc 833e
00000050: 0400 0080 903f c93e 0400 0080 0000 0000
00000060: 0400 0000 0000 0000 9cc8 abbd 9133 febe
00000070: a099 8abe d261 16bf 0000 0000 7ca3 10bf
00000080: c947 0fbd 8ebc d0be b3c0 dbbe 0919 f5be
00000090: 0000 0000 eea2 afbe 0400 0080 9e0e febe
000000a0: 9e77 83be 6599 14bf 2402 1bbe fa67 02bf
000000b0: 0400 0080 e5fb 22bf 0400 0080 0000 0000
6e-45 0.0 -0.02849708 0.31606674 0.25489518 0.3391267 0.0 0.32580334
-0.22974446 0.24328807 0.22866565 0.3078158 0.0 0.17388812 -6e-45 0.25187662
0.24162829 0.3079547 0.18437216 0.2574225 -6e-45 0.39306307 -6e-45 0.0
6e-45 0.0 -0.083878726 -0.49648717 -0.27070332 -0.5874301 0.0 -0.5649946
-0.03498057 -0.40768856 -0.42920455 -0.47870663 0.0 -0.34303993 -6e-45 -0.49620527
-0.25677198 -0.5804656 -0.15137535 -0.50939906 -6e-45 -0.6366561 -6e-45 0.0

exp_avg_sq f4 [2, 24]
00000000: b9d3 9412 0000 0000 397e e540 b245 6442
00000010: 7d37 043e 101f 9e42 0000 0000 dbd9 8c42
00000020: 8d9d 8c41 3232 3e42 6d70 6942 d806 7142
00000030: 0000 0000 aab7 8f3f cdfa 9d1e 65e7 8342
00000040: 71f5 ef3d 0b3f a042 ce00 623d 8bab 8742
00000050: 6142 1b17 8e1a a542 c900 0f16 0000 0000
00000060: d97e 8212 0000 0000 9590 ee40 1f5f 9c42
00000070: c4d0 7b3f 0a1d c342 0000 0000 ca01 b642
00000080: 33df 5541 3181 6c42 9508 9b42 834b 9f42
00000090: 0000 0000 2833 f73f ae97 310d 0b57 a742
000000a0: d846 713f d7bc d142 c073 ab3e 9ad4 a942
000000b0: efb3 fd16 ce31 d742 18e4 cd15 0000 0000
9.392307e-28 0.0 7.171658 57.06806 0.12911792 79.06067 0.0 70.4255
17.57693 47.54902 58.35979 60.256683 0.0 1.1227925 1.672675e-20 65.95194
0.11716736 80.12313 0.05517655 67.835045 5.0166983e-25 82.551865 1.1551696e-25 0.0
8.235424e-28 0.0 7.455149 78.18578 0.98365426 97.55672 0.0 91.003494
13.366992 59.126163 77.51676 79.647484 0.0 1.9312487 5.4724914e-31 83.670006
0.94248724 104.86883 0.33486748 84.91524 4.0987909e-25 107.597275 8.315871e-26 0.0

exp_avg f4 [2]
00000000: 58cf 223d 03b9 bbbd
0.03974852 -0.091661476

exp_avg_sq f4 [2]
00000000: 55f7 913f c454 a63f
1.1403605 1.2994618
