cartpole_enhanced_final.pth (torch, 122654 bytes, 32 tensors)

fc1.weight f4 [64, 8]
0	0xbe06fa43	-0.13181405
1	0x3e5b7979	0.21433057
2	0x3e964b06	0.29354113
3	0x3db63176	0.08896153
4	0xbdedb70c	-0.11607179
5	0x3e84742d	0.25869885
6	0xbc9d6ce6	-0.019216966
7	0x3eb99e70	0.3625369
8	0xbef9fa61	-0.48823836
9	0x3db83b36	0.089956686
10	0xbc870962	-0.016483966
11	0x3dd296a8	0.10282642
12	0x39fd58cb	0.00048322076
13	0x3ad89aa9	0.0016525585
14	0xbc64ae53	-0.013957578
15	0xbdd07e96	-0.10180394
16	0xbced0c92	-0.028936658
17	0xbe6952fa	-0.2278556
18	0xbfa04350	-1.2520542
19	0xbeb5e8f3	-0.3552929
20	0xb99fd23b	-0.00030483477
21	0xbcf58da1	-0.02997476
22	0xbf12ec6e	-0.57392013
23	0xbf38a516	-0.721269
24	0x3e8ee3e6	0.27908248
25	0xbe83ee8e	-0.2576794
26	0xbf2ca2be	-0.67435825
27	0xbe29a2a5	-0.1656595
28	0x3e6ac1bc	0.22925466
29	0x3e5896d8	0.21151292
30	0x3da23f21	0.07922197
31	0x3d8cd640	0.068768024
32	0x3e997525	0.29972187
33	0x3e9d840a	0.307648
34	0x3f8fc0bd	1.1230694
35	0x3e6f4862	0.23367456
36	0x3eafd0d1	0.34339002
37	0xbe2f2e0e	-0.17107412
38	0x3e2b59af	0.1673343
39	0xbed53d16	-0.41648167
40	0xbe70a942	-0.23502067
41	0x3e06740e	0.13130209
42	0x3ee28a4c	0.44246137
43	0x3dab47f6	0.08363335
44	0xbf2feadb	-0.68717736
45	0xbf2ab384	-0.6668017
46	0xbe221f91	-0.15832354
47	0xbd7377a7	-0.05944028
48	0x3e2f9832	0.17147902
49	0x3e3623c4	0.17787081
50	0x3ef84c27	0.484956
51	0x3e0d1e7f	0.13781165
52	0xbb0499c5	-0.0020233255
53	0x39529811	0.0002008381
54	0xbeeb8cda	-0.460059
55	0xbf174e7a	-0.5910412
56	0xbd4f27ac	-0.050574943
57	0xbe81818d	-0.25294152
58	0xbf59f80c	-0.85144114
59	0x3d0bd38a	0.034137286
60	0xbe89f978	-0.26948142
61	0x3e6314d8	0.2217592
62	0xbf18f5e4	-0.597502
63	0xbe92cf85	-0.2867395
64	0xbe5a2b2f	-0.21305536
65	0x3e634fd8	0.22198427
66	0xbfc6448b	-1.5489668
67	0x3db6442e	0.08899723
68	0x3cb55fe5	0.022140453
69	0x3c20e48e	0.009820117
70	0x3d5614be	0.052265875
71	0xbc94fbd4	-0.018186487
72	0x3e49d239	0.197091
73	0xbd430286	-0.04760983
74	0xbfa06a4e	-1.2532442
75	0xbdf5afb2	-0.11996402
76	0x3d70d967	0.05880108
77	0x3cba7f1f	0.022765694
78	0x3d90d433	0.07071724
79	0xbe8fde1f	-0.28099152
80	0xbe73ed3c	-0.23820966
81	0xbe0d742f	-0.13813852
82	0xbfa2ea1e	-1.2727697
83	0xbe3317d7	-0.17489563
84	0x3caa4243	0.02078355
85	0x3c9b7882	0.018978361
86	0xbe156c51	-0.145921
87	0xbe1655eb	-0.14681213
88	0x3ddbe59c	0.10737154
89	0xbe3d322e	-0.18476173
90	0xbfe8fe34	-1.8202577
91	0xbec2afe6	-0.38024825
92	0x3ca2811d	0.019836957
93	0xbd03de60	-0.032194495
94	0xbe914db0	-0.28379583
95	0x3d1c407e	0.038147442
96	0x3da0695e	0.07832597
97	0x3df2248e	0.118233785
98	0x3ee66486	0.44998568
99	0xbdc39e98	-0.09551734
100	0x3e723816	0.23654208
101	0x3e4af7a3	0.19821028
102	0x3e5b25d4	0.21401149
103	0x3eb6bcf8	0.35691047
104	0x3e87b24d	0.2650322
105	0xbe26a32b	-0.16273181
106	0x3f7a4991	0.97768503
107	0xbdc026d0	-0.09382403
108	0xbd7a5762	-0.06111849
109	0x3e21bf7c	0.15795702
110	0xbdb55765	-0.0885456
111	0xbda2057d	-0.07911203
112	0x3e381385	0.17976196
113	0x3ea33cb7	0.3188226
114	0xbe959483	-0.29214868
115	0x3d8469ed	0.06465516
116	0x3d1d7aee	0.038447313
117	0xbd674a15	-0.056467135
118	0xbc822597	-0.015887065
119	0xbe507a14	-0.20359069
120	0xbd2351d3	-0.039872956
121	0xbd848dd1	-0.06472362
122	0xbf1ba4c0	-0.60798264
123	0xbe38138b	-0.17976205
124	0x3e045878	0.12924373
125	0xbd667bbe	-0.056270353
126	0x3e3c7f5b	0.18407957
127	0x3e55e2e0	0.20887327
128	0x3dae73a4	0.085181504
129	0xbe9ad360	-0.3023939
130	0xbf576630	-0.841403
131	0xbe4e6077	-0.20153986
132	0xbe1e4b9a	-0.15458527
133	0x3e287bf0	0.16453528
134	0xbf105dc4	-0.56393075
135	0xbf299bd6	-0.6625341
136	0x3f23d217	0.63992447
137	0x3c86ccaa	0.016455013
138	0xbfc0a7c0	-1.5051193
139	0xbe825e51	-0.25462583
140	0xbd0d399f	-0.03447878
141	0xbcfa27e3	-0.030536598
142	0xbcde2882	-0.027118925
143	0xbe9c6e70	-0.30553007
144	0x3e0b43d3	0.13600092
145	0xbe3dff19	-0.18554343
146	0xbf89d7c1	-1.0768968
147	0xbe854df7	-0.26036045
148	0x3dd089d1	0.101825364
149	0x3e1ece2d	0.15508337
150	0xbec50dd1	-0.38487104
151	0x3e8a1deb	0.2697595
152	0xbe7987ba	-0.24368182
153	0xbc98f5fd	-0.018671984
154	0x3f0cc44e	0.5498704
155	0xbd5c2df1	-0.05375475
156	0xbea17eb6	-0.31541985
157	0x3d3f4cb5	0.046704013
158	0xbec7c1bc	-0.39014995
159	0xbee5f85e	-0.44916052
160	0xbdb6b054	-0.08920351
161	0x3e55b291	0.20868899
162	0xbf9492ce	-1.1607301
163	0x3afc20b4	0.001923582
164	0xbe8aea72	-0.27131993
165	0xbec4e176	-0.38453263
166	0xbcf647cb	-0.03006353
167	0xbe8b2f2c	-0.27184427
168	0x3e0c71d4	0.13715297
169	0xbc146c4a	-0.009059021
170	0xbf17fea8	-0.5937295
171	0x3e12231a	0.14271203
172	0xbd4e22ea	-0.050326265
173	0xbd1fb69c	-0.03899251
174	0xbe94662a	-0.28984195
175	0xbe943e92	-0.28953987
176	0xbe0a54c4	-0.13508898
177	0x3e5c81bf	0.21533869
178	0x3f4b1ec6	0.7934383
179	0x3e709428	0.23494017
180	0x3e863208	0.26210046
181	0x3d97a9d6	0.074054405
182	0x3e342a82	0.1759434
183	0x3e974f7e	0.29552835
184	0x3c1012a5	0.008793508
185	0xbe82b87e	-0.2553138
186	0xbf5f9530	-0.8733702
187	0xbe4cc099	-0.19995345
188	0x3eafe160	0.34351635
189	0x3d8b2511	0.06794179
190	0xbd8b1897	-0.067917995
191	0xbdb194a3	-0.08670928
192	0x3cff8c74	0.031194903
193	0xbe04c38c	-0.1296522
194	0xbe47df1f	-0.19518708
195	0xbc3d3b58	-0.011549793
196	0xbd2bfaf0	-0.04198736
197	0xbe2a3e35	-0.16625293
198	0x3e48cac8	0.19608605
199	0xbe808729	-0.2510312
200	0x3e5295dc	0.2056498
201	0xbcf698df	-0.030102191
202	0x3e16a8cc	0.14712828
203	0xbd4e41da	-0.05035577
204	0xbdc624d4	-0.09674993
205	0xbdc66fe8	-0.09689313
206	0xbe94e21e	-0.29078764
207	0xbea64d6e	-0.3248095
208	0xbf28d7fa	-0.65954554
209	0xbbbcffb3	-0.0057677864
210	0xbe6ca39c	-0.23109287
211	0x3e7b4365	0.24537428
212	0x3ea9dfb0	0.33178473
213	0xbda71663	-0.08158567
214	0xbee74c92	-0.45175606
215	0xbecb91cc	-0.39759672
216	0xbd20436a	-0.03912679
217	0x3dcc4b18	0.099752605
218	0x3ee8cbd7	0.45468017
219	0x3e87b200	0.2650299
220	0xbe33516d	-0.1751153
221	0x3e33ac78	0.1754626
222	0x3e762939	0.24039163
223	0x3d55d61a	0.052206136
224	0xbec7679a	-0.3894623
225	0xbe615c3b	-0.2200784
226	0x3ef8f5a8	0.4862492
227	0xbdb77a3f	-0.089588635
228	0xbe623a1f	-0.22092484
229	0xbe6a4d12	-0.22880962
230	0xbe16302a	-0.1466681
231	0xbd05e20b	-0.032686274
232	0x3e2d2a33	0.16910629
233	0x3d963f14	0.0733625
234	0xbf8c4f8f	-1.0961779
235	0xbb95b497	-0.004568647
236	0xbc667091	-0.014064924
237	0xbe93e07b	-0.28882203
238	0xbed4f70e	-0.41594738
239	0xbd4b01ad	-0.049562145
240	0x3f0166c4	0.5054743
241	0xbea2cb14	-0.3179556
242	0x3f030d35	0.5119203
243	0xbe2dc9d2	-0.1697152
244	0xbec7f3bd	-0.39053145
245	0xbe9cb65f	-0.30607888
246	0xbdc8d184	-0.09805587
247	0x3e00588a	0.12533775
248	0x3e2f14f2	0.17097834
249	0xbe3cee10	-0.18450189
250	0x3f5ab0f1	0.8542624
251	0xbe4958fe	-0.19662854
252	0xbe542d49	-0.207204
253	0x3e9d2119	0.30689314
254	0x3d069f7b	0.032866936
255	0xbe3b9344	-0.18317896

fc1.bias f4 [64]
0	0x3ebe9edd	0.37230578
1	0xbebf3eb5	-0.3735253
2	0xbf130b4c	-0.5743911
3	0xbe82d86a	-0.25555736
4	0xbe8be792	-0.27325112
5	0x3dc34ae2	0.09535767
6	0x3e070b40	0.13187885
7	0xbe28f838	-0.16500938
8	0xbe720e15	-0.23638184
9	0x3ec13e64	0.37742913
10	0xbecec112	-0.40381676
11	0xbf013ddb	-0.5048501
12	0x3e25e558	0.16200769
13	0xbe34b5d6	-0.1764749
14	0xbe8905c2	-0.26762205
15	0x3ed73bda	0.4203785
16	0xbe3e4294	-0.18580085
17	0xbf13bfa4	-0.57714295
18	0x3ee49f6e	0.44652885
19	0xbf15bdb5	-0.58492595
20	0xbe8566c0	-0.26054955
21	0x3df61c77	0.12017148
22	0x3ea1368e	0.31486934
23	0xbea38c0f	-0.31942794
24	0xbe9f3124	-0.3109218
25	0xbe7a2426	-0.24427852
26	0xbedbfe52	-0.42967469
27	0x3f107407	0.56427044
28	0xbf1a6cbf	-0.60322183
29	0x3dfae333	0.12250366
30	0xbe553e2b	-0.20824496
31	0x3ef57364	0.479396
32	0x3e9f052c	0.31058633
33	0xbed098aa	-0.40741473
34	0x3ebbac8e	0.36655086
35	0xbe6627ab	-0.2247607
36	0x3e87612d	0.26441327
37	0x3f0e0e86	0.5549091
38	0x3e1453f2	0.14485148
39	0xbd86df76	-0.065855905
40	0x3edf9c09	0.43673733
41	0xbe860bb2	-0.26180798
42	0x3e4324cc	0.19057006
43	0xbee87fa3	-0.4540988
44	0x3ebaa06c	0.36450517
45	0x3e3ea280	0.18616676
46	0x3b9b90d0	0.0047474876
47	0x3e715a58	0.2356962
48	0xbf1ca0ff	-0.6118316
49	0x3e9dfd3f	0.30857274
50	0xbeae71a2	-0.3407107
51	0x3efea4fc	0.49735248
52	0x3ed11351	0.4083505
53	0x3df197b9	0.11796517
54	0x3d29d4b2	0.041462608
55	0xbf3a9803	-0.728882
56	0x3eb0fd5e	0.34568304
57	0x3e87b305	0.2650377
58	0x3f155b31	0.5834227
59	0xbe0f7fc6	-0.14013585
60	0xbe1b44b8	-0.15162933
61	0xbc58cdfe	-0.013232706
62	0x3efcc2d2	0.49367386
63	0x3efb215d	0.49048892

fc2.weight f4 [64, 64]
0	0xbc27da20	-0.010244876
1	0xbd50a528	-0.050938755
2	0xbdd824b8	-0.105538785
3	0x3d3b28ad	0.04569309
4	0x3cb7a53b	0.022417655
5	0x3da8f0f7	0.082490854
6	0xbd08e8a0	-0.033424973
7	0x3ddbfb2e	0.10741268
8	0x3d1cfa8b	0.038324874
9	0xbda2b99a	-0.07945557
10	0xbb9358a0	-0.004496649
11	0x3de182e8	0.110112965
12	0xbcca3176	-0.024681788
13	0xbda8875e	-0.08228944
14	0x3db84ee4	0.08999422
15	0xbddf1d20	-0.10894227
16	0xbcd2f028	-0.025749281
17	0x3d24f4d0	0.040272534
18	0x3d64efe7	0.05589285
19	0x3d1c6a74	0.03818746
20	0xbd8c61b6	-0.068545744
21	0x3d4cbfd3	0.049987625
22	0xbdcf9bfa	-0.10137172
23	0xbd9d9b8a	-0.07695682
24	0x3d8969f6	0.067096636
25	0x3de349fe	0.11098097
26	0x3c11bcf0	0.008895144
27	0xbd9d07cd	-0.076675035
28	0x3d19a190	0.037507594
29	0xbd4f0ae3	-0.05054749
30	0x3dd6dfc6	0.104919
31	0xbd20def3	-0.03927512
32	0x3d400bf8	0.046886414
33	0x3dd0b906	0.101915404
34	0xbd91be7f	-0.07116412
35	0xbc9012a3	-0.017587012
36	0x3d5e7862	0.054314025
37	0xbdfe47bc	-0.12416026
38	0xbd790348	-0.060794145
39	0xbde9d3e2	-0.114173666
40	0x3d9d3181	0.07675458
41	0xbcdb3258	-0.026757404
42	0x3d0b217a	0.033967473
43	0x3dcba8ac	0.09944281
44	0x3adc9fdd	0.0016832311
45	0x3da11a39	0.0786633
46	0xbc9f4e6b	-0.019446572
47	0xbd993dc7	-0.07482486
48	0xbd65c9cf	-0.056100663
49	0x3cb83a5f	0.022488771
50	0xbda071f4	-0.07834235
51	0x3d534092	0.05157525
52	0x3d831ff0	0.06402576
53	0xbda4586c	-0.08024678
54	0xbdeeacea	-0.116540745
55	0x3da28aac	0.07936606
56	0xbe0a0d54	-0.13481647
57	0x3d41739e	0.0472294
58	0x3d90c8a8	0.07069522
59	0x3c3b6894	0.011438508
60	0xbcd9bb18	-0.026578471
61	0xbcfbf048	-0.030754223
62	0xbd47a38b	-0.04873995
63	0x3dcfb262	0.10141446
64	0xbd93d970	-0.07219207
65	0xbd3c1dd9	-0.045926902
66	0x3f05aa7f	0.5221328
67	0xbe4dd61f	-0.20101212
68	0xbeb13d99	-0.34617308
69	0xbe7965e7	-0.24355279
70	0xbd4a2963	-0.049355876
71	0x3dbbc3da	0.09168215
72	0x3d55e4b2	0.052220054
73	0x3d27e38d	0.040988494
74	0x3edf8f51	0.4366403
75	0x3f69857b	0.912193
76	0xbdac04fd	-0.08399389
77	0xbf0e80e1	-0.55665404
78	0xbbfe15c0	-0.0077540576
79	0xbde17087	-0.11007791
80	0x3d4b6037	0.049652305
81	0x3e63b99f	0.22238778
82	0xbe37b6c5	-0.17940815
83	0xbe918d3d	-0.2842807
84	0x3eb2597b	0.34833893
85	0x3d41c23c	0.047304377
86	0xbedafba3	-0.4277011
87	0xbcb21bb5	-0.021741727
88	0x3bfebd0d	0.0077740015
89	0xbd682700	-0.05667782
90	0xbd955c88	-0.072930396
91	0xbcadb2f0	-0.021203488
92	0xbe7d3f78	-0.24731243
93	0x3dd50542	0.104013935
94	0xbdaec43b	-0.08533522
95	0xbe54b7dc	-0.20773262
96	0xbd98f73f	-0.074690334
97	0x3d78464d	0.06061392
98	0xbdc63256	-0.096775696
99	0xbd7878dc	-0.060662135
100	0x3d847d16	0.06469171
101	0xbcfecdc2	-0.031103972
102	0xbf32a5f4	-0.69784474
103	0xbd0162f8	-0.031588525
104	0xbec5f965	-0.38666835
105	0x3e56c2cb	0.20972745
106	0xbe196d2c	-0.14983052
107	0x3e92ef8b	0.28698382
108	0xbd1fe04f	-0.039032277
109	0xbecd5805	-0.40106216
110	0xbdc5cf3b	-0.09658667
111	0xbe79216b	-0.24329154
112	0x3c84db13	0.016217744
113	0x3e4a3a89	0.19748892
114	0xbed53395	-0.41640916
115	0x3d400eb1	0.04688901
116	0xbe6f3efc	-0.2336387
117	0xbc60ed98	-0.013728522
118	0xbe54fff6	-0.20800766
119	0xbe80bc6c	-0.25143754
120	0xbc98ebc9	-0.018667119
121	0x3bc89f3b	0.0061224974
122	0xbdec3d8f	-0.11535179
123	0x3d4267c0	0.047462225
124	0x3e250e7a	0.16118804
125	0x3dccf82d	0.10008273
126	0xbc243de3	-0.010024521
127	0xbd65bf84	-0.056090847
128	0xbcd08c05	-0.025457392
129	0x3ef5b987	0.4799311
130	0xbed633ff	-0.41836545
131	0xbd8b8909	-0.06813247
132	0x3eb17d4f	0.34665915
133	0x3df41c71	0.11919487
134	0xbd5368be	-0.05161356
135	0xbcf5a0a8	-0.029983833
136	0xbec69194	-0.38782942
137	0xbe3a1e0c	-0.18175524
138	0xbd986b96	-0.074423954
139	0xc0171cfc	-2.361144
140	0x3e267e31	0.16259076
141	0x3ee5c902	0.4487992
142	0x3e8e55ac	0.27799737
143	0xbc272404	-0.010201458
144	0xbd9b80a9	-0.07592899
145	0xbf1eb343	-0.6199228
146	0x3c743c5b	0.014906968
147	0x3d601c1d	0.05471431
148	0xc0162762	-2.3461537
149	0xbda46333	-0.08026733
150	0x3e2d28b9	0.16910066
151	0xbda9c19a	-0.0828888
152	0xbd61a783	-0.055091392
153	0x3d4bfcb8	0.04980156
154	0x3e723fa3	0.23657088
155	0x3d06a010	0.03286749
156	0x3db2b17a	0.08725257
157	0xbdc01d42	-0.093805805
158	0x3e57d2dc	0.2107653
159	0x3ceed87f	0.029155968
160	0x3cfa3315	0.030541936
161	0xbe4924e3	-0.19642977
162	0x3dd6480d	0.10462961
163	0x3e9a6085	0.30151764
164	0xbdde67f0	-0.10859668
165	0x3e42b2e8	0.1901356
166	0x3e96b5fe	0.29435724
167	0x3e4c07bd	0.19924827
168	0x3dc2a2ca	0.09503706
169	0xbe60ed25	-0.21965463
170	0x3dedeb1b	0.116171084
171	0xc01b9c84	-2.431428
172	0xbcf65836	-0.03007136
173	0x3e893516	0.26798314
174	0x3e977e8d	0.29588738
175	0x3e450dd6	0.19243559
176	0x3f18e1ef	0.5971975
177	0x3eb10e14	0.34581053
178	0x3e7d12bc	0.24714178
179	0xbe9001e7	-0.2812645
180	0x3e0f4de3	0.13994555
181	0x3f95ba06	1.1697395
182	0x3e7d48b2	0.24734762
183	0x3f2c8c4f	0.67401594
184	0xbbe214cd	-0.0068994523
185	0x3cc0a216	0.023514789
186	0x3dc825b0	0.09772813
187	0x3e872164	0.26392663
188	0xbeccf93f	-0.4003391
189	0x3e40d495	0.18831094
190	0x3e13c954	0.1443227
191	0x3e17b030	0.14813304
192	0x3d0e02a5	0.03467049
193	0xbdfa1d45	-0.12212614
194	0xbdf28448	-0.11841637
195	0x3d8c0062	0.068360105
196	0xbe1b9cce	-0.15196535
197	0xbd764fdc	-0.060134754
198	0xbd5c1084	-0.053726688
199	0xbd3aa56c	-0.045567915
200	0x3cfa48fb	0.030552378
201	0xbd9c4e6d	-0.07632146
202	0xbddc1c46	-0.1074758
203	0x3d51c954	0.051217392
204	0x3cb19554	0.02167765
205	0xbc79f578	-0.015256278
206	0xbd30f3d0	-0.043201268
207	0xbe0185e6	-0.12648734
208	0xbce00818	-0.02734761
209	0x3d19e08c	0.03756766
210	0x39caebf6	0.00038704247
211	0x3dd56aac	0.10420737
212	0x3c056720	0.008142263
213	0x3c2bb4e3	0.0104801385
214	0x3da09abc	0.07842013
215	0x3dbbb9fc	0.09166333
216	0x3d4953d8	0.049152225
217	0xbca204f0	-0.019777745
218	0xbce0f82e	-0.027462091
219	0xbc1d553b	-0.00960284
220	0xbd7869c8	-0.060647756
221	0x3d141579	0.03615329
222	0x3de73fa8	0.11291438
223	0xbe13fdab	-0.14452235
224	0xbdd9736f	-0.1061772
225	0xbd7d8247	-0.06189182
226	0xbdc94833	-0.09828224
227	0x3d002492	0.031284876
228	0xbe06ab50	-0.13151288
229	0x3d210b3f	0.039317366
230	0x3d9d92e2	0.07694031
231	0xbd15fe30	-0.036619365
232	0xbca0655b	-0.01957958
233	0xbc3456e0	-0.011007041
234	0xba24ec17	-0.00062912836
235	0xbcce9a60	-0.025220096
236	0xbd461f98	-0.048369974
237	0x3db7ceb2	0.08974971
238	0xbd848591	-0.06470788
239	0xbdebb54d	-0.1150919
240	0x3cc41e40	0.023940206
241	0xbd78717c	-0.060655102
242	0xbd95e3b3	-0.07318821
243	0xbd70adfe	-0.058759682
244	0xbdd8b008	-0.1058045
245	0x3b6770c0	0.0035315007
246	0xbce5ae88	-0.028037325
247	0xbd5ec9a8	-0.054391533
248	0x3dc43742	0.09580852
249	0xbdc9cf02	-0.09853937
250	0x3cd459fd	0.025921816
251	0xbdee79b7	-0.11644309
252	0xbd879f30	-0.066221595
253	0xbd83ed5a	-0.064417556
254	0xbdd70268	-0.10498506
255	0xbd92ee0e	-0.071743116

fc2.bias f4 [64]
0	0xbdc0da1b	-0.094166
1	0xbe1221cc	-0.14270705
2	0xbe742f8a	-0.2384626
3	0xbd5957c9	-0.053062234
4	0xbd6f1fd9	-0.05837998
5	0x3e6b92e9	0.2300526
6	0xbd7de942	-0.06199003
7	0x3e8bdeec	0.27318513
8	0x3ee1d0dd	0.44104663
9	0x3eb222fd	0.3479232
10	0xbc121cbc	-0.008917984
11	0xbe15c85c	-0.14627212
12	0x3e4da5ac	0.2008273
13	0x3eb16769	0.34649208
14	0x3e4615b9	0.19344224
15	0x3d92e828	0.071731865
16	0xbc7be991	-0.015375511
17	0xbd2e894c	-0.042611405
18	0x3ecaba62	0.39595324
19	0xbcf0c483	-0.02939058
20	0x3e803efc	0.25048053
21	0xbd87c991	-0.066302426
22	0x3e6fe9ca	0.23429027
23	0xbe03086b	-0.1279618
24	0x3ea2ad6f	0.31772944
25	0x3ea7a0c6	0.32739848
26	0x3ea9fca5	0.33200565
27	0xbe6ce032	-0.23132399
28	0x3e672b81	0.22575189
29	0x3e8e9f2e	0.2785582
30	0x3e357d83	0.1772366
31	0x3ece84ef	0.40335795
32	0x3e9823c7	0.29714796
33	0x3e1b0f67	0.15142594
34	0x3ec57c79	0.38571528
35	0xbdb2d94a	-0.08732851
36	0x3e8bfce5	0.2734138
37	0xbd97752b	-0.07395395
38	0x3e93e7a0	0.28887653
39	0x3ec57124	0.38562882
40	0x3e3f0cba	0.18657199
41	0x3da2f229	0.07956345
42	0xbd72daab	-0.05929057
43	0x3ec878c9	0.39154652
44	0x3d416c70	0.047222555
45	0x3ec0587c	0.37567508
46	0x3e8d1f8e	0.27563137
47	0x3cb84fcc	0.022498988
48	0x3eafaa55	0.3430964
49	0x3e223bbb	0.15843098
50	0x3e984e91	0.2974744
51	0xbe0a60b6	-0.13513455
52	0x3e4a1715	0.19735368
53	0xbe0cd3c1	-0.13752653
54	0xbdac24aa	-0.084054306
55	0xbe67a3c6	-0.22621068
56	0x3d067c49	0.03283337
57	0x3e544933	0.20731048
58	0x3cd68422	0.026186053
59	0x3ea301f0	0.31837416
60	0x3de42a8e	0.11140929
61	0xbdfdb8e0	-0.12388778
62	0x3ec842a8	0.39113355
63	0x3eaab6bf	0.3334255

fc3.weight f4 [32, 64]
0	0xbd2d0194	-0.042237833
1	0xbebfa289	-0.37428692
2	0xbe28e078	-0.16491878
3	0xbd3da70f	-0.046301898
4	0x3de51ba7	0.11186915
5	0x3e72a40e	0.23695394
6	0x3da66d45	0.0812631
7	0x3e56c4a3	0.20973448
8	0x3e89ea35	0.26936498
9	0x3e7ea0dd	0.24866052
10	0xbdda384a	-0.106552675
11	0x3d1c6f63	0.038192164
12	0x3e604d37	0.21904455
13	0x3e31834f	0.17335247
14	0xbc834914	-0.016026057
15	0xbea605de	-0.3242635
16	0xbc3525f5	-0.011056413
17	0xbe4e7e24	-0.20165306
18	0x3d57ab75	0.05265375
19	0xbc29017f	-0.010315298
20	0x3d01ef3d	0.031722296
21	0x3d1b62c3	0.037935983
22	0xbd6c9aea	-0.057764925
23	0xbfcc7d5a	-1.5975754
24	0x3e22f339	0.15913095
25	0x3e2918e7	0.16513406
26	0x3cff88c2	0.03119314
27	0xbf735044	-0.9504435
28	0x3d8b4ea2	0.068021074
29	0x3df03177	0.11728185
30	0x3e67bced	0.22630663
31	0x3c5927d3	0.013254124
32	0x3e66c8ed	0.22537585
33	0x3e584033	0.2111824
34	0x3de7976e	0.1130818
35	0xbd112543	-0.035435926
36	0x3e75489c	0.2395348
37	0x3dab4b3c	0.08363959
38	0x3d923120	0.07138276
39	0x3e88e26f	0.26735255
40	0x3d8b6cc6	0.06807856
41	0xbdb98cc4	-0.09060052
42	0x3d5f3416	0.054493032
43	0x3de66702	0.11250116
44	0x3d55e53e	0.052220576
45	0x3e3a350d	0.181843
46	0x3c09de2a	0.008414784
47	0x3dd87907	0.10569959
48	0x3e254a2d	0.16141577
49	0x3e4ee101	0.2020302
50	0x3e52a925	0.20572336
51	0xbd92bbaa	-0.071647
52	0x3dcc46d7	0.09974449
53	0x3d16370d	0.036673594
54	0x3d02ca18	0.031931013
55	0xbfad78d6	-1.3552501
56	0x3d2b10a9	0.041763935
57	0x3e12fa8b	0.14353387
58	0x3dabf001	0.083953865
59	0x3e6a1e67	0.2286316
60	0x3cb3b0aa	0.021934826
61	0xbd33b1cf	-0.043870743
62	0x3e9e3bd7	0.3090503
63	0x3df4f2f4	0.11960402
64	0xbdc16a8c	-0.0944415
65	0x3dfec111	0.12439168
66	0xbe01d55c	-0.12679046
67	0xbda180bc	-0.07885882
68	0x3deea65c	0.11652824
69	0xbd85b986	-0.065295264
70	0xbdeed85e	-0.116623625
71	0x3da6b6d3	0.0814034
72	0xbdadec20	-0.08492303
73	0xbc1ba14f	-0.009498908
74	0x3c464b00	0.012102842
75	0xbcacd3d0	-0.021097094
76	0x3d1e15cd	0.03859501
77	0xbda66f81	-0.081267364
78	0xbd2c5a61	-0.04207838
79	0x3d6ce414	0.0578347
80	0xbb981800	-0.004641533
81	0x3caeb3fe	0.021326061
82	0xbd71da66	-0.05904617
83	0x3db1527e	0.08658312
84	0xbaf7dbea	-0.0018910144
85	0x3d9ba3d8	0.0759961
86	0x3db722b2	0.089421645
87	0xbd6c4a70	-0.057688177
88	0x3d9e73ca	0.07736929
89	0xbd874c9b	-0.06606408
90	0x3d799644	0.06093432
91	0xbd8f8b6d	-0.07009015
92	0xbd3dbefe	-0.046324722
93	0x3c6d3f94	0.01448049
94	0x3d996995	0.07490841
95	0xbcd5afff	-0.026084898
96	0xbd8b919d	-0.06814883
97	0xbcbcf09f	-0.023063956
98	0xbe05cd21	-0.13066532
99	0x3d44ac98	0.04801616
100	0x3d7b3df2	0.061338373
101	0xbdff8d38	-0.12478107
102	0x3d206464	0.03915824
103	0xbe01423f	-0.12622927
104	0xbe0affed	-0.1357419
105	0xbdce3a6e	-0.10069738
106	0xbc8437d0	-0.016139895
107	0xbdc919fb	-0.098194085
108	0xbd97d99a	-0.07414551
109	0x3db1be0a	0.08678825
110	0xbd8f9847	-0.070114665
111	0x3d8f1888	0.06987101
112	0x3db12170	0.08648956
113	0xbdd45404	-0.10367587
114	0xbdd13ed8	-0.102170646
115	0xbdf99cd6	-0.12188117
116	0x3dad76e3	0.084699415
117	0x3bf099a0	0.0073425323
118	0xbdfd8432	-0.1237873
119	0xbd6a501f	-0.057205316
120	0x3daea0a3	0.08526733
121	0xbdb66c19	-0.08907337
122	0x3de82b0e	0.11336337
123	0xbc8d0bd3	-0.017217552
124	0x3c022d15	0.007945319
125	0x3d720618	0.059087843
126	0xbd0cd2f9	-0.034380887
127	0xbdbe7bd6	-0.093009636
128	0x3d45674f	0.048194226
129	0x3e0eff24	0.13964516
130	0x3ea1eee5	0.31627575
131	0xbd8ea64c	-0.06965312
132	0xbbb961c2	-0.0056574056
133	0xbc326615	-0.010888596
134	0xbde6be22	-0.11266734
135	0xbe24ffe8	-0.16113245
136	0x3e92a1e7	0.28639147
137	0xbf57bcb1	-0.84272295
138	0x3d72a2fc	0.059237465
139	0xbdc234f5	-0.09482757
140	0xbf8bdffa	-1.0927727
141	0xbd9356f2	-0.07194318
142	0xbd0e31b9	-0.034715388
143	0xbd690ed8	-0.05689892
144	0x3dadee96	0.08492772
145	0x3dd65006	0.10464482
146	0x3dd97ac9	0.106191225
147	0xbdbd36e0	-0.09238982
148	0xbe2cba0e	-0.16867849
149	0xbc1b83b1	-0.009491847
150	0x3df275dc	0.11838886
151	0xbdcdb93b	-0.100450955
152	0x3e702fce	0.23455736
153	0x3ea49ec0	0.32152367
154	0xbf08a35c	-0.53374267
155	0x3d8830ae	0.0664991
156	0x3deb3d78	0.114863336
157	0x3da93c37	0.08263438
158	0xbfd072a4	-1.6284986
159	0x3e37f789	0.17965521
160	0x3e51cfc3	0.20489411
161	0xbf1e5107	-0.6184239
162	0xbf20ce06	-0.62814367
163	0x3daaef34	0.083464056
164	0xbeef7dbe	-0.4677562
165	0xbd90fa80	-0.07079029
166	0x3e898c68	0.26864934
167	0xbf491229	-0.78543335
168	0xbf72e35c	-0.9487817
169	0xbd5ff699	-0.054678533
170	0x3d929f18	0.07159251
171	0xbfc5c1ab	-1.5449728
172	0x3d2be0c0	0.041962385
173	0xbe956928	-0.2918179
174	0x3e88f4d3	0.26749286
175	0xbd5688e2	-0.052376635
176	0x3df3790e	0.11888324
177	0xbf2a6e03	-0.66574115
178	0x3e6e91bc	0.23297781
179	0x3cad099e	0.02112275
180	0xbd1156d7	-0.035483208
181	0xbd799fe0	-0.060943484
182	0x3dc948b0	0.09828317
183	0x3f2d8515	0.6778119
184	0xbee75ec9	-0.45189503
185	0x3d980e8b	0.07424649
186	0xbd01de8c	-0.031706378
187	0xbec68cfa	-0.38779432
188	0x3e4a397f	0.19748496
189	0x3d767052	0.06016571
190	0x3e80d86f	0.25165126
191	0x3e45a700	0.19301987
192	0xbdd6f750	-0.1049639
193	0x3e2e8164	0.17041546
194	0x3e292555	0.16518147
195	0xbceb2096	-0.028702062
196	0x3cac952a	0.02106722
197	0x3d31987f	0.043358322
198	0xbc50e21f	-0.012749224
199	0x3e61d5cf	0.22054218
200	0x3de3c4c9	0.11121518
201	0x3e9fed4e	0.31235737
202	0x3a221838	0.00061834184
203	0x3d26d0da	0.04072652
204	0x3e8cd584	0.2750665
205	0x3eb621f5	0.35572782
206	0x3e441a03	0.19150548
207	0xbcc6b6a5	-0.024257014
208	0xbd927c5e	-0.071526274
209	0xbdf9091f	-0.12159943
210	0x3e3af1cc	0.182563
211	0x3dd44e41	0.10366488
212	0x3ead34be	0.33829302
213	0x3c93fb22	0.018064085
214	0x3db6c115	0.08923546
215	0xbfbe4827	-1.4865769
216	0x3e6686de	0.22512385
217	0x3e5503cb	0.20802228
218	0x3e1754f9	0.14778508
219	0xbfe39d6b	-1.7782415
220	0x3e7057ed	0.23471041
221	0x3e07282c	0.13198918
222	0x3e931aca	0.28731376
223	0x3e260531	0.16212918
224	0xbd86a986	-0.06575303
225	0x3e49edf2	0.19719675
226	0x3e8e3860	0.27777386
227	0x3da2667e	0.07929705
228	0x3e277745	0.16354091
229	0xbdea316b	-0.11435207
230	0x3e318955	0.17337544
231	0x3e889076	0.26672715
232	0x3da6c558	0.08143109
233	0xbda6afb8	-0.081389844
234	0xbc703b67	-0.0146626
235	0x3ebc94a8	0.36832166
236	0xbb295d4b	-0.002584296
237	0x3ed44c72	0.41464573
238	0x3e383e96	0.17992625
239	0xbda0e2fc	-0.07855794
240	0x3e65e7e2	0.22451738
241	0x3d4c786a	0.049919523
242	0x3e74da7f	0.23911475
243	0x3dc0c3a2	0.09412314
244	0xbcc14452	-0.023592148
245	0xbb4ba57c	-0.0031073978
246	0xbd0d9c60	-0.03457296
247	0xbfd1d69d	-1.639362
248	0xbe001d12	-0.1251109
249	0x3c005cb3	0.007834601
250	0x3d95754e	0.07297765
251	0x3e380c18	0.17973363
252	0x3d5410bd	0.051773775
253	0xbca5c1af	-0.020233957
254	0x3e77cd41	0.24199392
255	0xbc4f22ba	-0.012642557

fc3.bias f4 [32]
0	0x3e916138	0.28394485
1	0xbd33a175	-0.04385515
2	0x3c0666cd	0.008203221
3	0x3e28a0cc	0.16467589
4	0xbdc44a7a	-0.09584518
5	0x3e834741	0.256403
6	0x3eb8b87c	0.3607825
7	0xbda07014	-0.07833877
8	0x3d7f66c2	0.062353857
9	0x3eb412ca	0.35170585
10	0xbced6df8	-0.028983101
11	0x3ea10f61	0.31457046
12	0xbd8dc340	-0.069220066
13	0x3ea11177	0.31458637
14	0x3e9c06da	0.30473977
15	0x3e894590	0.26810884
16	0x3e8a7eca	0.27049857
17	0x3d8f5b3a	0.06999822
18	0x3ea251ed	0.3170313
19	0xbd8ceb82	-0.06880857
20	0x3e72017d	0.2363338
21	0xbc0f5b73	-0.008749831
22	0x3d7b0c93	0.06129129
23	0x3ccba0ca	0.024856944
24	0xbe10b3f1	-0.14131142
25	0xbdb102b4	-0.08643094
26	0xbde89469	-0.11356432
27	0x3e3c7970	0.184057
28	0x3ea60001	0.32421878
29	0x3e0dcc1a	0.1384739
30	0x3ef237cd	0.47308198
31	0x3e18e72a	0.14931932

fc4.weight f4 [2, 32]
0	0x3e89a782	0.2688561
1	0xbddc671d	-0.10761855
2	0xbf2de0f2	-0.67921364
3	0x3e833ed9	0.25633886
4	0xbc7db8b5	-0.015485932
5	0x3eff4124	0.49854386
6	0x3e7858e9	0.24252667
7	0x3d3ef672	0.046621747
8	0xbd93c957	-0.07216137
9	0x3ed93aa7	0.4242756
10	0xbc89a453	-0.016801989
11	0x3e967f68	0.29394078
12	0x3e157e3b	0.14598934
13	0x3f296e11	0.66183573
14	0x3ece55af	0.40299746
15	0x3eca5398	0.39516902
16	0x3e685d42	0.22691825
17	0x3cdaaf1d	0.026694829
18	0x3ecf8a09	0.40535
19	0x3e28139b	0.16413729
20	0xbfa48695	-1.2853571
21	0xbce67aed	-0.028134787
22	0x3b1d4cd2	0.0024002087
23	0xbe1598d6	-0.14609084
24	0xbd1a3841	-0.037651304
25	0xbdfc8f09	-0.12331969
26	0xbdaf39aa	-0.085559204
27	0x3d2b4471	0.041813318
28	0x3ed65424	0.4186107
29	0x3dd82c7a	0.10555358
30	0x3ef00f6a	0.4688676
31	0x3e998850	0.2998681
32	0x3ea5b06c	0.32361162
33	0x3e3f1b0d	0.18662663
34	0x3ee40b63	0.44539937
35	0x3ef74a9f	0.4829912
36	0x3e03a8ea	0.12857404
37	0x3ef89ec4	0.4855863
38	0x3edc6389	0.4304469
39	0xbdbe84c0	-0.09302664
40	0xbd369e8c	-0.044584796
41	0x3ec69b6f	0.3879046
42	0x3dd34d8f	0.103175275
43	0x3f07b9e0	0.53018
44	0xbdf84df6	-0.12124245
45	0x3eb940f4	0.36182368
46	0x3ed4705d	0.41491976
47	0xbdc14fa3	-0.094390176
48	0x3ebd0539	0.36918047
49	0xbd3e2ca4	-0.04642929
50	0xbd65c69c	-0.05609761
51	0x3e13f539	0.14449014
52	0xbfcc3ad3	-1.5955452
53	0xbcbb7426	-0.022882532
54	0xbd1628c6	-0.03665998
55	0xbdc36314	-0.09540382
56	0xbd945b6a	-0.07243998
57	0x3de3b250	0.11117995
58	0x3d03fd7b	0.03222416
59	0x3ef9e5e2	0.488082
60	0xbe4e24ba	-0.20131198
61	0x3f48b640	0.7840309
62	0x3e4298c3	0.19003586
63	0x3e6ea3bd	0.23304649

fc4.bias f4 [2]
0	0x3f0e9892	0.55701554
1	0x3ec18a48	0.37800813

fc1.weight f4 [64, 8]
0	0xbe03bf4e	-0.12865946
1	0x3e5e9c85	0.21739395
2	0x3e93b397	0.28847954
3	0x3db3b5c9	0.08774907
4	0xbdeb3809	-0.11485297
5	0x3e85face	0.2616791
6	0xbc980022	-0.01855475
7	0x3eb9668b	0.36211047
8	0xbef87724	-0.48528397
9	0x3dbe4c5f	0.092919104
10	0xbc557a22	-0.013029607
11	0x3dc491ed	0.09598146
12	0xba977c7e	-0.0011557487
13	0x3b0002c6	0.0019532903
14	0xbc5bd86a	-0.013418296
15	0xbdcf63de	-0.1012647
16	0xbceaef87	-0.028678669
17	0xbe69329f	-0.22773217
18	0xbfa107aa	-1.2580464
19	0xbeb7596e	-0.35810417
20	0x38c210e7	9.253789e-05
21	0xbce52d2d	-0.027975643
22	0xbf0f437e	-0.5596236
23	0xbf34fc2b	-0.7069728
24	0x3e91bf53	0.2846628
25	0xbe8602cb	-0.26174006
26	0xbf27ad4e	-0.65498817
27	0xbe26bf8b	-0.16284005
28	0x3e6c3605	0.23067482
29	0x3e53d27a	0.20685759
30	0x3da13d79	0.07873053
31	0x3d8bebb4	0.06832066
32	0x3e9c7d3e	0.30564302
33	0x3e9cbb73	0.30611762
34	0x3f8b697f	1.089157
35	0x3e72c8a6	0.23709354
36	0x3eb34076	0.35010117
37	0xbe35b519	-0.17744865
38	0x3e33117b	0.17487137
39	0xbed16141	-0.4089451
40	0xbe71a2af	-0.23597215
41	0x3e0d6268	0.1380707
42	0x3ed66f47	0.41881773
43	0x3d53ccda	0.051709034
44	0xbf2feacf	-0.68717664
45	0xbf2ab2df	-0.66679186
46	0xbe09b170	-0.13446593
47	0xbd105f2b	-0.03524701
48	0x3e27e4ee	0.16395923
49	0x3e2a5c57	0.16636787
50	0x3f012a05	0.5045474
51	0x3e0694f5	0.1314276
52	0xbbdba6dd	-0.0067032413
53	0x3856cb2b	5.121079e-05
54	0xbee966d9	-0.4558628
55	0xbf16bf18	-0.58885336
56	0xbd586973	-0.05283494
57	0xbe82db20	-0.25557804
58	0xbf5580a8	-0.8339944
59	0x3ce4d86d	0.027935231
60	0xbe8c9b28	-0.27462125
61	0x3e55f43d	0.20893951
62	0xbf191f60	-0.598135
63	0xbe931779	-0.28728846
64	0xbe5e6428	-0.21717894
65	0x3e67b9e3	0.22629504
66	0xbfc3b2f9	-1.5288993
67	0x3da5eb86	0.08101563
68	0x3c8b5437	0.01700793
69	0x3b9a52b9	0.0047095683
70	0x3d56c898	0.052437395
71	0xbc939441	-0.018015029
72	0x3e4b5a6f	0.19858716
73	0xbd4c3f3f	-0.049865004
74	0xbf9c4b27	-1.2210435
75	0xbdf45aac	-0.11931357
76	0x3d4bb1fe	0.049730293
77	0x3cbd87f1	0.023136111
78	0x3d901d19	0.070368
79	0xbe9060a8	-0.28198743
80	0xbe7175ce	-0.23580095
81	0xbe0b386f	-0.13595746
82	0xbfa00633	-1.2501892
83	0xbe382124	-0.17981392
84	0x3cb79887	0.022411598
85	0x3c1f4927	0.009722031
86	0xbe1acc26	-0.15116939
87	0xbe1bb5be	-0.15206048
88	0x3de05936	0.10954516
89	0xbe3dedee	-0.18547794
90	0xbfe7276d	-1.8058907
91	0xbec32bba	-0.38119298
92	0x3c2cd669	0.010549166
93	0xbcfa60d2	-0.030563746
94	0xbe8f70bd	-0.280157
95	0x3d2b2891	0.041786734
96	0x3dabbb1b	0.08385297
97	0x3df23b4e	0.11827718
98	0x3eeab471	0.4584079
99	0xbdb2f25d	-0.087376334
100	0x3e6ca00c	0.23107928
101	0x3e4b3758	0.1984533
102	0x3e616082	0.22009471
103	0x3eb945ed	0.36186162
104	0x3e89aaac	0.26888025
105	0xbe20930b	-0.15681092
106	0x3f6ba681	0.9205094
107	0xbdd72ef8	-0.105070055
108	0xbda5c675	-0.08094493
109	0x3e1ce50e	0.15321752
110	0xbdabe554	-0.0839335
111	0xbd9941ee	-0.07483278
112	0x3e405a13	0.1878436
113	0x3ea33dfb	0.31883225
114	0xbea13b05	-0.3149034
115	0x3da1af39	0.07894749
116	0x3cb59fed	0.022170985
117	0xbd41f6d8	-0.04735455
118	0x3c203253	0.009777623
119	0xbe363248	-0.17792618
120	0xbd2bd98b	-0.041955512
121	0xbd8ea4fc	-0.06965062
122	0xbf17c9b1	-0.5929213
123	0xbe386a11	-0.18009211
124	0x3e010e1f	0.12603043
125	0xbd686e81	-0.05674601
126	0x3e3ba033	0.1832283
127	0x3e541000	0.20709229
128	0x3dafe4fa	0.08588596
129	0xbe9b4379	-0.30324915
130	0xbf553640	-0.83285904
131	0xbe535f87	-0.2064191
132	0xbe258a96	-0.16166148
133	0x3e2af799	0.16696014
134	0xbf0faaa0	-0.5611973
135	0xbf28e5a5	-0.6597541
136	0x3f273c65	0.6532653
137	0x3c99de90	0.018782884
138	0xbfbeaa66	-1.4895751
139	0xbe6a4910	-0.22879434
140	0xbcf7faab	-0.030270895
141	0xbcf8a9d0	-0.03035441
142	0xbc9175b9	-0.01775633
143	0xbe97a34e	-0.2961678
144	0x3e088a1b	0.13333933
145	0xbe477f0e	-0.19482061
146	0xbf86c62a	-1.0529225
147	0xbe84dbbe	-0.259489
148	0x3db63078	0.088959634
149	0x3e20fba3	0.15720992
150	0xbec6168d	-0.3868908
151	0x3e88ab21	0.2669306
152	0xbe798823	-0.24368338
153	0xbc98f63d	-0.018672103
154	0x3f0cc395	0.54985934
155	0xbd5c2b20	-0.053752065
156	0xbea17eb6	-0.31541985
157	0x3d3f4d17	0.046704378
158	0xbec7c129	-0.39014557
159	0xbee5f853	-0.4491602
160	0xbdca758b	-0.09885701
161	0x3e5a801e	0.21337935
162	0xbf920f08	-1.1410837
163	0x3c12085b	0.008913125
164	0xbe8aea25	-0.27131763
165	0xbec4e139	-0.3845308
166	0xbc905055	-0.01761643
167	0xbe84cfc6	-0.2593977
168	0x3df516d6	0.11967246
169	0xbcf34ac9	-0.029698746
170	0xbf140c46	-0.5783123
171	0x3dfa04f1	0.12207974
172	0xbcc164a7	-0.023607565
173	0xbd44a7a1	-0.048011426
174	0xbe98ebfe	-0.29867548
175	0xbe9935be	-0.29923815
176	0xbe09b6fa	-0.13448706
177	0x3e5e6b58	0.21720636
178	0x3f45ba7b	0.7723767
179	0x3e6a5999	0.22885741
180	0x3e893092	0.2679487
181	0x3d9762f8	0.07391924
182	0x3e366614	0.17812377
183	0x3e97f73b	0.2968081
184	0x3c076437	0.008263639
185	0xbe8465d4	-0.2585894
186	0xbf5fb7d2	-0.8738986
187	0xbe57142f	-0.21003793
188	0x3eae10fa	0.33997327
189	0x3d816d35	0.06319658
190	0xbd905375	-0.07047168
191	0xbdb6cf83	-0.089262985
192	0x3cff8bfc	0.03119468
193	0xbe04c3ec	-0.12965363
194	0xbe47dfa0	-0.195189
195	0xbc3d3aa0	-0.011549622
196	0xbd2bfa37	-0.04198667
197	0xbe2a3e35	-0.16625293
198	0x3e48cb90	0.19608903
199	0xbe8086f7	-0.2510297
200	0x3e533dc4	0.2062903
201	0xbcf2cbb7	-0.029638154
202	0x3e16d40c	0.14729327
203	0xbd4b507d	-0.049637306
204	0xbdc5cb75	-0.09657947
205	0xbdc642ec	-0.09680733
206	0xbe948863	-0.29010305
207	0xbea5f3c4	-0.3241254
208	0xbf298267	-0.66214603
209	0xba1a30ea	-0.00058819226
210	0xbe73299f	-0.23746346
211	0x3e6d67f7	0.2318419
212	0x3ea4ab39	0.32161883
213	0xbd9df407	-0.0771256
214	0xbee9af4e	-0.4564156
215	0xbecdf488	-0.40225625
216	0xbd1f17a0	-0.03884089
217	0x3dcd8f70	0.10037124
218	0x3ee2b474	0.442783
219	0x3e856eb7	0.2606103
220	0xbe315504	-0.17317587
221	0x3e33592c	0.17514485
222	0x3e768c54	0.24076968
223	0x3d533f1d	0.05157386
224	0xbec775ab	-0.3895696
225	0xbe63b67f	-0.22237585
226	0x3ef61e68	0.48070073
227	0xbdb32dee	-0.08748995
228	0xbe603637	-0.21895681
229	0xbe6f06c1	-0.2334242
230	0xbe13f1a2	-0.14447644
231	0xbcf9cf90	-0.030494481
232	0x3e2b600c	0.16735858
233	0x3d865d9d	0.06560824
234	0xbf89608e	-1.0732591
235	0x3cd7a30e	0.026322868
236	0x3bdd5e47	0.0067556235
237	0xbe959900	-0.29218292
238	0xbed0b07c	-0.40759647
239	0xbd2addea	-0.04171554
240	0x3f02a964	0.5103972
241	0xbea2af09	-0.31774166
242	0x3f05c1a2	0.52248585
243	0xbe21bd9c	-0.15794986
244	0xbec7e830	-0.39044333
245	0xbe9c06b9	-0.3047388
246	0xbdbc8e76	-0.0920686
247	0x3e067a17	0.13132511
248	0x3e2fae30	0.17156291
249	0xbe3c6097	-0.18396221
250	0x3f57f4b6	0.84357774
251	0xbe4b878d	-0.19875927
252	0xbe522078	-0.20520198
253	0x3e9d93a7	0.30776712
254	0x3d0952e8	0.03352633
255	0xbe3bfbeb	-0.18357818

fc1.bias f4 [64]
0	0x3ebe0cd2	0.37119156
1	0xbebef814	-0.37298644
2	0xbf0f6260	-0.56009483
3	0xbe831312	-0.25600487
4	0xbe880bb1	-0.2657142
5	0x3df3d5e0	0.11906028
6	0x3e080a70	0.13285232
7	0xbe298828	-0.16555846
8	0xbe71e132	-0.23621061
9	0x3ec0894a	0.37604743
10	0xbed17107	-0.40906546
11	0xbf004f63	-0.50121135
12	0x3e2a357d	0.16621967
13	0xbe305414	-0.17219573
14	0xbe77c392	-0.24195698
15	0x3ed60ca3	0.41806516
16	0xbe3b698a	-0.18301979
17	0xbf115a1f	-0.5677814
18	0x3ee2eb86	0.44320315
19	0xbf15bd3e	-0.58491886
20	0xbe7e0ea2	-0.2481027
21	0x3ddff104	0.10934642
22	0x3ea1b23e	0.315813
23	0xbea4dad1	-0.32198194
24	0xbe9f30c6	-0.310919
25	0xbe797078	-0.2435931
26	0xbede6107	-0.434334
27	0x3f102687	0.5630879
28	0xbf19dd15	-0.6010297
29	0x3e054fbb	0.13018696
30	0xbe4f1c8c	-0.20225734
31	0x3ef4ef6f	0.47838923
32	0x3e9e0364	0.30861962
33	0xbed0b0ea	-0.40759975
34	0x3ebbf434	0.3670975
35	0xbe614ca5	-0.22001894
36	0x3e870da6	0.263776
37	0x3f0da99f	0.55336946
38	0x3e0fd22e	0.14045021
39	0xbd8116e2	-0.06303193
40	0x3edf347f	0.4359474
41	0xbe911a6b	-0.28340468
42	0x3e421841	0.18954565
43	0xbee55bac	-0.44796503
44	0x3eb9b867	0.362735
45	0x3e44986b	0.19198768
46	0x3c220d88	0.009890921
47	0x3e73ecea	0.23820844
48	0xbf1d458e	-0.6143426
49	0x3e9b11f3	0.30287132
50	0xbeb0b831	-0.34515527
51	0x3efc08fa	0.492256
52	0x3ed0a801	0.40753177
53	0x3e01cd14	0.12675887
54	0x3d5c3747	0.053763654
55	0xbf3a97a0	-0.7288761
56	0x3ead65ba	0.33866674
57	0x3e8847c8	0.26617265
58	0x3f15297d	0.5826643
59	0xbe089949	-0.13339724
60	0xbe212b30	-0.15739131
61	0x3b0ef433	0.0021813035
62	0x3efb81bf	0.49122426
63	0x3efb586c	0.49090898

fc2.weight f4 [64, 64]
0	0xbc27da20	-0.010244876
1	0xbd50a528	-0.050938755
2	0xbdd824b8	-0.105538785
3	0x3d3b28ef	0.045693334
4	0x3cb7a5b7	0.022417886
5	0x3da8f1a6	0.08249216
6	0xbd08e8a0	-0.033424973
7	0x3ddbfb2e	0.10741268
8	0x3d1cfb25	0.038325448
9	0xbda2b977	-0.07945531
10	0xbb9358a0	-0.004496649
11	0x3de182eb	0.11011299
12	0xbcca3161	-0.024681749
13	0xbda88767	-0.08228951
14	0x3db84ee4	0.08999422
15	0xbddf1cda	-0.10894175
16	0xbcd2f028	-0.025749281
17	0x3d24f4d0	0.040272534
18	0x3d64f042	0.05589319
19	0x3d1c6a74	0.03818746
20	0xbd8c61b6	-0.068545744
21	0x3d4cc010	0.049987853
22	0xbdcf9b51	-0.10137046
23	0xbd9d9b8a	-0.07695682
24	0x3d8969f6	0.067096636
25	0x3de349fe	0.11098097
26	0x3c11bcf0	0.008895144
27	0xbd9d07a6	-0.076674744
28	0x3d19a21d	0.03750812
29	0xbd4f0ac9	-0.050547395
30	0x3dd6dfc6	0.104919
31	0xbd20de77	-0.03927466
32	0x3d400c80	0.04688692
33	0x3dd0b906	0.101915404
34	0xbd91bdce	-0.071162805
35	0xbc901276	-0.017586928
36	0x3d5e78c9	0.05431441
37	0xbdfe47c4	-0.12416032
38	0xbd790354	-0.06079419
39	0xbde9d3d3	-0.114173554
40	0x3d9d31d5	0.0767552
41	0xbcdb3258	-0.026757404
42	0x3d0b219c	0.0339676
43	0x3dcba8ac	0.09944281
44	0x3adca021	0.001683239
45	0x3da11a9e	0.07866405
46	0xbc9f4dae	-0.01944622
47	0xbd993d56	-0.07482402
48	0xbd65c973	-0.05610032
49	0x3cb83aef	0.02248904
50	0xbda071df	-0.07834219
51	0x3d5340e9	0.051575575
52	0x3d832064	0.064026624
53	0xbda4586c	-0.08024678
54	0xbdeeac73	-0.11653986
55	0x3da28b5e	0.079367384
56	0xbe0a0d0d	-0.13481541
57	0x3d4173e0	0.047229648
58	0x3d90c945	0.07069639
59	0x3c3b68ff	0.011438607
60	0xbcd9bb18	-0.026578471
61	0xbcfbf048	-0.030754223
62	0xbd47a379	-0.048739884
63	0x3dcfb262	0.10141446
64	0xbd93d7a6	-0.07218866
65	0xbd3c1a36	-0.045923434
66	0x3f05ab2c	0.5221431
67	0xbe4dd4e1	-0.20100738
68	0xbeb13d18	-0.34616923
69	0xbe7965c4	-0.24355227
70	0xbd4a28c9	-0.049355302
71	0x3dbbc5b6	0.0916857
72	0x3d55e888	0.052223712
73	0x3d27e6d0	0.040991604
74	0x3edf8fbb	0.43664345
75	0x3f6985b2	0.9121963
76	0xbdac02fa	-0.08399005
77	0xbf0e81ac	-0.55666614
78	0xbbfe15c4	-0.0077540595
79	0xbde16ebf	-0.11007451
80	0x3d4b63b8	0.049655646
81	0x3e63b953	0.22238664
82	0xbe37b590	-0.17940354
83	0xbe918c96	-0.2842757
84	0x3eb25a3f	0.34834477
85	0x3d41c2c8	0.0473049
86	0xbedafb07	-0.42769644
87	0xbcb214c7	-0.021738423
88	0x3bfebdbb	0.0077740825
89	0xbd682700	-0.05667782
90	0xbd955ae9	-0.0729273
91	0xbcadb2d7	-0.021203442
92	0xbe7d3fb3	-0.2473133
93	0x3dd50609	0.10401542
94	0xbdaec37f	-0.08533382
95	0xbe54b720	-0.20772982
96	0xbd98f5c6	-0.074687526
97	0x3d784a4d	0.060617734
98	0xbdc63086	-0.09677224
99	0xbd787844	-0.06066157
100	0x3d847e57	0.0646941
101	0xbcfecd5c	-0.031103782
102	0xbf32a540	-0.697834
103	0xbd015f62	-0.031585105
104	0xbec5f8e9	-0.38666466
105	0x3e56c3c9	0.20973124
106	0xbe196c74	-0.14982778
107	0x3e92f00d	0.2869877
108	0xbd1fdcb7	-0.03902885
109	0xbecd57a1	-0.40105918
110	0xbdc5ceb9	-0.0965857
111	0xbe79207d	-0.243288
112	0x3c84e25b	0.016221216
113	0x3e4a3ac0	0.19748974
114	0xbed53355	-0.41640726
115	0x3d4010ae	0.046890907
116	0xbe6f3e8b	-0.23363702
117	0xbc60eceb	-0.013728361
118	0xbe550091	-0.20800997
119	0xbe80bbe5	-0.25143352
120	0xbc98eb4e	-0.01866689
121	0x3bc89fd0	0.0061225668
122	0xbdec3b95	-0.11534802
123	0x3d426868	0.04746285
124	0x3e250f1e	0.16119048
125	0x3dccf850	0.10008299
126	0xbc242fcb	-0.01002116
127	0xbd65bcb4	-0.056088164
128	0xbcdefb2d	-0.02721938
129	0x3ef71c50	0.48263788
130	0xbedc5d86	-0.43040103
131	0xbd71231f	-0.058871385
132	0x3eac6bb0	0.3367591
133	0x3df2a624	0.11848095
134	0xbd71e708	-0.05905822
135	0xbcc0de73	-0.023543572
136	0xbe9176cd	-0.2841095
137	0xbe370274	-0.1787203
138	0xbda0fd10	-0.07860768
139	0xc0163103	-2.3467414
140	0x3e28aca0	0.16472101
141	0x3ecffd92	0.40623146
142	0x3e89c95c	0.26911438
143	0xbc422929	-0.011850634
144	0xbd97819d	-0.07397769
145	0xbf223947	-0.6336865
146	0x3c601b3d	0.013678369
147	0x3d601d33	0.054715347
148	0xc0115c30	-2.2712517
149	0xbd600beb	-0.054698866
150	0x3e313a4e	0.17307398
151	0xbdaddc21	-0.08489252
152	0xbd61a7a2	-0.055091508
153	0x3d4d8c7b	0.0501828
154	0x3e6bb672	0.23018816
155	0x3d082d5e	0.03324639
156	0x3dba6519	0.09101314
157	0xbdd3abe1	-0.10335518
158	0x3e6bca73	0.23026447
159	0x3cbc5962	0.02299184
160	0x3d105014	0.03523262
161	0xbe38bf1b	-0.18041651
162	0x3dc9c8b9	0.09852738
163	0x3e982279	0.297138
164	0xbdd9e37f	-0.106390946
165	0x3e441bd2	0.19151238
166	0x3e948afd	0.2901229
167	0x3e4895c5	0.19588383
168	0x3dc85d2c	0.09783396
169	0xbe5faa06	-0.21842203
170	0x3df48b38	0.11940616
171	0xc01738cf	-2.3628423
172	0xbd0ae2c5	-0.03390767
173	0x3e89ddd5	0.26927057
174	0x3e94e04f	0.29077384
175	0x3e488504	0.19581991
176	0x3f16de58	0.5893302
177	0x3eafe068	0.34350896
178	0x3e71a926	0.23599681
179	0xbe8e76ad	-0.27824917
180	0x3e10aadb	0.14127676
181	0x3f945f9d	1.1591679
182	0x3e769be3	0.24082904
183	0x3f2c8d16	0.6740278
184	0xbc2119af	-0.009832784
185	0x3cbf768f	0.023371963
186	0x3dc637ff	0.09678649
187	0x3e7f2288	0.24915516
188	0xbe957197	-0.29188225
189	0x3e37429e	0.17896506
190	0x3e0fd532	0.14046171
191	0x3e12d334	0.1433838
192	0x3d0e031c	0.034670934
193	0xbdfa1c94	-0.12212482
194	0xbdf28448	-0.11841637
195	0x3d8c010c	0.06836137
196	0xbe1b9c5e	-0.15196368
197	0xbd764fdc	-0.060134754
198	0xbd5c1062	-0.05372656
199	0xbd3aa56c	-0.045567915
200	0x3cfa491b	0.030552438
201	0xbd9c4db6	-0.0763201
202	0xbddc1c46	-0.1074758
203	0x3d51c954	0.051217392
204	0x3cb19626	0.021678042
205	0xbc79f584	-0.015256289
206	0xbd30f3d0	-0.043201268
207	0xbe018575	-0.12648566
208	0xbce00818	-0.02734761
209	0x3d19e08c	0.03756766
210	0x39caec18	0.00038704346
211	0x3dd56aac	0.10420737
212	0x3c056720	0.008142263
213	0x3c2bb576	0.010480275
214	0x3da09b46	0.07842116
215	0x3dbbb9fc	0.09166333
216	0x3d4953d8	0.049152225
217	0xbca204f0	-0.019777745
218	0xbce0f7db	-0.027461937
219	0xbc1d54fe	-0.009602783
220	0xbd7869c8	-0.060647756
221	0x3d1415cd	0.036153603
222	0x3de73fab	0.112914406
223	0xbe13fd96	-0.14452204
224	0xbdd972da	-0.10617609
225	0xbd7d821c	-0.06189166
226	0xbdc947c9	-0.09828145
227	0x3d0024ea	0.031285204
228	0xbe06aaa5	-0.13151033
229	0x3d210bc6	0.03931787
230	0x3d9d937d	0.07694147
231	0xbd15fe30	-0.036619365
232	0xbca0655f	-0.019579588
233	0xbc3456e0	-0.011007041
234	0xba24ebf7	-0.0006291265
235	0xbcce9a60	-0.025220096
236	0xbd461f98	-0.048369974
237	0x3db7ceb2	0.08974971
238	0xbd84856d	-0.064707614
239	0xbdebb513	-0.115091465
240	0x3cc41e40	0.023940206
241	0xbd78717c	-0.060655102
242	0xbd95e386	-0.07318787
243	0xbd70adbc	-0.058759436
244	0xbdd8b008	-0.1058045
245	0x3b6770c0	0.0035315007
246	0xbce5ae88	-0.028037325
247	0xbd5ec9a8	-0.054391533
248	0x3dc43742	0.09580852
249	0xbdc9cf02	-0.09853937
250	0x3cd45a29	0.025921898
251	0xbdee79ab	-0.116443
252	0xbd879f30	-0.066221595
253	0xbd83ed15	-0.06441704
254	0xbdd70268	-0.10498506
255	0xbd92ee0e	-0.071743116

fc2.bias f4 [64]
0	0xbdc0d9f9	-0.09416575
1	0xbe12214b	-0.14270513
2	0xbe72cf52	-0.23711899
3	0xbd595782	-0.05306197
4	0xbd6f1f4b	-0.058379453
5	0x3e6a8487	0.22902118
6	0xbd7de93c	-0.061990008
7	0x3e89f122	0.26941782
8	0x3ee05321	0.43813422
9	0x3eb197b1	0.34686044
10	0xbc121c56	-0.008917889
11	0xbe15c82e	-0.14627144
12	0x3e48dcba	0.1961545
13	0x3eaff7e5	0.34368816
14	0x3e4371a0	0.19086313
15	0x3d9c4876	0.07631008
16	0xbc7be984	-0.015375499
17	0xbd2ea6ae	-0.042639427
18	0x3ec98915	0.39362398
19	0xbcf0c464	-0.029390521
20	0x3e7dfbe9	0.24803127
21	0xbd87c95d	-0.06630204
22	0x3e6b43fa	0.2297515
23	0xbe04b45d	-0.12959428
24	0x3ea18ebe	0.31554216
25	0x3ea66add	0.32503405
26	0x3ea66372	0.32497746
27	0xbe8e7bf8	-0.27828956
28	0x3e648f74	0.22320348
29	0x3e8d72b7	0.27626583
30	0x3e34f7c2	0.17672637
31	0x3ecce782	0.40020376
32	0x3e96d50a	0.2945941
33	0x3e193f88	0.14965641
34	0x3ec4d088	0.38440347
35	0xbdb2d8d0	-0.0873276
36	0x3e89ee04	0.26939404
37	0xbd977516	-0.07395379
38	0x3e92af66	0.28649443
39	0x3ec4a75d	0.38408938
40	0x3e3a3719	0.1818508
41	0x3da2f27e	0.07956408
42	0xbd72d9fc	-0.059289917
43	0x3ec852c7	0.39125654
44	0x3d416cd8	0.047222942
45	0x3ebf4744	0.3735906
46	0x3e8bffb7	0.27343532
47	0x3cb85007	0.022499098
48	0x3eae11bb	0.33997902
49	0x3e1c4064	0.15258938
50	0x3e96d833	0.29461822
51	0xbe0a60a5	-0.1351343
52	0x3e4737c0	0.1945486
53	0xbe0cd335	-0.13752444
54	0xbdac2467	-0.08405381
55	0xbe65606e	-0.22400066
56	0x3cc29406	0.023752224
57	0x3e51bc8d	0.20482083
58	0x3cd684d9	0.026186394
59	0x3ea109ec	0.31452882
60	0x3ddf4589	0.10901935
61	0xbdfdb8cc	-0.12388763
62	0x3ec6ec92	0.38852364
63	0x3ea92ed3	0.33043537

fc3.weight f4 [32, 64]
0	0xbd2d0194	-0.042237833
1	0xbebfa307	-0.37429067
2	0xbe288488	-0.16456807
3	0xbd3da670	-0.046301305
4	0x3de51b3b	0.111868344
5	0x3e71f631	0.23629071
6	0x3da66de6	0.0812643
7	0x3e55e000	0.2088623
8	0x3e89c7b3	0.2691017
9	0x3e7d6f58	0.24749506
10	0xbdda37ba	-0.1065516
11	0x3d1c7015	0.038192827
12	0x3e5fbe7c	0.21850008
13	0x3e3158df	0.17319058
14	0xbc86d0ac	-0.016456924
15	0xbe98fc8a	-0.29880172
16	0xbc3526a7	-0.011056579
17	0xbe56f914	-0.20993453
18	0x3d575dfa	0.052579857
19	0xbc290147	-0.010315246
20	0x3d01b880	0.031670094
21	0x3d1b6355	0.037936527
22	0xbd6350cc	-0.055496976
23	0xbfbf27c8	-1.4934015
24	0x3e23591d	0.15951963
25	0x3e292e89	0.16521658
26	0x3cf3bd21	0.02975327
27	0xbf60c3f6	-0.8779901
28	0x3d8afc5a	0.067864135
29	0x3df09dd7	0.117488556
30	0x3e671b35	0.22568972
31	0x3c5c02bc	0.013428386
32	0x3e6798dd	0.22616906
33	0x3e56eb3c	0.20988172
34	0x3de4eef5	0.1117839
35	0xbd1124ae	-0.03543537
36	0x3e74c84b	0.2390453
37	0x3dab4bfe	0.08364104
38	0x3d92e18f	0.07171928
39	0x3e885a51	0.26631406
40	0x3d890e61	0.06692196
41	0xbdb98d37	-0.09060138
42	0x3d5f3449	0.054493222
43	0x3de3d8dc	0.11125347
44	0x3d55e4b2	0.052220054
45	0x3e384f79	0.17999066
46	0x3c176b0e	0.009241832
47	0x3dd878da	0.105699256
48	0x3e2579f1	0.16159798
49	0x3e4e69b1	0.20157506
50	0x3e536083	0.20642285
51	0xbd92bbb5	-0.071647085
52	0x3dce989e	0.10087703
53	0x3d163656	0.036672913
54	0x3d02ca18	0.031931013
55	0xbfad75da	-1.355159
56	0x3d3bd3dc	0.04585634
57	0x3e12e6f5	0.14345916
58	0x3dabef47	0.08395248
59	0x3e696b51	0.22794844
60	0x3cca7b93	0.024717128
61	0xbd33b138	-0.04387018
62	0x3e9ddacf	0.30831
63	0x3df643f0	0.12024677
64	0xbdc16a8c	-0.0944415
65	0x3dfec0dc	0.12439129
66	0xbe01d525	-0.12678964
67	0xbda180bc	-0.07885882
68	0x3deea65c	0.11652824
69	0xbd85b93d	-0.06529472
70	0xbdeed85e	-0.116623625
71	0x3da6b68f	0.08140289
72	0xbdadebdf	-0.084922545
73	0xbc1ba1d5	-0.009499033
74	0x3c464b00	0.012102842
75	0xbcacd3d0	-0.021097094
76	0x3d1e15f5	0.03859516
77	0xbda66f77	-0.08126729
78	0xbd2c5a4f	-0.042078312
79	0x3d6ce414	0.0578347
80	0xbb981800	-0.004641533
81	0x3caeb4a6	0.021326374
82	0xbd71d9bc	-0.05904554
83	0x3db1527e	0.08658312
84	0xbaf7db3c	-0.0018909941
85	0x3d9ba3d8	0.0759961
86	0x3db7233f	0.089422695
87	0xbd6c4a70	-0.057688177
88	0x3d9e747d	0.07737062
89	0xbd874c5d	-0.06606362
90	0x3d7996fb	0.060935
91	0xbd8f8b4d	-0.070089914
92	0xbd3dbf6f	-0.046325143
93	0x3c6d4062	0.014480682
94	0x3d9969dd	0.07490895
95	0xbcd5af92	-0.026084695
96	0xbd8b9155	-0.06814829
97	0xbcbcf068	-0.023063853
98	0xbe05ccc5	-0.13066395
99	0x3d44ac98	0.04801616
100	0x3d7b3e6b	0.061338823
101	0xbdff8d38	-0.12478107
102	0x3d206496	0.039158426
103	0xbe014245	-0.12622936
104	0xbe0aff3d	-0.13573928
105	0xbdce3a6e	-0.10069738
106	0xbc8437d0	-0.016139895
107	0xbdc919b1	-0.09819353
108	0xbd97d99a	-0.07414551
109	0x3db1bec7	0.08678966
110	0xbd8f97cd	-0.070113756
111	0x3d8f1888	0.06987101
112	0x3db121bf	0.08649015
113	0xbdd454b1	-0.10367716
114	0xbdd13eda	-0.10217066
115	0xbdf99cd6	-0.12188117
116	0x3dad7776	0.08470051
117	0x3bf099a0	0.0073425323
118	0xbdfd8432	-0.1237873
119	0xbd6a500b	-0.05720524
120	0x3daea11e	0.085268244
121	0xbdb66ba8	-0.089072526
122	0x3de82b0e	0.11336337
123	0xbc8d0b75	-0.017217377
124	0x3c022d6c	0.0079454
125	0x3d720618	0.059087843
126	0xbd0cd26d	-0.034380365
127	0xbdbe7bb8	-0.09300941
128	0x3d456798	0.048194498
129	0x3e0efe2f	0.13964151
130	0x3e99418e	0.29932827
131	0xbd8ea64c	-0.06965312
132	0xbbb96178	-0.005657371
133	0x3c7b0c04	0.015322689
134	0xbde6be22	-0.11266734
135	0xbe2c0cd1	-0.16801764
136	0x3e9925a2	0.29911524
137	0xbf57051b	-0.83992165
138	0x3d72a284	0.05923702
139	0xbdc235a0	-0.094828844
140	0xbf902cf3	-1.1263717
141	0xbd8b8ef9	-0.06814379
142	0xbdaf32a4	-0.08554581
143	0xbd690ed8	-0.05689892
144	0x3dadeefe	0.0849285
145	0x3dd64fba	0.104644254
146	0x3de5f3dc	0.11228153
147	0xbdbd36e0	-0.09238982
148	0xbe303dcc	-0.17211074
149	0xbc1b835e	-0.00949177
150	0x3e06057e	0.13088033
151	0xbdcdb881	-0.10044957
152	0x3e77c367	0.24195634
153	0x3ea89435	0.32925573
154	0xbf10bb37	-0.5653567
155	0x3df3a98f	0.11897575
156	0x3df84151	0.12121833
157	0x3d9192f9	0.07108111
158	0xbfd04e64	-1.6273923
159	0x3e43ff30	0.19140315
160	0x3e568eb9	0.20952882
161	0xbf1b48cf	-0.6065797
162	0xbf205c5f	-0.6264095
163	0x3daaef34	0.083464056
164	0xbef59876	-0.4796788
165	0xbd90fb45	-0.07079176
166	0x3e8f4dde	0.27989095
167	0xbf482bc7	-0.781918
168	0xbf72f160	-0.9489956
169	0xbd5ff6d1	-0.05467874
170	0x3d929f18	0.07159251
171	0xbfc5957d	-1.5436245
172	0x3d2be06f	0.041962083
173	0xbe8dece5	-0.277198
174	0x3e8cf8df	0.27533624
175	0xbd5688c2	-0.052376516
176	0x3e086ab2	0.13321951
177	0xbf2ebe0f	-0.68258756
178	0x3e7d6d07	0.24748622
179	0x3cad094f	0.021122603
180	0xbcd97388	-0.026544347
181	0xbd799fe0	-0.060943484
182	0x3dc94958	0.09828442
183	0x3f2e624e	0.6811875
184	0xbed2002c	-0.41015756
185	0x3d9e0b19	0.077169605
186	0xbd01de85	-0.03170635
187	0xbeea0ab0	-0.4571128
188	0x3e50ccb1	0.20390584
189	0x3d766ff4	0.06016536
190	0x3e839473	0.25699195
191	0x3e5515f3	0.20809154
192	0xbdd6f6ea	-0.10496314
193	0x3e2e8117	0.17041431
194	0x3e2b31c9	0.1671821
195	0xbceb20a3	-0.028702086
196	0x3cac95ae	0.021067467
197	0x3d3157b2	0.043296523
198	0xbc50e1e2	-0.012749167
199	0x3e608a32	0.21927717
200	0x3de3eb4d	0.111288644
201	0x3e9fa56d	0.31180897
202	0x3a221886	0.0006183464
203	0x3d26d11e	0.040726773
204	0x3e8c5917	0.2741172
205	0x3eb6279c	0.35577095
206	0x3e43025d	0.1904387
207	0xbc3370d3	-0.010952192
208	0xbd927c6d	-0.071526386
209	0xbe065b80	-0.13120842
210	0x3e3c2bbb	0.18376057
211	0x3dd44e71	0.10366524
212	0x3ead3361	0.33828261
213	0x3c93fb3d	0.018064136
214	0x3dbdffcf	0.09277307
215	0xbfb1b3c3	-1.3882984
216	0x3e679f4b	0.22619359
217	0x3e54f8a4	0.20797974
218	0x3e15d5f3	0.14632396
219	0xbfda8594	-1.7072015
220	0x3e714727	0.23562299
221	0x3e0798be	0.1324186
222	0x3e92c9eb	0.28669676
223	0x3e268657	0.16262184
224	0xbd84545d	-0.064614035
225	0x3e493d15	0.19652207
226	0x3e8dd8ac	0.2770437
227	0x3da266a6	0.07929735
228	0x3e26adf8	0.16277301
229	0xbdea30cb	-0.11435088
230	0x3e326595	0.17421563
231	0x3e881eac	0.265859
232	0x3da3fc17	0.08007067
233	0xbda6b04e	-0.08139096
234	0xbc703ae4	-0.014662478
235	0x3ebc5a16	0.3678748
236	0xbb295d76	-0.002584306
237	0x3ed3d7a6	0.41375464
238	0x3e39e340	0.18153095
239	0xbda0e25f	-0.07855677
240	0x3e6647b9	0.22488298
241	0x3d48c1dd	0.049013007
242	0x3e764951	0.24051405
243	0x3dc0c351	0.09412254
244	0xbcb7ac95	-0.02242116
245	0xbb4ba608	-0.0031074304
246	0xbd0d9c60	-0.03457296
247	0xbfcfeba8	-1.6243792
248	0xbdf8ad60	-0.12142444
249	0x3c0ae40c	0.008477222
250	0x3d957496	0.07297628
251	0x3e370a72	0.17875078
252	0x3d622315	0.055209238
253	0xbca5c13f	-0.020233748
254	0x3e7747fc	0.24148554
255	0xbc3e5d5e	-0.01161894

fc3.bias f4 [32]
0	0x3e9036c5	0.28166786
1	0xbd33a0d0	-0.043854535
2	0x3c5426d1	0.012948708
3	0x3e27f0bf	0.16400431
4	0xbdc44a71	-0.09584511
5	0x3e8233c9	0.25430134
6	0x3eb71c12	0.35763603
7	0xbda06f87	-0.07833772
8	0x3d7f6743	0.062354337
9	0x3eb03862	0.34418017
10	0xbced6df8	-0.028983101
11	0x3e9fcd1b	0.3121117
12	0xbd8dc340	-0.069220066
13	0x3e9e848a	0.30960494
14	0x3e9a2ed5	0.30113855
15	0x3e876456	0.26443738
16	0x3e890a8b	0.26765856
17	0x3d8f5ba4	0.06999901
18	0x3e9f5ac8	0.31123948
19	0xbd8ceb82	-0.06880857
20	0x3e74d46e	0.2390916
21	0xbc0f5add	-0.008749691
22	0x3d7b0d33	0.061291885
23	0x3ccba158	0.024857208
24	0xbe10b366	-0.14130935
25	0xbdb10280	-0.08643055
26	0xbde8944b	-0.1135641
27	0x3e363717	0.17794453
28	0x3ea4528c	0.32094228
29	0x3de6772d	0.112532
30	0x3eef7023	0.4676524
31	0x3e1764f8	0.1478461
