cartpole_dqn_solved.pth (torch, 20619 bytes, 24 tensors)

fc1.weight f4 [24, 4]
000000 f6 8f 72 3f 9d 4d 45 bd bb a9 64 3d 23 cc 1a 3e
       0.94750917 -0.04816972 0.05582593 0.15116934
000010 4d a4 a6 be cf b6 61 be f3 b4 c6 be 94 25 92 bd
       -0.32547227 -0.22042392 -0.38809928 -0.07136074
000020 7d 72 a1 3d db f0 12 3e 7f 1d 1c bf 25 72 97 3d
       0.07883165 0.14349692 -0.6098251 0.07394818
000030 02 c9 30 3e 6b c8 d4 3d 7b 79 10 bf 28 da d4 3d
       0.17264178 0.10389789 -0.56435364 0.103931725
000040 52 4b 53 3e 3c 50 9c be ca 42 52 be b9 67 c7 3d
       0.20634201 -0.30529964 -0.2053329 0.097365804
000050 3f de b3 3e d7 02 07 3f 1b ab e7 3f 2d 60 04 3f
       0.35130498 0.5273871 1.8099092 0.5170925
000060 25 c0 a1 be f7 34 ff bd 2a 73 f4 3e 65 eb 22 3d
       -0.31591907 -0.12461274 0.47744113 0.03977527
000070 50 34 bd be 87 8e 69 be 07 68 18 c0 ad 3a c7 be
       -0.36953974 -0.22808276 -2.3813493 -0.38911954
000080 bd c4 19 bf 58 98 ac 3e 96 35 15 3f c0 de b5 3e
       -0.60065824 0.3370998 0.5828489 0.35521507
000090 b6 8c 47 3e cb a6 cb be 4d 38 6c bf 7d 4b ba be
       0.1948727 -0.3977569 -0.9227341 -0.36385718
0000a0 13 7f 52 be eb 28 e5 be 9c fd 37 c0 d8 81 f9 be
       -0.20556287 -0.4475778 -2.874854 -0.48731875
0000b0 f4 52 99 3e c1 d0 bf 3e 79 a4 a7 3f 20 bc 12 3f
       0.299461 0.37463954 1.3097068 0.57318306
0000c0 5d 4c 21 bf 59 dc c8 bd af 4d 0b c0 7f c1 39 be
       -0.63007146 -0.09807653 -2.1766164 -0.18140219
0000d0 a9 be 87 3d de 85 9e 3e 97 23 47 40 43 39 a6 3e
       0.066281624 0.30961508 3.1115472 0.32465562
0000e0 34 66 1e be c6 49 a6 3e 45 fa cb be 8a 8a 72 be
       -0.15468675 0.3247816 -0.39839378 -0.23685661
0000f0 f2 be 66 be e4 5f 05 bf c6 ba f6 bf 45 41 67 bf
       -0.22533777 -0.5209944 -1.9275749 -0.9033397
000100 72 21 36 be 70 a5 bd 3e 2f 59 f1 be e6 dc 90 3e
       -0.17786196 0.3704028 -0.47138354 0.28293532
000110 5f ca 89 3f 79 d2 04 3e 4e 02 bf bd c8 2c 2e 3e
       1.0764884 0.12970914 -0.093266115 0.1700927
000120 39 25 96 be 82 7c e3 bb 7c 86 11 bd 72 1c 29 be
       -0.29325274 -0.0069423327 -0.035528645 -0.16514757
000130 8d 45 41 3e 05 4f 34 3e 5e 99 fd 3f f6 a7 b6 3e
       0.18874188 0.17608269 1.9812429 0.3567502
000140 b9 15 42 3f e8 3b 70 3d a4 c9 e9 3e ca 79 54 3d
       0.75814396 0.05865088 0.45661652 0.05187396
000150 15 83 3a 3f 6f c4 a6 be 59 84 04 bf d1 1e a6 be
       0.72856265 -0.32571742 -0.51764446 -0.32445386
000160 77 d0 3d 3f 02 16 44 3b 3d dd 2e 3f c7 fe da bb
       0.7414622 0.0029920344 0.6830633 -0.006683204
000170 9f b2 ad 3e 68 58 44 bb 20 15 92 bf 75 d7 14 3e
       0.3392534 -0.002995992 -1.1412697 0.14535315

fc1.bias f4 [24]
000000 e7 96 bf be cc a2 a8 3f 18 47 a3 3f d9 4e 5f 3f
       -0.37419817 1.3174682 1.2756071 0.87229687
000010 31 9b 84 3f b7 90 49 3d 48 aa 66 bf 8d a7 00 bf
       1.0359861 0.049210276 -0.9010358 -0.5025566
000020 03 36 e8 bd 66 d8 86 3f dd 09 90 3e 1e bf 3f bf
       -0.11338427 1.053479 0.28132525 -0.74900997
000030 7c 19 20 be e0 13 bc be b1 65 84 3f 44 f5 65 be
       -0.15634722 -0.36733913 1.0343534 -0.22456843
000040 7f 1e a6 3f 15 05 ca be c2 3e 50 3f 32 02 ae bd
       1.2978057 -0.39457002 0.8134576 -0.084965125
000050 54 15 fb be 4a 84 e4 be 67 53 f5 be c4 fb 92 3f
       -0.4903971 -0.4463218 -0.47915193 1.1483083

fc2.weight f4 [24, 24]
000000 3e bb 8a be a4 03 54 3f c3 55 84 3f 7b 9b 6e 3f
       -0.2709598 0.82818055 1.0338672 0.93205994
000010 9c 48 22 3f 9b fe f0 bd 55 41 75 bf b6 c8 43 bf
       0.63392043 -0.11767312 -0.95802814 -0.76478136
000020 34 f0 0d bd 9b f2 04 3f cd 22 04 bf 53 35 fb be
       -0.034652904 0.51932687 -0.516156 -0.4906412
000030 0d f8 12 bf d2 39 12 c0 be 70 29 3f 98 09 00 bf
       -0.57409745 -2.284779 0.66187656 -0.5001464
000040 24 3a 80 3f b0 a0 71 be 6d 04 05 3f 62 e0 5b bf
       1.0017743 -0.23596454 0.5195988 -0.85889256
000050 2a b1 c3 be 0c 51 63 bf af 27 32 bf ff 32 8b 3f
       -0.38221103 -0.8879554 -0.695918 1.0874938
000060 e1 2c e9 be cc 43 06 3f 1e 69 5d 3e 57 5c 78 3e
       -0.45542052 0.524472 0.2162213 0.24253975
000070 2f 50 fb 3d 0a 63 85 bf e8 37 13 bf d7 46 32 3a
       0.12271153 -1.0420849 -0.5750718 0.0006800717
000080 25 76 09 3e 5f f9 52 3f 34 62 de 3d 6d f7 b3 be
       0.13423975 0.8241176 0.108585745 -0.35149708
000090 57 69 77 3e f6 5f 32 c0 dd e1 21 3f a1 c4 7c 3e
       0.24161278 -2.787107 0.63235265 0.24684383
0000a0 7c 42 58 3e f2 37 5b bf 38 53 b4 3e 27 be 03 c0
       0.21119112 -0.8563224 0.3521974 -2.058481
0000b0 a5 8b 07 3e e6 c6 50 be 16 1e 0f 3d 77 3d d1 3e
       0.13236864 -0.20388374 0.0349408 0.40867206
0000c0 1b 39 f8 be 3c 3b 2a 3f e7 b0 4c 3f 01 e2 2c 3f
       -0.48481068 0.66496634 0.7995743 0.67532355
0000d0 ac b2 43 3f c1 d1 dd bd 82 b3 69 bf 59 b2 64 bf
       0.76444507 -0.10831023 -0.9128953 -0.89334637
0000e0 87 62 02 3c df 04 31 3f 3d 5a 27 bf f0 9a 01 bf
       0.007958061 0.6914806 -0.6537207 -0.5062704
0000f0 23 9e 13 bf 3a 19 f9 bf 40 be 13 3f a5 0b 97 be
       -0.5766317 -1.9460824 0.57712173 -0.29501072
000100 f1 6e 84 3f 01 5a 91 be e6 cb 0d 3f 89 f8 2e bf
       1.0346357 -0.2838898 0.5538925 -0.68347985
000110 be 41 7c bf b9 16 4b bf 8e 57 4f bf dc 8d 7b 3f
       -0.98537815 -0.7933155 -0.8099297 0.98263335
000120 18 32 bd 3d 99 cc 84 3d 8e 5e d2 be 62 ab da bf
       0.0923807 0.064843364 -0.41087765 -1.7083552
000130 43 c9 84 3e 2d ef ad be 0d 5f 27 3f ae 98 64 3f
       0.259348 -0.3397154 0.6537941 0.8929547
000140 c0 9c 16 3f 6e 8a 98 bd 09 29 ea 3e 23 7e 44 3e
       0.5883293 -0.07448278 0.45734432 0.19188742
000150 6a ae 04 3f 1d d5 79 bd ca 2d 27 bf e3 44 28 3f
       0.51828635 -0.060994256 -0.65304244 0.6573011
000160 1a fc 7f be 67 d6 01 3d e8 ed 6b 3e 00 09 38 bf
       -0.24998513 0.03169861 0.23039973 -0.7188873
000170 bf 6c db 3d 56 73 5a 3e c2 ff 67 bc 23 db c6 bf
       0.10714101 0.2133306 -0.0141600985 -1.5535625
000180 9b 88 2f bc c1 1a f6 bd 49 c0 47 be 8e b7 6e 3d
       -0.010713722 -0.12016822 -0.19506945 0.05828052
000190 ed 2f 0d 3e 47 ce 37 be df e5 88 bb d0 42 df 3c
       0.13787813 -0.17949782 -0.0041777934 0.027253538
0001a0 0a 75 40 be d2 64 ef 3d 8b 71 17 be b4 72 1e be
       -0.18794647 0.11689152 -0.14789407 -0.15473443
0001b0 8f 5a 27 3e 70 bb cd bd 8b 0d 0b 3d 76 96 23 be
       0.16343139 -0.100455165 0.033948462 -0.15975365
0001c0 8f 04 c2 3d 69 20 d4 3d c0 26 90 3d 18 51 00 be
       0.09473526 0.10357744 0.07038641 -0.12530935
0001d0 6d 2b f7 bb 95 07 c7 bd 97 37 b1 bd 67 3f 33 be
       -0.0075430186 -0.09718243 -0.08653181 -0.17504655
0001e0 ff 88 e0 be 86 50 17 3f d9 4f 7d 3f 66 92 14 3f
       -0.4385452 0.59107244 0.9894996 0.58035886
0001f0 f5 12 c4 3e 9f 7c 04 bf cf 56 6a bf bf 03 21 bf
       0.38295713 -0.51752657 -0.9153871 -0.6289634
000200 69 9a ab be 97 79 14 3f 87 6b d7 be 82 0c ce be
       -0.33516243 0.5799803 -0.42074224 -0.40243918
000210 c0 9c d0 be 3c a3 19 c0 75 cc 47 3f 7a cd f5 be
       -0.4074459 -2.400588 0.7804635 -0.4800833
000220 0f 87 39 3f c3 1a c9 be 8c 13 fb 3e e0 a4 8a bf
       0.7247171 -0.3927823 0.4903835 -1.0831566
000230 c2 3c 36 bf e1 22 71 bf 23 f9 25 bf 1c fb 29 3f
       -0.7118646 -0.94193846 -0.6483328 0.6639879
000240 d1 f3 21 bf 6c 3f 24 3f b7 35 47 3f 20 d8 1f 3f
       -0.6326266 0.64159274 0.7781634 0.62439156
000250 af d7 f2 3e a4 fb 14 bf f7 b7 54 bf d3 25 29 bf
       0.4743018 -0.58196473 -0.8309321 -0.6607334
000260 f4 24 88 be 07 50 22 3f 10 ca 44 bf e4 c8 99 bd
       -0.26590693 0.6340336 -0.7687082 -0.0750902
000270 0f a5 e7 be d0 36 16 c0 cc e7 14 3f 0b fe b8 be
       -0.45243117 -2.3470955 0.58166194 -0.3613132
000280 16 f6 19 3f 01 a1 11 bf c8 3f cd 3e 4c 4f 53 bf
       0.6014112 -0.568863 0.40087724 -0.8254287
000290 45 30 2a bf 50 cc 22 bf 8e 8e 02 bf 8a e6 40 3f
       -0.66479903 -0.63593006 -0.5099877 0.75351775
0002a0 fd a1 f4 be be 84 54 3e 93 df aa 3e 70 fe 2b 3e
       -0.47779837 0.20753762 0.333737 0.16796279
0002b0 08 d2 d8 3e 4a f6 43 3e 3b 7e b8 3e 25 a2 7f bf
       0.4234774 0.1913692 0.36033806 -0.9985679
0002c0 15 69 9d 3e 83 6a 3e bf 43 48 92 bf 94 66 b7 bf
       0.30744234 -0.74381274 -1.1428303 -1.4328179
0002d0 af ef 7e bf 0f 08 40 3f 78 cb 1c 3d 99 b5 59 bf
       -0.9958448 0.75012296 0.03827998 -0.8504272
0002e0 ee 76 ec 3e 2a f2 ea 3c 14 6c 00 3f 57 a3 2b 40
       0.46184486 0.028679926 0.50164914 2.6818445
0002f0 20 24 1f bf 7b c8 fd bf 57 43 20 bf 4d 8c f3 3a
       -0.621645 -1.9826807 -0.6260275 0.0018581242
000300 83 24 a9 bd 28 c4 d5 3d 75 0e 21 be 2b d7 38 be
       -0.08258917 0.104378045 -0.15728171 -0.1805083
000310 8c bb c2 bd b4 ea 33 be 11 68 0f be ce 68 84 bc
       -0.09508428 -0.17570001 -0.14004542 -0.016163256
000320 61 5c 3d be 3d 82 16 be 49 29 89 bd 55 32 95 bd
       -0.18492271 -0.1469812 -0.06697328 -0.07284991
000330 75 1b d1 3d 31 37 e4 bb 60 c7 47 be 01 84 2b be
       0.10210315 -0.006964587 -0.1950965 -0.16749574
000340 5b 09 03 bb e3 68 33 3e be 55 e0 3d 70 ea 32 3e
       -0.001999459 0.1752048 0.10953854 0.17472243
000350 b7 e1 2b be 77 92 14 be 90 0d 49 3e 24 00 0b 3e
       -0.16785322 -0.14508997 0.1963408 0.13574272
000360 7e ec 88 3e c9 9d cf be 38 45 e8 be 3e 55 30 bf
       0.2674293 -0.40550068 -0.4536531 -0.6888007
000370 0a cf a7 be 4c 35 d4 bc 6a e0 40 3f 87 74 3e 3f
       -0.32775146 -0.02590432 0.7534243 0.74396557
000380 9f 5c 15 3f 0a 82 4b be 9b 87 c0 3e aa c5 a9 3e
       0.58344454 -0.19873825 0.3760346 0.33158618
000390 75 4e aa 3e 71 fe c6 3e 7c e2 cf be a2 82 52 3f
       0.33262983 0.38865998 -0.4060248 0.8223058
0003a0 b0 74 32 bf 16 8c bf 3e 1f 5c 6e bf 33 1f 22 3f
       -0.697093 0.37411565 -0.93109316 0.63328856
0003b0 cb 9f 01 3f af 4c f5 3e 1e 70 c0 3e 53 6c 15 bf
       0.5063445 0.47910067 0.3758554 -0.58368415
0003c0 e9 4f 3c bf c7 a6 5e 3f 12 12 6c 3f b5 8f a3 3e
       -0.73559433 0.8697323 0.92215073 0.31945577
0003d0 4d bc f7 3e 8c 98 8c bf b7 c9 39 bf f5 77 4b bf
       0.4838585 -1.0984054 -0.7257342 -0.79479915
0003e0 dd 7a db be bf fb c4 3e b8 86 3a bf 0b dc 97 be
       -0.42867175 0.38473317 -0.72861814 -0.29660067
0003f0 dc fe 52 bf fe 4e f8 bf 68 2e 14 3f 12 83 fc be
       -0.82420135 -1.9399107 0.5788331 -0.4931875

fc2.bias f4 [24]
000000 d6 8e 28 3f 81 9c 0e 3f eb 18 45 3f 10 13 24 be
       0.6584295 0.55707556 0.76991147 -0.16022897
000010 e5 5d 6e bc d3 78 53 3f 9f 15 34 3f f8 14 a3 3e
       -0.014548753 0.8260624 0.7034549 0.31851935
000020 a2 f5 82 bd a9 0a ed be 26 4a 24 3f 28 b9 49 bd
       -0.06394507 -0.46297196 0.6417564 -0.049248844
000030 9a 2a 5b 3f f7 eb 51 3f e9 f6 a8 3d 0a 51 41 3f
       0.8561188 0.8200068 0.082502194 0.7551428
000040 be 89 2d 3f 81 20 ac 3c d4 0f 1f 3f 2a 38 f9 be
       0.677883 0.021011593 0.62133527 -0.48675662
000050 a0 fb 3c 3f 0e 09 e0 3d 20 d3 46 3f 7c 60 9d 3e
       0.7382145 0.10939227 0.776659 0.30737674

fc3.weight f4 [2, 24]
000000 dc 28 6d 3f 34 c0 82 3f 11 cd 73 3f b1 2c 34 bf
       0.9264047 1.0214906 0.9523478 -0.70380694
000010 67 2c cc bd 37 0a 9f 3f 95 be 9a 3f b3 28 97 bf
       -0.099694066 1.2424992 1.2089411 -1.1809295
000020 87 a4 95 3d 77 7c 98 bf 27 d9 91 3f b5 a9 0c be
       0.07306772 -1.1912984 1.1394395 -0.13736613
000030 98 7b 9a 3f cd 0c 0c 3f 5a 35 e9 3c 12 ba 96 3f
       1.2068968 0.5470703 0.028467823 1.1775534
000040 7f 63 84 3f ef 24 e1 3c 7d 36 92 3f e3 1a 5f bf
       1.0342864 0.027483432 1.1422879 -0.871504
000050 90 b8 97 3f db 02 d5 bd b4 59 b2 3f e5 3a 8c 3f
       1.1853199 -0.10400935 1.3933625 1.0955473
000060 ff 45 9d 3f c7 49 5f 3e 78 90 a0 3f 4c 09 81 bf
       1.2286986 0.21805488 1.2544088 -1.0080962
000070 7e e0 2b bd 8c b1 9a 3f 46 3d a5 3f 70 bf 26 3e
       -0.04196214 1.2085433 1.2909324 0.16283965
000080 60 79 c0 bc f0 28 94 bf b9 f2 b0 3f f5 c9 2e be
       -0.023495376 -1.1574993 1.3824073 -0.17069228
000090 e1 c2 74 3f 53 9f 93 3f f5 dc 1d be fc 23 a3 3f
       0.9560986 1.1532997 -0.1541632 1.2745357
0000a0 b4 fb 92 3f f4 67 4f bd 2b 9d 32 3f 59 4e 1b bf
       1.1483064 -0.050636247 0.6977107 -0.60666424
0000b0 97 d8 82 3f 84 ea 99 bd e1 bf 92 3f a3 10 f4 3e
       1.0222348 -0.075154334 1.1464807 0.47668943

fc3.bias f4 [2]
000000 ce a7 d7 3e 27 39 cd 3e
       0.42120212 0.40082666

fc1.weight f4 [24, 4]
000000 87 0d 73 3f 5b bc 20 bd 31 7a 2a 3d d4 07 1f 3e
       0.94942516 -0.03924213 0.041620437 0.1553033
000010 1b 02 a8 be 58 02 6c be 5f c3 c5 be fa 38 97 bd
       -0.32814106 -0.23047769 -0.3862562 -0.07383914
000020 6e 28 9b 3d b9 d6 08 3e 26 a8 1b bf e2 78 91 3d
       0.07576071 0.1336316 -0.6080345 0.07103135
000030 de ec 2d 3e e8 44 c0 3d c6 01 10 bf 52 7c cf 3d
       0.16984889 0.09388143 -0.56252706 0.10131134
000040 9a 54 4f 3e 02 14 a1 be d5 8d 50 be aa 69 bf 3d
       0.20247117 -0.31460577 -0.20366605 0.09346326
000050 ca 7d b4 3e 39 80 09 3f 21 27 e7 3f 26 85 05 3f
       0.3525222 0.5371128 1.8058816 0.52156293
000060 70 c0 a1 be 11 35 ff bd 8d 73 f4 3e a8 eb 22 3d
       -0.3159213 -0.124612935 0.47744408 0.03977552
000070 91 34 bd be 7d 8e 69 be 3f 68 18 c0 fa 3a c7 be
       -0.36954167 -0.22808261 -2.3813627 -0.38912183
000080 5f bf 19 bf ec 25 ae 3e 05 63 17 3f fd 82 b4 3e
       -0.60057634 0.34013307 0.59135467 0.35256186
000090 b1 23 46 3e e5 22 d1 be b3 b4 6b bf 04 d2 ba be
       0.19349553 -0.40846935 -0.920726 -0.36488354
0000a0 65 0f 4d be 51 07 e2 be b2 5d 38 c0 35 d7 f6 be
       -0.20025404 -0.44146207 -2.8807187 -0.48211065
0000b0 a0 52 99 3e 8a d0 bf 3e 41 a4 a7 3f e8 bb 12 3f
       0.2994585 0.3746379 1.3097001 0.5731797
0000c0 70 9e 20 bf 57 67 c0 bd 4b 42 0b c0 16 d8 3e be
       -0.62741756 -0.093947105 -2.1759212 -0.18637118
0000d0 ca 5c 87 3d 4e 7c 9e 3e 98 41 47 40 88 ff a6 3e
       0.06609495 0.30954212 3.1133785 0.3261683
0000e0 c8 94 20 be 74 f6 a0 3e b3 fe ca be aa 73 74 be
       -0.15681756 0.3143803 -0.39647445 -0.23872247
0000f0 b7 77 6a be b5 15 05 bf 99 aa f6 bf e1 1d 68 bf
       -0.2289723 -0.5198625 -1.9270812 -0.9067059
000100 2f 6b 39 be 2c 9e b8 3e be 70 f0 be 26 49 8f 3e
       -0.18107294 0.36058176 -0.46961015 0.27985495
000110 9e e7 89 3f 90 43 0f 3e 2f 8d d7 bd e5 55 30 3e
       1.0773809 0.13990617 -0.105249755 0.17220266
000120 c6 9e 97 be 96 36 8a bc 99 19 0a bd 75 ef 2b be
       -0.29613322 -0.016871732 -0.033715818 -0.16790564
000130 bc 7d 40 3e 3e 4e 3d 3e 45 90 fd 3f 40 c9 b9 3e
       0.18797964 0.18486878 1.9809653 0.36286354
000140 5b 12 42 3f 74 0b 81 3d 5b ad e9 3e 36 3d 5b 3d
       0.7580926 0.06301013 0.45640072 0.053525172
000150 37 8e 3b 3f 77 93 a4 be 44 04 05 bf e7 9c a5 be
       0.7326388 -0.32143757 -0.51959634 -0.3234627
000160 50 ca 3d 3f a9 69 f2 3b 46 f3 2e 3f ab 56 aa bb
       0.7413683 0.0073978496 0.68339956 -0.00519832
000170 93 55 ac 3e 44 49 56 bc b9 d8 91 bf 8a 53 12 3e
       0.33659038 -0.013078991 -1.1394264 0.1428968

fc1.bias f4 [24]
000000 b1 db be be 7d 69 a8 3f b0 0a a3 3f 9d da 5e 3f
       -0.37276986 1.3157192 1.2737637 0.8705233
000010 bb 5c 84 3f eb 5f 4e 3d 41 aa 66 bf 7c a7 00 bf
       1.0340799 0.050384443 -0.90103537 -0.5025556
000020 55 1e e4 bd 2f a7 86 3f 60 95 90 3e 59 bf 3f bf
       -0.11138598 1.051977 0.28238964 -0.7490135
000030 52 18 22 be 06 3a bb be 64 2f 84 3f 67 6c 61 be
       -0.1582959 -0.36567706 1.0326962 -0.22014008
000040 59 e1 a5 3f a0 c3 c9 be 28 cc 4f 3f 21 4f ab bd
       1.2959396 -0.39407063 0.8117089 -0.08364702
000050 c7 13 fb be 50 e5 e1 be 94 5b f5 be e2 c1 92 3f
       -0.49038526 -0.44120264 -0.4792143 1.1465418

fc2.weight f4 [24, 24]
000000 14 57 8d be 8f b3 53 3f f4 04 84 3f 8e e9 6d 3f
       -0.27605498 0.8269586 1.0314012 0.929345
000010 86 c0 21 3f 27 4c 02 be 69 41 75 bf f2 c8 43 bf
       0.6318439 -0.12724362 -0.9580293 -0.76478493
000020 13 4d 02 bd e2 8a 04 3f c0 19 03 bf 3e 35 fb be
       -0.031811785 0.5177442 -0.51211166 -0.49064058
000030 6d 84 12 bf f8 3b 12 c0 17 e8 28 3f 2d 0a 01 bf
       -0.57233316 -2.2849102 0.6597914 -0.5040615
000040 d0 cd 7f 3f 8f 44 77 be 39 c4 04 3f ab 3e 5f bf
       0.9992342 -0.24147247 0.5186191 -0.87205
000050 c7 7a c4 be e3 62 63 bf 80 79 32 bf 9e d9 8a 3f
       -0.38374922 -0.88822764 -0.69716644 1.0847661
000060 57 ad e7 be 6c 19 06 3f df 01 5d 3e fc 55 78 3e
       -0.45249435 0.5238254 0.21582745 0.2425155
000070 22 18 fd 3d e0 8d 85 bf 1f 38 13 bf 86 46 32 3a
       0.123581186 -1.0433922 -0.5750751 0.000680067
000080 4b 4b 07 3e 8d 22 53 3f b2 db dc 3d 56 f7 b3 be
       0.13212316 0.82474595 0.10784091 -0.3514964
000090 a7 61 74 3e 6d 62 32 c0 d1 78 21 3f 8f cc 78 3e
       0.23865376 -2.7872574 0.63074976 0.24296783
0000a0 27 00 57 3e 8f b4 5a bf 69 8e b3 3e bf bc 03 c0
       0.20996152 -0.8543176 0.35069588 -2.0583951
0000b0 4f ae 09 3e 30 35 4d be c4 36 19 3d e6 71 d1 3e
       0.134454 -0.2003982 0.037405744 0.4090721
0000c0 9d cd fa be 2d eb 29 3f dd 0f 4c 3f d8 30 2c 3f
       -0.48984995 0.66374475 0.79711705 0.6726203
0000d0 7b 2b 43 3f 60 53 f1 bd 98 b3 69 bf bc b2 64 bf
       0.7623822 -0.11783481 -0.91289663 -0.89335227
0000e0 bb 94 30 3c d4 9d 30 3f de 52 26 bf bf 9a 01 bf
       0.010777648 0.68990827 -0.64970195 -0.5062675
0000f0 c8 2b 13 bf 59 1d f9 bf 95 35 13 3f d5 0c 99 be
       -0.5748868 -1.9462081 0.57503635 -0.29892603
000100 e1 1b 84 3f fd 24 94 be 5b 8b 0d 3f 11 52 32 bf
       1.0321008 -0.2893447 0.55290765 -0.69656473
000110 d1 a4 7c bf af 26 4b bf 93 a7 4f bf 1c dc 7a 3f
       -0.9868899 -0.793559 -0.8111507 0.9799211
000120 18 32 bd 3d b6 cc 84 3d 8c 5e d2 be 28 ab da bf
       0.0923807 0.06484358 -0.4108776 -1.7083483
000130 96 c9 84 3e 31 ef ad be 1c 5f 27 3f f4 98 64 3f
       0.25935048 -0.3397155 0.653795 0.8929589
000140 df 9c 16 3f 3c 8a 98 bd 2c 29 ea 3e 23 7e 44 3e
       0.58833116 -0.07448241 0.45734537 0.19188742
000150 a2 ae 04 3f e6 d4 79 bd 81 2d 27 bf 30 45 28 3f
       0.5182897 -0.06099405 -0.6530381 0.6573057
000160 e6 fb 7f be 67 d6 01 3d 4c ee 6b 3e be 08 38 bf
       -0.24998435 0.03169861 0.23040122 -0.7188834
000170 bf 6c db 3d 4c 73 5a 3e c2 ff 67 bc e3 da c6 bf
       0.10714101 0.21333045 -0.0141600985 -1.5535549
000180 9b 88 2f bc c1 1a f6 bd 49 c0 47 be 95 b7 6e 3d
       -0.010713722 -0.12016822 -0.19506945 0.058280546
000190 ed 2f 0d 3e 47 ce 37 be df e5 88 bb d0 42 df 3c
       0.13787813 -0.17949782 -0.0041777934 0.027253538
0001a0 0a 75 40 be d2 64 ef 3d 8b 71 17 be bc 72 1e be
       -0.18794647 0.11689152 -0.14789407 -0.15473455
0001b0 8f 5a 27 3e 70 bb cd bd 8b 0d 0b 3d 76 96 23 be
       0.16343139 -0.100455165 0.033948462 -0.15975365
0001c0 9b 04 c2 3d 69 20 d4 3d c0 26 90 3d 18 51 00 be
       0.09473535 0.10357744 0.07038641 -0.12530935
0001d0 6d 2b f7 bb 95 07 c7 bd 97 37 b1 bd 67 3f 33 be
       -0.0075430186 -0.09718243 -0.08653181 -0.17504655
0001e0 16 ec e1 be 2a 06 17 3f f1 cb 7c 3f b9 08 14 3f
       -0.44125432 0.5899378 0.9874869 0.5782581
0001f0 15 5c c3 3e 3e 65 06 bf e0 56 6a bf 28 04 21 bf
       0.3815619 -0.52498233 -0.9153881 -0.62896967
000200 28 a8 aa be 3c 34 14 3f f4 ea d5 be 4b 0c ce be
       -0.33331418 0.57892203 -0.41780818 -0.40243754
000210 ee 2f d0 be 07 a5 19 c0 25 47 47 3f 3d ce f7 be
       -0.40661567 -2.4006975 0.7784293 -0.48399535
000220 40 f0 38 3f 82 c6 ca be d4 7a fa 3e 88 e6 8b bf
       0.7224159 -0.39604574 0.48921835 -1.0929728
000230 e2 57 36 bf 10 e8 70 bf 53 ff 25 bf 41 78 29 3f
       -0.7122785 -0.941041 -0.6484272 0.6619912
000240 c9 d0 22 bf 03 f3 23 3f a4 a8 46 3f 34 42 1f 3f
       -0.6359983 0.6404268 0.77601075 0.6221039
000250 b8 05 f2 3e ad 0c 17 bf 1b b8 54 bf 30 26 29 bf
       0.47269988 -0.59003717 -0.8309342 -0.66073895
000260 89 0a 87 be 46 00 22 3f 35 f4 43 bf 98 c8 99 bd
       -0.26375225 0.6328167 -0.76544505 -0.07508963
000270 14 12 e7 be e1 38 16 c0 16 61 14 3f 81 fe ba be
       -0.4513098 -2.3472216 0.5796064 -0.36522296
000280 30 5a 19 3f 94 9f 12 bf 9d ad cc 3e dc 12 56 bf
       0.5990324 -0.57274747 0.39976206 -0.8362253
000290 85 5f 2a bf 70 a6 22 bf 66 a9 02 bf 39 55 40 3f
       -0.66552 -0.63535213 -0.5103973 0.7513004
0002a0 4e 76 f7 be 1d 03 55 3e 94 ae aa 3e 05 01 2b 3e
       -0.48332447 0.20801969 0.33336318 0.16699608
0002b0 af d7 d7 3e 4c 17 42 3e ee 7d b8 3e 0e a2 7f bf
       0.4215674 0.189542 0.36033577 -0.9985665
0002c0 d0 8e 9f 3e 28 c3 3e bf c5 e7 91 bf 3e 66 b7 bf
       0.31163645 -0.74516535 -1.1398855 -1.4328077
0002d0 93 b6 7d bf 39 03 40 3f d0 93 22 3d db ba 58 bf
       -0.9910671 0.7500492 0.039691746 -0.8466012
0002e0 04 d1 ec 3e 82 a2 c6 3c 58 dd 00 3f b0 4d 2b 40
       0.46253216 0.024247412 0.50337744 2.6766167
0002f0 a9 f6 1f bf a5 60 fe bf 71 30 21 bf 2d eb a7 39
       -0.6248575 -1.9873244 -0.6296454 0.00032027942
000300 83 24 a9 bd 28 c4 d5 3d 75 0e 21 be 2b d7 38 be
       -0.08258917 0.104378045 -0.15728171 -0.1805083
000310 8c bb c2 bd b4 ea 33 be 11 68 0f be ce 68 84 bc
       -0.09508428 -0.17570001 -0.14004542 -0.016163256
000320 6a 5c 3d be 3d 82 16 be 49 29 89 bd 55 32 95 bd
       -0.18492284 -0.1469812 -0.06697328 -0.07284991
000330 80 1b d1 3d 31 37 e4 bb 60 c7 47 be 01 84 2b be
       0.10210323 -0.006964587 -0.1950965 -0.16749574
000340 5b 09 03 bb e3 68 33 3e be 55 e0 3d 70 ea 32 3e
       -0.001999459 0.1752048 0.10953854 0.17472243
000350 b7 e1 2b be 77 92 14 be 90 0d 49 3e 24 00 0b 3e
       -0.16785322 -0.14508997 0.1963408 0.13574272
000360 92 ec 88 3e 77 9d cf be 31 45 e8 be 42 55 30 bf
       0.2674299 -0.40549824 -0.4536529 -0.68880093
000370 d5 ce a7 be 40 35 d4 bc ce e0 40 3f e1 74 3e 3f
       -0.32774988 -0.025904298 0.75343025 0.74397093
000380 f3 5c 15 3f e7 81 4b be be 87 c0 3e f4 c5 a9 3e
       0.58344954 -0.19873773 0.37603563 0.3315884
000390 ac 4e aa 3e d2 fe c6 3e 37 e2 cf be df 82 52 3f
       0.33263147 0.38866287 -0.40602276 0.82230943
0003a0 9e 74 32 bf 2d 8c bf 3e ca 5b 6e bf 5c 1f 22 3f
       -0.69709194 0.37411633 -0.9310881 0.633291
0003b0 36 a0 01 3f 20 4d f5 3e 4e 70 c0 3e 30 6c 15 bf
       0.5063509 0.47910404 0.37585682 -0.58368206
0003c0 2b 6e 3d bf ca 57 5e 3f 6f 78 6b 3f d9 41 a2 3e
       -0.7399623 0.86852705 0.9198064 0.31690863
0003d0 9a c4 f6 3e fe bd 8d bf f5 c9 39 bf 22 78 4b bf
       0.4819687 -1.1073606 -0.72573787 -0.79480183
0003e0 26 2a da be 17 3f c4 3e af 92 39 bf 67 dc 97 be
       -0.42610282 0.38329384 -0.72489446 -0.2966034
0003f0 dc 9b 52 bf c6 58 f8 bf 24 a6 13 3f 1c 83 fe be
       -0.8226907 -1.9402092 0.57675385 -0.49709404

fc2.bias f4 [24]
000000 41 ff 27 3f 51 83 0e 3f d0 89 44 3f f9 12 24 be
       0.6562386 0.5566912 0.76772785 -0.16022862
000010 e5 5d 6e bc a0 02 53 3f 92 97 33 3f de f0 a2 3e
       -0.014548753 0.8242588 0.7015315 0.31824392
000020 a2 f5 82 bd ad 0a ed be 51 c1 23 3f df b8 49 bd
       -0.06394507 -0.46297207 0.6396685 -0.049248572
000030 d7 c5 5a 3f f2 3b 51 3f 50 f7 a8 3d d1 d1 40 3f
       0.8545813 0.81732094 0.08250296 0.75320154
000040 e4 08 2d 3f b0 20 ac 3c a7 bf 1e 3f 41 38 f9 be
       0.6759169 0.02101168 0.6201119 -0.4867573
000050 dc 8f 3c 3f 60 09 e0 3d a4 6a 46 3f ff ec 9c 3e
       0.7365701 0.10939288 0.7750647 0.30649564

fc3.weight f4 [2, 24]
000000 ea 24 6d 3f a2 ac 82 3f 35 c6 73 3f d9 2c 34 bf
       0.9263445 1.0208933 0.95224315 -0.7038093
000010 67 2c cc bd 92 ff 9e 3f 3a b7 9a 3f 6b 84 97 bf
       -0.099694066 1.2421744 1.2087166 -1.1837286
000020 87 a4 95 3d 8f 7c 98 bf 45 c3 91 3f fe a9 0c be
       0.07306772 -1.1913012 1.1387717 -0.13736722
000030 f3 72 9a 3f 24 17 0c 3f 6c 35 e9 3c 2e b3 96 3f
       1.206633 0.5472281 0.028467856 1.1773431
000040 88 5c 84 3f f9 24 e1 3c 95 2d 92 3f b4 1a 5f bf
       1.0340738 0.02748345 1.142016 -0.8715012
000050 62 b6 97 3f 1b 03 d5 bd d6 50 b2 3f c7 f2 8b 3f
       1.1852534 -0.10400983 1.3930919 1.0933465
000060 1a df 9c 3f 9c 2c 5f 3e cf 2d a0 3f 87 09 81 bf
       1.2255585 0.21794361 1.251398 -1.0081033
000070 7e e0 2b bd e9 62 9a 3f b9 ed a4 3f c5 f2 21 3e
       -0.04196214 1.2061435 1.2885047 0.15815265
000080 60 79 c0 bc 23 29 94 bf 93 c3 b0 3f 54 ca 2e be
       -0.023495376 -1.1575054 1.3809685 -0.1706937
000090 d5 1b 74 3f 2b 2b 93 3f 1f dd 1d be 3a c3 a2 3f
       0.9535497 1.1497549 -0.15416382 1.2715828
0000a0 3b a4 92 3f 56 68 4f bd 8c 01 32 3f 6f 4e 1b bf
       1.1456369 -0.050636612 0.6953361 -0.60666555
0000b0 bd 75 82 3f 93 ea 99 bd 6a 6c 92 3f 44 0d f5 3e
       1.0192181 -0.075154446 1.1439335 0.47861683

fc3.bias f4 [2]
000000 dc ab d7 3e f1 6e cb 3e
       0.42123306 0.3973308

exp_avg f4 [24, 4]
000000 e8 a3 35 3f 72 cc 23 bd da 80 9e bc b3 86 68 3e
       0.70953226 -0.039989896 -0.01934855 0.22707634
000010 e5 58 b8 c0 3a 4e 5c 3f fb 30 cf 3d cb e1 c5 bf
       -5.7608514 0.86056864 0.10116764 -1.5459532
000020 f7 d9 d8 c0 03 a7 81 3f fc b1 f0 3d f4 ff e9 bf
       -6.776607 1.0129093 0.11752698 -1.8281236
000030 d6 45 ab c0 a8 bc 4c 3f 0f bf bf 3d f2 2c b8 bf
       -5.352275 0.79975367 0.093626134 -1.4388716
000040 4a 51 5e c0 34 47 05 3f 3b 14 70 3d 5a ea 72 bf
       -3.4737115 0.5206177 0.058613043 -0.9488884
000050 b8 32 18 3f 74 a0 14 3d 79 51 89 39 51 23 37 3e
       0.5945239 0.036285833 0.00026191378 0.17884566
000060 04 00 00 80 04 00 00 80 04 00 00 00 04 00 00 00
       -6e-45 -6e-45 6e-45 6e-45
000070 04 00 00 80 04 00 00 00 04 00 00 80 04 00 00 80
       -6e-45 6e-45 -6e-45 -6e-45
000080 f5 d7 d2 3f 5b 93 9c be 30 9d 19 bd 87 06 d7 3e
       1.6472155 -0.30581173 -0.03750342 0.41997167
000090 00 d6 d5 c0 44 bb 7e 3f 8a 26 fa 3d a7 67 e1 bf
       -6.682373 0.99504495 0.12214382 -1.7609757
0000a0 5c 1b 55 40 14 ea 06 bf 70 0c 61 bd 40 69 71 3f
       3.329795 -0.52700925 -0.054943502 0.94301224
0000b0 04 00 00 00 04 00 00 00 04 00 00 80 04 00 00 80
       6e-45 6e-45 -6e-45 -6e-45
0000c0 3f 00 18 40 a8 27 e2 be 23 0e 61 bd 3c 1f 19 3f
       2.375015 -0.4417088 -0.054945122 0.59813285
0000d0 e7 4f 43 ae 6f f3 01 ad c8 ab 5d 2e b0 62 d5 2e
       -4.4408834e-11 -7.386854e-12 5.0402155e-11 9.703649e-11
0000e0 87 ff bb c0 de 66 60 3f fc f8 d6 3d a4 3d c8 bf
       -5.8749423 0.8765696 0.10496709 -1.5643811
0000f0 ba a4 a1 3f c9 27 72 be 88 4b fc bc 3e c1 a7 3e
       1.2628396 -0.2364799 -0.030797735 0.3276462
000100 9d b5 c6 c0 a3 bb 6d 3f 14 aa db 3d 38 cf d6 bf
       -6.2096696 0.92864436 0.10725799 -1.6781988
000110 8c be 29 3f 00 eb 4e bd 00 ec 86 bc 58 ae 83 3e
       0.66306376 -0.050517082 -0.016469955 0.2571895
000120 0d 91 75 c0 2e ea 12 3f 03 11 89 3d 35 3e 84 bf
       -3.8369782 0.5738858 0.06692698 -1.0331484
000130 66 2a ba 3f 95 93 6f 3d d2 9d 59 bc a8 48 f8 3e
       1.4544189 0.058490355 -0.013282256 0.48492932
000140 61 ba 4c 3f 84 bb da bc 75 84 4b bc cd 5b 34 3e
       0.7997189 -0.026700743 -0.012421717 0.17613144
000150 c8 2d 8d 3f b9 96 a2 bd 84 a1 41 bc 52 45 63 3e
       1.1029596 -0.07938904 -0.0118182935 0.22194412
000160 0f 12 54 3f b9 bb 07 bd 86 3f 3f bc cd 60 39 3e
       0.82840055 -0.03313801 -0.01167286 0.18103333
000170 c7 1c da c0 45 48 82 3f 94 31 f5 3d 04 12 ea bf
       -6.816013 1.0178305 0.11972347 -1.8286748

exp_avg_sq f4 [24, 4]
000000 47 09 20 42 06 d7 10 40 59 b4 5e 3c 77 d7 e6 3f
       40.00906 2.263124 0.013592803 1.8034505
000010 e7 ee c8 42 49 b2 05 41 6c d8 5a 3d 52 95 09 41
       100.466606 8.356027 0.053429052 8.598955
000020 c6 7a 09 43 f6 4e 3a 41 26 5d 9a 3d d3 a3 3b 41
       137.47958 11.644278 0.07537298 11.727496
000030 a4 ae ab 42 91 fe e5 40 a9 15 3d 3d c6 0e eb 40
       85.841095 7.187325 0.046163235 7.3455534
000040 66 02 11 42 24 72 4c 40 cf 79 ad 3c 35 e8 43 40
       36.252342 3.1944666 0.021176247 3.0610478
000050 51 1b 36 42 1b a8 56 40 08 9e 90 3c c2 09 42 40
       45.526676 3.3540103 0.01765348 3.0318456
000060 73 73 5e 28 9a f0 07 27 60 94 c4 23 e5 f9 07 26
       1.234851e-14 1.8865444e-15 2.1313202e-17 4.7176204e-16
000070 51 a6 d5 38 ea 59 45 36 23 17 16 34 7e 68 94 36
       0.0001018761 2.9407624e-06 1.3978256e-07 4.422908e-06
000080 80 32 91 3f bc 08 fc 3d 7f 1e c6 3a 85 12 a8 3e
       1.1343536 0.123063534 0.001511529 0.3282663
000090 10 f4 0a 43 4d c4 2f 41 41 85 8a 3d 34 1e 42 41
       138.95337 10.985425 0.067636974 12.132374
0000a0 e0 d9 01 42 7d 44 4d 40 3e 40 b9 3c aa 07 38 40
       32.46277 3.2073052 0.02261364 2.8754678
0000b0 fc 5e 5f 3b cb 19 3d 39 1a a2 d1 35 dd b2 c8 37
       0.0034083715 0.00018034053 1.5618891e-06 2.3925148e-05
0000c0 00 29 70 40 3e 14 bb 3e 77 00 65 3b f6 be 4d 3f
       3.7525024 0.3653888 0.0034942904 0.8036951
0000d0 80 32 bf 3d 91 86 64 3c b9 e4 a6 3a ee d9 dd 3b
       0.09335804 0.013948099 0.001273296 0.006770364
0000e0 42 1a d0 42 ec 4a 07 41 f7 32 5a 3d 06 72 0f 41
       104.051285 8.455791 0.05327126 8.965338
0000f0 b3 ae 8f 3e bd 00 f0 3c 11 f3 d5 39 4f ce ee 3d
       0.28062972 0.029297227 0.00040807624 0.11660444
000100 88 d4 e4 42 6a d4 1b 41 81 b5 81 3d bc 8a 1b 41
       114.4151 9.739359 0.06333447 9.721371
000110 0c 3d 81 42 72 32 62 40 30 6f 98 3c 5b 06 3c 40
       64.61923 3.534329 0.018607706 2.937888
000120 62 dc 30 42 49 4b 6d 40 26 9e c3 3c 33 b6 70 40
       44.215218 3.70772 0.023879122 3.7611206
000130 a6 76 98 43 58 10 86 41 89 cd 9a 3d 8a c0 57 41
       304.92694 16.75798 0.07558734 13.484507
000140 aa 64 b3 42 a2 34 82 40 12 3a 62 3c 7c 72 78 40
       89.69661 4.068925 0.01380779 3.8819876
000150 01 6a c1 42 7f 1a 88 40 72 14 75 3c 8f aa 84 40
       96.70704 4.2532344 0.014958488 4.14582
000160 14 1c c3 42 79 f4 8c 40 50 6b 74 3c d8 c6 86 40
       97.55484 4.404843 0.014918163 4.211773
000170 d7 0e 0c 43 de 94 3a 41 cb b5 98 3d dc 47 40 41
       140.05797 11.661345 0.07456549 12.017544

exp_avg f4 [24]
000000 46 6e 6d 3f 91 89 87 40 0c e2 99 40 6f 1f 79 40
       0.9274639 4.235543 4.8088436 3.8925436
000010 c0 db 11 40 ca d5 81 3f 04 00 00 00 04 00 00 00
       2.2790375 1.0143368 6e-45 6e-45
000020 e0 58 06 c0 60 e2 ae 40 39 0f e9 bf 04 00 00 00
       -2.0991745 5.4651337 -1.820777 6e-45
000030 a5 5d 44 c0 68 98 0b 30 d1 e3 90 40 de 3d d3 bf
       -3.0682156 5.078449e-10 4.5278096 -1.6503255
000040 22 74 8b 40 7c d9 40 3f 10 6a 31 40 3b 2a 1a 40
       4.3579264 0.75331855 2.7720985 2.4088275
000050 25 40 72 3f 39 85 b1 3f a9 75 79 3f 57 5d a0 40
       0.94629127 1.3868781 0.9744516 5.011394

exp_avg_sq f4 [24]
000000 4a 5e 91 42 8f 52 7f 43 80 0b b2 43 95 b6 5b 43
       72.68416 255.3225 356.08984 219.71321
000010 3e 3b c3 42 99 20 c5 42 2e 66 4f 27 8b 93 8a 38
       97.61571 98.56367 2.8782412e-15 6.607835e-05
000020 92 36 7b 40 08 32 a7 43 8f 76 c1 42 04 8e 2c 3a
       3.9252057 334.39087 96.73156 0.0006582441
000030 3b cb 3f 41 d0 28 1f 3e b2 27 81 43 cb f1 80 3f
       11.987117 0.15542912 258.31012 1.0073789
000040 96 09 95 43 ad dd e1 42 51 c0 e2 42 16 bd 04 44
       298.0749 112.93296 113.37562 530.95447
000050 4d 26 08 43 d1 03 15 43 f8 13 14 43 1c 29 b2 43
       136.14961 149.01491 148.078 356.32117

exp_avg f4 [24, 24]
000000 50 3f 96 bd 3f d3 25 3f dc 30 ce 3e 15 de 49 3e
       -0.07336295 0.6477546 0.40271652 0.19713624
000010 25 01 51 3e 65 59 af bd 04 00 00 80 04 00 00 80
       0.20410593 -0.085619725 -6e-45 -6e-45
000020 ea f1 45 3e fb 58 8d 3e 9b 29 6a 3e 04 00 00 80
       0.19330564 0.2760695 0.22867434 -6e-45
000030 46 26 36 3e 6c 03 ea a9 d3 9b 05 3f 66 53 f0 3b
       0.17788038 -1.0392281e-13 0.52190894 0.0073341606
000040 2d 61 0c 3f cc 56 b0 bd 8f b7 f9 3e 93 a1 c5 bc
       0.5483578 -0.08610305 0.48772857 -0.024124896
000050 fe 39 80 bc 7c 6b 6c bc df 65 6a bc c8 ef 33 3e
       -0.015652653 -0.014429923 -0.0143065145 0.17571938
000060 1d da 31 bc 64 e6 66 3f e3 29 2f 3f 89 be cd 3e
       -0.010855225 0.901953 0.6842329 0.4018443
000070 e3 fc e7 3e 4b fc 9a bc 04 00 00 80 04 00 00 80
       0.45310125 -0.01891913 -6e-45 -6e-45
000080 01 62 57 3e e4 a6 02 3f 01 b1 83 3e 04 00 00 80
       0.2103348 0.51035905 0.2572098 -6e-45
000090 a3 0c 46 3e 3d 6e a5 a8 95 34 37 3f 2b a4 03 3c
       0.19340758 -1.8366488e-14 0.7156461 0.008034746
0000a0 b2 1e 51 3f 1e ac 64 bc 0c 20 21 3f cb 8f 64 bb
       0.8168746 -0.013957052 0.62939525 -0.0034875746
0000b0 51 59 a0 bb 13 6d 00 bb 98 02 84 bb 29 50 ea 3e
       -0.00489346 -0.0019596263 -0.0040286295 0.45764282
0000c0 8c 60 99 bd 8d d2 2a 3f 09 e0 d4 3e d9 eb 50 3e
       -0.07489118 0.66727525 0.41577175 0.20402469
0000d0 14 97 58 3e c4 19 b3 bd 04 00 00 80 04 00 00 80
       0.21151382 -0.08745149 -6e-45 -6e-45
0000e0 be 76 4b 3e 35 16 92 3e 5d c0 70 3e 04 00 00 80
       0.19869515 0.28532568 0.23510881 -6e-45
0000f0 17 3a 3b 3e 52 00 ef a9 29 9d 09 3f 4f 0a f7 3b
       0.18283878 -1.0613788e-13 0.5375543 0.0075390707
000100 35 b6 10 3f 16 08 b4 bd c4 86 00 3f 80 bd c9 bc
       0.56528026 -0.08790605 0.50205636 -0.024626493
000110 71 0e 83 bc 49 53 71 bc 32 84 6f bc 64 fb 3a 3e
       -0.015998097 -0.014729329 -0.01461892 0.1825996
000120 00 00 00 00 04 00 00 00 04 00 00 00 04 00 00 00
       0.0 6e-45 6e-45 6e-45
000130 04 00 00 00 04 00 00 80 04 00 00 00 04 00 00 00
       6e-45 -6e-45 6e-45 6e-45
000140 04 00 00 00 04 00 00 00 04 00 00 00 00 00 00 00
       6e-45 6e-45 6e-45 0.0
000150 04 00 00 00 04 00 00 80 04 00 00 00 04 00 00 00
       6e-45 -6e-45 6e-45 6e-45
000160 04 00 00 00 00 00 00 00 04 00 00 00 04 00 00 00
       6e-45 0.0 6e-45 6e-45
000170 00 00 00 00 04 00 00 80 00 00 00 00 04 00 00 00
       0.0 -6e-45 0.0 6e-45
000180 00 00 00 00 00 00 00 00 00 00 00 00 00 00 00 00
       0.0 0.0 0.0 0.0
000190 00 00 00 00 00 00 00 00 00 00 00 00 00 00 00 00
       0.0 0.0 0.0 0.0
0001a0 00 00 00 00 00 00 00 00 00 00 00 00 00 00 00 00
       0.0 0.0 0.0 0.0
0001b0 00 00 00 00 00 00 00 00 00 00 00 00 00 00 00 00
       0.0 0.0 0.0 0.0
0001c0 00 00 00 00 00 00 00 00 00 00 00 00 00 00 00 00
       0.0 0.0 0.0 0.0
0001d0 00 00 00 00 00 00 00 00 00 00 00 00 00 00 00 00
       0.0 0.0 0.0 0.0
0001e0 c4 3c 92 bd bc d3 70 3f 1f e1 21 3f e1 a7 ab 3e
       -0.071404964 0.9407308 0.6323413 0.3352652
0001f0 e6 04 b9 3e 90 a1 af bd 04 00 00 80 04 00 00 80
       0.3613655 -0.085757375 -6e-45 -6e-45
000200 8e 2a 84 3e b9 11 e6 3e 1c fb 9d 3e 04 00 00 00
       0.25813717 0.44935396 0.30855644 6e-45
000210 fa 2e 73 3e c6 6d e6 a9 9b f2 40 3f 0c cf 20 3c
       0.23748389 -1.02330945e-13 0.75370187 0.009814989
000220 75 1f 51 3f dd 98 ac bd 7a 6f 30 3f 60 12 c0 bc
       0.81688625 -0.08427594 0.689201 -0.023446262
000230 93 ef 84 bc 43 04 65 bc 5f 34 70 bc 10 96 ac 3e
       -0.01622752 -0.013978067 -0.014660924 0.3370824
000240 0e cd 9c bd 29 77 65 3f 5a 4a 17 3f 06 78 9d 3e
       -0.076562986 0.8963495 0.59097826 0.30755633
000250 0f 37 a8 3e 5d 87 ba bd 04 00 00 80 04 00 00 80
       0.32854506 -0.0910785 -6e-45 -6e-45
000260 52 be 80 3e 82 31 d5 3e 3f 74 99 3e 04 00 00 00
       0.25145203 0.41639334 0.299715 6e-45
000270 86 e6 6c 3e 9d 3b f6 a9 17 1c 38 3f bd 8d 1c 3c
       0.23134813 -1.0934936e-13 0.7191786 0.009555277
000280 6f fb 45 3f 8c b7 b8 bd f6 4c 29 3f 07 0b ce bc
       0.7733678 -0.09019384 0.6613306 -0.025151743
000290 a6 98 8b bc ce f5 75 bc 09 31 7d bc fa 42 9a 3e
       -0.017040562 -0.015012218 -0.015453585 0.30129224
0002a0 dc 62 4c bc 6e b1 8d bf 9d d2 5f bf 5f 60 07 bf
       -0.012474742 -1.1069772 -0.87430745 -0.52881426
0002b0 14 76 1a bf 85 7e a3 bb 04 00 00 80 04 00 00 00
       -0.6033642 -0.0049894475 -6e-45 6e-45
0002c0 3d a4 77 be d9 5a 29 bf 65 d0 98 be 04 00 00 80
       -0.24183746 -0.6615425 -0.29846492 -6e-45
0002d0 98 a9 63 be 9e e0 67 a8 31 0b 60 bf 4d ae 17 bc
       -0.22232664 -1.2871782e-14 -0.87517077 -0.009257865
0002e0 c0 3d 82 bf 28 72 51 bc 0f 2f 42 bf 37 25 8b bb
       -1.0175095 -0.012783565 -0.75853056 -0.0042463797
0002f0 f9 ed a1 3a 19 f4 31 bb 5d bf ef 39 25 0a 1f bf
       0.0012354247 -0.002715355 0.0004572821 -0.62124854
000300 00 00 00 00 00 00 00 00 00 00 00 00 00 00 00 00
       0.0 0.0 0.0 0.0
000310 00 00 00 00 00 00 00 00 00 00 00 00 00 00 00 00
       0.0 0.0 0.0 0.0
000320 00 00 00 00 00 00 00 00 00 00 00 00 00 00 00 00
       0.0 0.0 0.0 0.0
000330 00 00 00 00 00 00 00 00 00 00 00 00 00 00 00 00
       0.0 0.0 0.0 0.0
000340 00 00 00 00 00 00 00 00 00 00 00 00 00 00 00 00
       0.0 0.0 0.0 0.0
000350 00 00 00 00 00 00 00 00 00 00 00 00 00 00 00 00
       0.0 0.0 0.0 0.0
000360 04 00 00 00 04 00 00 00 04 00 00 00 04 00 00 00
       6e-45 6e-45 6e-45 6e-45
000370 04 00 00 00 04 00 00 00 04 00 00 00 04 00 00 00
       6e-45 6e-45 6e-45 6e-45
000380 04 00 00 00 04 00 00 00 04 00 00 00 04 00 00 00
       6e-45 6e-45 6e-45 6e-45
000390 04 00 00 00 04 00 00 00 04 00 00 00 04 00 00 00
       6e-45 6e-45 6e-45 6e-45
0003a0 04 00 00 00 04 00 00 00 04 00 00 00 04 00 00 00
       6e-45 6e-45 6e-45 6e-45
0003b0 04 00 00 00 04 00 00 00 04 00 00 00 04 00 00 00
       6e-45 6e-45 6e-45 6e-45
0003c0 15 b5 a8 bd 17 4b 51 3f 3b a6 05 3f c5 ab 86 3e
       -0.08237664 0.81755203 0.5220677 0.26302925
0003d0 ba 8c 8d 3e 89 58 c6 bd 04 00 00 80 04 00 00 80
       0.27646428 -0.096848555 -6e-45 -6e-45
0003e0 5b 1f 73 3e 53 98 b9 3e 90 44 90 3e 04 00 00 80
       0.2374243 0.36249027 0.2817731 -6e-45
0003f0 b3 b4 5f 3e 1c 12 04 aa a0 50 28 3f 0b b1 13 3c
       0.21846275 -1.1730238e-13 0.65748024 0.009014378

exp_avg_sq f4 [24, 24]
000000 26 65 49 3e 41 fa 7d 40 af d4 99 40 29 22 1f 40
       0.19667491 3.9683993 4.8072124 2.48646
000010 d9 20 5f 40 9e 44 3b 3e c8 18 53 21 c0 1a 21 32
       3.4863799 0.18287894 7.152238e-19 9.377516e-09
000020 08 8f ca 3c cf 79 69 40 09 63 f7 3d 84 ec 08 36
       0.024726406 3.6480596 0.12079436 2.040325e-06
000030 3a d4 9e 3c ca 39 ca 35 e1 3d 32 40 ef f3 55 3a
       0.019388307 1.5066992e-06 2.7850268 0.0008161654
000040 dd 80 86 40 95 e4 97 3e 17 df b4 3f 97 71 31 3c
       4.2032304 0.29666582 1.4130582 0.010830305
000050 84 ce 03 3d 2c 4e 3e 3d 4f 48 01 3d 49 8d 94 40
       0.03217937 0.04646127 0.0315631 4.6422467
000060 66 a0 52 3e 54 fc 19 40 f5 bd 4b 40 74 93 d5 3f
       0.20569 2.406026 3.183469 1.6685624
000070 23 e3 0c 40 9f 05 18 3e 67 18 02 20 3f 8d 15 32
       2.2013633 0.14845894 1.1019502e-19 8.705057e-09
000080 c8 93 5e 3c b1 78 1e 40 cb 6d 9e 3d 59 87 0c 32
       0.0135850385 2.4761164 0.07735785 8.179847e-09
000090 16 d7 24 3c bc 66 0f 33 79 7f fa 3f e2 03 84 3a
       0.010061046 3.338822e-08 1.9570152 0.0010071958
0000a0 c9 4e 2a 40 ca 65 a1 3e c8 c2 66 3f ca 41 08 3c
       2.6610587 0.3152297 0.9014096 0.008316467
0000b0 db 46 18 3d e8 24 5b 3d 2c 64 15 3d 7b 40 47 40
       0.037176948 0.053501993 0.036472484 3.1133106
0000c0 fd 65 54 3e c2 52 85 40 42 98 a1 40 ad 2d 27 40
       0.2074203 4.1663523 5.049836 2.6121628
0000d0 84 4e 6a 40 4a 05 45 3e 57 b7 61 21 e5 0c 26 32
       3.6610422 0.19240299 7.6475614e-19 9.665404e-09
0000e0 3d 9f d4 3c 20 4b 75 40 95 ef 01 3e f2 cc 07 36
       0.025954837 3.8327103 0.1268905 2.0235861e-06
0000f0 e3 ab a6 3c 2e 93 c4 35 1d 52 3b 40 cc 06 62 3a
       0.020345634 1.4645973e-06 2.9268868 0.00086222286
000100 fa 40 8d 40 74 38 a0 3e 98 f5 bd 3f 09 92 3a 3c
       4.4141817 0.3129307 1.4840574 0.011387357
000110 16 27 0b 3d 9c e8 48 3d de 7c 08 3d 3b 0f 9c 40
       0.033972822 0.04904996 0.033322208 4.876859
000120 00 00 00 00 2b 48 d3 23 ae 73 9b 22 71 f3 d0 20
       0.0 2.290723e-17 4.2135315e-18 3.5397667e-19
000130 88 fa 35 22 99 93 84 17 48 f8 0b 21 a5 44 1c 22
       2.4662704e-18 8.567559e-25 4.742363e-19 2.1178282e-18
000140 e8 59 d6 22 12 9f e0 21 81 f7 66 22 00 00 00 00
       5.810001e-18 1.5220936e-18 3.130184e-18 0.0
000150 27 92 c7 22 62 5c cf 19 c2 a9 cb 22 58 27 a6 21
       5.4093803e-18 2.1440611e-23 5.5203e-18 1.1259012e-18
000160 51 10 49 23 00 00 00 00 68 12 41 23 c9 6a a0 18
       1.0899687e-17 0.0 1.0466449e-17 4.1466856e-24
000170 00 00 00 00 bd ba a2 1b 00 00 00 00 c5 34 4c 20
       0.0 2.6921329e-22 0.0 1.7296932e-19
000180 00 00 00 00 00 00 00 00 00 00 00 00 00 00 00 00
       0.0 0.0 0.0 0.0
000190 00 00 00 00 00 00 00 00 00 00 00 00 00 00 00 00
       0.0 0.0 0.0 0.0
0001a0 00 00 00 00 00 00 00 00 00 00 00 00 00 00 00 00
       0.0 0.0 0.0 0.0
0001b0 00 00 00 00 00 00 00 00 00 00 00 00 00 00 00 00
       0.0 0.0 0.0 0.0
0001c0 00 00 00 00 00 00 00 00 00 00 00 00 00 00 00 00
       0.0 0.0 0.0 0.0
0001d0 00 00 00 00 00 00 00 00 00 00 00 00 00 00 00 00
       0.0 0.0 0.0 0.0
0001e0 38 c5 a9 3e 96 b3 af 40 5c e5 da 40 cd 6f 63 40
       0.33158278 5.490672 6.840498 3.5536988
0001f0 92 51 9c 40 53 05 8f 3e b5 58 75 21 08 e1 7f 32
       4.8849573 0.2793375 8.312663e-19 1.489412e-08
000200 a0 73 07 3d 9d 59 a7 40 ae 28 2e 3e 9b b3 4a 36
       0.033069253 5.229689 0.17007706 3.020489e-06
000210 2a 24 d1 3c 15 cb 00 36 26 41 81 40 8f 86 c0 3a
       0.02552994 1.9191696e-06 4.0392027 0.0014688539
000220 ac b9 bc 40 ca f5 00 3f 5f 20 fe 3f ae 4c 84 3c
       5.897665 0.50375044 1.9853629 0.016149845
000230 a0 7b 67 3d 4a f7 a6 3d ae 08 63 3d 7b 46 d4 40
       0.056514382 0.081526354 0.0554282 6.6336036
000240 98 7a a3 3e c9 9f b2 40 ae b5 dc 40 88 05 65 40
       0.3192947 5.582005 6.8971777 3.5784626
000250 ca 4c 9e 40 82 5b 8d 3e 32 d2 85 21 f2 8b 70 32
       4.9468737 0.27608877 9.068069e-19 1.40016585e-08
000260 66 4e 0b 3d f5 5c a8 40 69 45 30 3e 3d 57 06 36
       0.034010313 5.2613473 0.17213978 2.0018335e-06
000270 17 1b d8 3c cc b5 c0 35 14 a2 81 40 f6 8c b6 3a
       0.026380105 1.4358025e-06 4.051035 0.0013927508
000280 15 15 bf 40 65 ed f7 3e ce 9b 00 40 ed 93 83 3c
       5.9713235 0.48423305 2.0095096 0.016061747
000290 55 95 5c 3d 67 2c 9f 3d 19 58 58 3d 38 c2 d5 40
       0.05385335 0.07772141 0.05281839 6.6799583
0002a0 6c 05 8c 3e 5a 1f 48 40 58 7b 84 40 2c c7 0a 40
       0.27347887 3.1269135 4.1400566 2.1684065
0002b0 ae 89 36 40 e4 d6 46 3e 06 87 71 20 a4 92 9a 32
       2.8521533 0.19417912 2.045817e-19 1.7994644e-08
0002c0 ef f7 96 3c c0 86 4e 40 79 de d0 3d 29 6f 2b 31
       0.01842877 3.2269745 0.10198683 2.4946962e-09
0002d0 aa 3e 5e 3c 64 fe 83 33 39 1e 24 40 f6 30 b7 3a
       0.013564745 6.146436e-08 2.5643446 0.0013976383
0002e0 82 2e 5d 40 2c 94 d6 3e 18 e3 96 3f 64 fd 32 3c
       3.4559636 0.4190992 1.1788054 0.010924671
0002f0 20 76 4c 3d bc cd 92 3d 9b ac 48 3d 64 5d 81 40
       0.04991734 0.07168147 0.048992734 4.04265
000300 00 00 00 00 00 00 00 00 00 00 00 00 00 00 00 00
       0.0 0.0 0.0 0.0
000310 00 00 00 00 00 00 00 00 00 00 00 00 00 00 00 00
       0.0 0.0 0.0 0.0
000320 00 00 00 00 00 00 00 00 00 00 00 00 00 00 00 00
       0.0 0.0 0.0 0.0
000330 00 00 00 00 00 00 00 00 00 00 00 00 00 00 00 00
       0.0 0.0 0.0 0.0
000340 00 00 00 00 00 00 00 00 00 00 00 00 00 00 00 00
       0.0 0.0 0.0 0.0
000350 00 00 00 00 00 00 00 00 00 00 00 00 00 00 00 00
       0.0 0.0 0.0 0.0
000360 bf df a5 31 ba 1c d1 2e 9a be 28 31 d8 c1 eb 30
       4.827569e-09 9.5093225e-11 2.4555562e-09 1.7153594e-09
000370 74 97 f4 30 ab 4f 96 31 02 8f 51 21 7e 4c a3 22
       1.7796382e-09 4.3746318e-09 7.1001224e-19 4.4262228e-18
000380 1d 4f 2c 23 c5 b6 7e 2f 26 18 fc 22 bf 48 8e 30
       9.3408916e-18 2.3166098e-10 6.8330305e-18 1.0352535e-09
000390 e2 e7 2d 23 60 a8 af 30 34 37 27 30 96 c5 54 22
       9.427452e-18 1.2780781e-09 6.0832694e-10 2.8835959e-18
0003a0 c1 59 1c 31 e1 f2 d6 31 79 1d 13 2e b1 df 0e 31
       2.2752007e-09 6.255832e-09 3.3450107e-11 2.0790873e-09
0003b0 d0 0c cb 30 df 58 84 2e 4d a4 d7 30 39 e8 5d 31
       1.4773835e-09 6.018452e-11 1.5690006e-09 3.2291736e-09
0003c0 2b 25 95 3e 11 06 b1 40 4b 33 d8 40 1b f0 5f 40
       0.2912992 5.5319905 6.7562613 3.4990299
0003d0 06 14 9c 40 1e 6f 86 3e 07 42 99 21 1a 3e 5c 32
       4.8774443 0.2625665 1.0385161e-18 1.2819806e-08
0003e0 d2 e2 0b 3d 07 6b a4 40 a9 56 2d 3e 56 d6 18 32
       0.03415186 5.138065 0.1692759 8.896299e-09
0003f0 e4 6b da 3c e1 5b ad 34 94 ef 7b 40 f2 42 a2 3a
       0.026662774 3.2290612e-07 3.9364977 0.001237957

exp_avg f4 [24]
000000 11 43 b5 3e c7 e1 11 3f 7a 04 bb 3e 04 00 00 00
       0.3540273 0.56985134 0.36526853 6e-45
000010 00 00 00 00 24 31 0b 3f 79 c9 02 3f d1 8c 38 bf
       0.0 0.5437186 0.5108867 -0.7208987
000020 00 00 00 00 04 00 00 00 20 2c e9 3e 04 00 00 00
       0.0 6e-45 0.45541477 6e-45
000030 35 07 10 3f cf 87 11 3e 04 00 00 00 d1 6c fd 3e
       0.56261 0.14211963 6e-45 0.49497083
000040 72 5b dc 3e 04 00 00 00 cb b9 10 3f 04 00 00 80
       0.43038517 6e-45 0.565335 -6e-45
000050 20 18 0a 3f 04 00 00 00 2f 7e 24 3f 7d 98 12 3f
       0.5394306 6e-45 0.6425504 0.5726393

exp_avg_sq f4 [24]
000000 e1 f3 37 40 48 6d ef 3f ab 36 41 40 47 94 d3 22
       2.8742602 1.8705225 3.0189617 5.734866e-18
000010 00 00 00 00 ca 1c 82 40 1a 6a 83 40 4d c4 1b 40
       0.0 4.0660143 4.106702 2.4338562
000020 00 00 00 00 13 d4 b0 30 55 0b 81 40 1e e8 95 16
       0.0 1.286596e-09 4.0326333 2.4218735e-25
000030 7c 76 5a 40 0f 7a d8 3f f4 c9 c5 16 6c 61 7b 40
       3.4134817 1.6912249 3.1954517e-25 3.9278212
000040 85 a6 45 40 e7 d0 ba 1a 90 f6 2f 40 1d b6 7f 37
       3.0882885 7.72653e-23 2.749424 1.5241586e-05
000050 ec 3d 5c 40 0c cc c5 17 29 74 94 40 12 df 14 40
       3.4412794 1.2782335e-24 4.6391797 2.3261151

exp_avg f4 [2, 24]
000000 23 01 9a 40 a9 50 2f 40 33 a5 90 40 04 00 00 80
       4.8126388 2.739298 4.520166 -6e-45
000010 00 00 00 00 1a 71 81 40 12 a0 67 40 d9 5d 4d 3f
       0.0 4.0450563 3.619145 0.80221325
000020 00 00 00 00 04 00 00 80 50 18 68 40 04 00 00 80
       0.0 -6e-45 3.626484 -6e-45
000030 37 c5 78 40 61 57 82 40 04 00 00 00 ee de 80 40
       3.887037 4.0731664 6e-45 4.027213
000040 51 b0 90 40 04 00 00 80 ea af 7c 40 04 00 00 00
       4.521523 -6e-45 3.948237 6e-45
000050 af 14 87 40 04 00 00 80 85 4a 8d 40 68 f7 25 40
       4.221275 -6e-45 4.4153466 2.5932255
000060 bd e1 a6 bf 1c 59 f0 be bc 83 9b bf 04 00 00 80
       -1.303764 -0.46942985 -1.2149577 -6e-45
000070 00 00 00 00 1f 31 7e bf 85 29 6b bf d4 60 87 be
       0.0 -0.992937 -0.9186023 -0.26441061
000080 00 00 00 00 04 00 00 80 d1 44 4f bf 04 00 00 80
       0.0 -6e-45 -0.8096438 -6e-45
000090 22 4f 7e bf 73 2c 98 bf 04 00 00 80 d6 da 88 bf
       -0.993395 -1.1888565 -6e-45 -1.0691783
0000a0 b5 38 94 bf 04 00 00 80 75 46 76 bf 04 00 00 80
       -1.1579806 -6e-45 -0.9620126 -6e-45
0000b0 84 4d 90 bf 04 00 00 80 d0 0f 8c bf 81 60 af be
       -1.1273656 -6e-45 -1.0942326 -0.34253314

exp_avg_sq f4 [2, 24]
000000 ce 75 de 42 8c 2b ba 41 1e f2 bf 42 f4 5a ae 22
       111.23009 23.271263 95.972885 4.7259095e-18
000010 00 00 00 00 b5 9d 8c 42 47 9d 6a 42 c0 fd 10 40
       0.0 70.30802 58.65359 2.2654877
000020 00 00 00 00 ca bc bd 2e ec 9b 44 42 03 1e be 12
       0.0 8.6282606e-11 49.152267 1.1998084e-27
000030 cc f5 88 42 42 a7 ab 42 94 09 a7 15 b1 72 97 42
       68.48007 85.826675 6.7465874e-26 75.72401
000040 25 2b b6 42 ba 1b cd 1c 7b 03 85 42 cd d7 9e 38
       91.08427 1.3572929e-21 66.5068 7.574223e-05
000050 b8 33 ae 42 b3 75 1d 17 85 41 a8 42 3e 3f 79 41
       87.10101 5.0877993e-25 84.12797 15.57794
000060 e5 f2 64 42 a8 f7 4c 41 f4 ad 4b 42 77 b6 b0 22
       57.2372 12.810463 50.919876 4.7898088e-18
000070 00 00 00 00 04 7d 16 42 4e 5e 00 42 75 dd 09 40
       0.0 37.622086 32.092094 2.1541417
000080 00 00 00 00 df e8 e4 2e 1e e1 ec 41 20 3a d9 11
       0.0 1.0409606e-10 29.60992 3.4272386e-28
000090 2c ee 13 42 db ea 31 42 36 c3 38 16 3c 9d 1f 42
       36.98259 44.47935 1.4924999e-25 39.90355
0000a0 85 bc 43 42 a2 c5 f6 14 c8 76 0e 42 ca a9 a4 36
       48.9341 2.4917605e-26 35.615997 4.907347e-06
0000b0 2e 21 2f 42 00 23 8f 17 6c a6 32 42 47 1e 3d 41
       43.782402 9.249994e-25 44.66252 11.819892

exp_avg f4 [2]
000000 30 0e 17 3f 63 de 21 be
       0.59006023 -0.1580749

exp_avg_sq f4 [2]
000000 e6 34 da 3f 01 da 52 3f
       1.7047393 0.823639
