dqn_motor_control.pth (torch, 97452 bytes, 6 tensors)

fc1.weight f4 [128, 50]
00000000: 2bf9 cc3c bf36 bdbd 092d 133d 40f0 9ebf
00000010: d4b3 29be d42d 44bd 9765 97bd ca5e c13d
00000020: 1aa4 acbf b357 933e 1985 bdbd 67e2 63bd
00000030: fd83 dd3d 6ccb 9dbf d6e8 143e 2b50 1dbb
00000040: f4aa 8a3d 124f 173e 026c a8bf 11db 9fbd
00000050: 33a8 593c 3c41 ce3c 89d5 553e 4b7e 98bf
00000060: a91a 7d3e 7355 d13c 606b 183e 2a8f 713e
00000070: ffec 9ebf 085f 223d 0010 b13d cdde 853e
00000080: 1aca 0cbb c63c a0bf 20a0 d7bd fa44 293c
00000090: d190 073e baeb 123e c6a8 a3bf b59d c5bb
000000a0: 5890 92bc 0874 5e3d 1fa1 81bc 97df 9abf
000000b0: 97dc f7bd 05c6 6bbe 350a e4be a7bb 433e
000000c0: cd1c 9abf 52a1 49be ee6f b3bd 15f9 06bd
000000d0: 0949 933e 2d4b 28bf 3e41 8b3d 4d41 56be
000000e0: 8c34 143c 945b e53d a8f7 13bf c926 cf3e
000000f0: bf4a 03be 28a7 93bd 9c88 b03d 3cc3 3cbf
00000100: 6672 82be 0f37 0abe ebc2 2cbd a51a 623e
00000110: e310 39bf 161f e8bd f3bf 8fbe 9c10 92bd
00000120: 9d80 4e3d 8c7b 3ebf acbb 303e d264 58be
00000130: f5f2 86be 0e5b 7e3d bae8 2fbf ab13 e5be
00000140: 78fb 8dbe 85de 49bd c3d8 1b3e 7ba9 2bbf
00000150: c98a d8be 6574 5fbe 68d7 8abe 3f69 6d3d
00000160: 5926 4cbf 9d77 dabe 3035 a6be 2044 8fbd
00000170: 071e 773a 637b 1ebf 7352 3a3e 2290 57be
00000180: 893c 583e 5f5e 4fbc 0891 45bf e395 443e
00000190: 64d7 113c c2db 51bc 95f8 5abe 9d9e f0bf
000001a0: 7a87 f13d 465b 653d c309 35bd 5b85 8dbe
000001b0: 5dd9 dbbf ca93 1ebd 56e5 e43b 5025 e33c
000001c0: 21aa e1bd dfc3 ccbf 23e9 9c3e 4f69 503d
000001d0: a5dc 86bb 161d fdbd 7d87 eabf 0901 993d
000001e0: 3c04 03bd c026 463d ab7a e0bd c260 e4bf
000001f0: d677 4e3e c12b 2f3d 4cfe 6a3d 9c95 3fbe
00000200: 8202 d0bf a0e2 43be 0dc9 5abb 0dbd 7d3d
00000210: dd7d 82be bdb5 dabf 1420 63be cafb 1dbd
00000220: 14fe 0d3b 63ec a1be 1900 d3bf 208f 03bf
00000230: b730 cfbd bdfb 2ebd 96b2 72be 11de e5bf
00000240: f5f9 72bf d7e8 a7bf a351 b43b e627 85be
00000250: 084d 00c0 b153 f4bf a4c7 f6bd e54b f3bc
00000260: f51c b33d 6fc3 93bd 640d 9a3b 809b 093d
00000270: 86d7 2cbe 2026 7b3d 0dbb 85bd f0ad b0be
00000280: 9407 94bd 86d7 18be ecda 0d3e 3bc8 0dbe
00000290: 4294 b1be 6040 b9bc d6db e1bd cb71 6dbc
000002a0: e7da 183d 55fa 6abd 0e4f 4bbe d9db f6bd
000002b0: d8a9 ccbd 96a3 10bd da29 ea3a b7cf dfbd
000002c0: b998 66be 531e ecbc d7a0 febd f241 673c
000002d0: 81fe 1d3a a186 54be 356d e03d 17ed b13d
000002e0: 8db1 123e 1589 4b3d 04e7 2dbd e37f 983c
000002f0: feeb da3c 023e c73e 5932 793d 9ecd 79bd
00000300: 7f43 de3d 6c01 8cbd a956 a53e aa55 82bd
00000310: 29e7 38bd 121a c5bd f711 c3bd d6ce d93e
00000320: 33af b53d 5933 6b3d 9e2a 893e 8fa5 cfbf
00000330: 4334 1cbe 63d6 34bd 49c0 cd3d 2cdf 613e
00000340: 1095 c9bf d55f ba3e cd5b 1b3d 05de 96bc
00000350: a1f0 8f3e 2d0f c8bf 84e1 aebe 21ce 5a3d
00000360: f4aa 8ebd d68f af3e 1ab0 b3bf 79df d63c
00000370: abae 9a3b 4527 31bc cbfc 453e aeb9 c7bf
00000380: afc5 cd3d e4b5 8fbc 79a4 d8bd 6f25 d13d
00000390: 2d2b adbf 0b2e bf3d 55d7 f43c 4e27 e73c
000003a0: 1ac6 0a3e 5551 cabf 9aed 8dbe 8d4b cd3d
000003b0: c6f3 713d ef24 113e 53b4 bcbf b529 cdbe
000003c0: 7e2b c5bd 6c4d 993d 67cc c63d 2f59 b5bf
000003d0: a481 f23e c30c 76be d074 79bd 181c c83d
000003e0: 960b c9bf aaa5 93be 75ac 07be c662 8fbd
000003f0: 5d54 fb3a f23d 82be f0de 2dbe 73e2 3dbe
0.025021156 -0.092389576 0.03593162 -1.2417068 -0.16572505 -0.047895268 -0.073924236 0.09441908
-1.348758 0.28777847 -0.09253902 -0.055635836 0.108161904 -1.2327704 0.14541945 -0.0024004083
0.06770888 0.14776257 -1.3157961 -0.078054555 0.013284731 0.02517759 0.20882238 -1.1913542
0.24717201 0.02555344 0.1488471 0.23589769 -1.2416075 0.03964141 0.0864563 0.26146546
-0.0021482767 -1.2518547 -0.10528588 0.010331387 0.13238837 0.14347735 -1.278588 -0.006030763
-0.017891094 0.054309875 -0.015823899 -1.2099484 -0.12102621 -0.23024757 -0.44539037 0.19114552
-1.2040039 -0.19690445 -0.08761583 -0.032952387 0.2876666 -0.6573971 0.06799553 -0.20923348
0.009045731 0.11199108 -0.5779977 0.40459278 -0.12821482 -0.07209617 0.08619806 -0.73735404
-0.25477904 -0.13497566 -0.042178076 0.22080477 -0.7229139 -0.11334054 -0.28076133 -0.07132074
0.050415624 -0.7440727 0.17259091 -0.2113221 -0.26357237 0.062098555 -0.6871449 -0.44741568
-0.27730918 -0.049284477 0.15219407 -0.6705548 -0.42293385 -0.21821745 -0.27117467 0.0579617
-0.79746014 -0.42669383 -0.32462454 -0.06995416 0.00094267767 -0.61907023 0.18195514 -0.21051076
0.21116842 -0.012656777 -0.77174425 0.19197802 0.008901451 -0.012808742 -0.21383889 -1.8798405
0.11793418 0.05599525 -0.044198763 -0.27640805 -1.7175709 -0.03871516 0.006985347 0.027727753
-0.11018778 -1.5997275 0.3064662 0.05088168 -0.0041156583 -0.12359063 -1.8322598 0.074709006
-0.03198646 0.0483768 -0.10960897 -1.7842028 0.20162901 0.042766336 0.057371423 -0.18709415
-1.6250765 -0.1912942 -0.0033383996 0.06194787 -0.2548665 -1.7086712 -0.22180206 -0.038570203
0.0021666335 -0.3162566 -1.6484405 -0.51390266 -0.101167135 -0.042720545 -0.23700938 -1.7958394
-0.94912654 -1.3117932 0.005502896 -0.26007003 -2.0047016 -1.908804 -0.12049797 -0.029699275
0.087457575 -0.072150104 0.0047013033 0.033595562 -0.1687909 0.061315656 -0.06529818 -0.34507704
-0.07228008 -0.14925966 0.13853043 -0.13845913 -0.34683424 -0.022613704 -0.110282585 -0.014492462
0.037318137 -0.05736764 -0.19854376 -0.12053651 -0.099933326 -0.035312258 0.0017865256 -0.1092829
-0.22519197 -0.028823053 -0.124330215 0.014114844 0.0006026999 -0.20754482 0.109583296 0.086877994
0.14325543 0.04969128 -0.04245664 0.018615669 0.026723858 0.38914496 0.06083903 -0.060987107
0.108527176 -0.06836209 0.3229268 -0.063639954 -0.045142327 -0.09624113 -0.09524911 0.42540616
0.08871307 0.057422016 0.26790327 -1.62224 -0.15254311 -0.044149768 0.10046441 0.2205779
-1.5748615 0.3640124 0.037929345 -0.018416414 0.28113273 -1.5629631 -0.3415643 0.053419236
-0.069662005 0.34289426 -1.4038117 0.026229607 0.004720529 -0.010812585 0.19334714 -1.560354
0.10047471 -0.017542787 -0.10578246 0.10212218 -1.3528801 0.09334954 0.029887835 0.028216984
0.13552132 -1.580607 -0.27720338 0.10024176 0.05907037 0.14174245 -1.474253 -0.40070882
-0.09627436 0.0748547 0.097069554 -1.4167842 0.47364533 -0.24028306 -0.060902417 0.097709835
-1.5706661 -0.2883733 -0.13249381 -0.070012614 0.0019174922 -0.25437886 -0.16979575 -0.18543415

fc1.bias f4 [128]
00000000: 76db d73f f9f3 9c3f b384 c73f fe18 ab3d
00000010: aca9 f83f 6ceb bb3e 83e2 dcbe 8df0 ae3d
00000020: 4f05 2dbc b06d 7e3f f2d0 ae3e 3ab8 d33c
00000030: bd81 b9be 0e8b 583f 0fa6 35be ecac 3a3e
00000040: 2246 c33d 7abd 36be 869a f8bd ce20 94bb
00000050: e7d8 023d 2227 fcbd 4723 a8bd 8ca9 bd3c
00000060: 628c 11be 26f3 12bc 8f47 67bd 6f7a 45bd
00000070: 9513 39be 6266 b63d 0a74 1fbc 8716 61bd
00000080: 6689 4dbd a5b2 623d e1ce bdbd 3cfd 21be
00000090: 96f3 383f e319 c03d 3b62 e43c a27d 213b
000000a0: a12c c43d 46cb 393f 59c5 19be 8181 04be
000000b0: 2295 693d db73 073d 3158 18be 9c7f b43c
000000c0: 32d8 70be 66f3 f53b 4222 87be b7e5 b9bd
000000d0: a49f 4fbe 8dc7 553d 6f43 b23f e741 70bd
000000e0: 3dbd 853f ced9 533f d80e af3c 989c 503f
000000f0: 8cf2 09be cc5e bd3c 9c9f 0a3e 1521 22be
00000100: df2f ca3f 3b90 e43c 0836 903d 52ae cbbd
00000110: 809f ea3f fd54 b43d a676 90bf 0cb4 3dbe
00000120: 8441 0240 a741 1dbe 8008 0abe 3e83 fdbd
00000130: cfbd eb3c ac06 94bd af8f c2be f420 d3bd
00000140: 0d9d 26be f3ab f4bb 20fd 773f f074 77bd
00000150: e938 35be b03a 81bd 216a c43f 8054 0cbe
00000160: 8ff0 863d e705 09be 2258 08be 4070 2cbe
00000170: f95f 31be 5300 8f3d 1f06 e7bd 6269 993e
00000180: 4856 34be c1e8 603e afd6 d13f c2a3 92be
00000190: 3be9 0dbe c58b b5bd 2568 fe3e 795a 7abd
000001a0: a669 743f ac0f b0bd 6bba 13be 3bac a03f
000001b0: 8279 22be cff9 853f 6d57 2bbc 161d fdbb
000001c0: a501 edbd fafc 833f f97c 0140 a0e9 6a3d
000001d0: 1bb9 96bd baee 353d 6054 7cbe eac1 7cbd
000001e0: ca1a 973f d1d0 ca3f 34aa cbbd 1966 00be
000001f0: 0820 913c 620b 45be 3bca 133e b104 3dbe
1.6863849 1.2261955 1.5587372 0.08354376 1.942678 0.3670305 -0.43141565 0.08541975
-0.010560348 0.9938612 0.34143788 0.025844682 -0.36231795 0.8458718 -0.17739128 0.18230027
0.09534861 -0.17845717 -0.12138848 -0.004520512 0.031945135 -0.123121515 -0.082098536 0.023152135
-0.14213708 -0.008969104 -0.056464728 -0.048212465 -0.18073876 0.08906247 -0.009732256 -0.054953124
-0.05017986 0.05534615 -0.09267975 -0.15819257 0.7224668 0.093799375 0.027878871 0.0024641533
0.09578825 0.72575796 -0.15016688 -0.12940027 0.05702699 0.033069473 -0.14877392 0.022033505
-0.23519972 0.007505822 -0.26393324 -0.09077018 -0.20275742 0.05219226 1.3926829 -0.0586566
1.0448376 0.8275422 0.021369383 0.81488943 -0.1347143 0.023116492 0.13537449 -0.15832932
1.5795859 0.027900806 0.07041556 -0.09945358 1.8329926 0.08805273 -1.1286209 -0.18525714
2.0352488 -0.15357076 -0.13479805 -0.12378548 0.028777031 -0.07227835 -0.38000247 -0.1030902
-0.16270848 -0.007466787 0.96870613 -0.060414255 -0.17697491 -0.06310022 1.5344888 -0.13704109
0.06588852 -0.13381158 -0.1331487 -0.16839695 -0.17321767 0.06982484 -0.112804644 0.29963213
-0.17611039 0.21963789 1.6393641 -0.28640562 -0.13858502 -0.088645495 0.4968883 -0.061121438
0.95473707 -0.08596739 -0.14426582 1.255256 -0.15866664 1.046686 -0.010457856 -0.0077244146
-0.11572579 1.0311577 2.0232527 0.05735171 -0.07359525 0.04441712 -0.24641562 -0.06170837
1.180505 1.5844976 -0.09944573 -0.12538947 0.017715469 -0.19242623 0.14432614 -0.18458821

fc2.weight f4 [128, 128]
00000000: de5f 57bd cb86 6fbd c505 82bd 2232 bebd
00000010: 4595 a4bd a82b 7d3d 8d6e 573d a282 25bd
00000020: 1b33 813d c54e 94bd 9f90 0abd 18c1 ffbc
00000030: c0d6 33b9 f01b fe3b 4227 52bd 0c24 97bd
00000040: 6235 f53c 8468 b4bc aa1b ee3c d481 d9ba
00000050: aabc ad3b 9930 8cbd 976c 86bb b444 9cbb
00000060: 8dd1 973d c692 3abd 11a4 e8bb 578f 73bd
00000070: 0390 933d 180a 0ebd 65c2 383d cf7b c2bc
00000080: 45d4 e2bc 1ab3 86bd 03d9 4abc d19c 023c
00000090: b1cf 94bc c0b3 993d b163 9d3c 505c aa3b
000000a0: 0f4a 3dbd fda4 abbd e796 193d da5e 5dbc
000000b0: 7173 62b7 c5d2 16bd e9fc bfbd 2994 073c
000000c0: cc3f 1d3d 3580 f0bc 3f0c 22bd d517 31bd
000000d0: 01fc 50bd feae 5e3c d10b b93c 689c 17bd
000000e0: aab3 39bd 878e 94bc e4e1 803c bd2c 98bd
000000f0: 7546 613d 2dc8 9ebd 5570 d03c 158a 66bd
00000100: c35a e5bd 1b1d 6bbd 11f6 51bd c067 83bd
00000110: 2006 5abc 9222 863d 902d 393d f885 e03c
00000120: 0b68 c8bc b1ac c9bd 7eef da3b 6d2f 663d
00000130: 2d42 25bd 9dd1 913d cf8c 50bd 5d88 1d3d
00000140: 19e1 9e3d d3c0 823d 9087 1d3d af2d 32bb
00000150: 5141 8b3b f120 27bd 7ff8 ddbd 196e 8dbc
00000160: dcd8 03bd a07d c1bd 39e4 233d d3d3 803d
00000170: 6ccd d13c fdba 9f3d 5d29 87bc a256 7dbd
00000180: e903 8a3d c9ac 8bbd 137a 9bbd 8a38 9bbd
00000190: e331 fcbc e31e 8c3c 7dc5 943c 0712 94bc
000001a0: 63d7 b7b9 f354 46bd 999c 60bd 7c28 35bd
000001b0: 278f 053d d14c 3fba d83c 88bd d040 e7bc
000001c0: 17d0 e73c 077e f23c 84f3 09be 0884 d6ba
000001d0: fc21 253d e7ca a1bd 1863 37bd b8b7 b43d
000001e0: 7c04 f8bd c7e5 a6bd a1bb bdbc 9c9b 81bd
000001f0: 04c3 adbd ce45 0f3b 8e36 e83b da46 07bd
00000200: c98f 03be ddd7 c0bc a132 7dbe 5b49 9abd
00000210: 56f1 36bd 4668 92bd 0ec2 183d 61ad a6bd
00000220: b984 243c 4723 b8be eadd c0be 5cef 193d
00000230: 8f06 11be 5bb2 943c 616f 833d 3171 33bd
00000240: 4627 90bd 1c23 e8bb 0ca0 243d ba20 a53d
00000250: 9105 0bbc ec90 6abb ed29 b1bd 332b d03b
00000260: cb36 8cbc 7673 963d 260d ac3c 4ec4 cf3c
00000270: ebcd b7bd cd30 b33d 72fa f93c cf43 8abd
00000280: 7db7 5cbc a318 a0bd 80bb a3bd 71d1 b2bd
00000290: 6a43 933c 89e6 55bd 30ac 8cbd 7288 a4bd
000002a0: b338 353c 9474 aebd f5b2 0a3d b358 15bd
000002b0: f7c0 9a3d a3d6 16bd f72c 4d3d 32c8 25bd
000002c0: 11e8 b2bc edda 3d3d fa1f 0bbd 71a5 7fbd
000002d0: 7dbe 17be 74d7 ea3c 0150 1bbe f6d6 8fbd
000002e0: 2d01 bebb 4a9e 3abe d04e 95bd efc3 a8be
000002f0: 4dc4 adbd 1da6 37bc 79bb 9b3b a5b6 95bd
00000300: 08c3 db3c d2bd 8c3d 1b8a d13c 2180 a4bd
00000310: 55df abbd ab2c 97bd a779 17be f82c 94bd
00000320: 1800 14bd c0a3 8c3d d0a7 513d d081 94bd
00000330: 9cfa 5e3b b002 ae3d 5253 4ebe 31a7 60bd
00000340: 683d 0fbc d638 5cbd 67eb 1fbe a6dd 86bd
00000350: aa7f abbc 682d 833c ab86 4ebe 326e 6e3d
00000360: 19e6 5b3c 9482 2c3d e23d 90bd 3820 c03c
00000370: e98d 883d d1d8 9bbd 9789 96bd 2bd1 84bd
00000380: 0757 0ebd 073b 4bbd 1b24 9bbe 1127 dbbc
00000390: 2988 8dbd 32af 9f3d 9cd8 9b3d 4744 943c
000003a0: b597 8fbc 08e6 823c d890 a03d 4e70 993c
000003b0: c481 a73d 27d2 56be 8e97 943d 15aa 35bd
000003c0: 7de7 5d3d 4523 8ebd 9432 92bd b3bd 68bb
000003d0: df8b d33c 3426 29bc f991 743c 23dc 36bd
000003e0: f9aa 67be 3750 01bc e4f0 5bbd 46c0 40bd
000003f0: 9bed f5bb bea9 86bd c712 c43d fd6b 31bc
-0.05258166 -0.058478158 -0.06348757 -0.09286906 -0.080362834 0.061809212 0.052595664 -0.040407784
0.06308576 -0.072415866 -0.033829328 -0.031220004 -0.00017150771 0.0077547953 -0.05130697 -0.07379922
0.029932681 -0.022022493 0.029065926 -0.0016594478 0.0053020315 -0.06845207 -0.0041023004 -0.0047689322
0.074130155 -0.04555013 -0.0070996364 -0.05946287 0.072052024 -0.034677595 0.045107264 -0.023740677
-0.027689109 -0.0657713 -0.012380841 0.007971958 -0.018165441 0.07504988 0.019212576 0.005198993
-0.046213206 -0.083810784 0.037497427 -0.013511384 -1.3497528e-05 -0.0368221 -0.09374411 0.00827507
0.03839092 -0.029358009 -0.03956246 -0.04323562 -0.05102158 0.013591526 0.022588642 -0.037014395
-0.045337357 -0.018134369 0.015732713 -0.07430408 0.054998834 -0.07753024 0.02544419 -0.05628403
-0.11198952 -0.057400804 -0.051260058 -0.06416273 -0.013307124 0.065495625 0.045209467 0.027407631
-0.024463674 -0.098473914 0.0066813817 0.056197572 -0.040346313 0.07120059 -0.050915536 0.038460124
0.07757778 0.063844346 0.03845936 -0.0027187874 0.0042497297 -0.0408029 -0.108384125 -0.017264413
-0.032189235 -0.09447789 0.040012572 0.06290402 0.025610648 0.07799337 -0.016499216 -0.061850198
0.06739027 -0.068200655 -0.07591643 -0.07579143 -0.030785507 0.017104572 0.018160576 -0.018075002
-0.00035064956 -0.048420858 -0.054836843 -0.044228062 0.032607224 -0.00072975183 -0.0665223 -0.028229147
0.028297467 0.02960111 -0.134718 -0.0016366253 0.040315613 -0.07900029 -0.044772238 0.08824104
-0.1211023 -0.08149295 -0.023160757 -0.06328508 -0.08484462 0.0021861675 0.0070865816 -0.033026554
-0.12847818 -0.023540432 -0.24726345 -0.07533523 -0.04466375 -0.07148795 0.03729444 -0.08138538
0.010041409 -0.35964414 -0.37669307 0.037581787 -0.14162658 0.018151453 0.06417728 -0.04380912
-0.07038741 -0.0070842635 0.040191695 0.08062883 -0.008485214 -0.0035791947 -0.08650575 0.006352806
-0.017115971 0.07346241 0.021002363 0.02536216 -0.089748226 0.087495424 0.03051493 -0.06751215
-0.013471481 -0.07817199 -0.07994747 -0.08731354 0.017976481 -0.05222181 -0.0686878 -0.080338374
0.011060881 -0.08518329 0.033862073 -0.036461543 0.075563364 -0.036825787 0.05009171 -0.040474124
-0.021839174 0.046351362 -0.033966042 -0.062413637 -0.1481876 0.02866719 -0.15167238 -0.070234224
-0.00579848 -0.18224445 -0.07290423 -0.32961985 -0.08484707 -0.011209038 0.004752573 -0.07310227
0.026826397 0.06872143 0.02557855 -0.08032251 -0.083922066 -0.073815666 -0.147925 -0.072351396
-0.036132902 0.0686717 0.05118543 -0.07251322 0.0034023887 0.08496606 -0.20148972 -0.054846946
-0.008742668 -0.05376514 -0.15617143 -0.06585245 -0.020934898 0.016012862 -0.20168559 0.05821056
0.013421559 0.042116717 -0.07043053 0.023452863 0.06667692 -0.07609714 -0.07350462 -0.06485208
-0.034750964 -0.04961684 -0.30300984 -0.026752027 -0.06910736 0.07797088 0.07609674 0.018098963
-0.017528394 0.015978828 0.07840127 0.018730309 0.08179048 -0.20978604 0.07255469 -0.044351656
0.054175843 -0.06940321 -0.07138553 -0.003551346 0.025823532 -0.01032405 0.014927381 -0.044643532
-0.22623815 -0.00789266 -0.053696528 -0.047058366 -0.0075051314 -0.065753445 0.09573894 -0.010828969

fc2.bias f4 [128]
00000000: 8efb 73be e35d ccbd 85a5 8ebd caf7 0640
00000010: a166 02bd 1012 9fbd 8db0 6d3e 856f 72bd
00000020: 64af acbc 7a62 c5bd 2b42 82be ecd6 19be
00000030: 91bc 67bd 6446 143d bd02 0840 102c d73f
00000040: 751e 44be fc39 41be 24b4 a3bd 9e97 74be
00000050: bfb4 d73f 4d1f 22be d79f e93f a6e3 dabd
00000060: 03d2 01bd b41f 5bbd 69ce 16be fe26 25be
00000070: 58bc e63d 6886 b63f 3fc7 0ebe a264 a4bd
00000080: a0ae 2fbe 64cd 9dbd f712 3dbe 93a3 abbe
00000090: a115 2cbe 73fa 0a40 2105 8cbe 4258 d5bd
000000a0: 347d 8bbe ea30 10be 1285 41bd 0cf3 663e
000000b0: d4ba c9be 6320 ad3e b793 0640 fe94 96bd
000000c0: 3a56 2dbe 03a9 b9bd e38b 04bd d096 71be
000000d0: 1614 fcbd e7ec 3dbe 8cb0 84be cb84 c63f
000000e0: 8a85 56be 3f53 31be 263a 1fbe a272 04bd
000000f0: f84b b5bd 54c2 a1bd acc7 643f f491 4fbd
00000100: 45b2 943f ff09 0840 a2e7 4dbe 1728 1fbe
00000110: b743 4dbe 3341 69be d586 dfbc b6bf f93f
00000120: 4b7d fa3f 17e0 2abd 4dc2 31be 162a 0b3e
00000130: 1fba 8ebd 6093 f0bd a3a0 2abe 91e6 efbd
00000140: 0dcf 0fbe 6770 72be e35a 17be fab9 1ebe
00000150: aca6 0bbe 212d 943e bbf0 26be c4ec 43be
00000160: efe3 10be 7b18 31be 0027 22be b5cc fb3f
00000170: ec90 09be 8638 dcbd a315 cfbe 1ddc 72bd
00000180: 1f80 85bd fb57 0540 7ce0 043e ce75 033d
00000190: a135 0b40 1c60 81be 9d75 f9bb 5fdb 87bd
000001a0: 1b01 98be 3091 a53d 276c f83f 7f6c 843f
000001b0: 4a41 a3bd 30cf 1fbe 6ade 0640 3089 ebbd
000001c0: efa5 fc3f 0340 0bbe fa1d 05be e5a4 8abe
000001d0: 948e 34be 9cc6 91bd 1ebb 17bc f431 0940
000001e0: 3191 98be a761 243e 9ccd a0be efd1 08be
000001f0: dc23 bdbd 8d51 13be 05e7 43be 2f53 9ebd
-0.23826429 -0.09978845 -0.06965164 2.1088738 -0.031836156 -0.07767117 0.2321188 -0.059188385
-0.021079727 -0.096379235 -0.25441107 -0.15023392 -0.056576315 0.036199942 2.1251671 1.6810322
-0.19152243 -0.18869776 -0.079933435 -0.23885962 1.6852034 -0.15832253 1.8251904 -0.10687952
-0.031694423 -0.05349703 -0.14727177 -0.16128156 0.112663925 1.4259768 -0.13943194 -0.08027007
-0.17156458 -0.07705191 -0.18464266 -0.33523235 -0.16805126 2.1715362 -0.27347663 -0.104172245
-0.2724396 -0.14081159 -0.047246046 0.22553653 -0.3940035 0.33813772 2.1027658 -0.07352637
-0.16927424 -0.090654396 -0.03235997 -0.23592687 -0.123085186 -0.18547402 -0.25915945 1.5509275
-0.20949379 -0.17316912 -0.15549526 -0.032335885 -0.088523805 -0.07898393 0.89367175 -0.0506763
1.1616904 2.12561 -0.20107892 -0.15542637 -0.20045362 -0.22778778 -0.027285973 1.951163
1.9569486 -0.041717615 -0.17359276 0.13590273 -0.069690935 -0.117468596 -0.1666284 -0.11713899
-0.14043827 -0.2367569 -0.14780764 -0.15500632 -0.13637799 0.2894068 -0.16302769 -0.19133288
-0.1414945 -0.17294495 -0.1583519 1.9671847 -0.1343419 -0.107529685 -0.40446195 -0.059291948
-0.06518578 2.083495 0.12976259 0.03209477 2.1751482 -0.25268638 -0.0076128975 -0.066336386
-0.29688343 0.08084333 1.9408005 1.034561 -0.07971437 -0.1560638 2.107325 -0.11500776
1.9738139 -0.13598637 -0.12999716 -0.2707893 -0.17632514 -0.0711796 -0.009260921 2.143674
-0.29798272 0.16052876 -0.31406868 -0.13361333 -0.09235355 -0.14386578 -0.19131096 -0.0773071

fc3.weight f4 [5, 128]
00000000: 4117 00bc afe7 453d 5b58 073c a089 ad3e
00000010: 7c30 e3bc 2de7 bfbc 3769 cfbe e555 083d
00000020: c95a 87bd 5236 4dbd 79c1 f63c 5e8d 213d
00000030: a4e9 9bbc 35e3 19be 683d c23e f791 bb3e
00000040: 8e00 03bd 1662 43be a9be dcbc 38f0 573c
00000050: c395 7b3e 3132 723d 072f 753e 9308 9b3c
00000060: 121b d83b bb7d dd3c 24de 073d f830 87bc
00000070: 8952 f2be fcea 7a3e fd00 76bd 6b2d 1ebd
00000080: fc9b 553d 12cd 8ebb 4fe4 713d 3491 183e
00000090: a0d8 bfbe 5334 a43e 5d1d 45ba af37 2c3d
000000a0: d92b f03c 46ba 01bd 7941 cbbd e4cf d3be
000000b0: 6c2d 70be 658f 693e 1630 bc3e 155f c7bc
000000c0: bfde 3dbc 42bd 813b 5683 83bc a934 89bd
000000d0: b636 7f3c 5721 39bc 4074 ff3d b878 963e
000000e0: 5fd4 d93c efac 2d3d 3e6a e4bb 6c88 c4bc
000000f0: 3921 2f3e ef89 d0bb 711a 33bc ea2e ca3b
00000100: 30a9 be3d 6d3f b13e 80ac 46bb ac9f 31bd
00000110: 818f c9bc cd7c 873d 9667 2cbd f036 8c3e
00000120: 92e8 a43e 75c0 0bbd ff9b d2bc f1f9 f03c
00000130: 7dfb 1fbe b0c7 813c 0184 1d3d 7078 ab3b
00000140: 5d92 f63b 2ba5 e2bc d59b aabc 228f 003d
00000150: e50c b53d f7e7 0cbf bd4d 33bb acd1 0c3d
00000160: cfa8 0ebd 1da8 25bd 023b 6a3d 6a09 a13e
00000170: c863 663d 365a a33c cf7d 14be f15a 4cbd
00000180: 40c6 06be 49d1 b03e 137a 3cbd a465 b3be
00000190: bc56 b83e 4a00 e1bd e046 2b3d 2dee dcbd
000001a0: 95cf 9bbd fa03 b9be dbce a03e 5063 6e3d
000001b0: 109a a73c a58c 4a3c d027 9c3e 0d23 383d
000001c0: 39fb 9e3e e159 c73d 85b3 cabc 211c 86bc
000001d0: eae2 203d e370 b43d 6308 d33d 22c8 c03e
000001e0: 78bf 813d 3870 68be 8e54 83bd 6217 3f3c
000001f0: c255 b43d e33a c9bd 7e32 19bd c145 173d
00000200: 5fe7 21bd 81b4 99bc 72ef 073d 6124 943e
00000210: ec81 543d 86f6 203c 229f d1be ee84 d93c
00000220: 7e7d 8cbe 032e b4bd 8582 82bd e59b 953d
00000230: 10fd 3dbc abfa 3cbe 2579 b43e dca3 c13e
00000240: b654 8cbd c647 953c 411d 66bd ad43 893d
00000250: bf85 973e 91aa 34bd f71f 7a3e 0d36 20bd
00000260: 6fce 083e 4628 9cbb 2e01 013d 1b61 413d
00000270: 26b8 f9be 1bd7 9a3e e081 82bd bc42 873d
00000280: b011 d7bb 5c67 1a3c 8a74 58bc 14a2 d4bd
00000290: 0c5c d5be 4d19 b73e e470 0a3d ae1b fb3d
000002a0: 380e 533d 1b41 c43d b450 8c3d da6e 09bf
000002b0: 8282 94be f505 823e 76ed a93e b175 4e3d
000002c0: fac9 8f3d 47e9 403c 4822 b0bc dfba bebd
000002d0: 9111 533d 7eb2 6b3d bea4 dcbd 4366 623e
000002e0: dfa9 94bb 4813 4ebd ddd4 c23d 52e8 ad3c
000002f0: 3f36 423d a8ed 76bd 0f78 1f3e cd73 123d
00000300: 8b37 063e 9eb4 ac3e 0e55 263d f851 c93d
00000310: 8102 a5bb 94e7 0bbe 5fd3 693b 2a7b 803e
00000320: 1971 523e fd95 39bd 7349 683d 3488 49bd
00000330: cac9 a8be f902 243d 6ba7 dabc 865b 853d
00000340: 7ac5 5cbc ea1b febb 5198 52bd e3e0 14bd
00000350: 25a1 a0bc 2be3 0fbf 66d3 f13d a6bd 43bc
00000360: b455 ddbc 84b4 8c3c 65db a3bd 1a44 b13e
00000370: dfb5 41bd 83b0 3fbd 9086 12be d06a 0f3d
00000380: 43e0 2fbd f906 c23e a0b1 c2bc 2206 e3bd
00000390: da06 a93e f794 fbbd 438c adbb b416 703e
000003a0: 6f86 1f3d 5feb c6be 7550 a73e 9d42 343e
000003b0: a255 a0bd 4495 b2bd 35b0 c33e 13da 703d
000003c0: 697f ac3e bdf0 97bd cd65 83bb 8427 42bd
000003d0: 4b8c 0abd 07fd 953d 0e75 443c 6021 cd3e
000003e0: c588 d23c 6c86 9cbd 109c a23c ec63 9fbc
000003f0: 7716 24bd 92d5 34be f2f8 0bba 2ddd 183d
-0.007818044 0.048316654 0.008260812 0.33894062 -0.02773308 -0.023425663 -0.4050996 0.03328504
-0.06609113 -0.050100632 0.030121552 0.03944146 -0.019032307 -0.15028079 0.37937474 0.366348
-0.03198295 -0.19080386 -0.026946383 0.013179831 0.24568848 0.059129898 0.23943721 0.018924987
0.006595024 0.027037492 0.033170834 -0.016502842 -0.47328594 0.24503702 -0.060059536 -0.038617533
0.05215071 -0.0043579424 0.059055623 0.1489914 -0.3746996 0.3207117 -0.0007519329 0.04204529
0.029317783 -0.031671785 -0.09924597 -0.41369545 -0.23454827 0.22808607 0.36755437 -0.02433733
-0.011588751 0.003959329 -0.016053837 -0.06699497 0.015577009 -0.011299453 0.12473345 0.29388976
0.026590524 0.04240125 -0.006970673 -0.023990832 0.17102517 -0.006364099 -0.010931597 0.0061701434
0.09309614 0.34618703 -0.003031522 -0.043365166 -0.02460456 0.06615601 -0.042090975 0.27385664
0.32208687 -0.03411909 -0.02570915 0.029416056 -0.15623279 0.015842289 0.038455967 0.005232863
0.007524772 -0.027666649 -0.02082626 0.031386502 0.0884035 -0.5504145 -0.0027359568 0.034379646
-0.034828957 -0.04044353 0.05718518 0.31452495 0.056247503 0.019940477 -0.14501117 -0.049891416
-0.13161564 0.34534672 -0.046014857 -0.35038483 0.36003673 -0.10986383 0.04181564 -0.10787616
-0.076079525 -0.36135846 0.31407818 0.05820018 0.020459205 0.012362634 0.30499125 0.044955302
0.31051043 0.0973394 -0.024743805 -0.016370835 0.039278902 0.08810594 0.10304334 0.3765269
0.06335348 -0.22699058 -0.06412612 0.01166329 0.088054195 -0.09825685 -0.03740167 0.036931757
-0.039527293 -0.018762829 0.033187337 0.28934005 0.051881716 0.009824401 -0.4094172 0.026552644
-0.27439493 -0.087978385 -0.06372551 0.07305125 -0.011595979 -0.18454997 0.35248676 0.37820327
-0.06852095 0.0182227 -0.056180242 0.06702361 0.29594228 -0.044107977 0.24426256 -0.039114047
0.13359998 -0.004765543 0.031495266 0.047211748 -0.48773307 0.30242237 -0.06372428 0.066045254
-0.006563388 0.009424057 -0.013211379 -0.103824764 -0.4167179 0.3576149 0.033799067 0.12261139
0.051527232 0.095827304 0.068513304 -0.5368477 -0.2900582 0.2539517 0.3318898 0.050405208
0.07020946 0.011774368 -0.021500722 -0.093129866 0.051530425 0.05754327 -0.107736096 0.22109322
-0.004536852 -0.050311357 0.09513257 0.021228943 0.047415014 -0.06028524 0.15573142 0.035754967
0.13107125 0.3373155 0.04060846 0.098300874 -0.005035699 -0.13662559 0.0035678966 0.25093967
0.20550956 -0.045309056 0.05671067 -0.04920216 -0.32966453 0.040041897 -0.02669116 0.06511597
-0.013474816 -0.0077547925 -0.05141479 -0.03634728 -0.01960809 -0.56206006 0.11807899 -0.011947071
-0.027018405 0.01717592 -0.080008306 0.3462227 -0.047292586 -0.046799194 -0.14309144 0.035013974
-0.042938482 0.37895945 -0.023766339 -0.11085154 0.3301304 -0.12284272 -0.0052962615 0.2344616
0.038946565 -0.3885145 0.3267857 0.17603536 -0.07828833 -0.087198764 0.38220373 0.05880172
0.33690956 -0.07418964 -0.0040099383 -0.047400966 -0.0338252 0.07323652 0.011990799 0.40064526
0.025699982 -0.076428264 0.019849807 -0.019456826 -0.040060487 -0.17659596 -0.0005339525 0.037320305

fc3.bias f4 [5]
00000000: 6cbc af3f d863 923f 7ed8 803f 81ed 933f
00000010: eda9 bf3f
1.3729377 1.143672 1.0066068 1.1556855 1.4973732
