dqn_motor_control_final.pth (torch, 97576 bytes, 6 tensors)

fc1.weight f4 [128, 50]
-0.2800727 -0.22623438 -0.16796146 -0.2839716 -0.12595494 -0.1541214 -0.21704781 -0.26548034
-0.3474807 -0.0345828 -0.24094115 -0.42540967 -0.13693672 -0.21054594 0.02060297 -0.15904136
-0.4104314 -0.19299795 -0.15656568 0.21968861 -0.5417583 -0.33266598 -0.20837924 -0.31804723
0.1836816 -0.5300437 -0.22812976 -0.23032686 -0.24358279 0.036277123 -0.6972312 -1.2524863
-0.41146246 -0.111467905 0.16748105 -0.90708035 -1.099999 -0.38357285 0.41224828 1.0014138
-0.30288672 -0.36578515 -0.3463588 1.0006315 0.71504414 -0.13788217 0.4565649 -0.772502
-0.3434137 -0.66481 -0.03191765 -0.13296527 0.1047223 -0.0702888 -0.1344379 -0.069112994
-0.19754972 -0.14916572 -0.1639151 0.09858879 -0.087866314 -0.10422891 -0.10204663 -0.100091524
0.043400675 -0.020804202 -0.05274893 -0.053664345 -0.051314168 -0.006929926 -0.062185194 -0.049667843
-0.0032803314 -0.07112443 -0.06510219 -0.25689948 -0.07405985 -0.17357092 -0.07486407 0.082833566
-0.072886 -0.04887441 -0.1358977 -0.15791585 -0.12911178 -0.014747969 -0.03602476 0.06656899
-0.19561478 -0.08904487 -0.20929591 0.09182284 -0.05581168 -0.18965574 0.11422676 -0.11677201
-0.20493701 0.00047560196 -0.23210856 -0.06848061 -0.10341486 -0.18217307 -0.19306315 -0.28001472
-0.024295375 -0.19603053 -0.15120171 -0.12613408 -0.3201912 -0.30434546 -0.13312513 0.07141362
-0.39111692 -0.2820247 -0.29710987 0.059989393 -0.40925065 -0.17232133 -0.25066167 0.028757462
0.19986492 -0.44398355 -0.24475634 -0.10388285 0.071793884 -0.110480994 -0.08133754 -0.3607148
-0.1280024 0.045535468 -0.1583582 -0.23140174 -0.2865817 -0.30699402 -0.17163146 -0.56348217
-0.31160286 -0.32161745 -0.05590804 -0.5100987 -0.7471848 -0.38104323 -0.24456367 -0.10893584
-0.27603877 -0.31671074 -0.08267239 -0.12729073 -0.03328653 -0.69325805 -0.3228306 -0.15446803
-2.4342067 -2.0696168 -0.7810207 -0.21872568 0.052802645 -2.1535683 -2.157317 -0.63958734
-0.027694497 0.16417292 -2.2466154 -1.6657941 -0.092018865 -0.13205881 -0.5134959 -2.0440755
-1.5044657 -0.6451215 0.14074945 0.24259049 -2.0296228 -1.5109268 -0.3310216 0.61299664
-1.4523411 -2.079239 -1.415167 -0.2567135 0.13522944 -0.64253485 -1.8120768 -1.3559339
-0.24572897 0.3728146 -0.091329314 -1.7870929 -0.9201872 -0.16820599 -0.2682434 -0.82265455
-1.826556 -1.2248576 -0.91170585 -0.39668402 -0.075524114 -1.9022292 -1.2279181 -0.8586424
-0.15149643 -0.04727366 -0.08351886 -0.053386886 -0.075172246 -0.06893221 -0.2541859 0.061952896
0.06874417 0.07098294 -0.06467709 -0.06914784 0.007793449 -0.07529041 0.004440022 -0.107730426
-0.018076058 -0.05129524 0.056766853 -0.002558207 0.043158296 -0.2015912 -0.08838379 -0.08740169
0.066491485 0.016808711 -0.3500756 0.0014888025 -0.016299622 -0.10257899 -0.0436997 -0.2680766
-0.030425841 0.058390923 0.1360045 -0.05938973 -0.3798259 -0.13417375 0.02826328 -0.07234142
0.059458707 -0.2914795 -0.083364874 0.041721385 0.029045269 -0.12547757 -0.3185978 -0.15450493
-0.034447823 -0.07830194 -0.19414508 0.20230249 2.0186565 0.8576578 2.3978415 -0.11478518
00000000: b065 8fbe fca9 67be 17fe 2bbe ba64 91be
00000010: 55fa 00be 00d2 1dbe c841 5ebe 0aed 87be
00000020: fee8 b1be b2a6 0dbd 47b9 76be 4ccf d9be
00000030: 2439 0cbe 5b99 57be 8fc7 a83c bddb 22be
00000040: 1124 d2be 41a1 45be c152 20be 0df6 603e
00000050: acb0 0abf 3253 aabe 5e61 55be 16d7 a2be
00000060: 0817 3c3e f2b0 07bf d99a 69be ceda 6bbe
00000070: c46d 79be 5297 143d be7d 32bf 7951 a0bf
00000080: 35ab d2be 4949 e4bd 2780 2b3e 6b36 68bf
00000090: c4cc 8cbf a963 c4be 3512 d33e 542e 803f
000000a0: f813 9bbe 3148 bbbe f155 b1be b114 803f
000000b0: 220d 373f fc30 0dbe e0c2 e93e b1c2 45bf
000000c0: ecd3 afbe fd30 2abf 15bc 02bd 0c28 08be
000000d0: a578 d63d 93f3 8fbd 17aa 09be 1d8b 8dbd
000000e0: 794a 4abe e6be 18be 5cd9 27be ebe8 c93d
000000f0: 41f3 b3bd f775 d5bd d3fd d0bd c9fc ccbd
00000100: e8c4 313d 936d aabc 430f 58bd 25cf 5bbd
00000110: ce2e 52bd 6f14 e3bb e7b5 7ebd 8270 4bbd
00000120: d4fa 56bb afa9 91bd 4c54 85bd 5488 83be
00000130: b1ac 97bd 93bc 31be 5552 99bd a5a4 a93d
00000140: 4145 95bd 8930 48bd c428 0bbe b1b4 21be
00000150: e135 04be 77a1 71bc b38e 13bd 5355 883d
00000160: 3e4f 48be 285d b6bd ab51 56be 9d0d bc3d
00000170: ca9a 64bd 1d35 42be b8ef e93d 2a26 efbd
00000180: 02db 51be 375a f939 dead 6dbe 903f 8cbd
00000190: 2ccb d3bd 948b 3abe 59b2 45be 175e 8fbe
000001a0: 1807 c7bc 3abc 48be 9fd4 1abe 4b29 01be
000001b0: 1af0 a3be 2bd3 9bbe f451 08be 4e41 923d
000001c0: 7a40 c8be 8b65 90be c91e 98be 70b7 753d
000001d0: 4d89 d1be 0175 30be ba56 80be c594 eb3c
000001e0: 64a9 4c3e d051 e3be 68a1 7abe 88c0 d4bd
000001f0: ac08 933d dc43 e2bd 4c94 a6bd 9caf b8be
00000200: 1013 03be 6683 3a3d a728 22be 94f4 6cbe
00000210: d6ba 92be 522e 9dbe 28c0 2fbe 5e40 10bf
00000220: 698a 9fbe 0bab a4be d4ff 64bd d495 02bf
00000230: 8147 3fbf 1918 c3be e66e 7abe c119 dfbd
00000240: f454 8dbe e927 a2be 2450 a9bd 8058 02be
00000250: 7557 08bd 5c79 31bf 0d4a a5be de2c 1ebe
00000260: 0bca 1bc0 9a74 04c0 f9f0 47bf a0f9 5fbe
00000270: 9647 583d 10d4 09c0 7b11 0ac0 ffbb 23bf
00000280: 92df e2bc f21c 283e 8cc8 0fc0 be38 d5bf
00000290: 6374 bcbd 6d3a 07be 7874 03bf 22d2 02c0
000002a0: 5592 c0bf af26 25bf a020 103e a469 783e
000002b0: 57e5 01c0 0d66 c1bf aa7b a9be 59ed 1c3f
000002c0: 50e6 b9bf 4012 05c0 3124 b5bf f46f 83be
000002d0: 9679 0a3e 2a7d 24bf 22f2 e7bf 3e8f adbf
000002e0: 60a0 7bbe 8ee1 be3e dd0a bbbd 76bf e4bf
000002f0: 6391 6bbf 313e 2cbe 3357 89be 7d99 52bf
00000300: 96cc e9bf 22c8 9cbf 8e65 69bf 2b1a cbbe
00000310: 63ac 9abd 3f7c f3bf 6c2c 9dbf fdcf 5bbf
00000320: e121 1bbe 06a2 41bd f00b abbd 35ac 5abd
00000330: e8f3 99bd 552c 8dbd a724 82be 52c2 7d3d
00000340: bec9 8c3d 815f 913d 6c75 84bd 629d 8dbd
00000350: 3060 ff3b dc31 9abd 9b7d 913b c5a1 dcbd
00000360: 3e14 94bc f51a 52bd 5c84 683d 97a7 27bb
00000370: c1c6 303d ec6d 4ebe 8f02 b5bd a8ff b2bd
00000380: b02c 883d 6cb2 893c 1c3d b3be ec23 c33a
00000390: c986 85bc ef14 d2bd 75fe 32bd 5641 89be
000003a0: 9d3f f9bc 522b 6f3d c344 0b3e a542 73bd
000003b0: 8a78 c2be d864 09be 6588 e73c bd27 94bd
000003c0: f98a 733d cd3c 95be 34bb aabd 0be4 2a3d
000003d0: 58f0 ed3c 317d 00be 401f a3be 8a36 1ebe
000003e0: 2919 0dbd c45c a0bd f8cd 46be 6228 4f3e
000003f0: ab31 0140 768f 5b3f 3c76 1940 7e14 ebbd

fc1.bias f4 [128]
4.825414 -0.1621396 2.0772557 5.532659 -0.48612252 -7.7130065 4.4229712 2.7198534
-2.8458464 4.507304 5.579547 0.6148879 1.0548649 -0.20529898 6.545389 -0.042785365
-0.66883475 -1.4936148 -0.23997416 2.340117 -0.88469505 2.982938 -0.19168438 0.04330894
4.381059 0.9394326 8.513968 2.823781 0.6628057 4.8878355 -0.033813734 2.0439796
-7.5837803 -0.13943315 5.536089 2.5579114 4.402566 1.2836714 10.932118 7.785135
3.299655 -0.13892466 3.776905 1.945737 -2.1704192 2.2874155 0.035782445 -0.14172916
4.418034 1.7014987 -0.098836154 4.303958 -9.167655 -1.4843262 3.1205075 -0.114375114
0.8865421 -9.347306 5.862708 -0.1705658 -6.6410255 6.1242127 1.8885565 0.523711
0.444346 -0.046566732 4.227963 -0.71945924 4.2371626 -8.471858 6.4427967 -0.11406463
-6.5240464 0.89902467 -1.0255771 -0.08831676 13.689002 -0.42266086 4.2257767 1.3129165
-0.32991347 4.608592 4.4132385 0.51581246 -0.08809603 3.6732213 5.1804223 0.03393567
0.5823164 0.36024597 2.3892643 -0.5236005 0.62925905 4.4608645 13.231449 5.4882965
4.0371604 -0.09486152 1.0774865 2.53342 0.039852604 4.7141395 5.5857077 1.4552046
5.439666 0.06545684 0.03750714 3.4312103 -1.0612061 -1.5556802 -0.36488047 4.3211975
4.248169 4.3836875 -0.048051383 -0.11346152 -3.6647916 5.4748616 4.9275727 4.1872473
0.2729157 4.9484844 1.6708355 10.356611 -2.6983724 4.2429833 0.39495325 3.6690989
00000000: cb69 9a40 ec07 26be c2f1 0440 8b0b b140
00000010: 0de5 f8be f3d0 f6c0 fb88 8d40 1412 2e40
00000020: 5922 36c0 d63b 9040 a68b b240 4b69 1d3f
00000030: d005 873f e539 52be d473 d140 b53f 2fbd
00000040: c138 2bbf c52e bfbf c9bb 75be 7ac4 1540
00000050: 607b 62bf 75e8 3e40 e948 44be b764 313d
00000060: a331 8c40 a87e 703f 3739 0841 d4b8 3440
00000070: a2ad 293f 2669 9c40 4580 0abd 90d0 0240
00000080: 54ae f2c0 90c7 0ebe a427 b140 d2b4 2340
00000090: d2e1 8c40 584f a43f f5e9 2e41 d31f f940
000000a0: 8c2d 5340 4442 0ebe d0b8 7140 e90d f93f
000000b0: 26e8 0ac0 0465 1240 9d90 123d 7321 11be
000000c0: 8960 8d40 b6ca d93f 9c6a cabd 06ba 8940
000000d0: b7ae 12c1 67fe bdbf 65b6 4740 803d eabd
000000e0: 6cf4 623f 918e 15c1 4e9b bb40 cda8 2ebe
000000f0: 4883 d4c0 8df9 c340 38bc f13f ed11 063f
00000100: 5281 e33e c2bc 3ebd 794b 8740 7b2e 38bf
00000110: d696 8740 bb8c 07c1 642b ce40 b79a e9bd
00000120: fdc4 d0c0 7b26 663f 1c46 83bf 6bdf b4bd
00000130: 2706 5b41 0167 d8be 9039 8740 a60d a83f
00000140: 6bea a8be 9679 9340 4039 8d40 490c 043f
00000150: b16b b4bd 0f16 6b40 05c6 a540 2100 0b3d
00000160: b012 153f 2972 b83e b5e9 1840 af0a 06bf
00000170: 1f17 213f 67bf 8e40 04b4 5341 20a0 af40
00000180: 6b30 8140 c246 c2bd 14eb 893f 8e23 2240
00000190: 7c3c 233d 3bda 9640 1ebe b240 2544 ba3f
000001a0: be11 ae40 3c0e 863d 16a1 193d f398 5b40
000001b0: 9ad5 87bf 8720 c7bf 9dd1 babe 4047 8a40
000001c0: 00f1 8740 2b47 8c40 87d1 44bd 835e e8bd
000001d0: f28b 6ac0 1132 af40 adae 9d40 eefd 8540
000001e0: 9bbb 8b3e fc59 9e40 f0dd d53f aeb4 2541
000001f0: 22b2 2cc0 85c6 8740 5037 ca3e 84d2 6a40

fc2.weight f4 [128, 128]
0.02942744 -0.08704269 -0.013532889 -0.14072213 0.088752426 0.06599897 0.05985378 -0.05555776
-0.02710619 -0.17861179 -0.058523167 0.014167993 0.037739113 -0.0021065911 -0.12595597 0.0034897367
-0.10968353 -0.10408582 -0.022665666 0.026774881 -0.037083887 -0.04011799 0.015937276 -0.03948324
-0.020431833 -0.013123915 0.028620804 0.004352059 0.05559773 -0.116142586 0.008465214 -0.005508071
0.034286447 -0.08140362 -0.040289443 0.025142565 -0.04844971 -0.053717144 0.019725071 -0.054013588
-0.021411836 0.03540719 -0.052682858 -0.06536707 -0.105806515 -0.121796995 0.02509687 0.0033574617
-0.009151299 0.05585844 0.032035608 -0.09846956 -0.01897515 0.028505577 0.05910075 0.028268544
-0.085932344 -0.091438554 0.004555756 0.03596138 -0.057959545 -0.059087772 -0.051286183 -0.03283861
-0.01706743 0.0802289 -0.07335913 0.11806668 -0.20051059 -0.12179146 -0.086863436 0.026629733
-0.06234398 -0.02170677 0.05454203 0.024810992 -0.044519886 -0.0126900645 -0.014134846 0.011617291
0.044039838 0.06853158 -0.09460396 -0.032807812 0.005107319 -0.034301925 -0.08050142 0.03071949
0.034974016 0.008477564 -0.058758486 -0.02622881 0.05169549 0.06734575 -0.13429213 -0.02550477
0.08786752 -0.020201668 0.06697303 0.0373451 0.011202765 -0.062564395 -0.10165896 0.0006049634
-0.07339116 -0.028946681 0.082643814 0.07091348 0.0008633515 -0.081991434 0.0014987334 0.01025716
-0.06256292 -0.09710336 -0.07676603 0.022350146 -0.083176486 0.0042467006 -0.05917161 -0.027040867
-0.024209077 -0.09969921 -0.05936952 0.06604643 -0.14244106 0.044383824 0.05730178 -0.018395873
-0.06624157 -0.033829547 -0.030101469 -0.116469786 0.0054220287 0.109050654 -0.033655643 0.00076817966
0.011061224 0.07204173 -0.024994211 0.07135182 -0.035123255 0.021940054 0.10849187 -0.04627809
-0.06281887 -0.13330342 -0.061565883 -0.021929314 -0.0394379 0.037630808 0.015887715 -0.070318475
-0.004985465 -0.03732069 -0.05462208 -0.09621608 -0.047443114 -0.12332646 0.030642815 -0.09224946
-0.06453849 0.057589527 0.014158076 0.003609024 -0.0013647877 0.053043272 0.03557136 -0.01701235
-0.084241875 0.02617962 -0.098151505 -0.10581827 -0.085857384 -0.031218613 0.048603285 -0.06941667
0.062831536 0.004067072 0.062231887 -0.16183896 -0.041331872 0.008347575 -0.012687447 -0.075065725
-0.061210636 -0.08667689 0.046405938 -0.076851256 -0.003298389 -0.09033004 -0.094436705 0.04812825
-0.0630592 0.056063946 -0.017184876 -0.15054953 -0.17747568 -0.061011847 -0.054817885 -0.052605093
-0.08690361 -0.054393254 0.009909343 -0.07665903 0.036020916 0.07636811 -0.036133707 -0.06692986
0.045565385 0.08132489 0.009053266 0.040213306 0.021456808 -0.21178803 0.028443772 0.0416783
0.013378759 -0.081472896 0.07561172 -0.05811337 0.019022798 0.03512823 -0.0031763613 -0.14843962
-0.04770278 -0.01500971 -0.029901376 0.09573117 0.050141614 0.03126245 -0.09713267 0.028619254
0.017332362 0.05422375 -0.009527695 0.066193715 -0.059978217 -0.05912131 0.035892297 0.013923388
-0.0111942 0.020378929 -0.010045101 0.055763904 0.065279424 -0.007388011 -0.027201466 -0.05931096
0.036096342 -0.06901824 0.039225683 -0.12900561 -0.07388249 -0.043099087 0.043953966 0.01937877
00000000: d111 f13c 7043 b2bd 0db9 5dbc 7619 10be
00000010: d5c3 b53d 782a 873d 3d29 753d 8990 63bd
00000020: cd0d debc 02e6 36be fdb5 6fbd df20 683c
00000030: 5494 1a3d bc0e 0abb 9afa 00be 11b4 643b
00000040: c2a1 e0bd f22a d5bd 59ad b9bc ff56 db3c
00000050: 46e5 17bd c352 24bd e48e 823c 2eb9 21bd
00000060: a960 a7bc b005 57bc 2d76 ea3c b89b 8e3b
00000070: 72ba 633d 2adc edbd aeb1 0a3c 0c7d b4bb
00000080: f26f 0c3d f1b6 a6bd 8b06 25bd c8f7 cd3c
00000090: 3473 46bd 8206 5cbd 7996 a13c 5a3d 5dbd
000000a0: e067 afbc 2107 113d fbc9 57bd 2cdf 85bd
000000b0: 16b1 d8bd b470 f9bd f397 cd3c dc08 5c3b
000000c0: 54ef 15bc d2cb 643d c537 033d 69aa c9bd
000000d0: c671 9bbc 8784 e93c a113 723d 6f93 e73c
000000e0: 4cfd afbd 2344 bbbd 7448 953b 3d4c 133d
000000f0: fd66 6dbd 0506 72bd 7611 52bd c781 06bd
00000100: ffd0 8bbc 0d4f a43d 503d 96bd f2cc f13d
00000110: a652 4dbe cd6d f9bd 75e5 b1bd 9926 da3c
00000120: 675c 7fbd 65d2 b1bc 7767 5f3d 6c40 cb3c
00000130: 7c5a 36bd fde9 4fbc d795 67bc 7356 3e3c
00000140: 1e63 343d 495a 8c3d b9bf c1bd 7c61 06bd
00000150: 4c5b a73b 2d80 0cbd eedd a4bd 71a7 fb3c
00000160: ea40 0f3d 7be5 0a3c bdac 70bd cddd d6bc
00000170: a6be 533d 92ec 893d e083 09be 61ef d0bc
00000180: e3f3 b33d f87d a5bc 2829 893d 2df7 183d
00000190: cd8b 373c c321 80bd 9332 d0bd 6896 1e3a
000001a0: 1b4e 96bd 9721 edbc 2941 a93d 163b 913d
000001b0: 8a52 623a 20eb a7bd 2671 c43a a60d 283c
000001c0: fd20 80bd 20de c6bd 8237 9dbd a717 b73c
000001d0: 6f58 aabd e827 8b3b ee5d 72bd cf84 ddbc
000001e0: 1d52 c6bc 192f ccbd 742d 73bd 5a43 873d
000001f0: 12dc 11be d0cb 353d 45b5 6a3d f1b2 96bc
00000200: a9a9 87bd da90 0abd 5b97 f6bc b687 eebd
00000210: 46ab b13b f355 df3d 80da 09bd aa5f 493a
00000220: 233a 353c 9d8a 933d a9c0 ccbc e720 923d
00000230: 67dd 0fbd a1bb b33c fc30 de3d 188e 3dbd
00000240: 2ea7 80bd b180 08be 822c 7cbd 1ba5 b3bc
00000250: a389 21bd c322 1a3d f426 823c 2203 90bd
00000260: 1d5d a3bb 94dd 18bd 67bb 5fbd f00c c5bd
00000270: b653 42bd 9592 fcbd a406 fb3c 49ed bcbd
00000280: c12c 84bd ffe2 6b3d 46f7 673c 6085 6c3b
00000290: ade2 b2ba e743 593d 46b3 113d 7c5d 8bbc
000002a0: 0187 acbd a476 d63c a803 c9bd 40b7 d8bd
000002b0: ffd5 afbd 2dbe ffbc 3d14 473d 542a 8ebd
000002c0: d2ad 803d 1345 853b dde6 7e3d 1db9 25be
000002d0: 9c4b 29bd 44c4 083c 02df 4fbc 0fbc 99bd
000002e0: 01b8 7abd a783 b1bd 2714 3e3d 3164 9dbd
000002f0: c929 58bb f5fe b8bd 0868 c1bd 2122 453d
00000300: 2f25 81bd 4fa3 653d 4cc7 8cbc a829 1abe
00000310: 2fbc 35be 8fe7 79bd b888 60bd 7078 57bd
00000320: 85fa b1bd 76cb 5ebd cc5a 223c 69ff 9cbd
00000330: ab8a 133d e266 9c3d f000 14bd 8612 89bd
00000340: c5a2 3a3d aa8d a63d 2654 143c b5b6 243d
00000350: 30c6 af3c f6de 58be ea02 e93c ddb6 2a3d
00000360: 9532 5b3c 43db a6bd 51da 9a3d 4908 6ebd
00000370: b3d5 9b3c 9ee2 0f3d 802a 50bb 8e00 18be
00000380: fe63 43bd 49eb 75bc bbf3 f4bc b40e c43d
00000390: 4b61 4d3d 0e0d 003d 7eed c6bd ed72 ea3c
000003a0: 99fc 8d3c b919 5e3d 0d1a 1cbc 9290 873d
000003b0: b8ab 75bd 3029 72bd cd03 133d ec1e 643c
000003c0: e167 37bc b6f1 a63c 3594 24bc b168 643d
000003d0: 38b1 853d 2117 f2bb 9cd5 debc 0df0 72bd
000003e0: c2d9 133d 6f59 8dbd 1cab 203d 0c1a 04be
000003f0: b44f 97bd ab88 30bd 1309 343d 3ac0 9e3c

fc2.bias f4 [128]
-0.072163634 0.9781614 6.8574624 3.768121 9.010075 -0.06534151 -0.12908576 -0.013718298
2.4177198 0.96042055 -0.10594873 4.2934566 0.93591267 4.9850864 -0.06638449 13.398431
12.533446 13.243119 0.5018435 11.052098 -1.9955631 12.911705 -0.111328796 4.5333605
-0.07501713 11.833736 -0.10772354 7.8523583 -0.040867195 10.697101 -0.032907344 4.3578835
3.1985204 9.1411295 2.5166805 1.8579252 -0.2621717 4.4614525 3.439078 3.376361
0.18928292 3.3384905 0.326432 -0.11663183 -0.13594562 6.322843 2.2048914 1.4873214
-0.115357004 -0.06398266 5.8711476 -0.08017288 1.8364285 -0.02369901 -0.052440736 1.1352178
-0.08722742 4.9593616 5.2161236 0.20441087 -0.25599992 1.3770086 -2.1578398 -0.0023207976
-0.008479478 3.1790497 13.268276 -0.17081149 9.918558 4.3382215 6.0643473 -1.2550887
3.8507042 -2.251067 3.516967 0.56518716 10.504026 -0.055264864 3.8055127 3.6360865
-0.14623548 5.585778 5.9726896 -0.5564361 -0.12243949 9.801535 0.3461876 0.60240823
-0.050242983 -0.017575875 -0.024677671 -1.1773354 0.21215151 7.713528 5.2168097 -0.011568601
-0.12206915 0.112554446 0.10801743 8.392924 -0.13986762 0.40269023 -0.9985213 -0.09457662
2.511723 8.765821 -0.12883198 -0.083231345 2.35621 13.652469 -2.5397484 -0.9638203
-0.17282142 -0.033069793 4.5775003 6.28613 5.4733224 6.55114 3.2430894 2.7499917
-0.22569308 12.2828045 6.6085925 5.883237 -0.99718493 -0.11614609 -0.0732319 12.131677
00000000: 87ca 93bd c968 7a3f 5570 db40 e528 7140
00000010: 4429 1041 c5d1 85bd 0f2f 04be b6c2 60bc
00000020: ecbb 1a40 1fde 753f a6fb d8bd ff63 8940
00000030: f997 6f3f d485 9f40 97f4 87bd f95f 5641
00000040: ff88 4841 d1e3 5341 d178 003f 65d5 3041
00000050: 9d6e ffbf 5896 4e41 5a00 e4bd 4a11 9140
00000060: 95a2 99bd fc56 3d41 299e dcbd 8546 fb40
00000070: 5c64 27bd 5327 2b41 dac9 06bd c873 8b40
00000080: 8fb4 4c40 1142 1241 4b11 2140 7ed0 ed3f
00000090: 5e3b 86be 38c4 8e40 db19 5c40 4c16 5840
000000a0: 62d3 413e d4a9 5540 1822 a73e abdc eebd
000000b0: 5435 0bbe bb54 ca40 f11c 0d40 8c60 be3f
000000c0: 4b40 ecbd 5709 83bd 71e0 bb40 ae31 a4bd
000000d0: 1710 eb3f 6d24 c2bc 19cc 56bd d14e 913f
000000e0: 4aa4 b2bd 17b3 9e40 7cea a640 1551 513e
000000f0: 6c12 83be d141 b03f 0c1a 0ac0 8618 18bb
00000100: 82ed 0abc 8d75 4b40 dc4a 5441 35e9 2ebe
00000110: 6ab2 1e41 b6d2 8a40 220f c240 bfa6 a0bf
00000120: f071 7640 7b11 10c0 fd15 6140 1bb0 103f
00000130: 7e10 2841 695d 62bd 858d 7340 a4b5 6840
00000140: c1be 15be b2be b240 4620 bf40 9972 0ebf
00000150: 8ec1 fabd 16d3 1c41 803f b13e 6d37 1a3f
00000160: 96cb 4dbd 48fb 8fbc d428 cabc edb2 96bf
00000170: 3f3e 593e 39d5 f640 1bf0 a640 3b8a 3dbc
00000180: 64ff f9bd f282 e63d 3e38 dd3d 6b49 0641
00000190: 7539 0fbe 6a2d ce3e 189f 7fbf 63b1 c1bd
000001a0: 12c0 2040 ce40 0c41 88ec 03be 3275 aabd
000001b0: 25cc 1640 8370 5a41 3d8b 22c0 edbc 76bf
000001c0: 19f8 30be 3174 07bd e27a 9240 fa27 c940
000001d0: 7525 af40 f0a2 d140 c78e 4f40 ddff 2f40
000001e0: 161c 67be 5e86 4441 9779 d340 7a43 bc40
000001f0: 8347 7fbf 00de edbd 9bfa 95bd 591b 4241

fc3.weight f4 [5, 128]
0.03309148 0.19853444 0.08915693 0.92505246 -0.04111092 0.11369245 -0.07181344 0.014559967
0.39918596 0.27167276 0.031382475 0.4512138 0.007710289 0.12008389 0.067474894 -0.2684675
0.013913483 -0.3813359 -0.05071655 0.06309068 -0.04120849 -0.1621675 -0.067370415 0.13784806
0.08462317 0.017435143 0.023454174 0.10667781 -0.02608045 -0.2919676 0.057696115 0.2921676
0.37099376 0.0022819145 0.72881025 0.41437805 -0.0012788762 1.1076682 -0.06322696 1.0016987
-0.10015734 0.6976553 0.099024616 0.026513586 -0.011329607 -0.32307643 0.3852797 0.21691997
0.0226179 -0.1030341 1.0012906 -0.029857747 -0.70046484 0.010733226 -0.024905162 0.4670375
0.019116051 1.0714309 1.0150254 0.06832622 -0.008816284 0.031131104 -0.16033603 -0.049624663
-0.018960815 0.824577 -0.28337055 -0.06083646 0.19024166 0.15495537 0.12885153 -0.44255626
0.47812876 -0.08747261 0.6017 0.13372505 -0.07466467 0.020116512 0.13589282 1.0683045
-0.01755092 0.17239396 -0.30497107 0.12149796 0.22602262 0.04551315 0.05458036 0.47249442
-0.0447509 0.014074388 0.13506536 -0.32751718 0.0898325 0.12077066 -0.11190194 0.15317185
0.0031073014 -0.39925846 0.03509109 -0.08657784 -0.006182964 0.11364599 -0.4358831 0.022363935
0.6747462 -0.05487367 -0.095896095 0.03886211 -0.08572695 -0.1291901 -0.028563641 -0.5228241
-0.019294972 0.002898546 0.09075703 -0.087467216 -0.025273237 -0.09049886 0.38372672 0.43306434
0.108811855 -0.02673245 -0.11573128 -0.16648695 -0.30607197 0.079464406 0.030682836 0.027437404
0.0033147107 0.045128528 -0.10343514 0.7786973 0.1765532 -0.05676679 -0.13689601 0.085092284
0.42661914 0.14057016 0.20751998 0.7208434 0.03865438 0.73443323 0.13909805 -0.08365759
0.070515595 -0.28641626 0.06213503 0.13124345 -0.4720217 0.10627537 -0.26329517 0.1531694
0.24600421 0.0074088657 0.047162168 0.20441343 -0.025690231 -0.077766284 0.0026177294 0.5379532
0.22425988 0.46746358 0.3050503 0.27823552 -0.0019239204 0.5306049 -0.15295671 0.50672436
0.13324192 0.57703465 -0.13505243 0.047393613 -0.037430152 -0.362664 0.40922824 0.253841
-0.037579097 0.03571558 0.93900216 0.043388233 -0.067668505 -0.015811034 0.0009985489 0.036887825
0.025005314 1.2370187 0.6506787 0.1206254 0.084354274 -0.3330084 -0.10215133 -0.0648597
-0.027683118 0.44929376 0.17234297 -0.092803694 0.19041245 0.359036 0.42221788 -0.17551336
0.5376777 -0.1411008 0.28210774 0.21497239 -0.0069984677 -0.04087073 0.20534232 0.5221591
0.03855311 0.12725303 -0.054379255 0.016676838 0.0066272644 -0.051621355 0.12213928 0.1995067
-0.03625584 -0.018926905 0.14080004 -0.08765911 0.12632793 0.31202564 0.42565143 0.3508279
0.03392924 -0.13239966 -0.001231622 -0.16167243 0.08863443 0.061246235 -0.19193082 0.04974604
0.54158 0.078679726 -0.00432791 0.08336799 0.034997363 0.12672523 -0.31715462 0.15896073
-0.13813107 -0.09673728 -0.090599716 -0.08976525 -0.049168665 0.107503 0.25479016 0.3186821
0.2219391 0.2704567 -0.039486546 0.0126146 -0.09023414 0.044637688 -0.0015614793 0.0172297
00000000: ef8a 073d 9d4c 4b3e e997 b63d 3dd0 6c3f
00000010: ed63 28bd 96d7 e83d ed12 93bd ee8c 6e3c
00000020: 1a62 cc3e b118 8b3e e98a 003d 7f05 e73e
00000030: 98a6 fc3b 8bee f53d 4730 8a3d 9274 89be
00000040: 61f5 633c 763e c3be 28bc 4fbd b035 813d
00000050: 3cca 28bd 3d0f 26be 80f9 89bd 0b28 0d3e
00000060: ea4e ad3d 25d4 8e3c f822 c03c e579 da3d
00000070: aba6 d5bc c77c 95be c352 6c3d fe96 953e
00000080: e5f2 bd3e 2c8c 153b 4f93 3a3f 5c29 d43e
00000090: f79f a7ba 12c8 8d3f 237d 81bd aa37 803f
000000a0: 4b1f cdbd 8a99 323f 6bcd ca3d 0533 d93c
000000b0: d19f 39bc 466a a5be 6143 c53e 4520 5e3e
000000c0: 2d49 b93c 8b03 d3bd 4a2a 803f 3c98 f4bc
000000d0: aa51 33bf 6ada 2f3c e905 ccbc 8a1f ef3e
000000e0: 4499 9c3c a624 893f 5aec 813f 9eee 8b3d
000000f0: 2d72 10bc a806 ff3c 212f 24be 3b43 4bbd
00000100: b653 9bbc 7a17 533f f215 91be a72f 79bd
00000110: b6ce 423e 9fac 1e3e a8f1 033e bc96 e2be
00000120: 4bcd f43e d724 b3bd 0309 1a3f 38ef 083e
00000130: cae9 98bd 62cb a43c 7d27 0b3e 34be 883f
00000140: f2c6 8fbc 0b88 303e 2b25 9cbe ecd3 f83d
00000150: 7972 673e ff6b 3a3d a88f 5f3d caea f13e
00000160: b84c 37bd 4398 663c 934e 0a3e 55b0 a7be
00000170: 1afa b73d 9c56 f73d d82c e5bd 15d9 1c3e
00000180: dea3 4b3b 9b6b ccbe adbb 0f3d b94f b1bd
00000190: 769a cabb 3bbf e83d 122c dfbe 9234 b73c
000001a0: 2bbc 2c3f 37c3 60bd 2c65 c4bd e02d 1f3d
000001b0: 9c91 afbd 694a 04be 4cfe e9bc cdd7 05bf
000001c0: 7d10 9ebc 88f5 3d3b d2de b93d 0322 b3bd
000001d0: d209 cfbc 7757 b9bd d477 c43e 9cba dd3e
000001e0: c0d8 de3d 03fe dabc 8504 edbd 8e7b 2abe
000001f0: 77b5 9cbe 3cbe a23d 925a fb3c 68c4 e03c
00000200: 9e3b 593b b1d8 383d cdd5 d3bd b558 473f
00000210: 5dca 343e 4b84 68bd 782e 0cbe dd44 ae3d
00000220: d36d da3e a0f1 0f3e 1e80 543e 3189 383f
00000230: 0e54 1e3d d103 3c3f b86f 0e3e ac54 abbd
00000240: 7b6a 903d 27a5 92be 4d81 7e3d af64 063e
00000250: d4ac f1be e7a6 d93d a0ce 86be 70d8 1c3e
00000260: 87e8 7b3e 12c6 f23b 1e2d 413d c151 513e
00000270: 5274 d2bc ee43 9fbd 368e 2b3b 4db7 093f
00000280: 62a4 653e 6357 ef3e 8e2f 9c3e e374 8e3e
00000290: 0e2c fcba b9d5 073f afa0 1cbe b0b8 013f
000002a0: 9270 083e 8bb8 133f 2f4b 0abe ce1f 423d
000002b0: 5c50 19bd 19af b9be 5d86 d13e 73f7 813e
000002c0: 8aec 19bd 804a 123d 7262 703f dcb7 313d
000002d0: c995 8abd 2486 81bc bee1 823a b017 173d
000002e0: f2d7 cc3c a156 9e3f e192 263f 730a f73d
000002f0: efc1 ac3d 1480 aabe b734 d1bd 2ad5 84bd
00000300: b5c7 e2bc d509 e63e ad7a 303e dd0f bebd
00000310: 7bfb 423e 91d3 b73e f12c d83e c6b9 33be
00000320: 3fa5 093f ba7c 10be 6d70 903e b921 5c3e
00000330: 6753 e5bb 1168 27bd 4245 523e 38ac 053f
00000340: dee9 1d3d 9e4e 023e c8bc 5ebd dd9d 883c
00000350: 8629 d93b ea70 53bd 2924 fa3d 7c4b 4c3e
00000360: 0181 14bd 990c 9bbc e32d 103e 9f86 b3bd
00000370: 1c5c 013e d3c1 9f3e fcee d93e b79f b33e
00000380: 63f9 0a3d c793 07be 606e a1ba 758d 25be
00000390: f885 b53d 55dd 7a3d 8389 44be 81c2 4b3d
000003a0: fda4 0a3f d622 a13d 24d1 8dbb d6bc aa3d
000003b0: 6559 0f3d 42c4 013e 1762 a2be 9ac6 223e
000003c0: 3b72 0dbe 321e c6bd 588c b9bd d8d6 b7bd
000003d0: 1565 49bd 882a dc3d db73 823e 4d2a a33e
000003e0: 0144 633e 4d79 8a3e a5bc 21bd 78ad 4e3c
000003f0: adcc b8bd 02d6 363d 8daa ccba 4d25 8d3c

fc3.bias f4 [5]
0.54756844 -0.7687322 -0.47880197 1.5392368 1.637263
00000000: 722d 0c3f a2cb 44bf 8825 f5be b605 c53f
00000010: d591 d13f
