dqn_motor_control_final.pth (torch, 96599 bytes, 6 tensors)

fc1.weight f4 [128, 50]
0	0xbd6192bb	-0.055071574
1	0xbdce9714	-0.100874096
2	0xbac2118f	-0.0014806258
3	0xbdadfb12	-0.084951535
4	0xbd45bffd	-0.048278797
5	0xbdb45a39	-0.08806271
6	0xbbc80ca9	-0.006105025
7	0xbd4e20c2	-0.05032421
8	0x3d8ae5ba	0.06782098
9	0x3e734d12	0.23759869
10	0xbe96426f	-0.2934756
11	0xbedbfb61	-0.42965224
12	0xbf045d96	-0.517053
13	0xbebaa614	-0.36454833
14	0xbf2362b2	-0.6382247
15	0xbf0203bc	-0.5078695
16	0xbed14cc3	-0.40878877
17	0xbea6e5b4	-0.32597125
18	0xbf17b819	-0.59265286
19	0xbfb5769b	-1.417682
20	0xbf20e941	-0.6285592
21	0xbf296bbf	-0.6618003
22	0xbf40da0a	-0.753327
23	0xbf0d48c6	-0.5518917
24	0xbf4c8741	-0.7989388
25	0xbf1433b7	-0.5789141
26	0xbf22db0f	-0.63615507
27	0xbf1adb65	-0.6049102
28	0xbf35ff3b	-0.71092576
29	0xbf2ec337	-0.68266624
30	0x3ee2d74c	0.44304883
31	0x3e77e845	0.24209698
32	0x3e9e9643	0.30974016
33	0x3eb5643b	0.35428032
34	0x3eac2f24	0.33629715
35	0x3eda0944	0.42585194
36	0x3e75b668	0.23995364
37	0x3e6e584e	0.23275873
38	0x3eb5738b	0.35439715
39	0x3ea38902	0.31940466
40	0xbb436a40	-0.0029817969
41	0xbd2b856d	-0.04187529
42	0x3e3cbc82	0.18431285
43	0x3eafb4ea	0.34317714
44	0x3e820807	0.2539675
45	0x3e31638b	0.17323129
46	0x3e3b0893	0.1826499
47	0x3eba954c	0.3644203
48	0x3f1a5067	0.60278934
49	0x3f8a71c6	1.0815971
50	0x3d0f364f	0.034963902
51	0xbc8d0af4	-0.017217137
52	0x3c8264bd	0.015917176
53	0xbe251b80	-0.16123772
54	0xbe73083e	-0.23733613
55	0xbdf6da00	-0.12053299
56	0xbe8600d6	-0.26172513
57	0xbe894299	-0.26808622
58	0xbeae1b26	-0.34005088
59	0xbec83183	-0.39100274
60	0xbe88b73c	-0.26702297
61	0xbe219a3c	-0.15781492
62	0xbda92bdb	-0.08260318
63	0xbca3bae2	-0.019986574
64	0xbdffb5ca	-0.124858454
65	0xbe30d568	-0.17268908
66	0xbe111b49	-0.14170565
67	0xbdf5c063	-0.119995855
68	0xbe3e8e12	-0.18608883
69	0xbd39d538	-0.045369357
70	0xbc27e276	-0.010246864
71	0xbc770e95	-0.01507916
72	0x3d7cb856	0.061699234
73	0xbd7326ed	-0.059363294
74	0x3dadde01	0.084896095
75	0xbc80c9c1	-0.015721204
76	0xbd90ffcd	-0.0708004
77	0x3d827e38	0.063717306
78	0x3b1acf6b	0.0023622166
79	0x3db430d2	0.08798374
80	0x3e313da2	0.17308667
81	0x3e2ef726	0.17086467
82	0x3cad1562	0.02112836
83	0x3d09b445	0.033619184
84	0x3d8cd905	0.06877331
85	0x3e47ab41	0.19498922
86	0x3e6d82f0	0.2319448
87	0xbc7071ae	-0.014675541
88	0xbce6f059	-0.028190779
89	0x3ca3e7b8	0.020007953
90	0x3ce2b125	0.02767236
91	0x3d318f0a	0.043349303
92	0x3d010cc0	0.0315063
93	0xbdcfb846	-0.10142569
94	0x3da788e9	0.081804104
95	0x3ca882e2	0.020570222
96	0xbddec297	-0.10876959
97	0xbe6363be	-0.22206017
98	0xbe262875	-0.1622637
99	0xbe883d2d	-0.26609173
100	0xbe2c878d	-0.16848584
101	0x3c4822bd	0.0122153135
102	0xbcaa9fc3	-0.020828133
103	0xbca67591	-0.020319732
104	0xbdccf90f	-0.10008442
105	0xbd8a4422	-0.067512766
106	0xbdba0abe	-0.0908408
107	0x3d22ad3f	0.039716
108	0x3e001bed	0.12510653
109	0x3decdd52	0.11565651
110	0xbe00cc2d	-0.12577887
111	0x3c0e4cc5	0.0086852955
112	0xbe16bc35	-0.14720233
113	0xbe1fc1aa	-0.1560122
114	0xbe273c1b	-0.16331522
115	0x3d29f726	0.041495465
116	0x3da8a79d	0.08235095
117	0x3e865763	0.26238546
118	0x3f2b2f98	0.668695
119	0x3f639612	0.88900864
120	0xbfb7d39a	-1.4361451
121	0xbfc3fb01	-1.5310975
122	0xbfc9563f	-1.5729445
123	0xbfefd812	-1.8737814
124	0xbff6cd29	-1.928136
125	0xc00065e0	-2.006218
126	0xc005b20b	-2.0889919
127	0xc014669f	-2.3187635
128	0xc0128467	-2.2893312
129	0xc0245f23	-2.5683067
130	0x3de37e4d	0.11108074
131	0xbdf2a7f9	-0.118484445
132	0x3d3c4639	0.045965407
133	0xbe29bf06	-0.16576776
134	0x3d1f67d7	0.03891739
135	0xbe08b6e8	-0.13351023
136	0xbb6adf15	-0.0035838534
137	0xbe7ffc79	-0.24998654
138	0xbd4b9be4	-0.049709216
139	0xbeac6453	-0.3367029
140	0xbf2edc67	-0.6830506
141	0xbfcd7c34	-1.6053529
142	0xbfcf8983	-1.621384
143	0xbfc34b41	-1.5257341
144	0xbfdbd5da	-1.7174637
145	0xbfda99b6	-1.7078159
146	0xbff349d6	-1.9006908
147	0xbfd1679d	-1.6359745
148	0xbfb8b27f	-1.4429473
149	0xbf9131ee	-1.1343362
150	0xbdf85f6d	-0.12127576
151	0x3bc953be	0.006144016
152	0xbd79fdec	-0.061033174
153	0xbc2454e5	-0.010030006
154	0xbe0ba668	-0.13637698
155	0xbd4760f8	-0.04867646
156	0x3da5f8c2	0.081040874
157	0xbd95cbfc	-0.073142976
158	0xbe02c540	-0.12770557
159	0xbe013ceb	-0.12620895
160	0x3d716b4b	0.058940213
161	0xbe08a54d	-0.13344307
162	0x3e042a83	0.12906842
163	0xbe076a6d	-0.13224192
164	0x3e0c2293	0.13685064
165	0xbdfd7640	-0.1237607
166	0xbd0af268	-0.033922583
167	0x3d800871	0.0625161
168	0xbcde7b82	-0.027158502
169	0xbcdd9aca	-0.027051348
170	0xbd03c4e2	-0.032170184
171	0x3d79eefc	0.06101893
172	0x3cf9ec0d	0.030508066
173	0x3c9ce3fc	0.01915168
174	0x3da52eda	0.08065577
175	0xbdeaaf8d	-0.11459265
176	0x3c959db7	0.01826368
177	0xbcbc85d8	-0.02301304
178	0x3d23df21	0.040007714
179	0xbd38ed23	-0.045148026
180	0x3c89c2f4	0.016816594
181	0x3d716fa0	0.058944345
182	0x3ad2fc36	0.0016096893
183	0x3dd4f9a1	0.103991754
184	0x3e02f840	0.12790012
185	0xbcfe1a02	-0.03101826
186	0xbd28c0a8	-0.041199356
187	0x3d1a98f2	0.037743516
188	0xbd5f77b7	-0.05455753
189	0xbd4b47f8	-0.04962918
190	0xbdd7ac33	-0.10530891
191	0x3d781d4d	0.06057482
192	0xbd0886f7	-0.033331838
193	0x3e08b544	0.13350397
194	0xbc2a87c9	-0.01040835
195	0xbdc5c8ea	-0.09657462
196	0x3dbcaac1	0.09212256
197	0xbc8f9cda	-0.017530847
198	0x3b9063ba	0.0044064196
199	0xbcc8f080	-0.024528742
200	0x3f1f4360	0.6221218
201	0x3eba2e6a	0.36363536
202	0x3e99859e	0.29984754
203	0x3c8ef88d	0.017452503
204	0xbe300f71	-0.1719339
205	0xbf56c67f	-0.8389663
206	0xbec0796e	-0.37592643
207	0xbe15c26b	-0.14624946
208	0x3adcf99a	0.0016859055
209	0x3e8c206a	0.2736848
210	0xbd830c0b	-0.063987814
211	0xbe38b15e	-0.1803641
212	0xbe959063	-0.2921172
213	0xbdc4b230	-0.09604299
214	0xbe490ce3	-0.19633822
215	0xbec148b1	-0.37750772
216	0x3e0cb44d	0.13740654
217	0xbd34686e	-0.044044904
218	0x3e307f56	0.17236075
219	0x3f2ca04a	0.6743208
220	0x3e82054d	0.2539467
221	0x3e0bdc2e	0.1365821
222	0x3cf2e7d4	0.02965156
223	0x3d1c46c0	0.03815341
224	0xbdeff278	-0.11716169
225	0xbd36098f	-0.04444271
226	0xbdd2e68c	-0.102978796
227	0xbdd16b68	-0.10225564
228	0xbd44755b	-0.04796348
229	0xbdefe257	-0.11713093
230	0x3db92f4a	0.09042223
231	0x3d46ae0d	0.04850583
232	0x3daf6d6c	0.085657924
233	0x3e28e4f4	0.16493589
234	0x3dcce75c	0.10005066
235	0x3d178423	0.03699125
236	0x3e64bf98	0.22338712
237	0x3d4b13ab	0.049579304
238	0xbe4def25	-0.20110758
239	0xbf024c8a	-0.5089804
240	0x3e1ec1b9	0.15503587
241	0x3bfbba08	0.0076820888
242	0xbe24279b	-0.16030733
243	0xbd8a9e85	-0.067685165
244	0xbde067f6	-0.10957329
245	0xbe2dc302	-0.16968921
246	0xbda502af	-0.080571525
247	0xbeaa3cb6	-0.33249444
248	0xbf154216	-0.58303964
249	0xbfdc76a1	-1.7223703
250	0xbdc74091	-0.09729112
251	0xbdd14735	-0.1021866
252	0xbdfb4bb0	-0.122702956
253	0xbba72872	-0.005101257
254	0xbc8de1f6	-0.01731966
255	0xbdf0f527	-0.11765509

fc1.bias f4 [128]
0	0x3db94433	0.09046211
1	0xbe42e855	-0.1903394
2	0x3f860893	1.0471367
3	0x3d8c1feb	0.06842025
4	0x3ee1bf77	0.4409139
5	0xbeebcbdd	-0.46053973
6	0x3f2a39b2	0.66494286
7	0xbe5deff6	-0.21673569
8	0x3ee15bcb	0.44015345
9	0x3e638cd0	0.22221684
10	0xbdd5b615	-0.1043512
11	0x3e7ca718	0.24673116
12	0x3d3fcc22	0.046825536
13	0x3d85dafb	0.06535908
14	0xbb804a30	-0.003915094
15	0xbe4b75e9	-0.19869198
16	0x3ed0a3df	0.40750024
17	0x3daa5284	0.0831652
18	0x3df39bf6	0.118949816
19	0x3e455716	0.19271502
20	0xbe02decd	-0.12780304
21	0xbdbe5502	-0.09293558
22	0xbd2e1f57	-0.042510357
23	0x3d0785ad	0.033086468
24	0x3d4bad8b	0.04972605
25	0xbdac4ad4	-0.0841271
26	0xbdc31b54	-0.09526697
27	0xbe28d06a	-0.16485754
28	0x3d0eacbf	0.034832712
29	0x3cc2f73b	0.02379953
30	0x3d6f186b	0.058372896
31	0xbd2d53d2	-0.042316265
32	0xbda890f2	-0.08230771
33	0x3f0825f8	0.53182936
34	0xbdcabe0d	-0.098995306
35	0xbdf14a11	-0.11781705
36	0x3dee9518	0.11649531
37	0x3f1ed32c	0.6204097
38	0x3e283180	0.16425133
39	0x3ed9b544	0.42521107
40	0xbd2c30bb	-0.04203866
41	0xbe779778	-0.24178874
42	0x3d93460f	0.07191097
43	0x3eb8a325	0.3606197
44	0xbe82af70	-0.25524473
45	0xbd33bcef	-0.043881353
46	0xbd21312a	-0.039353527
47	0xbf86e9e9	-1.0540134
48	0xbe9b1dff	-0.30296323
49	0x3ec4795d	0.38373843
50	0xbd81e3ef	-0.06342303
51	0xbddb58d4	-0.10710302
52	0x3d5cb222	0.05388082
53	0x3e7a913b	0.24469464
54	0xbc72747d	-0.014798281
55	0x3e600acb	0.21879117
56	0x3cbacd8d	0.022803092
57	0x3d5922cc	0.0530117
58	0xbf7d3c69	-0.98920304
59	0xbe1d6e79	-0.15374173
60	0x3e8f31d8	0.27967715
61	0xbc54b5a8	-0.012982763
62	0xbd43b0d2	-0.04777605
63	0x3dd81039	0.10549969
64	0xbe963f3f	-0.29345128
65	0x3c9b75ce	0.018977072
66	0xbdbdf986	-0.092761084
67	0x3f756b50	0.9586687
68	0xbb732ff2	-0.0037107435
69	0xbe62c2c2	-0.22144607
70	0xbe3cde98	-0.18444288
71	0x3e9485a9	0.29008225
72	0xbdb8bf64	-0.0902088
73	0xbce4ebf6	-0.027944546
74	0x3ef08277	0.46974537
75	0xbe095326	-0.13410625
76	0x3bd3fd51	0.0064694067
77	0xbd91f778	-0.07127279
78	0xbb4172ea	-0.0029517957
79	0x3ecb17a4	0.39666474
80	0xbeebec2e	-0.46078628
81	0xbd3d0187	-0.046144035
82	0x3f9b8f32	1.2153075
83	0x3f1ebc4b	0.6200606
84	0xbec28aaa	-0.37996417
85	0x3e7d0b46	0.24711332
86	0xbf299ac1	-0.6625176
87	0x3d53d384	0.05171539
88	0xbe111a29	-0.14170136
89	0xbd44350e	-0.04790216
90	0x3efbc0d8	0.49170566
91	0xbf01fda9	-0.5077768
92	0x3eddb27e	0.4330024
93	0xbb1b5d3c	-0.0023706695
94	0x3ef1fce2	0.47263247
95	0xbcb52435	-0.022111991
96	0x3f511c2d	0.8168362
97	0xbe24fe45	-0.16112621
98	0xbd2b6e42	-0.041853197
99	0xbebfeabb	-0.37483773
100	0x3efd1cdd	0.49436083
101	0x3ea8b9f7	0.3295438
102	0x3de1d80f	0.11027538
103	0x3e020d15	0.12700303
104	0x3d7750a0	0.060379624
105	0xbd02cd0a	-0.03193382
106	0x3d90697d	0.0705137
107	0x3d118de5	0.03553571
108	0x3dd8e798	0.10591048
109	0x3edd823e	0.4326343
110	0x3d7a70c2	0.06114269
111	0xbec86455	-0.39139047
112	0xbdfccd6c	-0.123438686
113	0xbe139ba7	-0.14414845
114	0xbdc88523	-0.09791019
115	0xbe1de88e	-0.15420744
116	0x3dd1b3e9	0.10239393
117	0x3cfe3614	0.031031646
118	0xbdd3a0ca	-0.103334025
119	0xbca77d32	-0.02044544
120	0x3d2cebb6	0.04221698
121	0x3dd2d73e	0.102949604
122	0x3f0757be	0.5286826
123	0xbd88ab97	-0.06673353
124	0xbe1c723c	-0.15277952
125	0xbf6bc6ee	-0.9210042
126	0x3f976af1	1.1829511
127	0xbef41a45	-0.47676292

fc2.weight f4 [128, 128]
0	0xbe061efd	-0.13097759
1	0xbb0f470b	-0.0021862413
2	0xbda29bb4	-0.07939854
3	0x3da9e1da	0.08295031
4	0x3cc88301	0.02447653
5	0x3df77a5d	0.12083886
6	0xbce0d48a	-0.027445097
7	0xbdd320b3	-0.10308971
8	0xbe4a0a21	-0.19730426
9	0xbd079279	-0.03309867
10	0x3d743607	0.059621837
11	0xbd7c3f0f	-0.061583575
12	0x3cebcb9b	0.02878361
13	0xbd12b8a8	-0.035820633
14	0xbdaa1557	-0.083048515
15	0xbdcceaf4	-0.10005751
16	0xbd4ed88f	-0.050499495
17	0x3d7f3aad	0.062311817
18	0xbdcd89eb	-0.100360714
19	0xbe31bff3	-0.17358379
20	0xbd781e6e	-0.060575895
21	0xbdccb9f2	-0.09996404
22	0xbd1a31fb	-0.03764532
23	0xbd2802ad	-0.041018177
24	0x3cc98e33	0.024603939
25	0xbc8ccf15	-0.017188588
26	0xbcb9a478	-0.022661433
27	0x3d501440	0.050800562
28	0xbd2bbc89	-0.041927848
29	0xbe31648e	-0.17323515
30	0xbdb69f3c	-0.0891709
31	0xbd63e983	-0.055642616
32	0xb96a4e74	-0.00022345205
33	0x3bab3b46	0.005225572
34	0xbd17c205	-0.037050266
35	0x3d5d0660	0.053961158
36	0xbe10e5be	-0.1415014
37	0x3d80e99d	0.06294558
38	0xbc4a211e	-0.012336997
39	0xbdf3596f	-0.118822925
40	0xbb6d91b1	-0.003625017
41	0x3a2b122f	0.0006525842
42	0xbd94d185	-0.07266525
43	0x3d223767	0.039603617
44	0x3d5bd773	0.053672265
45	0xbd91acc5	-0.07113031
46	0x3d129583	0.035787117
47	0x3c6d6fbc	0.014491972
48	0x3d368228	0.04455772
49	0x3c938b81	0.018010857
50	0xbd7c5429	-0.0616037
51	0xbdb4e5e1	-0.088329084
52	0xbcd6d905	-0.02622653
53	0x3d1645d6	0.036687694
54	0xbc849337	-0.016183479
55	0xbaaa73b7	-0.0013004456
56	0xbca7c930	-0.020481676
57	0x3b299f9a	0.0025882483
58	0x3c95c580	0.018282652
59	0xbd429a53	-0.047510456
60	0xbdbf7bb4	-0.093497664
61	0xbd2a297d	-0.041543473
62	0xbd267f80	-0.040648937
63	0x3dab0b68	0.08351785
64	0x3d108a21	0.03528798
65	0xb892fb3c	-7.0086186e-05
66	0xbdd0e94d	-0.102007486
67	0xbd28c392	-0.041202135
68	0x3d615675	0.055014092
69	0xbd97c7d2	-0.074111596
70	0xbe49176f	-0.19637845
71	0xbdcbaff3	-0.09945669
72	0x3d122eaa	0.035689034
73	0xbd915d3c	-0.07097861
74	0xbd15020c	-0.036378905
75	0xbdcce531	-0.10004652
76	0xbcf5158f	-0.029917507
77	0x3bd53631	0.0065067043
78	0x3d727d8e	0.05920177
79	0x3d014af8	0.031565636
80	0x3d4c3c2d	0.049862076
81	0xbd6a9d84	-0.057279125
82	0x3d50163c	0.050802454
83	0x3dd70c8a	0.105004385
84	0xbd94d8dc	-0.07267925
85	0xbe022802	-0.12710574
86	0xbd019760	-0.031638503
87	0xbd860751	-0.06544364
88	0xbd45ec17	-0.048320856
89	0x3da79348	0.081823885
90	0x3c329898	0.010900639
91	0x3cd2beeb	0.025725802
92	0x3d197a21	0.037469987
93	0x3db5d57c	0.088786095
94	0xbdb1021b	-0.0864298
95	0xbce5f764	-0.028072067
96	0xbd2b3cd0	-0.041806042
97	0xbcd028bb	-0.025410047
98	0xbd94bbd1	-0.07262386
99	0xbd80d88f	-0.06291305
100	0xbdd53759	-0.10410947
101	0xbd9b55ff	-0.07584762
102	0xbcf935e8	-0.030421212
103	0x3d658eec	0.056044504
104	0x3c85c1d1	0.01632777
105	0xbd8e30b5	-0.06942884
106	0xbbc39763	-0.0059689744
107	0x3c831d81	0.01600528
108	0x3d162e5b	0.0366653
109	0xbdaf6ce0	-0.08565688
110	0xbd1450e6	-0.036209963
111	0x3cba02bd	0.022706384
112	0xbe096fd7	-0.1342157
113	0x3d7ea3c5	0.0621679
114	0xbc3ece72	-0.0116459
115	0xbd7d43d9	-0.061832283
116	0xbcd65ac5	-0.02616633
117	0x3a81fff2	0.0009918197
118	0xbdac6940	-0.08418512
119	0xbd546abe	-0.05185961
120	0xbbbdbdff	-0.0057904716
121	0x3d6eb890	0.05828148
122	0x3c0dcbe0	0.008654565
123	0xbe7a1acf	-0.24424289
124	0x3c55b6d5	0.013044079
125	0x3d14fb6a	0.03637258
126	0xbdd2c6ec	-0.102918476
127	0xbd9c250f	-0.07624256
128	0xbdd654df	-0.104654066
129	0xbd7c9bdd	-0.06167208
130	0xbc838ec0	-0.01605928
131	0xbce1bc9c	-0.027555756
132	0xbc81935f	-0.015817342
133	0x3d85b492	0.06528582
134	0xbd07e358	-0.033175796
135	0xbd7464bf	-0.05966639
136	0x3d3bfb5a	0.045894004
137	0x3d0608fc	0.032723412
138	0x3d65f3ee	0.056140833
139	0xbd7a25e5	-0.061071295
140	0xbd4f312d	-0.050584007
141	0xbd296fd7	-0.041366424
142	0xbcb77f49	-0.022399561
143	0xbdc132b1	-0.09433497
144	0xbd5fd7e9	-0.054649267
145	0xbd584ac8	-0.052805692
146	0xbbcb57f7	-0.0062055546
147	0xbdb1fc94	-0.086907536
148	0x3ce391e3	0.027779525
149	0xbb308c44	-0.0026939074
150	0xbcdb37d1	-0.026760014
151	0x3d5893b0	0.05287522
152	0x3d76dea7	0.06027093
153	0xbd8b4814	-0.06800857
154	0x3b251fe7	0.0025196017
155	0x39eab2dd	0.00044765222
156	0xbc924c5b	-0.017858675
157	0x3d5bf130	0.05369681
158	0xbda7336f	-0.08164107
159	0x3d62a3b4	0.0553319
160	0x3d2ccdfb	0.042188626
161	0x3b4b1360	0.003098689
162	0xbd27b8ce	-0.040947728
163	0xbb898257	-0.004196446
164	0xbd9027de	-0.07038854
165	0xbe1b428b	-0.15162103
166	0x3d94d748	0.07267624
167	0xbd930f87	-0.07180696
168	0xbd7f441f	-0.062320825
169	0xbd6c4165	-0.057679553
170	0xbd1e78c0	-0.038689375
171	0xbc3717fd	-0.011175153
172	0xbe0aa877	-0.13540827
173	0xbd73b665	-0.059500117
174	0xbdab3297	-0.083592586
175	0x3cf02d64	0.029318519
176	0x3d16c01f	0.036804315
177	0xbd17c418	-0.037052244
178	0xb93c1ccd	-0.00017939806
179	0xbd0a8d10	-0.033825934
180	0x3d6fc98d	0.058541823
181	0xbd8f0867	-0.069840245
182	0xbce8c0f8	-0.028412327
183	0x3d8b5c93	0.068047665
184	0xbd9ef947	-0.0776239
185	0xbd66a365	-0.05630817
186	0xbd8e0536	-0.06934588
187	0x3b90e411	0.004421719
188	0xbd88edb0	-0.0668596
189	0xbce93d33	-0.028471565
190	0xbd680f88	-0.056655437
191	0xbd558f92	-0.052138872
192	0x3d0ace98	0.03388843
193	0xbc286259	-0.010277354
194	0xbdea1a6f	-0.11430823
195	0xbd679779	-0.05654094
196	0xbd56dee8	-0.052458674
197	0x3c263b95	0.010146041
198	0x3c09e7b9	0.008417063
199	0xbd8ea4c1	-0.06965018
200	0xbdcce068	-0.100037396
201	0x3d4cba8b	0.04998259
202	0xbd29dcab	-0.04147021
203	0xbd9215f0	-0.071330905
204	0x3d781f61	0.0605768
205	0xbd9305c5	-0.07178835
206	0x3bfd3150	0.007726826
207	0x3cd79d48	0.026320115
208	0xbd9532f4	-0.07285109
209	0xbd83ebdf	-0.06441473
210	0xbd9ff8df	-0.0781114
211	0x3c8b3037	0.016990764
212	0x3c9eb41c	0.019372992
213	0xbc925c5a	-0.017866302
214	0x3d4e76c6	0.05040624
215	0xbd8174a4	-0.063210756
216	0x3d0b018f	0.033937033
217	0xbd4d6e1e	-0.050153844
218	0xbc8f0c8f	-0.017462043
219	0x3d1c38be	0.03814005
220	0xbd3d6bde	-0.04624545
221	0x3cc0e28c	0.023545526
222	0x3c4a17ac	0.012334745
223	0x3dace91e	0.08442901
224	0xbdb9e002	-0.09075929
225	0x3d3722ea	0.04471103
226	0x3d94741b	0.07248708
227	0xbd6ded02	-0.058087356
228	0xbd06862e	-0.032842807
229	0xbc81ece9	-0.015860038
230	0xbd96d9d2	-0.07365765
231	0x3cb295db	0.021799972
232	0xbc23ce86	-0.0099979695
233	0xbdaaaebe	-0.08334111
234	0xbd180503	-0.037114155
235	0xbdbbabf1	-0.091636546
236	0x3cf15374	0.029458739
237	0xbdfadbea	-0.122489765
238	0x3d2811ef	0.041032728
239	0xbcfbe777	-0.03075002
240	0xbd5a85f0	-0.05335039
241	0x3ccc56f7	0.024943812
242	0x3d36f53c	0.044667467
243	0x3cc041b8	0.023468837
244	0xbdee970e	-0.11649905
245	0xbd9140bb	-0.070924245
246	0x3d085ac7	0.033289697
247	0x3cb965e0	0.022631586
248	0xbd05bba5	-0.032649655
249	0x3afaee8e	0.0019144581
250	0xbdaf673e	-0.08564614
251	0x3c4863cf	0.0122308275
252	0x3d6f4336	0.058413707
253	0xbbc9814c	-0.0061494466
254	0xbd622a17	-0.05521592
255	0x3d9c8fb9	0.076446004

fc2.bias f4 [128]
0	0xbd51b467	-0.051197436
1	0xbd4e1a43	-0.050318014
2	0xbc98ae9d	-0.01863795
3	0xbd2f487b	-0.042793732
4	0xbd4910b5	-0.0490882
5	0x3fe7ffdf	1.8124961
6	0x3b806c6d	0.0039191754
7	0x3fb816ad	1.438192
8	0xbd92d884	-0.07170203
9	0xbd70f4ba	-0.05882714
10	0xbe13afa0	-0.14422464
11	0xbdb3bb56	-0.08775966
12	0xbe30e881	-0.17276193
13	0x3ea15523	0.31510267
14	0xbd09c867	-0.033638384
15	0xbc05a6e4	-0.008157466
16	0xbd980df2	-0.07424535
17	0x3f06d1fe	0.5266417
18	0xbe1bf3a5	-0.15229662
19	0xbd26ed4e	-0.040753655
20	0x3ca6ca6d	0.020360196
21	0x3f00ccee	0.503127
22	0x3dbda8db	0.09260722
23	0xbd2f75a0	-0.042836785
24	0x3f5ad8db	0.85487145
25	0xbde18f0b	-0.110136114
26	0xbd34caa6	-0.044138573
27	0x3e87bd01	0.26511386
28	0xbc7c92a6	-0.015415823
29	0x3f48af94	0.7839291
30	0xbd9862de	-0.074407324
31	0xbda5c125	-0.0809348
32	0xbdac2798	-0.084059894
33	0x3d8be650	0.06831038
34	0xbddd70a0	-0.10812497
35	0xbd01c34d	-0.031680394
36	0xbdc22789	-0.09480197
37	0xbc1a492d	-0.0094168605
38	0x3f151289	0.5823141
39	0xbcba8325	-0.022767613
40	0xbe229077	-0.15875421
41	0xbdf88e40	-0.12136507
42	0x3f95b0f5	1.1694628
43	0xbddf8b6b	-0.10915264
44	0xbe256afb	-0.16154091
45	0xbd4cfa49	-0.050043378
46	0xbdc33b69	-0.09532816
47	0xbcf5b3ab	-0.029992899
48	0xbd89557f	-0.0670576
49	0x3f392ee3	0.7233717
50	0xbde06de4	-0.1095846
51	0xbcc9a1cf	-0.02461329
52	0xbdd57ac4	-0.10423806
53	0x3cbe2824	0.0232125
54	0x3f9812f5	1.1880785
55	0xbce6c380	-0.028169394
56	0xbd8aba1c	-0.06773779
57	0xbd40814b	-0.046998303
58	0xbd481b1b	-0.048853975
59	0xbd9ff642	-0.07810642
60	0xbe1a27be	-0.15054223
61	0xbdaa0c45	-0.083031215
62	0x3d930a4b	0.071796976
63	0xbda3db4d	-0.08000813
64	0x3f0c664c	0.5484359
65	0xbe2b5298	-0.16730726
66	0xbe103d26	-0.14085826
67	0x3eda59ad	0.42646542
68	0xbd411161	-0.047135714
69	0x3dd30b2c	0.10304865
70	0x3f9028ba	1.1262429
71	0x3f93b62d	1.1539971
72	0xbe18c853	-0.14920168
73	0x3e9e775d	0.30950442
74	0x3d50ddf5	0.050992925
75	0x3f497fe5	0.78710777
76	0xbddfbd11	-0.109247334
77	0xbdeb76f2	-0.114972964
78	0x3fc3e6ec	1.5304847
79	0xbd4d12a7	-0.050066616
80	0x3f8d1924	1.1023297
81	0xbcb79fca	-0.02241506
82	0xbe094fb0	-0.13409305
83	0xbd298466	-0.04138603
84	0x3f5a613c	0.8530462
85	0xbdea2ee0	-0.11434722
86	0xbca2d67a	-0.019877661
87	0xbdf6d9f1	-0.12053288
88	0x3fc9f4ae	1.5777795
89	0xbd94420a	-0.072391585
90	0xbd7b58cc	-0.06136398
91	0xbcab2842	-0.02089322
92	0x3f4588c2	0.771618
93	0xbcf29586	-0.029612314
94	0x3e882cc2	0.26596648
95	0xbe42ec1c	-0.19035381
96	0xbd4a1087	-0.049332168
97	0xbadde697	-0.0016929683
98	0xbd25e35b	-0.040500026
99	0x3fa10f20	1.2582741
100	0x3cfcf324	0.030877657
101	0xbe39b29a	-0.18134537
102	0xbe3411a0	-0.17584848
103	0x3fe3739c	1.7769656
104	0x3f992de3	1.1967129
105	0x3f5c9c33	0.8617584
106	0x3d88f8c4	0.06688073
107	0x3f729d10	0.9477091
108	0x3d9f2a96	0.077717945
109	0xbcf07b1f	-0.029355584
110	0x3d274a30	0.040842235
111	0x3cbcec99	0.023062037
112	0xbe112b7e	-0.14176747
113	0xbda226ac	-0.07917532
114	0xbd11b406	-0.035572074
115	0x3fbdd3e4	1.4830289
116	0x3fadcc9e	1.3578069
117	0xbdb6ad44	-0.089197665
118	0x3bd9bd31	0.006644868
119	0x3e901967	0.2814438
120	0xbe0d6291	-0.13807131
121	0xbdf45442	-0.119301334
122	0xbdf40861	-0.11915661
123	0xbe342d50	-0.1759541
124	0x3f08c5dd	0.53426915
125	0xbdca4c71	-0.09877861
126	0x3d650d9e	0.05592119
127	0xbe301193	-0.17194204

fc3.weight f4 [5, 128]
0	0x3d711125	0.05885424
1	0xbc78a5fc	-0.0151762925
2	0xbeb72cb4	-0.35776293
3	0x3ba24658	0.0049522333
4	0xbc50b423	-0.01273826
5	0x3efe7168	0.49695897
6	0xbca35ec0	-0.019942641
7	0x3f1893a1	0.59600264
8	0x3e932127	0.2873623
9	0x3cb323b2	0.021867607
10	0xbc6dd670	-0.014516458
11	0xbc031255	-0.007999976
12	0xba688083	-0.00088692474
13	0xbe5b1e66	-0.21398315
14	0x3d8d6236	0.06903498
15	0xbeae3a84	-0.3402902
16	0xbd24554f	-0.04012042
17	0x3e7a3208	0.24433148
18	0x3d5cc1fa	0.053895928
19	0x3cde9ff8	0.027175888
20	0x3d643d47	0.0557225
21	0x3efdfa48	0.49605012
22	0x3e261d94	0.1622222
23	0x3d14dc79	0.03634307
24	0x3dfe6a94	0.12422672
25	0x3e91df71	0.28490785
26	0xbcaa5b71	-0.020795556
27	0x3e9de436	0.30838174
28	0xbd2f40b4	-0.042786315
29	0x3f1539ca	0.58291304
30	0x3c2fdeab	0.0107342405
31	0x3cccae39	0.02498542
32	0xbc1a58d7	-0.009420595
33	0x3dc0092a	0.09376748
34	0x3d994b93	0.07485118
35	0x3d8d30cb	0.06894072
36	0x3c489fa4	0.012245093
37	0x3bb594d2	0.0055414224
38	0x3e9afb96	0.3027007
39	0x3d7c6d43	0.061627638
40	0x3e88fba3	0.26754484
41	0x3d3a38b1	0.04546422
42	0x3f11d43c	0.5696447
43	0xbd75bada	-0.05999265
44	0x3d7eb54f	0.062184628
45	0x3c698ee7	0.014255262
46	0x3cf94f38	0.030433282
47	0x3caf982d	0.021434868
48	0xbd3c9928	-0.0460445
49	0x3f03c3d0	0.5147066
50	0x3e79cd70	0.24394774
51	0xbcbeb2dc	-0.023278646
52	0xbced0df9	-0.028937327
53	0x3d86763f	0.065655224
54	0x3ed37754	0.41301978
55	0xbda003bb	-0.078132115
56	0x3b758cf1	0.003746804
57	0xbf2133d4	-0.6296971
58	0x3cdd8e52	0.027045403
59	0xbcc65736	-0.024211507
60	0x3d81fdb9	0.06347222
61	0xbddca861	-0.10774303
62	0x3d982f17	0.07430857
63	0xbd118a23	-0.035532128
64	0x3ed686c8	0.41899705
65	0xbc27bc3c	-0.01023775
66	0x3c2aad8b	0.010417352
67	0x3e264252	0.16236237
68	0x3ca9486a	0.020664413
69	0xbead4666	-0.33842772
70	0x3ea6e1ad	0.32594052
71	0x3ee85d6b	0.45383772
72	0x3c869bda	0.016431738
73	0xbd214a27	-0.039377358
74	0xbc8791fe	-0.016549107
75	0x3d859fd2	0.06524624
76	0x3d310b3f	0.043223616
77	0xbc3b44d0	-0.01142998
78	0x3f1456f9	0.5794521
79	0x3cfe5426	0.031045984
80	0x3f1bc740	0.60850906
81	0x3de2cee2	0.11074616
82	0xbce4760d	-0.027888322
83	0xbcaad3da	-0.020852972
84	0x3f137de4	0.5761397
85	0xbcad454b	-0.021151206
86	0x3b3401dc	0.0027466929
87	0x3e1492ea	0.14509168
88	0x3f1aef29	0.6052118
89	0x3c99c353	0.018769896
90	0xbdf020b7	-0.1172499
91	0x3cf57d31	0.029966922
92	0x3f0685ea	0.52548087
93	0x3cd54ede	0.026038583
94	0x3ef90685	0.48637787
95	0x3d81157d	0.06302927
96	0xbd468601	-0.04846764
97	0xbab4b2a1	-0.0013786146
98	0x3e44d118	0.19220388
99	0x3ed623ac	0.4182409
100	0xbeab1714	-0.33416045
101	0xbd708aed	-0.05872624
102	0xbce5acec	-0.028036557
103	0x3f27b33a	0.65507853
104	0x3ef5ed50	0.48032618
105	0x3e9bc71d	0.3042535
106	0xbea67341	-0.32509807
107	0x3eb6d7f6	0.3571164
108	0x3e427ab0	0.18992114
109	0x3d426308	0.047457725
110	0xbbb5d951	-0.005549588
111	0xbc504e1d	-0.012713936
112	0x3dec9d2f	0.11553418
113	0x3e674876	0.22586235
114	0x3db2b1e0	0.08725333
115	0x3ec0a825	0.37628284
116	0x3eb881c9	0.36036518
117	0xba1158ca	-0.00055445416
118	0xbccd9ca0	-0.025099099
119	0x3d0f1a8d	0.03493743
120	0xbc211a52	-0.009832935
121	0x3bd55abc	0.0065110605
122	0xbd32b1a7	-0.043626454
123	0xbd30dda0	-0.043180108
124	0x3e4f0a12	0.20218685
125	0x3bd6f994	0.0065605137
126	0x3e2a707a	0.16644469
127	0xbc5b5b6b	-0.013388495
128	0x3c8a2c18	0.016866729
129	0x39fb8ab5	0.00047977795
130	0xbef27eb1	-0.47362283
131	0x3d26e742	0.04074789
132	0xbe53110a	-0.20611969
133	0x3f0a22cd	0.5395935
134	0x3d901a79	0.07036299
135	0x3f20cc1e	0.6281146
136	0x3ec8ae49	0.3919547
137	0xbd7d3015	-0.061813433
138	0xbc9bf050	-0.019035488
139	0xbc52e81a	-0.01287272
140	0x3c67e617	0.014153979
141	0xbe562b9e	-0.20915076
142	0x3c3f547a	0.011677856
143	0xbeba62e8	-0.36403584
144	0x3c8c5012	0.017128024
145	0x3d813280	0.0630846
146	0x3dadfcfb	0.08495518
147	0xbd62b281	-0.055346016
148	0x3d5eea32	0.054422565
149	0x3ed67d75	0.4189259
150	0x3d8fa238	0.07013363
151	0xbdac8097	-0.08422964
152	0x3e6cbd10	0.23118997
153	0x3e6cde69	0.23131718
154	0xbcfe7b8a	-0.031064767
155	0x3e9d1ee4	0.3068763
156	0xbbeb0190	-0.007171817
157	0x3f1907e7	0.59777683
158	0x3d9088c6	0.070573375
159	0x3b4ebdc1	0.0031546208
160	0x3cf7564f	0.030192522
161	0x3e17ee67	0.14837037
162	0x3d565520	0.052327275
163	0xbe503761	-0.20333625
164	0x3d464a43	0.048410665
165	0x3d484a7a	0.04889915
166	0x3eb83a31	0.35981897
167	0xbdc0225b	-0.09381553
168	0xba754b83	-0.00093572604
169	0xbc1eae53	-0.009685117
170	0x3eec2803	0.46124277
171	0xbd0591d7	-0.032609787
172	0x3c5eaa49	0.013590404
173	0xbb6352d3	-0.0034686818
174	0x3cc493fe	0.02399635
175	0x3d2179af	0.039422687
176	0xbd7d270d	-0.06180482
177	0x3ee3f1c7	0.445204
178	0x3cb363fb	0.02189826
179	0x3d93a518	0.072092235
180	0xbc152c9f	-0.009104877
181	0xbe33ea94	-0.17569953
182	0x3ed7a15a	0.4211529
183	0xbd2f6c7d	-0.04282807
184	0x3ce4475c	0.027866058
185	0xbf0bd235	-0.54617625
186	0xbd481be0	-0.04885471
187	0x3da00d21	0.07815004
188	0x3c684dae	0.0141786765
189	0xbe046999	-0.12930907
190	0x3dbef817	0.09324663
191	0x3d17865a	0.036993362
192	0x3e940c51	0.28915647
193	0x3d535aab	0.05160014
194	0x3d5a12c3	0.05324055
195	0x3d1e9e4b	0.03872518
196	0x3cf528d3	0.029926693
197	0xbebc2149	-0.36744145
198	0x3ea71d5e	0.32639593
199	0x3eefb267	0.46815798
200	0xbd44fc7c	-0.04809235
201	0x3e2069ac	0.1566531
202	0xbdb90d7d	-0.09035776
203	0x3dfe45e7	0.124156766
204	0x3cea2d22	0.028585974
205	0x3ac4c332	0.0015011786
206	0x3f130b8b	0.5743949
207	0xbda36ff8	-0.07980341
208	0x3f3114bb	0.6917226
209	0xbd47dfd2	-0.048797436
210	0x3cc6c2f7	0.024262888
211	0x3d20d110	0.039261878
212	0x3edd98b8	0.43280578
213	0xbc4bc61a	-0.012437368
214	0xbdbceae7	-0.092244916
215	0x3cb71f9e	0.022353943
216	0x3f11fe36	0.5702852
217	0x3dbb90dc	0.09158489
218	0x3c050a48	0.008120127
219	0x3d6cda51	0.05782539
220	0x3f082414	0.5318005
221	0x3da30726	0.07960348
222	0x3edbb6d8	0.42912936
223	0xbc51edf3	-0.012813079
224	0x3cfc9fb5	0.030837873
225	0x3c55b0bd	0.013042626
226	0x3dc25e22	0.09490611
227	0x3ecbcf88	0.3980677
228	0xbe78c9d7	-0.24295746
229	0x3e36fa3d	0.17868896
230	0xbdb9f9ca	-0.090808466
231	0x3f1bc3e5	0.60845786
232	0x3f1a4a3d	0.6026953
233	0x3e9b4231	0.30323938
234	0xbea263e9	-0.3171685
235	0x3e789239	0.2427453
236	0x3e9f6523	0.3113185
237	0xbce96b68	-0.028493598
238	0x3ca9777d	0.02068686
239	0x3d70db8e	0.058803134
240	0xbc8b8a95	-0.017033854
241	0x3de825c4	0.11335328
242	0x3b7f90b3	0.003899616
243	0x3eb74e94	0.35802138
244	0x3ec0a912	0.3762899
245	0xbd1015fe	-0.035177223
246	0xbd626c00	-0.055278778
247	0xbcb5fcfb	-0.022215357
248	0xbc8495ea	-0.016184766
249	0xbc885671	-0.016642781
250	0xbc4ad780	-0.012380481
251	0x3ce2dae5	0.027692268
252	0x3e87706f	0.26452968
253	0x3d187692	0.037222452
254	0x3e823e1a	0.25438005
255	0x3d37d4a0	0.04488051

fc3.bias f4 [5]
0	0x3ea1edfa	0.31626874
1	0x3e88b354	0.26699317
2	0x3f1c7e32	0.6113006
3	0x3f5fe18c	0.8745353
4	0x3fa91ab3	1.3211273
