dqn_motor_control.pth (torch, 96599 bytes, 6 tensors)

fc1.weight f4 [128, 50]
-0.081092544 0.16284429 0.72903174 -0.0810272 -0.78231436 -0.108384594 -0.01660025 0.6721723
-0.20000564 -0.7591745 0.05205292 -0.09422004 0.70994025 -0.07137047 -0.827472 -0.10373088
0.108460955 0.7755418 -0.19308738 -0.77743465 -0.21195067 -0.087738276 1.0079936 -0.17076081
-0.7317938 -0.13321468 -0.3773671 1.0224614 0.03836557 0.081244 -0.22879663 -0.006533056
0.9079114 -0.07054518 -0.49464074 -0.122243315 0.23743252 1.0623734 -0.30430636 -0.59051055
0.30443454 0.09910957 0.9008018 -0.2674359 -0.29912293 -0.089702696 -3.0075758 1.0713527
-0.09887876 0.63653207 0.106468484 -0.22968878 2.0417235 1.368752 -0.038606018 0.19308443
-0.09917327 2.0387542 1.5097572 -0.10847401 0.3016832 -0.27992615 2.151462 1.3542587
-0.36072508 0.16304605 -0.24374178 2.1323195 1.2708443 -0.46278992 0.13920875 -0.34575707
2.0460978 1.2257385 -0.5402943 0.21771173 -0.16720523 2.1816607 1.0992359 -0.675518
0.053612262 -0.19903971 2.196688 1.1288352 -0.57304245 -0.053657185 -0.29056692 2.0487914
1.1231381 -0.7257377 -0.33729228 -0.47992766 2.2543855 0.79337996 -1.8010961 -0.52035356
-0.6457126 2.0267308 0.65297973 -1.6683118 -0.056704145 0.13693002 0.65779966 -1.3814645
-1.7733057 -0.03514235 0.017871598 0.81322694 -1.60764 -1.6693977 -0.006250315 -0.03095346
0.97972596 -1.5519081 -2.0438447 0.28791863 0.039828837 1.0345066 -1.5690137 -1.8756626
0.22117664 -0.16718705 1.1766107 -1.5508375 -1.8021077 0.37834254 -0.22142185 1.2169185
-1.4435005 -2.0124671 0.48044315 -0.2967236 1.1934042 -1.6217078 -2.4513109 0.32421997
-0.38013583 1.2135326 -1.3834393 -2.167469 0.18904714 -0.19029829 1.5011634 -1.6736529
-1.9936086 -0.33588707 0.22803435 1.5788223 -1.5195357 -1.3038818 0.25811446 0.2856336
1.5602268 -0.16650005 -0.77895486 -0.0003119886 0.16483192 1.2639024 -0.056840293 -1.0008993
0.2672529 0.011090564 1.2449093 -0.10321645 -1.0941368 0.17791189 -0.20958191 1.2421024
-0.12805285 -0.9959893 0.37038824 0.04210027 1.0840601 -0.29125017 -1.4205155 0.25605208
0.30432028 0.9317864 -0.4281658 -1.4829155 0.026401777 -0.0077763093 0.8094493 -0.421067
-1.30398 -0.03864444 0.058027346 0.6084616 -0.35179523 -1.451415 -0.23393475 -0.0745823
0.7215592 -0.47546014 -1.5868343 -0.13295457 -0.8011824 0.64264435 -0.44587025 -1.4311634
-0.12076628 0.0038386518 1.0955644 -0.26525986 -1.7911487 0.07467367 0.04886403 1.0280693
-0.3813743 -1.8948474 0.17790799 -0.107149735 1.0160872 -0.20567115 -1.8731632 -0.024314772
-0.07652801 0.78250515 -0.22020307 -1.7951703 0.2555245 -0.14312322 0.7292889 -0.2981891
-1.4151484 0.3736208 -0.013506232 0.8606808 -0.47027963 -1.1676311 0.5995127 -0.27818733
0.6195857 -0.38437736 -1.3180928 0.6732423 -0.1411647 0.80153453 -0.2864542 -1.3046538
0.6335852 -0.02511514 0.6054387 -0.29441702 -1.4175311 -1.9526082 0.20726113 0.43006945
-0.3252899 -2.160712 -0.099012546 -0.2218387 -2.58314 0.27785808 0.1622711 -0.003516311
00000000: d913 a6bd a7c0 263e d3a1 3a3f 97f1 a5bd
00000010: c145 48bf bef8 ddbd 3ffd 87bc 7c13 2c3f
00000020: 47ce 4cbe 4359 42bf 7135 553d 70f6 c0bd
00000030: a5be 353f ae2a 92bd 34d5 53bf db70 d4bd
00000040: c720 de3d e889 463f b3b8 45be f505 47bf
00000050: 9909 59be 20b0 b3bd ef05 813f ecdb 2ebe
00000060: d756 3bbf 6e69 08be 4336 c1be 04e0 823f
00000070: 3725 1d3d 4163 a63d aa49 6abe 3f13 d6bb
00000080: e26c 683f fe79 90bd 8d41 fdbe b45a fabd
00000090: 8321 733e dafb 873f 0bce 9bbe b32b 17bf
000000a0: d8de 9b3e f5f9 ca3d f29a 663f 5ced 88be
000000b0: a426 99be 0cb6 b7bd 1f7c 40c0 1622 893f
000000c0: f380 cabd c4f3 223f 260c da3d 8933 6bbe
000000d0: 99ab 0240 4433 af3f 5821 1ebd edb7 453e
000000e0: 5b1b cbbd f37a 0240 b93f c13f 9f27 debd
000000f0: 3876 9a3e 7b52 8fbe 8eb1 0940 5958 ad3f
00000100: f5b0 b8be 8bf5 263e 7297 79be ec77 0840
00000110: 07ab a23f cdf2 ecbe bd8c 0e3e 1207 b1be
00000120: 44f3 0240 00e5 9c3f ba50 0abf d3ef 5e3e
00000130: d937 2bbe 54a0 0b40 c3b3 8c3f bfee 2cbf
00000140: 8898 5b3d 11d1 4bbe 8996 0c40 ac7d 903f
00000150: e9b2 12bf a3c7 5bbd 30c5 94be 661f 0340
00000160: fdc2 8f3f f2c9 39bf 93b1 acbe 14b9 f5be
00000170: da47 1040 f31a 4b3f 518a e6bf e435 05bf
00000180: 6c4d 25bf f5b5 0140 ae29 273f 3e8b d5bf
00000190: 9b42 68bd 6237 0c3e 8f65 283f d4d3 b0bf
000001a0: aefb e2bf 6df1 0fbd 7567 923c a42f 503f
000001b0: 26c7 cdbf d3ae d5bf 71cf ccbb 1c92 fdbc
000001c0: 52cf 7a3f eda4 c6bf 5ace 02c0 126a 933e
000001d0: 9023 233d b66a 843f 71d5 c8bf b615 f0bf
000001e0: 217c 623e 1533 2bbe 2e9b 963f d881 c6bf
000001f0: 77ab e6bf 1db6 c13e 69bc 62be fcc3 9b3f
00000200: a0c4 b8bf 43cc 00c0 a5fc f53e 28ec 97be
00000210: 78c1 983f 1f94 cfbf 47e2 1cc0 2900 a63e
00000220: 2aa1 c2be 0955 9b3f 8a14 b1bf d0b7 0ac0
00000230: 9395 413e 8edd 42be 1f26 c03f 423a d6bf
00000240: 912e ffbf 64f9 abbe d681 693e d916 ca3f
00000250: 2580 c2bf 99e5 a6bf 9427 843e 913e 923e
00000260: 83b5 c73f fd7e 2abe 9669 47bf 6792 a3b9
00000270: b3c9 283e 8ec7 a13f 5ed1 68bd 781d 80bf
00000280: 5fd5 883e 32b5 353c 3059 9f3f 2563 d3bd
00000290: ad0c 8cbf 892e 363e a49c 56be 36fd 9e3f
000002a0: 4920 03be 28f9 7ebf 87a3 bd3e 5571 2c3d
000002b0: 7bc2 8a3f be1e 95be 74d3 b5bf 4219 833e
000002c0: decf 9b3e 8e89 6e3f 8c38 dbbe 2dd0 bdbf
000002d0: 8a48 d83c 69d0 febb 1238 4f3f 1896 d7be
000002e0: d1e8 a6bf a249 1ebd 15ae 6d3d 24c4 1b3f
000002f0: 811e b4be f7c7 b9bf 978c 6fbe 9bbe 98bd
00000300: 1bb8 383f 836f f3be 631d cbbf 3e25 08be
00000310: 4a1a 4dbf 5784 243f 1b49 e4be 5d30 b7bf
00000320: 5054 f7bd e491 7b3b 743b 8c3f 24d0 87be
00000330: 5c44 e5bf 82ee 983d a625 483d c697 833f
00000340: 7e43 c3be 5c8a f2bf 832d 363e 5271 dbbd
00000350: 250f 823f 759b 52be d0c3 efbf c62f c7bc
00000360: b8ba 9cbd 4252 483f ea7c 61be 24c8 e5bf
00000370: 1bd4 823e e58e 12be adb2 3a3f 3eac 98be
00000380: 9523 b5bf 3a4b bf3e 3e49 5dbc 9455 5c3f
00000390: 7ec8 f0be f074 95bf aa79 193f 926e 8ebe
000003a0: 2b9d 1e3f 1ccd c4be 44b7 a8bf 9b59 2c3f
000003b0: 7b8d 10be 5e31 4d3f 20aa 92be e5fe a6bf
000003c0: a432 223f 44be cdbc 08fe 1a3f d4bd 96be
000003d0: a971 b5bf 11ef f9bf 433c 543e 1032 dc3e
000003e0: 668c a6be 1b49 0ac0 17c7 cabd af29 63be
000003f0: 2a52 25c0 6a43 8e3e 652a 263e e971 66bb

fc1.bias f4 [128]
-0.40610242 -1.4009709 -3.4400017 -4.0248637 -0.3076461 3.4769127 -4.4046364 -3.6602237
4.0474844 7.0634036 -4.3656635 3.5030324 -5.631296 -3.8080866 2.2067184 -0.01472493
7.6362042 0.024419287 -0.6164938 7.2385626 -3.3907208 -0.006077426 -0.5846159 -0.11592844
-4.907482 3.8842902 -2.422266 0.7052355 2.8322027 -1.782422 -1.6653943 -0.08219439
0.057688534 7.3982954 0.81077844 6.875772 0.00086252176 5.9176908 -0.72537714 0.047465023
-3.5409281 6.9834294 1.3752126 -1.4885932 7.570143 -4.5998836 6.46602 -2.3103728
-2.1816416 -2.3870165 -0.59363556 7.001137 3.501487 -0.7124419 -0.2387758 -1.6519156
-6.0692363 -0.064844996 -6.9243836 -0.87197095 -4.1975594 -2.4320335 -0.7390309 3.5937173
0.046071187 -2.5867655 -5.076238 -3.0064213 -0.030090764 -0.8257815 -0.20608775 6.959345
-0.0050223176 -1.4033753 3.926941 1.4227493 0.010872308 4.190726 3.3597188 -0.017836312
7.049554 -0.70364153 -0.30998227 0.13248082 -0.08081296 -1.5285355 0.6351924 -2.6437604
1.0557241 -0.12381417 -1.519912 6.387049 4.9518113 -3.0706575 6.822594 -0.24092145
-0.49296933 7.0770197 -2.2912855 -3.7520542 1.9643506 7.393039 -0.85540694 -0.36440927
3.0566807 3.1430128 -0.7046371 7.3595347 -0.06972446 -0.43909243 -0.09697185 -5.699112
7.379123 0.026803197 -4.9692535 7.2699556 5.1652975 0.08559207 0.06911458 4.1982446
-4.144529 6.4564624 5.6773205 0.10999369 -2.689145 0.03462303 -1.7404362 -4.2152123
00000000: a8ec cfbe 0453 b3bf fd28 5cc0 afcb 80c0
00000010: ca83 9dbe bd85 5e40 c8f2 8cc0 1b41 6ac0
00000020: fe84 8140 6707 e240 84b3 8bc0 af31 6040
00000030: 9433 b4c0 b1b7 73c0 e03a 0d40 d540 71bc
00000040: c95b f440 f50a c83c 8ad2 1dbf 4ea2 e740
00000050: 9201 59c0 2525 c7bb 63a9 15bf e46b edbd
00000060: 180a 9dc0 3698 7840 6806 1bc0 508a 343f
00000070: cf42 3540 6726 e4bf a42b d5bf 8855 a8bd
00000080: d04a 6c3d d6be ec40 2d8f 4f3f 5306 dc40
00000090: db1a 623a b95d bd40 51b2 39bf af6a 423d
000000a0: 919e 62c0 4178 df40 f706 b03f 398a bebf
000000b0: 9d3e f240 3f32 93c0 a3e9 ce40 26dd 13c0
000000c0: 04a0 0bc0 e1c4 18c0 80f8 17bf 5009 e040
000000d0: 5d18 6040 9862 36bf a581 74be f871 d3bf
000000e0: 2f37 c2c0 74cd 84bd 8d94 ddc0 7d39 5fbf
000000f0: 6852 86c0 70a6 1bc0 2131 3dbf 77ff 6540
00000100: 24b5 3c3d 918d 25c0 8b70 a2c0 3569 40c0
00000110: e880 f6bc 6b66 53bf ab08 53be f4b2 de40
00000120: 4192 a4bb cda1 b3bf 0053 7b40 a61c b63f
00000130: c421 323c 6d1a 8640 a205 5740 751d 92bc
00000140: f295 e140 da21 34bf ffb5 9ebe 0da9 073e
00000150: 4481 a5bd 0da7 c3bf f89b 223f 5f33 29c0
00000160: f821 873f 4992 fdbd 7a8c c2bf b562 cc40
00000170: 3d75 9e40 a785 44c0 b152 da40 1db4 76be
00000180: 7a66 fcbe f276 e240 6ca4 12c0 a821 70c0
00000190: d76f fb3f c793 ec40 f3fb 5abf da93 babe
000001a0: a8a0 4340 1f27 4940 1963 34bf 4f81 eb40
000001b0: b3cb 8ebd b9d0 e0be 2d99 c6bd 205f b6c0
000001c0: c721 ec40 6192 db3c 2004 9fc0 7aa3 e840
000001d0: 1e4a a540 e54a af3d f28b 8d3d 0558 8640
000001e0: fb9f 84c0 579b ce40 9cac b540 5f44 e13d
000001f0: f41a 2cc0 e1d0 0d3d 9dc6 debf 05e3 86c0

fc2.weight f4 [128, 128]
-0.056233197 0.015149961 -0.011776626 -0.019173937 -0.044818904 -0.077075586 -0.06903805 0.045358136
-0.09213542 0.08299989 -0.12158615 0.025570218 -0.022557892 -0.08647049 -0.034451056 0.036696564
0.01914437 -0.00621295 0.075500496 -0.086976625 -0.09670584 -0.02149094 0.08580142 0.026096612
0.045353968 0.078480974 -0.111734316 -0.046597388 0.01688712 -0.10598495 -0.021751639 0.053922836
0.10846491 -0.07683155 -0.033915736 -0.059544038 -0.09494687 0.006717937 -0.036131088 0.07519284
-0.07107686 -0.12940966 -0.13408448 -0.0015094108 -0.01599745 -0.021383341 -0.041673962 -0.07703135
0.027132565 -0.061526634 0.03101063 0.05841458 -0.04767112 0.040093355 0.027585581 -0.039523564
0.05064647 0.04359062 -0.1355102 0.015201807 -0.09893211 0.005129104 -0.008013984 0.0386583
-0.059443597 -0.07585206 -0.025305081 0.058717027 0.02888471 0.034950204 -0.011213684 -0.21607964
0.005237378 -0.0766227 -0.02474224 0.043629427 0.012493927 -0.015443008 0.048046533 0.012139525
-0.06156519 -0.071537286 0.03497349 0.034240454 0.011574335 0.04296915 -0.024994025 0.097108774
0.05727335 -0.059769277 0.040535826 -0.0052898526 -0.104197234 -0.029298484 0.04045196 0.035480056
-0.025170507 -0.02563527 -0.09844855 -0.07121822 -0.09471363 0.021002539 0.008313116 0.030742522
-0.107381314 -0.01540555 -0.025977733 -0.14097045 -0.042447135 0.04541862 -0.022707341 -0.06832097
0.025509221 -0.052117918 -0.062144242 0.050423514 -0.106977545 -0.020779682 0.05197691 -0.13450715
0.08283318 -0.04011698 -0.031287707 0.06809405 -0.03262712 0.009028687 -0.047600344 -0.085416414
0.04426524 0.081422724 -0.12263433 -0.096814 0.02308446 -0.0447078 -0.09389366 -0.12772737
-0.10633891 0.0077505806 0.025427913 -0.025086908 -0.15513979 -0.03706971 -0.12503794 0.026291467
-0.023216097 0.06261015 0.021297138 -0.084232576 -0.085804455 0.05642291 -0.06295549 -0.06842064
-0.050368793 -0.0710303 -0.0045502163 -0.033697892 0.07651489 0.03250176 -0.07501907 -0.0040838127
-0.07341532 0.0076935724 -0.013277786 -0.06742872 0.00086898287 -0.0048922417 0.051793173 -0.0828993
0.0040656426 -0.055133052 -0.054894216 0.023000572 0.001542261 -0.105460204 0.044467922 0.028342258
-0.11505492 -0.012470942 -0.011478799 -0.08065254 -0.0822193 -0.09867966 -0.05271435 0.02429371
-0.04939828 -0.024038803 -0.12522988 0.015948752 -0.13106212 -0.07481898 -0.106182665 -0.11857784
-0.00614874 -0.07103688 -0.118491486 -0.09293659 0.06185738 -0.030275753 -0.044899356 0.03949279
0.08747318 0.053443737 -0.032388926 -0.032212257 -0.016888216 -0.04720124 -0.030619856 -0.0048308717
-0.10212124 -0.0018411973 0.03659211 -0.03347608 0.031884506 0.038564075 -0.031276204 -0.118469745
0.116530806 -0.036559597 -0.10772215 -0.06534876 -0.1316064 -0.11682399 0.03747596 -0.05807173
-0.047160942 -0.060825225 -0.103136785 -0.1356797 0.050348222 -0.031805616 -0.06528833 0.07214194
0.031102689 -0.08671488 0.023241686 0.08612783 -0.008803022 -0.047696486 -0.121202484 -0.12081232
0.009816846 -0.0046933573 -0.00396507 -0.046456534 0.021131853 0.078106664 -0.07385066 0.0066406564
0.014176931 -0.07445589 -0.12710935 0.01569164 0.0068823947 -0.001239739 0.030333858 -0.076876685
00000000: c854 66bd 8b37 783c c0f2 40bc a912 9dbc
00000010: 0794 37bd ced9 9dbd d263 8dbd 74c9 393d
00000020: 7fb1 bcbd d9fb a93d 2902 f9bd a278 d13c
00000030: 54cb b8bc 7117 b1bd 8d1c 0dbd 234f 163d
00000040: a7d4 9c3c 0196 cbbb 01a0 9a3d cd20 b2bd
00000050: b60d c6bd c50d b0bc a8b8 af3d 90c8 d53c
00000060: 15c5 393d a2ba a03d f6d4 e4bd e7dc 3ebd
00000070: dc56 8a3c a30e d9bd 7e30 b2bc 31de 5c3d
00000080: da22 de3d dc59 9dbd 3aeb 0abd 73e4 73bd
00000090: 8173 c2bd 2422 dc3b 31fe 13bd b4fe 993d
000000a0: bf90 91bd f783 04be 714d 09be 6cd7 c5ba
000000b0: 160d 83bc 1e2c afbc 51b2 2abd 9dc2 9dbd
000000c0: 1d45 de3c 5a03 7cbd 010a fe3c 2044 6f3d
000000d0: cb42 43bd ee38 243d 28fb e13c 76e3 21bd
000000e0: ac72 4f3d 148c 323d 30c3 0abe 0011 793c
000000f0: eb9c cabd 0b12 a83b 164d 03bc 2a58 1e3d
00000100: 217b 73bd 5358 9bbd 9a4c cfbc 4481 703d
00000110: a19f ec3c f227 0f3d 9ab9 37bc fb43 5dbe
00000120: 509e ab3b 5dec 9cbd 3db0 cabc c5b4 323d
00000130: 54b3 4c3c ac04 7dbc 71cc 443d dce4 463c
00000140: c82b 7cbd 2482 92bd 5d40 0f3d b83f 0c3d
00000150: 48a2 3d3c 6b00 303d 45c0 ccbc f7e0 c63d
00000160: 7697 6a3d a1d0 74bd e508 263d 8056 adbb
00000170: 5c65 d5bd 6003 f0bc f4b0 253d 8953 113d
00000180: 6132 cebc 0f01 d2bc 659f c9bd dcda 91bd
00000190: 38f9 c1bd 840d ac3c bc33 083c bed7 fb3c
000001a0: bcea dbbd 8f67 7cbc 41cf d4bc 8f5a 10be
000001b0: 0cdd 2dbd e008 3a3d bf04 babc ddeb 8bbd
000001c0: b7f8 d03c 9979 55bd f68a 7ebd e388 4e3d
000001d0: 0b17 dbbd 273a aabc bee5 543d 3ebc 09be
000001e0: 71a4 a93d b451 24bd 8a27 00bd e574 8b3d
000001f0: 04a4 05bd 0fed 133c 94f8 42bd cdee aebd
00000200: 784f 353d f5c0 a63d b527 fbbd 6b46 c6bd
00000210: 9f1b bd3c 871f 37bd 524b c0bd f7ca 02be
00000220: 37c8 d9bd 95f8 fd3b 334e d03c 0f83 cdbc
00000230: f7dc 1ebe 69d6 17bd f209 00be 3461 d73c
00000240: af2f bebc c039 803d 5677 ae3c 2182 acbd
00000250: 3fba afbd b61b 673d cfee 80bd 1f20 8cbd
00000260: 824f 4ebd 5578 91bd fb19 95bb cd06 0abd
00000270: d7b3 9c3d 9120 053d 99a3 99bd 81d1 85bb
00000280: c55a 96bd 5d1a fc3b 128b 59bc 1218 8abd
00000290: 74cc 633a 194f a0bb 1425 543d 1cc7 a9bd
000002a0: 1539 853b 32d3 61bd c2d8 60bd b26b bc3c
000002b0: b125 ca3a 85fb d7bd ff23 363d 062e e83c
000002c0: eaa1 ebbd ec52 4cbc 9311 3cbc 292d a5bd
000002d0: 9862 a8bd 9018 cabd 01eb 57bd 9a03 c73c
000002e0: da55 4abd 06ed c4bc 433c 00be f5a6 823c
000002f0: 2635 06be b23a 99bd 4c76 d9bd f0d8 f2bd
00000300: 5f7b c9bb c97b 91bd aaab f2bd 8a55 bebd
00000310: 2a5e 7d3d db04 f8bc 63e8 37bd 31c3 213d
00000320: 2325 b33d d2e7 5a3d 40aa 04bd 00f1 03bd
00000330: 2859 8abc 1656 41bd 7ed6 fabc 4a4c 9ebb
00000340: f124 d1bd 5454 f1ba 9ce1 153d 371e 09bd
00000350: 5499 023d 5df5 1d3d 7a1b 00bd 44a0 f2bd
00000360: b4a7 ee3d 84bf 15bd 6e9d dcbd 92d5 85bd
00000370: d4c3 06be 6b41 efbd 6480 193d 9fdc 6dbd
00000380: d52b 41bd df23 79bd 6139 d3bd 9fef 0abe
00000390: f039 4e3d 9b46 02bd e3b5 85bd 27bf 933d
000003a0: 11cb fe3c 9297 b1bd 5965 be3c ca63 b03d
000003b0: 8d3a 10bc 645d 43bd 0239 f8bd 736c f7bd
000003c0: d6d6 203c bcca 99bb 6bed 81bb 3549 3ebd
000003d0: b51c ad3c 63f6 9f3d 043f 97bd dd99 d93b
000003e0: 5c46 683c 547c 98bd f428 02be c18b 803c
000003f0: b685 e13b bd7e a2ba b67e f83c 8671 9dbd

fc2.bias f4 [128]
-0.02938668 -0.0707262 1.9308609 4.107448 -0.04431521 1.6362944 1.8172405 -0.0087502925
5.30079 0.034337014 -0.07345342 4.7569294 -0.00058439176 -0.10291919 4.5553694 1.8001621
0.0035756675 2.171626 -0.071254686 -0.11864752 0.04677766 3.458611 -0.013377899 1.8139709
4.119722 -0.012988864 1.675429 2.1015458 -0.052587908 4.5313134 0.016664566 1.759808
-0.061422326 -0.38832718 -0.07569976 4.880745 -0.780712 0.046174016 -0.19497772 4.953896
0.003009098 -0.015812296 -0.13045113 0.040336218 -0.078954555 1.8784761 -0.39131153 0.04698658
4.402327 4.48343 6.033359 1.6383814 2.3749738 2.3253958 -0.11367699 4.42541
4.512961 -0.03575209 4.8350024 1.5296713 2.0284224 -0.9237101 -0.042465948 -0.10786795
1.5173191 0.004496674 5.7662783 6.388228 2.026657 0.111746386 1.8715376 2.29395
-0.133038 2.6710994 1.2817022 2.451371 1.6353405 -0.71552134 4.402751 4.776401
0.03929074 1.6674334 4.749488 1.9497682 -0.0411329 2.1092947 4.981109 -0.041305896
0.019641103 -0.034423582 1.8679965 5.120332 1.4173081 -0.07306479 -0.030669738 2.1354644
-0.034244336 2.9490209 -0.058187716 -0.1415342 1.1580354 -0.02446473 0.12295432 0.19817929
-0.9228553 1.9341781 3.958363 1.6490729 -0.059585914 0.023315545 -0.051073883 1.7467967
0.5367857 -0.03302129 -0.13659608 0.020454342 5.938311 -0.5150984 0.45712352 1.5097661
1.8508655 -1.1187265 6.1945634 5.707516 0.07085696 -0.07064064 0.8467456 0.005557145
00000000: 56bc f0bc e6d8 90bd 7326 f73f 3770 8340
00000010: de83 35bd 1872 d13f 569b e83f 635d 0fbc
00000020: 12a0 a940 f8a4 0c3d bf6e 96bd c438 9840
00000030: de31 19ba 4cc7 d2bd 96c5 9140 b66b e63f
00000040: bf55 6a3b ecfb 0a40 faed 91bd 79fd f2bd
00000050: ee99 3f3d e259 5d40 fa2e 5bbc 3330 e83f
00000060: c3d4 8340 3fcf 54bc 7574 d63f ba7f 0640
00000070: 6b66 57bd 8500 9140 2184 883c 6341 e13f
00000080: fa95 7bbd d2d2 c6be 7a08 9bbd 102f 9c40
00000090: bedc 47bf f720 3d3d 3da8 47be 5186 9e40
000000a0: 4a34 453b ca88 81bc fb94 05be 9737 253d
000000b0: edb2 a1bd e871 f03f fc59 c8be 0075 403d
000000c0: dddf 8c40 4278 8f40 4711 c140 7bb6 d13f
000000d0: 92ff 1740 49d3 1440 7bcf e8bd f59c 8d40
000000e0: 2d6a 9040 c970 12bd 57b8 9a40 45cc c33f
000000f0: acd1 0140 4478 6cbf c6f0 2dbd dfe9 dcbd
00000100: 8337 c23f d658 933b 5a85 b840 5d6c cc40
00000110: c0b4 0140 4adb e43d 8b8e ef3f 14d0 1240
00000120: 1d3b 08be 4bf3 2a40 d10e a43f 43e3 1c40
00000130: d652 d13f 682c 37bf 56e3 8c40 47d8 9840
00000140: 54ef 203d 756e d53f cefb 9740 0192 f93f
00000150: f97a 28bd affe 0640 3f65 9f40 5f30 29bd
00000160: 61e6 a03c beff 0cbd 821a ef3f c2d9 a340
00000170: 5a6a b53f fea2 95bd 1a3f fbbc 73ab 0840
00000180: ca43 0cbd c2bc 3c40 3e56 6ebd 57ee 10be
00000190: 813a 943f 426a c8bc 79cf fb3d 83ef 4a3e
000001a0: 3f40 6cbf 2693 f73f d255 7d40 d214 d33f
000001b0: 5c10 74bd 3e00 bf3c d932 51bd 0997 df3f
000001c0: ca6a 093f 5541 07bd d8df 0bbe dd8f a73c
000001d0: a506 be40 7ddd 03bf 180c ea3e 0440 c13f
000001e0: 29e9 ec3f 6e32 8fbf dd39 c640 f9a3 b640
000001f0: 741d 913d 0aac 90bd 52c4 583f b618 b63b

fc3.weight f4 [5, 128]
-0.019221814 -0.012951133 0.065927476 0.017410733 0.035447814 0.039687887 0.13179709 0.0077300635
0.043259356 -0.0287152 -0.0005022303 0.8858094 0.014087525 -0.08033553 0.6549585 0.00441327
-0.07907586 0.038009416 -0.0083269635 0.052828312 -0.014618031 1.8919868 0.07969046 -0.001929872
0.347853 0.017443284 -0.91501844 0.047737375 0.03752649 1.0671068 0.041449666 0.055255625
-0.048795022 0.06544178 -0.033866845 0.15086243 0.06718025 0.067919336 -0.0039526033 0.68585944
-0.038366653 -0.050207574 -0.0124553265 -0.027757442 -0.03138338 0.012931412 0.027449032 -0.024852939
-0.18050991 0.7514368 1.7379069 -0.0038843297 -0.074394174 -0.1521621 0.021506328 0.092658766
1.2843965 -0.03259505 -0.09019836 0.09864492 0.123759516 0.14030185 0.058259603 -0.052713644
-0.009423732 0.006413641 0.56352204 3.1002915 0.10288426 0.035644773 -0.34981403 0.036970273
-0.014221782 0.14062193 -0.3168265 0.001871763 0.028083034 -0.20630617 0.61961895 -1.0091646
0.016899621 0.07072193 0.1901514 -1.5002183 -0.060488924 0.04874206 1.7431911 -0.056713242
0.030573731 0.037887696 0.04749738 0.38445592 -0.24281996 -0.042220518 0.059620038 -0.53997976
-0.021478662 0.48624015 -0.030354774 -0.07645701 -0.14934586 -0.058938798 -0.05589905 -0.48920235
-0.21256395 -0.89342284 0.3046797 -0.05063857 -0.0471365 0.05407452 -0.0607533 0.09526545
-0.40537187 0.027718648 -0.03004238 0.025462843 0.35437462 -0.096394904 0.28371263 1.2824242
0.019065388 -0.01793707 1.1889971 0.17690457 0.057730302 -0.03161262 -0.5411372 0.0015597179
-0.056749143 0.08511016 0.08138799 0.01219267 -0.029429054 0.038075518 0.06783531 -0.0104773715
0.5759401 -0.047128443 -0.086450234 1.536393 -0.043226935 -0.029592333 0.7565753 0.057244483
0.041375507 -0.0028126258 -0.009629736 0.057698004 0.057855394 0.30140847 -0.11303552 -0.042889003
0.3934869 0.015403367 0.07218088 0.043213338 -0.0036850194 1.0701547 0.061574593 -0.0043553547
0.02427746 0.09539916 -0.0638978 0.20620155 0.18512931 0.08195813 0.09555563 0.5622284
-1.0908788 0.0035763625 -0.03662631 0.03480981 0.04782831 0.055151667 -0.12285434 0.058404062
0.22502033 1.3266613 1.6708963 0.058926523 0.12659639 0.052489784 0.029450689 0.1030443
1.0537181 0.050023723 0.87970376 0.04282991 0.26825172 -0.09518566 0.012706606 0.04113868
0.10366047 0.030716399 1.4933933 1.5828209 0.24746354 0.02539559 0.50749564 0.06305146
0.070401736 0.15813623 -0.21703193 0.7158727 0.0284364 -0.09555648 0.59190977 -0.14971182
0.039615866 -0.07682837 0.22447555 -0.15731795 -0.020247666 -0.007265962 1.2348984 -0.04040231
-0.03644916 0.0660557 0.021588966 0.3737908 -0.1854562 -0.025024282 -0.018375194 0.22783357
0.04290261 0.29863364 -0.031890083 -0.033970714 0.028443422 0.028099766 0.31537762 0.4940267
-0.1476733 0.3245578 0.37598485 -0.12010502 0.03842288 0.018862784 -0.0070003527 0.15767513
-0.279465 -0.045497216 -0.02454859 -0.008708013 0.35026273 -0.082754895 -0.07956847 0.34544617
0.09374625 0.046181265 1.8117263 0.1903088 0.076697655 -0.019486843 0.19759355 0.017830221
00000000: 1177 9dbc fd30 54bc fc04 873d f4a0 8e3c
00000010: ba31 113d c48f 223d d1f5 063e 794c fd3b
00000020: b930 313d 243c ebbc 1ba8 03ba 68c4 623f
00000030: 5dcf 663c f486 a4bd 5cab 273f 319d 903b
00000040: 86f2 a1bd c3af 1b3d d16d 08bc 8062 583d
00000050: 7780 6fbc a02c f23f c034 a33d c2f3 fcba
00000060: ca19 b23e 38e5 8e3c a63e 6abf 4488 433d
00000070: 60b5 193d f596 883f 20c7 293d b953 623d
00000080: 4add 47bd 5706 863d f6b7 0abd ae7b 1a3e
00000090: cd95 893d 4b19 8b3d d784 81bb 7c94 2f3f
000000a0: 5a26 1dbd 75a6 4dbd 6d11 4cbc 9363 e3bc
000000b0: dc8b 00bd 46de 533c cbdc e03c 6498 cbbc
000000c0: 97d7 38be 2a5e 403f bc73 de3f 3d90 7ebb
000000d0: f95b 98bd 62d0 1bbe 0a2e b03c e1c3 bd3d
000000e0: 1b67 a43f 6382 05bd ebb9 b8bd 5906 ca3d
000000f0: a175 fd3d 4aab 0f3e 9fa1 6e3d 43ea 57bd
00000100: ff65 1abc 8529 d23b fb42 103f 2d6b 4640
00000110: fcb4 d23d 4100 123d d31a b3be 246e 173d
00000120: 7a02 69bc 32ff 0f3e 1537 a2be f255 f53a
00000130: 640e e63c ed41 53be 599f 1e3f 4e2c 81bf
00000140: 1371 8a3c a9d6 903d 0cb7 423e 2707 c0bf
00000150: 3cc3 77bd c1a5 473d e320 df3f 254c 68bd
00000160: c375 fa3c 2130 1b3d 9d8c 423d 68d7 c43e
00000170: cca5 78be 6cef 2cbd 2434 743d 1d3c 0abf
00000180: 05f4 afbc 78f4 f83e 93aa f8bc 7e95 9cbd
00000190: 1fee 18be cf69 71bd 67f6 64bd bb78 fabe
000001a0: 5daa 59be 5cb7 64bf fafe 9b3e 646a 4fbd
000001b0: 3412 41bd 3e7d 5d3d 74d8 78bd 881a c33d
000001c0: e78c cfbe 3812 e33c 701b f6bc 7497 d03c
000001d0: 9770 b53e b16a c5bd c842 913e 7a26 a43f
000001e0: 042f 9c3c c3f0 92bc 0f31 983f 7926 353e
000001f0: 9c76 6c3d 3c7c 01bd f887 0abf 736f cc3a
00000200: ca71 68bd 3c4e ae3d bfae a63d c4c3 473c
00000210: 3315 f1bc 13f5 1b3d 3ded 8a3d 48a9 2bbc
00000220: cf70 133f c109 41bd d20c b1bd 87a8 c43f
00000230: ba0e 31bd 9f6b f2bc ebae 413f 3179 6a3d
00000240: 5d79 293d 0854 38bb 0ac6 1dbc be54 6c3d
00000250: c7f9 6c3d 3652 9a3e 2b7f e7bd 61ac 2fbd
00000260: 1d77 c93e 675e 7c3c 92d3 933d 7800 313d
00000270: 5e80 71bb d4fa 883f a435 7c3d 5db7 8ebb
00000280: 86e1 c63c a360 c33d dadc 82bd 8026 533e
00000290: 8a92 3d3e aad9 a73d acb2 c33d 33ee 0f3f
000002a0: eba1 8bbf 6861 6a3b 7805 16bd bb94 0e3d
000002b0: 9ee7 433d b7e6 613d 0e9b fbbd 1939 6f3d
000002c0: bb6b 663e 0ad0 a93f eedf d53f f05c 713d
000002d0: 7ca2 013e 87ff 563d 9242 f13c e408 d33d
000002e0: 3ce0 863f ade5 4c3d 4434 613f 6a6e 2f3d
000002f0: 4a58 893e b3f0 c2bd 5e2f 503c 0881 283d
00000300: f14b d43d f5a0 fb3c 8327 bf3f e099 ca3f
00000310: 1567 7d3e 6a0a d03c 3ceb 013f 2021 813d
00000320: c92e 903d 77ee 213e 9e3d 5ebe 6f43 373f
00000330: 74f3 e83c 1eb3 c3bd 6687 173f 0e4e 19be
00000340: 3f44 223d 3158 9dbd ebdc 653e f517 21be
00000350: 6fde a5bc 4f17 eebb 2711 9e3f e57c 25bd
00000360: b74b 15bd 3648 873d 58db b03c 8261 bf3e
00000370: 3be8 3dbe b9ff ccbc 9387 96bc 344d 693e
00000380: a6ba 2f3d 82e6 983e 2d9f 02bd e024 0bbd
00000390: 2e02 e93c 7b31 e63c 2d79 a13e 11f1 fc3e
000003a0: ab37 17be 712c a63e 1681 c03e 9ff9 f5bd
000003b0: 4f61 1d3d 2086 9a3c 3763 e5bb 9775 213e
000003c0: 0916 8fbe 4a5b 3abd 201a c9bc 0eac 0ebc
000003d0: a355 b33e 667b a9bd cbf4 a2bd 52de b03e
000003e0: 09fe bf3d 9128 3d3d a6e6 e73f 4fe0 423e
000003f0: a913 9d3d dfa2 9fbc f755 4a3e af10 923c

fc3.bias f4 [5]
5.8690557 2.294158 1.1641501 1.5990779 2.5508072
00000000: 4ecf bb40 7cd3 1240 df02 953f 96ae cc3f
00000010: 6d40 2340
