dqn_motor_control.pth (torch, 96599 bytes, 6 tensors)

fc1.weight f4 [128, 50]
00000000: 2c99 29be 52a3 8f3c 06b8 033d fbd4 8e3d
00000010: d939 16bd b4f6 53be 048b fdbd 6341 a53d
00000020: dcd3 f63d 8a58 2f3d cd88 123d ace6 89bd
00000030: edf8 a83d 4ba9 073e ab10 113e 8d46 2ebe
00000040: a91a 0ebe f5d9 91bd 804f f3bc 41da 523e
00000050: 67d0 06be 632c 38be ae09 6d3c 5e74 12bc
00000060: 5192 213c 6e42 25be f17e c8bd b728 44bd
00000070: d5e7 5f3d 9476 4cbd 9c1b e5bd 9b1f c4bd
00000080: 8038 f23d b055 75bd 44cd 5ebb be4e 073e
00000090: 3544 363d 48b7 f13d 0234 9b3d 6eac 093e
000000a0: 93c7 16bb a631 0b3d 7507 82bd d8d6 f03d
000000b0: 358d 383c 9adb a5bd 7052 90bc fc8d 08be
000000c0: 1271 1ebd 0c8a 683b a519 59bc 9abb acbb
000000d0: 3a90 763d ee8e df3d aa37 8c3e 3ce2 42be
000000e0: f2b3 e1bd c384 e43d 7bcd 50bc be7d 0fbc
000000f0: 2840 37be 4dd1 543d d1f6 063d 11ac 843c
00000100: 3675 91be 6156 85be b742 debc 92d9 cb3c
00000110: 8504 08be 1884 1abe 614d 55be 5038 11bd
00000120: 8225 99bd 74aa 8b3b 2039 09be b931 a8bd
00000130: e6c7 7cbe dac5 d43d be1f 1b3d 6c10 7e3e
00000140: 4326 3bbe e4a0 41be 228b 6b3d e4c0 49bd
00000150: 0ea0 b2be e5ae 97bd 181e c6be 8600 93bd
00000160: ec95 31be 3e3d f63d d4ed 97be 6bd6 c0be
00000170: b4bc 20be 7c54 adbd b2d9 c0be a5d4 28be
00000180: b60e d4be c929 38bd 3139 503d 2f49 963d
00000190: 2109 1abd 5988 b0be 203d 61bd 0fd3 c9bf
000001a0: a078 f33d 7262 763d fea7 e4be 7115 e13d
000001b0: ad17 d4bf e93d fabe 71cf d1bd b908 12bf
000001c0: efe2 533d fe65 c7bf c2dc 31bf 9d5e c9bd
000001d0: 0693 a1be 063e 30bd ed7a cdbf b1c2 35be
000001e0: a9e8 1dbe 5e23 50be 2861 b83d df15 bfbf
000001f0: f154 473e 3bcd 4bbe 0b05 de3b 8ba2 f83d
00000200: 77c5 cdbf a236 2e3f 8f49 c6be 869c 79bd
00000210: 4070 9bbc d6ab babf a6ee b73d 435d b1be
00000220: 74e7 38be 6af8 42bb 1d28 bebf 2b62 d3bd
00000230: 4b6f cfbe 0c64 ddbe 6527 d23d 4301 c9bf
00000240: 1ff1 79bf 990a 0cbf 8ac6 80bc a7bc fbbd
00000250: 2c41 d8bf 2eda 20bf 41ba 16be b98c 1fbd
00000260: 1267 3cbd 9e19 c93c 274d 95bd a0b7 cc3c
00000270: bea9 babd 7f3e d2bd e690 ad3c f23f 11bc
00000280: d074 573d f968 42bc e8f7 9a3d c278 9b3d
00000290: 35e7 df3d 4ac1 85bd 1d33 413d 7342 233e
000002a0: c64d b43d 4848 133d b28b 6f3c 766e 12be
000002b0: d7f5 e7bb 0246 c03b 3b1e 8abc 6ac6 d6bc
000002c0: 87a9 85bc e180 ad3c 2053 17bd 3c3c 263e
000002d0: e6c9 73bd 1af6 4ebd b601 8f3b e170 083e
000002e0: 9a11 3bbe 18e0 fbbc c2f5 b5bd d9e8 60bd
000002f0: 8676 f73c 4f99 21bd 2e02 773d a0e2 37bc
00000300: 6bdf ab3d 295a 0b3d ee09 c23d fad7 0dbe
00000310: 9293 f7bd ae33 413c b08e 6b3d 277f 96bd
00000320: 31db ffbd 752f a3bd b594 293e f240 78bf
00000330: 67b6 df3e c4c8 7cbd 9e56 8dbe 5a8c f43d
00000340: fc1f 52bf 24d3 733e 8e38 48bc 9cff 62be
00000350: 5f1a 493e 6761 86bf 90ee 443e 8daf b23d
00000360: f16f 1ebe 9cda 1c3e 14e3 54bf e940 a9be
00000370: 2384 f8bc 4af1 49be f16b 333e 80b6 6cbf
00000380: 7ca3 4b3e 35ef 21be 11ef 1abe c348 d23d
00000390: fbb7 75bf 9712 8bbd 037b 42be b90d 3cbd
000003a0: 150d 043e 9de6 78bf cd92 483c 3cfe 96be
000003b0: 71a6 7ebe 70fb 15bd 7cd7 73bf 6474 f63c
000003c0: b643 9bbe 805e 9fbe e68f 84bd 01d2 80bf
000003d0: 6781 96bd c988 19bf 4e10 efbe bad9 abbd
000003e0: 7187 7cbf 14c3 6ebf 3b4f 763d 4a94 0b3d
000003f0: cf21 f0bd 38a4 693e b915 213f 2111 f33d
-0.16562337 0.017533932 0.03215792 0.069742166 -0.03667626 -0.20699579 -0.12380031 0.08069112
0.12052128 0.042809047 0.035774995 -0.0673345 0.08250604 0.13248174 0.14166515 -0.170191
-0.13877358 -0.0712165 -0.029700994 0.2059107 -0.13165437 -0.17985682 0.01446764 -0.008938877
0.009861545 -0.16138622 -0.09789837 -0.04789039 0.05466445 -0.049917772 -0.11186907 -0.09576341
0.11827183 -0.05989617 -0.003399686 0.13213632 0.04449864 0.11802536 0.07578279 0.13444683
-0.002300714 0.033982895 -0.063490786 0.11759728 0.011264135 -0.08098526 -0.017617434 -0.13335413
-0.03868205 0.0035482673 -0.013250743 -0.0052713873 0.06019614 0.109159335 0.27386218 -0.19031614
-0.1102065 0.11158135 -0.012744303 -0.008758007 -0.17895567 0.051957417 0.032950226 0.016195329
-0.28409737 -0.26042464 -0.027131421 0.024884019 -0.13282974 -0.15089452 -0.20830299 -0.035454094
-0.07477857 0.004262263 -0.13400698 -0.08212609 -0.2468563 0.103893 0.03787207 0.24810952
-0.18276314 -0.18909031 0.057505734 -0.04925622 -0.34887737 -0.07406405 -0.38694835 -0.07177834
-0.17342347 0.120234 -0.29673636 -0.37663588 -0.15696985 -0.0846338 -0.37666088 -0.16487367
-0.41417474 -0.044961724 0.050835792 0.073381774 -0.037606362 -0.34479025 -0.054989934 -1.5767535
0.11888242 0.06015248 -0.44659418 0.10990418 -1.6569725 -0.4887536 -0.102446444 -0.5704456
0.051730093 -1.5578 -0.69477475 -0.09832499 -0.31557482 -0.0430279 -1.6053139 -0.1775005
-0.15420784 -0.20325992 0.09002906 -1.492855 0.19465996 -0.19902508 0.0067755035 0.121403776
-1.6075886 0.68052113 -0.38727996 -0.060940288 -0.018974423 -1.458369 0.089810655 -0.34641466
-0.18057042 -0.0029750117 -1.4855992 -0.103214584 -0.40514597 -0.43240392 0.1026142 -1.570351
-0.97633547 -0.5470367 -0.01571967 -0.12291842 -1.6894889 -0.62832916 -0.14719488 -0.038952563
-0.045996733 0.024548348 -0.07290106 0.024989903 -0.09114407 -0.102658264 0.021187257 -0.008865343
0.052601635 -0.011865848 0.075668156 0.07591392 0.10932771 -0.065310076 0.047167886 0.15943317
0.088038966 0.035957605 0.014620708 -0.1429995 -0.007078867 0.0058677206 -0.016860118 -0.026217658
-0.016316188 0.021179618 -0.03694451 0.16233915 -0.059518717 -0.05052767 0.0043642176 0.1332431
-0.18268433 -0.030746505 -0.08884765 -0.05490956 0.030207884 -0.039452847 0.060304813 -0.011223465
0.08392223 0.03402153 0.0947455 -0.1385192 -0.12088694 0.011792107 0.057509124 -0.07348471
-0.12492979 -0.07968036 0.16560633 -0.969741 0.4369385 -0.061714903 -0.27605146 0.119408324
-0.82080054 0.23811013 -0.012220515 -0.2216782 0.19638966 -1.0498475 0.1923163 0.0872489
-0.1547239 0.15317768 -0.83158994 -0.33057335 -0.030336445 -0.1972095 0.17521645 -0.9246597
0.19886583 -0.15813906 -0.15130259 0.102677844 -0.95983857 -0.06790655 -0.18992238 -0.045911524
0.12895615 -0.9722689 0.012242031 -0.2949084 -0.2486818 -0.036616743 -0.9525068 0.030084796
-0.30325097 -0.31126785 -0.06472759 -1.0064088 -0.073489 -0.5997434 -0.46692127 -0.083911374
-0.9864417 -0.93266416 0.060134154 0.034076966 -0.117251985 0.2281655 0.6292377 0.118685015

fc1.bias f4 [128]
00000000: af9b d9bd 65ff 023c a791 8a3f 0709 7a3d
00000010: fab5 4c3f f6c3 61bd 8cd1 1cbe 5970 ec3b
00000020: 30ac 50bd 2284 04be 7721 d0bd f880 aebe
00000030: 781d d6bf ab29 443f d119 c8bd e160 cf3d
00000040: d23d 883f bcb5 aabd 3a1c 513f 9af4 a7bc
00000050: e0d7 34be 4755 913f 2507 2a3d f1a7 d23f
00000060: 4073 c4bf 613d 28bf 4abb 6a3a 48f0 06be
00000070: cd7c 71bd e03f 56bd d2e5 aabd 398c 9fbd
00000080: 4f75 92ba f47c 05be e3e5 f3bd ff57 293f
00000090: e414 36be 26f6 083f 11b0 0f40 d130 b33f
000000a0: 607b 623d d901 7bbd 79ec 0dbe e24f b5bd
000000b0: 4a7c bc3f 4480 f0bf f098 9b3f ac27 11bd
000000c0: 78aa f43d 3c9c c83d 00e1 833e 1f5d 07bf
000000d0: b706 91bd 9f99 bbbd 8737 1140 3680 833f
000000e0: b8b3 07be 30a3 7abb cb75 44be 2b01 6cbf
000000f0: 81be d4bc 0b89 a0bf 8d14 7e3d 8644 62bc
00000100: 4bbd 8fbf ca1a 6f3c debf 06bd 027e 80be
00000110: 5ea9 94be deb6 d23f 5cef 36be a79b 9c3d
00000120: bace 24bc 7b3e 8e3d df44 8abf cad3 a9bc
00000130: c055 adbd 38c7 e6bd e9cb 1cbd 6afa b23e
00000140: 458e ba3d a6b3 bfbd b88a f0bc d464 583f
00000150: 47e5 0bbe ef72 32be 15ca 83bf d6b9 1bbe
00000160: fc7f ab3d 8a04 c1bf c1f9 77be c48a a83b
00000170: b540 213f 3589 cf3f 16be 49bf 03fb f3be
00000180: 9e0f c9bd 8282 b83e 3aed 4e3f 9e6f 833d
00000190: c63c f3bd f285 5e3c 3935 553e 5be4 0abd
000001a0: 9632 663f 2152 9dbd 76e9 e8bd 7025 f73d
000001b0: a5de c83b f0da d1be 4186 933f 490a 81bf
000001c0: 262c ffbb 0d64 a9be fc68 bd3c 182c 72be
000001d0: 8bae 473e 1106 c83f f94c a1be 6ffd 69be
000001e0: e00b 68be 25ba 2bbe d99a 5f3d 47e8 2e3b
000001f0: 6ee0 febd e730 90bf 8f1c b6bd 40c8 aa3f
-0.106253974 0.007995461 1.08257 0.061043765 0.79965174 -0.055118524 -0.15314311 0.0072155413
-0.05094546 -0.1294103 -0.10162633 -0.3408277 -1.6727743 0.7662608 -0.09770549 0.101259
1.0643866 -0.08335444 0.81683695 -0.020502377 -0.17660475 1.135415 0.04151072 1.6457502
-1.5347672 -0.65718657 0.00089543 -0.13177598 -0.05895691 -0.05230701 -0.08344616 -0.07790417
-0.0011173877 -0.13035947 -0.11909082 0.66149896 -0.17781407 0.5350059 2.2451212 1.3999273
0.05529344 -0.06128106 -0.13859738 -0.08853127 1.472543 -1.8789144 1.2156048 -0.035438225
0.11946577 0.09795424 0.257576 -0.52876467 -0.07081359 -0.0916016 2.2690141 1.0273502
-0.13252151 -0.003824424 -0.1918556 -0.9218928 -0.025969746 -1.2541822 0.062031318 -0.013810283
-1.1229643 0.014593789 -0.032897823 -0.25096136 -0.29035467 1.6462057 -0.17864746 0.07646876
-0.010059053 0.06945511 -1.0802268 -0.020730872 -0.08463621 -0.11268467 -0.0382804 0.34956676
0.09109167 -0.09360437 -0.029363021 0.8452885 -0.13661681 -0.17426656 -1.0296046 -0.1520761
0.083740205 -1.507951 -0.24216367 0.0051434953 0.6298936 1.6213747 -0.78805673 -0.47652444
-0.09817432 0.3603707 0.8083073 0.06417774 -0.11876826 0.01358174 0.20821084 -0.033909183
0.8992094 -0.076816805 -0.11372654 0.120676875 0.006130057 -0.4098735 1.1525346 -1.0081264
-0.0077872453 -0.33084145 0.02312135 -0.23649633 0.19500177 1.5626851 -0.31504038 -0.22850583
-0.2266078 -0.16770227 0.054591034 0.002668874 -0.1244515 -1.1264924 -0.08892166 1.3342361

fc2.weight f4 [128, 128]
00000000: aa67 f3ba b917 d0bc 90a5 e7bd 9908 6d3d
00000010: e50d 99bd e2cc 4abd b3e5 a2bd f4d6 e0bc
00000020: cfbe dfbc 8e98 40bd 2b30 103c 039c eebc
00000030: 0696 5dbd 9580 a4bc 637b 1c3d 76bf 6dbc
00000040: 09bb 4e3c 06fa 8fbd bc9d 9dbd 3900 1b3d
00000050: 9f8b 48bc 1db0 c6bd d45e 723d 7ebc 47bd
00000060: f173 09bd 4f79 10bd 81a4 d83b 46c4 a63d
00000070: fc53 4d3d 2d86 f83c c30f ad3d 5365 0dbd
00000080: a922 72bd c3d3 033d 13aa fc3c 0d84 0abc
00000090: 56ae 76bd 9c71 91bd 10d9 2dbd a7ef a6bc
000000a0: 6d89 56bc aff8 bd3b f5ca acbd 6f4f 73bd
000000b0: 38c2 aebd af40 5a3c 9412 7fbd e242 73bd
000000c0: daf7 09bd 8f68 29bd e220 2e3d 3aab a4bd
000000d0: 188b 84bd 5f41 963c 3119 a0bc 43a4 91bc
000000e0: f80e c4bb 7eb8 c13b 9e0e 243d 03fe f43c
000000f0: d37b d4bc fb45 d93c aa89 72bd 4647 6ebd
00000100: 103e bc3a eae5 75bd 06c0 44bd 281e cc3c
00000110: 93fe 27bd 70f7 5abd 5166 8d3d 1767 8e3c
00000120: 8d1b a93a 179a 83bd 6521 873c a1a8 23bd
00000130: 9103 6ebb d8d3 853d bea6 40bd b6f6 a1ba
00000140: 9672 e5bc ff64 aebc c642 9039 6b56 f3bc
00000150: 00ef 88bd 48e8 643c c39b 0cbc d52a f73b
00000160: 4af2 a23d 50fa b03d 267b 633c 0d17 843d
00000170: ec1a 07bd 6340 a9bc b8f6 d5bd de48 173d
00000180: d619 de3b 990e 7fbd 16b6 69bd 80f7 3dbd
00000190: 1820 57bd 197b 823d 8c19 ef3c 4688 8cbd
000001a0: 9fee 94bd 2f01 843c a32b 79bd 99ff 073c
000001b0: e368 283d 3a6d 97bc 61a2 42bc d6df 0dbe
000001c0: 3612 28bb 8971 bcbd 7cf2 88bd 5b2a 493d
000001d0: f639 02bd c53e 94ba 5862 a4bd b7c4 993d
000001e0: 73d9 6dbd c15f 7dbd 6b48 083d af87 b3bd
000001f0: d071 4a3d 8dd1 f1bd b241 653d 9d7b 94bd
00000200: b7eb 06bd 346c 01bd 7559 15bf a124 d03b
00000210: b9b0 c03d 3a46 9f3d 95fe 003d 128e 7a3c
00000220: 7033 4bbd 6cc5 4a3d b361 3cb9 7e07 9bbe
00000230: 18a7 b7be ba80 bfbd 99f4 e2bd 27be 933d
00000240: bf17 d2be e478 8cbe 0137 86be efa3 083f
00000250: 5e63 89bd 9659 923e f4d8 8fbd f443 8b3d
00000260: f7bf a5bc 463e 173e 25a5 b6bc 763b ff3c
00000270: 0d44 2a3d 0dec d33d f70f 8abd cc5e 013e
00000280: a00b 753d 553f 133e fbb2 36bd 8610 ddbd
00000290: 2075 133d 6983 15bf 2265 9ebc 7311 8a3e
000002a0: 19ef 813d ddee b83b 0a0a 86bd f5d6 1a3e
000002b0: 8234 95be 384d 69bf a2a6 86be b51e abbe
000002c0: 2d68 0c3f 7ede 233e c5cd 853e 37ef c03d
000002d0: 6e07 953d 63fa d63b a585 df3d f70f 85be
000002e0: 65c1 013c 2f89 9dbc f7fb 0b3d f128 2cbf
000002f0: bde8 03bc 3e38 983c b61b f03d 2449 c4bd
00000300: bae7 4fbf 8acd 18bd 0f5d 053c e10e 4ebd
00000310: ab42 a43d 8ef0 6f3e 236c abbd 4b7b b33b
00000320: 160d fcbd 1b8f 9f3d 4113 34bf 9b7a 213e
00000330: 3184 313d 8665 81bd 4d80 85bc 2355 613c
00000340: ff35 0abc 7026 5b3d 5615 ab3d b9db babc
00000350: c420 c3be a6bc 43bd 3791 87bd 6497 d53c
00000360: 3e02 b1bd 3ccf 16be caba 193d 99bb e73d
00000370: dec3 843d 4f06 c2be 0435 c2be 3ae5 43bf
00000380: 3a81 debc 5d3a 313f 3b0f d23c 184b 623e
00000390: c18a 8a3d 6abe 8dbd f531 c03e 775e c2bc
000003a0: 43a5 29bc ff4f b43d e0d2 b63b ff9e 113e
000003b0: 2f2b afbc 7310 23be 2753 983e 2a76 cdbe
000003c0: 7983 25bd 8f47 aebe c55e debc cfb9 a0be
000003d0: 1e7a b83e 6fd9 f8be ca79 193d de68 bcbd
000003e0: d53b aa3e 8a50 a2bd 4d6e d83e 6b69 2a3e
000003f0: b29a 423f 21c8 bebe 61e0 87bc 21b9 b2be
-0.0018570323 -0.025401937 -0.113108754 0.057869527 -0.07473353 -0.049511798 -0.07953968 -0.027446248
-0.027312664 -0.047020487 0.008800547 -0.029127127 -0.05409815 -0.020080844 0.03820361 -0.01451098
0.012617835 -0.0703011 -0.07696101 0.03784201 -0.0122403195 -0.0970156 0.059172466 -0.048763745
-0.033557836 -0.03527194 0.0066114073 0.08142905 0.050128922 0.030337417 0.08450272 -0.03452046
-0.059115086 0.032184374 0.030842816 -0.008454335 -0.060224853 -0.071017474 -0.042443335 -0.020377947
-0.013094288 0.0057974677 -0.084371485 -0.059401926 -0.08533138 0.013321086 -0.062273577 -0.059389956
-0.033683635 -0.04135948 0.04251183 -0.080404714 -0.064718425 0.018341718 -0.019543262 -0.017778521
-0.0059832297 0.0059118858 0.040053003 0.029906278 -0.02593795 0.026522627 -0.059213318 -0.05817344
0.0014361758 -0.060033716 -0.04803469 0.024916723 -0.041014265 -0.05345863 0.06904281 0.017383141
0.0012901888 -0.06425875 0.016495416 -0.03995574 -0.0036318044 0.065345466 -0.047034018 -0.0012356851
-0.02800874 -0.021288393 0.0002751557 -0.029704293 -0.06686211 0.013971396 -0.008582058 0.007542948
0.07956369 0.08641493 0.013884341 0.06449709 -0.03298466 -0.020660585 -0.104474485 0.036934726
0.006777982 -0.06226978 -0.057058416 -0.046378613 -0.05252084 0.06371135 0.029186986 -0.068619296
-0.07272076 0.016113846 -0.06083263 0.008300685 0.041115653 -0.0184847 -0.011879534 -0.13854918
-0.002564562 -0.092013426 -0.06686875 0.04911266 -0.031793557 -0.0011310211 -0.0802657 0.075082235
-0.058068704 -0.061858896 0.03327219 -0.08766114 0.049424946 -0.11807547 0.055970855 -0.0725014
-0.03293964 -0.03159733 -0.58339626 0.0063520228 0.09408707 0.077770665 0.03149279 0.015292661
-0.0496096 0.049504682 -0.00017965473 -0.30279154 -0.3586967 -0.093507245 -0.110818096 0.07214003
-0.41033742 -0.27435982 -0.2621384 0.5337514 -0.06708406 0.28583974 -0.070238024 0.068000704
-0.020233138 0.14769849 -0.022295544 0.031156283 0.041568805 0.103477575 -0.06741326 0.12633818
0.05982554 0.14379628 -0.044604283 -0.10794167 0.03600037 -0.5840364 -0.019335333 0.26966438
0.063444324 0.005643709 -0.065448835 0.15121062 -0.29141623 -0.9113345 -0.26299006 -0.33421865
0.5484646 0.16002843 0.26133552 0.094206266 0.07276808 0.00656061 0.109141625 -0.25988743
0.007919644 -0.019230453 0.03417584 -0.6724997 -0.008051095 0.018581506 0.117240354 -0.09584263
-0.8121296 -0.037305392 0.008139863 -0.05030716 0.080205284 0.23431608 -0.08370235 0.005477344
-0.123071834 0.07790967 -0.7034188 0.15769427 0.04333896 -0.06318192 -0.01629653 0.013753208
-0.008435725 0.053503454 0.08353679 -0.02280985 -0.38110936 -0.04778733 -0.066194944 0.026073165
-0.08643006 -0.14727491 0.03753165 0.11315078 0.06482671 -0.37895438 -0.37931073 -0.76521647
-0.02716123 0.6922968 0.025642028 0.22098958 0.067647465 -0.06921084 0.37538114 -0.023726685
-0.010354343 0.088043205 0.0055793375 0.14220808 -0.021382896 -0.15924244 0.2975094 -0.40129215
-0.040408585 -0.3403897 -0.027144799 -0.3139176 0.36030668 -0.4860339 0.037469663 -0.09199689
0.33248773 -0.07925518 0.42271653 0.16641776 0.76017296 -0.3726206 -0.016586484 -0.34906867

fc2.bias f4 [128]
00000000: d2aa 83be 2f2a c9bf 2686 68be 2662 2ebe
00000010: 34d0 13be 23a9 21bf 23c2 52be f597 57be
00000020: 691d 28be 07f5 86be 6bec cebd cb97 a73e
00000030: 8893 2e3f 2b30 9dbc 1e7d 0bbe 4faa 7b3f
00000040: 3acf 803e 8248 0b40 5f6c 4fbe 7020 cf3f
00000050: e75a fe3f 3cda 9abd 3003 773f 97ba 2fbe
00000060: e761 6bbe 0abd 883f 186c 0840 88c0 a8be
00000070: a882 043f 6bf1 193e 2670 3abe 04a5 a8bd
00000080: 1d2c 1bbd d801 29be 9fb7 d03f eea7 1d3f
00000090: c374 22be 32b1 92bd 7596 2bbc 92c8 2fbe
000000a0: 3df2 bfbd 3c72 a83d 2b81 43bd ad8b 3bbe
000000b0: 3cd1 843f 84b1 58be 2d4f adbc a161 44be
000000c0: 5a8d f4bd 0118 663f a609 99be 09a4 0840
000000d0: 2f29 a2be b235 3ebc 33d0 173e a6e0 87bd
000000e0: c24a 54be 1476 11be 3abd 3dbe d849 fcbd
000000f0: 60f7 0dbf eb73 0540 ba04 a2bd fd7d e9bd
00000100: 587b 2bbe 5e88 4ebe c693 6c3f c411 96be
00000110: 3a7b 0240 c171 39be 872f 42bd c1ae 7dbe
00000120: 9746 77bb 19eb d6bd 03a9 e3be 7a05 0340
00000130: a1dc 1ebe 4c16 a7be cb89 a0be 8ad8 42be
00000140: aad5 fa3f ac89 1ebe 0c90 0eba 85e1 9bbc
00000150: 7558 1340 f99d 05bf a434 88be 2623 96bc
00000160: 7e9e 113e 1ffc 0340 fedb 993d e012 1040
00000170: c218 84be c58e f93e 6c1a 66be 4634 1bbe
00000180: d6b9 89be 9e8d 8abe 0f98 963f 86ff b6bd
00000190: 3189 e6be 3ea9 95be ab95 82be e620 58be
000001a0: 3263 aebe cac0 0140 f68c ef3e b546 52bd
000001b0: 162d 73be 47e4 c5be fdf5 1240 12bc cdbd
000001c0: 70de 923f bc61 0fbe 9b9c 8f3e 82fb ff3f
000001d0: 3e2b febd f5ca fbbd 2488 91be 104f 5fbd
000001e0: 567c ebbe ef3f d03f 4479 0640 ba23 a13c
000001f0: 3b92 113e a441 5dbe 917a 6fbe 6abd c0bc
-0.25716263 -1.5715998 -0.22707424 -0.17029628 -0.14434892 -0.6314871 -0.2058187 -0.21054061
-0.16417469 -0.26358816 -0.10103687 0.32732996 0.68193865 -0.019188007 -0.13621947 0.98306745
0.251581 2.1763005 -0.20256184 1.6181774 1.9871491 -0.07561156 0.9648924 -0.17161022
-0.22986566 1.068269 2.1315975 -0.3295939 0.51761866 0.150335 -0.18206844 -0.08234599
-0.037883867 -0.1650461 1.6306037 0.61584365 -0.15864854 -0.071627036 -0.0104728835 -0.17166355
-0.09372375 0.082249135 -0.047730606 -0.18315001 1.0376353 -0.21161467 -0.021155918 -0.19177867
-0.11941023 0.8988038 -0.29890174 2.135012 -0.31672046 -0.011609482 0.14825515 -0.06634645
-0.20731643 -0.142052 -0.18529215 -0.12318772 -0.5545559 2.0852 -0.07911058 -0.114009835
-0.1674627 -0.20169207 0.92412984 -0.2931043 2.0387712 -0.181098 -0.047408607 -0.24773695
-0.0037731284 -0.1049406 -0.44464883 2.0472093 -0.15513851 -0.326342 -0.31355128 -0.19027916
1.9596455 -0.15482205 -0.0005438335 -0.019028435 2.302274 -0.5219417 -0.26602662 -0.018327307
0.14220616 2.0622633 0.07512663 2.251152 -0.2580014 0.48741737 -0.22471017 -0.1515666
-0.26899594 -0.2706117 1.1765155 -0.08935456 -0.45026544 -0.29230684 -0.25504813 -0.211063
-0.34060055 2.027392 0.46787232 -0.051336963 -0.23747668 -0.38650724 2.296264 -0.10045637
1.1474133 -0.14002126 0.28049168 1.9998629 -0.124105915 -0.1229457 -0.2842418 -0.05451876
-0.45993298 1.6269511 2.1011515 0.019670356 0.14215939 -0.21607071 -0.23386599 -0.02352782

fc3.weight f4 [5, 128]
00000000: 45e1 873c 4b10 6cbe 2e3d 8d3c 4cc5 d23b
00000010: bb42 e0bb 63c3 dbbc 4476 e5bc 4d5c 9cbd
00000020: cc2f 603b 07a7 a73c 494c 5e3d de14 1f3e
00000030: 7cee 383d ffdd 293c 0686 01bf 4e19 283e
00000040: b6ef 9dbe 8a13 873e 799c c3bc 94e8 cc3e
00000050: 2c72 893e d9b5 ef3d 7bac ab3e a2e6 833d
00000060: 9afb 42be d18d 193d c5a6 ac3e 1e45 9c3d
00000070: 11bb 5a3e e76f 4b3e 71cc fa3d 8761 b3bd
00000080: b44f b33d 29a4 963d 9a9a 30bd 2267 e73d
00000090: 7ea8 fbba 4c54 ebbc 4cdb e7be 514b efbd
000000a0: 589d 97bd d059 473e 01ac 05bd 0bc1 c83d
000000b0: 95c3 963d fdab a13d 45bd 3fbe 7584 2a3d
000000c0: ea3c 19be 408d 1dbe 76f8 aa3d b07c a13e
000000d0: a7df 163e ae16 813d 5f6a 2fbe 1b26 283d
000000e0: 4dff 053d 3712 a33d f1ac 2dbe ec7b 99bc
000000f0: 3bc0 cebe e1f7 933e 2937 95bb 682f 0f3e
00000100: cb43 b7bc bb30 b8bc 20f6 9b3e 6fda 3fbe
00000110: 5e24 623e 969c a0bc 70b7 15bd 4abc 093c
00000120: d0cd 18be 29ff 01bd ce6a 27be 8273 3b3e
00000130: f720 60be bae2 563d 2cd5 a2be 1b50 c9bd
00000140: a7af 783e daac 25bd b777 3cbd 2e59 debc
00000150: 4e0b bf3e 6f0e b9bd 7837 8e3c a98b 27bc
00000160: 16c0 d43d 90d2 8d3e b36e 1f3d 504b c93e
00000170: bc6e b13d 8169 563e 4cd9 d9bb f94e febc
00000180: 925f 3b3d 9865 d2bd fdcb b23e 26b6 493d
00000190: 6a44 25be 9a5e 983d 270f 04be 5c72 18bc
000001a0: d794 083c 989a 363e 8816 a7be 36ad 88be
000001b0: fd9e 263d c14e 573c cadd ae3e 7dee 2fbd
000001c0: 7950 283e 276b 36bd 8bfa a0bd 203a 903e
000001d0: f993 3b3e 3d7f 553d f001 94bd 7f24 adbd
000001e0: 3054 1abe 2dee df3e 5067 8b3e 4bdf 0b3d
000001f0: 26b2 483d 366f 043d f95f 9a3c 5ed9 293d
00000200: 3357 3cbc 02ad 18be 38c5 febd 363f 88bc
00000210: 28ab 4a3d 4860 67be 4745 20bc 6f49 22bc
00000220: 9154 e0bc 082f c4bc 7c5e 0dbb 8d8c 9abd
00000230: da35 c1bd 78af 92be ab97 e939 ec85 e23d
00000240: 57fc 28be ec4b 8e3e 1eed c7bd 8504 583e
00000250: 41a5 8e3e 5edc 063e a9d6 2a3e 2598 c7bc
00000260: 74f1 133c d5a7 363d e365 a13e 3235 41bb
00000270: ed7a b83e 1639 7a3d 1916 b83b aa1f 7f3b
00000280: 9a4c ac3b f31d d43d bfcb f53d b02a 6e3d
00000290: 7e91 5e3d 1359 953c 43b2 e6bd 7ffa a93c
000002a0: e228 69bd 9592 13be ed8c 013c fe9f cbbc
000002b0: 9569 023e 0060 c93d 0e02 b83d f4d7 0b3d
000002c0: a644 12bd 2ee4 e93d 245a 8dbd 4175 9b3e
000002d0: 7dc3 edbd c43b 32bd e89c 37be 636c 71bd
000002e0: 2c0f b7bc c76f 9fbc cc6b c23c 5f83 49bd
000002f0: 150a d2be cf2f 663e 7f3e 0dbd da1d 9f3c
00000300: be3b 9a3c b7d5 773d 41c8 543e ad85 2d3e
00000310: 2c12 7e3e 7d5b 04bd dbd5 203d 4267 1e3c
00000320: 343c 7dbe fd97 15bc c339 0ebe 21da 593e
00000330: 9a3e 39bd cc77 e83c cf89 d5bd d55b 6c3c
00000340: 8f14 803e 2355 d5bc 6550 12be 5100 3dbd
00000350: f1bd ac3e 2b56 b33d 5ed0 83bd f5aa 153e
00000360: b7ca 813e 4109 9a3e 2a2c 18be 2a9d a83e
00000370: 5921 7f3c 674b 963d e147 3939 51d5 8bb9
00000380: 4c87 b8bb 3514 81bc 8b2c 943e b094 a9bd
00000390: 5866 29be 7935 0f3d f2cb 3b3d 4565 873c
000003a0: ee5b acbd f076 603e 2a25 a6be 5218 a6bc
000003b0: 1ee8 313d f1fd 743d fc2d bb3e 1e98 bcbc
000003c0: 1762 2c3e dd09 023e 7577 35be f3f4 a63e
000003d0: 14f6 1b3e c18c 83bc 6a39 2ebd e83c ed3c
000003e0: 3097 ecbd 0948 813e 7db1 893e 5acc f3bd
000003f0: e30f f6bd cdd2 4b3c 1d40 2ebd ada5 88be
0.01658691 -0.2305309 0.017241087 0.006432211 -0.0068438924 -0.026826566 -0.028010495 -0.076347925
0.0034208177 0.020465387 0.05427197 0.15535304 0.04514931 0.010367869 -0.5059513 0.16415903
-0.30846947 0.26382095 -0.023878323 0.40021193 0.2684492 0.117046066 0.3353003 0.06440474
-0.19041291 0.037488762 0.33720985 0.076303706 0.21360423 0.19866906 0.12246025 -0.08758836
0.087554365 0.0735553 -0.04311619 0.11298968 -0.0019199995 -0.02872672 -0.45284498 -0.11684287
-0.07403058 0.19467854 -0.03263474 0.09802445 0.07361523 0.07894132 -0.18724544 0.041630227
-0.14964643 -0.15385914 0.083481714 0.31540442 0.14733754 0.06303154 -0.17130421 0.041051965
0.032714177 0.079624586 -0.16960503 -0.018735848 -0.40381035 0.28900054 -0.0045536947 0.13982928
-0.022371193 -0.022484174 0.30461216 -0.1873567 0.22084185 -0.019605916 -0.036551893 0.008406708
-0.14922261 -0.03173748 -0.16349337 0.18305781 -0.21887575 0.052462317 -0.31803262 -0.09829732
0.24285756 -0.040448047 -0.046012606 -0.027142134 0.37313312 -0.09035956 0.017360434 -0.010226169
0.103882 0.2769971 0.03892393 0.3931527 0.08663699 0.20938684 -0.0066482183 -0.031043516
0.04574544 -0.10273284 0.34921256 0.049245976 -0.16139379 0.07439919 -0.12896405 -0.009304609
0.008336267 0.1783241 -0.32634377 -0.2669465 0.040678967 0.013141335 0.34153587 -0.04295205
0.16436948 -0.044535782 -0.07860287 0.28169346 0.18318166 0.052123297 -0.07226932 -0.08454227
-0.15071177 0.437364 0.2722726 0.034148496 0.04899802 0.03233262 0.018844591 0.041467063
-0.011495399 -0.14909747 -0.1243996 -0.016631704 0.049479634 -0.22595322 -0.009782142 -0.009905203
-0.027384074 -0.023948207 -0.002157121 -0.07546339 -0.094340995 -0.28649497 0.00044554225 0.110607
-0.1650251 0.277923 -0.097620234 0.21095474 0.27860454 0.13170001 0.16683449 -0.02436454
0.009029735 0.04459365 0.31523046 -0.002948117 0.36031285 0.061089598 0.0056178686 0.0038928785
0.005258155 0.10357275 0.12001752 0.05814618 0.05433797 0.01823095 -0.112644695 0.020749329
-0.056923755 -0.14411385 0.0079071345 -0.024856564 0.12735589 0.09832764 0.08984767 0.034141496
-0.03571 0.11420475 -0.069019586 0.30362895 -0.11609552 -0.04351403 -0.17930949 -0.058941256
-0.022346102 -0.01946248 0.023733042 -0.04919755 -0.41023317 0.22479175 -0.03448343 0.019423414
0.018827315 0.06050655 0.20779516 0.16945525 0.2481162 -0.032313813 0.03926645 0.009668173
-0.24729997 -0.009130475 -0.13889222 0.21274616 -0.045225717 0.028377436 -0.104266755 0.014426191
0.25015685 -0.026041573 -0.1428848 -0.04614288 0.33738664 0.087566696 -0.06436227 0.14615996
0.25349972 0.30085185 -0.14860597 0.32932407 0.015571916 0.073386006 0.00017669752 -0.0002667108
-0.005631363 -0.015756706 0.28940234 -0.08280313 -0.16542947 0.034963105 0.045848794 0.016527781
-0.08415972 0.21920371 -0.3245023 -0.020275269 0.043434255 0.05981249 0.3655852 -0.023021754
0.16834293 0.12699075 -0.1772135 0.32608756 0.1523059 -0.016058328 -0.042535223 0.028959706
-0.11552274 0.2525027 0.26893225 -0.11904211 -0.12014749 0.012440396 -0.042541612 -0.266889

fc3.bias f4 [5]
00000000: 2179 b33f ae1f 9c3f 6b6b 983f 2943 a23f
00000010: 1533 c03f
1.4021341 1.2197168 1.1907781 1.2676746 1.5015589
