dqn_motor_control_v3.pth (torch, 96599 bytes, 6 tensors)

fc1.weight f4 [128, 50]
0.03742386 0.04870865 0.06631976 0.0798828 -0.048405454 -0.03577535 -0.13639292 -0.015442863
-0.12400397 -0.053595524 -0.09143968 -0.18921573 -0.11447457 0.01576095 0.030671783 -0.24296404
-0.16657537 -0.20972075 -0.15261373 -0.15828806 -0.08036581 0.05838754 0.035038117 -0.14903976
0.070539236 0.025844667 -0.024302697 0.09791287 -0.026831742 -0.015143386 0.084636524 0.16010359
-0.08259117 -0.007563976 0.1316073 0.061887626 0.15720774 0.17625381 0.0051861163 0.15317369
0.15193005 0.07782958 0.011335527 0.0016905387 0.04088202 -0.122956425 0.07458906 0.03058339
0.02127858 0.116726406 0.07234548 -0.12839018 -0.03905517 -0.02698606 -0.15242729 -0.20208953
-0.062568985 -0.052528545 -0.068206996 -0.078767635 -0.15952715 -0.15764987 0.030086027 -0.0825637
-0.052099492 -0.26407346 -0.21816546 0.029691137 0.040868696 0.13201712 0.09794702 -0.10213966
-0.10753544 -0.05555146 0.05521698 0.097024865 0.077354886 0.014821915 -0.11951784 0.09799215
0.10768601 -0.04785722 -0.067042165 -0.04737996 -0.1386477 0.060904704 -0.001327021 0.12892158
0.07786371 -0.18386205 -0.016247155 -0.12895864 0.07762716 -0.1540848 0.11796858 -0.081870735
0.20837934 0.16876614 0.16698934 -0.1583322 -0.05827423 0.027363593 -0.10242764 -0.08751238
-0.029289955 0.08295961 0.09417367 -0.1247832 0.024680918 -0.016371267 0.0418615 0.106513605
-0.045335717 -0.1249726 0.13535032 -0.123074405 -0.118906684 -0.08186564 0.05317493 -0.06030293
-0.110970244 -0.019463314 0.06250793 -0.043590195 0.13322219 -0.021020506 -0.028238593 -0.094044596
0.019507738 -0.104082674 0.09993027 -0.09183041 -0.033851195 0.06557132 0.10756254 0.008454631
0.07468343 0.07475898 -0.11434119 0.0383127 0.064376235 -0.10431896 -0.006026905 0.07028221
0.11756564 0.008331567 -0.1177363 -0.10753996 -0.091907546 0.1085526 -0.17710245 -0.28172347
-0.09738772 -0.22325373 -0.035698466 -0.123256706 -0.09558369 0.051453553 -0.23105639 -0.5838728
-0.03652752 -0.053636648 0.021495521 -0.1233423 -0.124564715 -0.01077686 0.051943377 -0.03708264
-0.05583651 -0.09323599 -0.0053001824 0.056480695 0.05669681 -0.030221907 -0.07181867 -0.038030863
0.15456109 -0.012525057 0.061840385 -0.048940845 -0.0468486 0.09323365 -0.048224322 0.0053875637
0.12174107 0.056548253 0.091821834 -0.0032329778 0.07863611 -0.036171857 -0.17752321 -0.16822155
-0.1788917 -0.010955843 -0.18881486 -0.1495588 -0.07679786 -0.18368636 -0.09929603 -0.26931462
0.13339897 0.045286287 -0.083597265 0.15323249 0.056199897 -0.11074584 0.03680198 -0.21978158
-0.35001686 -0.5913417 -0.17865099 -0.034437075 -0.096504286 -0.224266 -0.2525556 0.03587028
0.00013833397 -0.09417517 -0.1316787 -0.14066797 0.029935816 -0.08241392 -0.12872134 -0.07570525
0.036987413 -0.03903275 0.0570447 -0.08642544 -0.009588977 -0.0645891 0.021582631 -0.06100431
-0.015980337 0.0805375 -0.15759823 -0.09028608 -0.17066596 0.040350027 -0.005879963 -0.06931622
-0.014016674 -0.027079647 -0.058259558 0.1422111 0.0142122945 -0.03677915 -0.04785653 -0.026829148
0.0707316 -0.21484947 -0.12593715 -0.17487834 -0.104066014 -0.02642887 -0.12827118 -0.10168205
00000000: c349 193d b982 473d a8d2 873d 9899 a33d
00000010: cc44 46bd 2c89 12bd 96aa 0bbe 1004 7dbc
00000020: cbf5 fdbd fb86 5bbd ba44 bbbd c5c1 41be
00000030: a571 eabd 1c1d 813c 6443 fb3c 91cb 78be
00000040: bc92 2abe 09c1 56be c646 1cbe 4416 22be
00000050: d496 a4bd c627 6f3d 2184 0f3d e19d 18be
00000060: e076 903d 32b8 d33c 7316 c7bc 8b86 c83d
00000070: 3ece dbbc f71b 78bc ea55 ad3d 32f2 233e
00000080: 8f25 a9bd 3bdb f7bb 10c4 063e e17d 7d3d
00000090: 11fb 203e e17b 343e 4cf0 a93b 90d9 1c3e
000000a0: 8d93 1b3e 1d65 9f3d a5b8 393c 1195 dd3a
000000b0: e873 273d 94d0 fbbd 26c2 983d 048a fa3c
000000c0: 6b50 ae3c 410e ef3d de29 943d b778 03be
000000d0: 50f8 1fbd df11 ddbc e615 1cbe 8ff0 4ebe
000000e0: 2b24 80bd 2c28 57bd 1cb0 8bbd ed50 a1bd
000000f0: 165b 23be f86e 21be f976 f63c 2817 a9bd
00000100: 4766 55bd a334 87be c466 5fbe d43a f33c
00000110: ef65 273d 7f2f 073e 7298 c83d 992e d1bd
00000120: 8a3b dcbd ed89 63bd 332b 623d f9b4 c63d
00000130: 3d6c 9e3d 9ed7 723c c5c5 f4bd 1cb0 c83d
00000140: 7c8a dc3d ef05 44bd 674d 89bd 7d11 42bd
00000150: aaf9 0dbe 3677 793d 70ef adba 0504 043e
00000160: 0277 9f3d 5546 3cbe c118 85bc bc0d 04be
00000170: fdfa 9e3d 68c8 1dbe 8399 f13d d8ab a7bd
00000180: 6561 553e 08d1 2c3e 41ff 2a3e d621 22be
00000190: f6b0 6ebd 9d29 e03c 95c5 d1bd b139 b3bd
000001a0: 7df1 efbc bae6 a93d 20de c03d 568e ffbd
000001b0: a32f ca3c 091d 86bc f776 2b3d ce23 da3d
000001c0: f2b1 39bd a2f1 ffbd 4699 0a3e 6f0e fcbd
000001d0: 5985 f3bd 2ca9 a7bd f5cd 593d 3500 77bd
000001e0: 5e44 e3bd 8771 9fbc 2804 803d a28b 32bd
000001f0: 666b 083e 3233 acbc 9f54 e7bc 749a c0bd
00000200: b1ce 9f3c 4c29 d5bd 3ea8 cc3d 9511 bcbd
00000210: 8da7 0abd 424a 863d c049 dc3d 4b85 0a3c
00000220: a0f3 983d 3c1b 993d b72b eabd c7ed 1c3d
00000230: b0d7 833d 2ea5 d5bd 587d c5bb 1ff0 8f3d
00000240: 41c6 f03d 2081 083c bb1f f1bd e93d dcbd
00000250: 063a bcbd d350 de3d 585a 35be 0f3e 90be
00000260: 3773 c7bd a09c 64be 8e38 12bd 036e fcbd
00000270: 62c1 c3bd f6c0 523d 0c9a 6cbe b078 15bf
00000280: e19d 15bd 1ab2 5bbd 6017 b03c e39a fcbd
00000290: c91b ffbd 6d91 30bc 94c2 543d f7e3 17bd
000002a0: d3b4 64bd 83f2 bebd 27ad adbb 4d58 673d
000002b0: ea3a 683d ef93 f7bc ab15 93bd 40c6 1bbd
000002c0: 4345 1e3e e635 4dbc 584c 7d3d 3276 48bd
000002d0: 51e4 3fbd 49f1 be3d de86 45bd 298a b03b
000002e0: 6253 f93d 249f 673d 160d bc3d 5ee0 53bb
000002f0: f80b a13d f128 14bd a5c8 35be 4542 2cbe
00000300: 632f 37be 2380 33bc af58 41be f125 19be
00000310: 3248 9dbd 4718 3cbe b85b cbbd 9be3 89be
00000320: bd99 083e 1d7e 393d 0b35 abbd fae8 1c3e
00000330: dd31 663d b7ce e2bd acbd 163d 6c0e 61be
00000340: 6935 b3be 2b62 17bf 49f0 36be e40d 0dbd
00000350: 0aa4 c5bd fca5 65be f84e 81be b7ec 123d
00000360: be0d 1139 e9de c0bd c8d6 06be 440b 10be
00000370: f53b f53c a1c8 a8bd 87cf 03be 5b0b 9bbd
00000380: 1d80 173d cee0 1fbd b4a7 693d d2ff b0bd
00000390: 161b 1dbc 4a47 84bd 0fce b03c a8df 79bd
000003a0: 32e9 82bc d8f0 a43d 6e61 21be e9e7 b8bd
000003b0: 0fc3 2ebe 1246 253d b4ac c0bb aaf5 8dbd
000003c0: 31a6 65bc 23d6 ddbc 93a1 6ebd c99f 113e
000003d0: afda 683c bca5 16bd 3505 44bd cdc8 dbbc
000003e0: bbdb 903d 8001 5cbe abf5 00be 4f13 33be
000003f0: 9020 d5bd 5c81 d8bc 8559 03be ae3e d0bd

fc1.bias f4 [128]
-0.015749834 0.092963174 -0.060572907 -0.0197779 -0.1319826 -0.17311688 -0.034897394 0.6048334
-0.056549992 0.034335278 0.038793385 -0.6330905 0.021794122 -0.09279223 -0.109211855 -0.046247903
-0.05749226 0.5841507 -0.009326508 -0.14047024 -0.058664497 0.14410336 0.3363748 0.06255275
0.09020002 -0.1323511 0.04044824 0.11397667 -0.06299117 0.4928397 0.09423363 0.10696259
0.015418699 0.029908063 -0.14895535 0.21615525 -0.051396005 0.13630071 -0.053257555 0.4049634
-0.104198776 0.6263663 0.03736071 -0.17296894 0.5582053 0.05357825 -0.01840939 0.5844361
0.30259043 -0.26996565 -0.04097846 0.090026334 0.012653555 0.42299837 0.13295865 -0.04205655
0.058024548 -0.016690945 -0.11045749 -0.07878961 -0.69543266 -0.049499065 -0.052006982 -0.116802014
-0.15136214 0.07992727 0.85197383 0.050016128 -0.00860306 0.0868117 -0.09281919 0.557249
-0.14638303 0.022870502 -0.06757337 -0.14000821 0.051677465 -0.035460044 -0.11462416 0.18685125
-0.04208854 -0.13016902 -0.011186314 -0.17070732 0.059075173 0.35425407 0.02815182 -0.09691007
0.3897824 0.043973256 -0.2242556 0.040886976 0.20805569 -0.066052206 0.077076636 0.091995254
-0.024269182 -0.13440141 -0.08389567 -0.18564175 -0.18815328 -0.070167854 0.5153706 -0.21192807
-0.09485491 0.032508355 -0.17592931 -0.09830831 0.5978256 0.079071276 0.007658755 0.13666438
-0.10447075 -0.14438625 0.43113798 -0.049113035 0.26655686 -0.14773788 0.51911926 -0.0737059
0.4828753 0.11638815 -0.57899123 0.546598 -0.06231809 -0.04513805 -0.09242969 0.31869477
00000000: cc05 81bc 7a63 be3d 4c1b 78bd 4305 a2bc
00000010: 7226 07be 8d45 31be 92f0 0ebd 5dd6 1a3f
00000020: f7a0 67bd 26a3 0c3d d0e5 1e3d 3812 22bf
00000030: 9689 b23c da09 bebd 77aa dfbd 716e 3dbd
00000040: 017d 6bbd e68a 153f 36ce 18bc 6ed7 0fbe
00000050: 2f4a 70bd d58f 133e 5139 ac3e a81b 803d
00000060: caba b83d 0c87 07be 0ead 253d 9a6c e93d
00000070: 8401 81bd 7c55 fc3e 90fd c03d 340f db3d
00000080: b69e 7c3c c101 f53c c087 18be cd57 5d3e
00000090: 9e84 52bd 6a92 0b3e 9824 5abd 5d57 cf3e
000000a0: 2b66 d5bd 8b59 203f 8b07 193d c51e 31be
000000b0: 8be6 0e3f de74 5b3d 4acf 96bc 9b9d 153f
000000c0: 22ed 9a3e f038 8abe 08d9 27bd ba5f b83d
000000d0: db50 4f3c 3e93 d83e 5026 083e 7d43 2cbd
000000e0: 26ab 6d3d 73bb 88bc 8937 e2bd 725c a1bd
000000f0: e007 32bf 88bf 4abd 4605 55bd e535 efbd
00000100: adfe 1abe e9b0 a33d f51a 5a3f b6dd 4c3d
00000110: d9f3 0cbc 55ca b13d fd17 bebd dfa7 0e3f
00000120: 6fe5 15be eb5a bb3c e863 8abd 505e 0fbe
00000130: c0ab 533d 8d3e 11bd 12c0 eabd ef55 3f3e
00000140: 0865 2cbd 074b 05be cd46 37bc e6cd 2ebe
00000150: cff8 713d ca60 b53e a59e e63c c978 c6bd
00000160: 8f91 c73e 4d1d 343d 43a3 65be 1a79 273d
00000170: 8d0c 553e 6146 87bd 5bda 9d3d 0268 bc3d
00000180: 2ad0 c6bc 86a0 09be 7ed1 abbd df18 3ebe
00000190: 41ab 40be 2ab4 8fbd 54ef 033f ac03 59be
000001a0: 4b43 c2bd 7b27 053d d026 34be de55 c9bd
000001b0: 190b 193f 1ff0 a13d 4bf6 fa3b bff1 0b3e
000001c0: c3f4 d5bd fdd9 13be 1ebe dc3e c02a 49bd
000001d0: 247a 883e 9948 17be 00e5 043f 1ef3 96bd
000001e0: 6e3b f73e e95c ee3d c538 14bf d9ed 0b3f
000001f0: 4141 7fbd ade2 38bd c74b bdbd f62b a33e

fc2.weight f4 [128, 128]
0.0195232 -0.066591084 -0.040424615 -0.10187293 -0.018659633 -0.060468998 -0.042088445 0.013392685
0.046890065 -0.046585716 -0.012501269 -0.10503409 -0.0872623 0.028271813 -0.009344599 -0.048296586
-0.092717126 -0.10315217 0.07784771 -0.05772623 0.060431678 0.078676656 0.043485403 0.004376532
-0.07509391 -0.06322626 -0.010725702 -0.039441817 -0.04314101 -0.117297366 0.048495777 -0.040732495
-0.0040830933 -0.0791121 -0.087744646 0.033597343 0.06335603 -0.070684575 0.010754732 -0.0026538745
-0.09506568 -0.0953783 -0.06095092 -0.062555656 -0.100460865 -0.010466264 -0.044657398 0.011720471
0.025015151 -0.02977059 0.047361583 -0.06669709 -0.050075106 -0.12750724 -0.08944298 -0.063862674
-0.037422907 0.027273001 0.057889033 -0.013820552 -0.06661443 0.023797207 0.05945387 0.07223372
-0.10779636 -0.07042549 -0.11279331 -0.024783917 -0.047748987 0.019260384 -0.06939144 0.0067388886
-0.06398497 0.040394798 -0.09015811 -0.12614885 -0.06251189 0.03819683 0.019555198 -0.1426056
-0.04130528 -0.09427039 -0.07279238 -0.062415957 -0.022673074 0.06995974 0.0622991 0.04445655
-0.15484671 0.041974653 -0.04530555 0.0062839054 -0.016954968 0.047077987 -0.06700667 0.038371373
0.012264097 -0.08850946 0.077297345 -0.010404967 0.038579572 -0.06782742 0.063173324 0.026234055
-0.010316142 0.03310007 -0.064234145 0.06939969 -0.005025476 0.053678773 0.014934356 0.06218861
-0.012487068 -0.00436246 0.02040838 0.03583094 -0.031205103 -0.03296079 -0.06513804 0.02685201
-0.0033885564 -0.059038784 0.009552488 -0.031046053 -0.025006395 -0.06264552 -0.06592645 -0.08120116
-0.02160005 -0.14189018 -0.080802046 -0.13133942 -0.13533168 0.07662185 0.004975829 -0.46575284
-0.033026557 0.23218285 -0.22211993 -0.4478419 -0.103868574 0.009259644 0.06400138 -0.1394107
-0.053301703 -0.1466457 -0.056203384 -0.09591418 0.04607002 -0.023910377 0.12212402 -0.01765248
0.024072675 0.08010037 0.036002163 -0.08549579 -1.2111458 -0.007144571 0.05970696 -0.20728372
-0.016129712 -0.012069477 0.08032393 -0.1140412 0.057065967 -0.14283875 -0.13975947 0.03594707
-0.16115806 0.16613406 -0.035302103 -0.025247026 -0.46784437 -0.063899815 -0.06284295 0.12907517
0.22936364 0.09402434 -0.043770593 0.015183544 -0.1885883 -0.34200183 -0.004031163 0.03982431
-0.23019476 0.013320137 0.0650024 -0.02839367 -0.28139725 -0.040430415 -0.33361995 0.043888763
0.01478265 -0.038534243 -0.64404976 -0.032070983 0.03131697 0.060770653 -0.006734911 -0.28062296
-0.0074945646 -0.07359834 -0.033238355 -0.12715438 -0.28518265 0.034175985 0.039766923 -0.43986335
0.06934686 0.010397493 -0.04977527 -0.11483562 0.039595902 -0.1782329 0.0013278786 0.07848136
0.15051249 -0.006558533 0.029984191 -0.6514786 0.07008941 0.010919437 -0.086532585 -0.027328748
-0.06597714 -0.04113542 -0.051855292 -0.26861814 -0.12051782 -0.12651032 -0.22767898 -0.40506807
0.11861366 -0.13314924 -0.24375738 0.0214956 0.23217505 -0.041640382 0.08340768 -0.13223791
-0.070702456 -0.29258513 0.05174107 0.04236951 -0.07479004 -0.034861382 -0.45323864 0.00018041705
0.1653138 -0.14265758 -0.081704326 0.19578442 -0.043908 -0.31667244 -0.079877965 -0.33570188
00000000: 1eef 9f3c e860 88bd 4894 25bd c1a2 d0bd
00000010: 16dc 98bc 57ae 77bd ef64 2cbd fe6c 5b3c
00000020: cc0f 403d aad0 3ebd 1fd2 4cbc 1d1c d7bd
00000030: 94b6 b2bd 4a9a e73c 171a 19bc a4d2 45bd
00000040: 7ae2 bdbd 7241 d3bd 9f6e 9f3d 5772 6cbd
00000050: 3587 773d 3a21 a13d c01d 323d 0369 8f3b
00000060: d6ca 99bd c57c 81bd dbba 2fbc be8d 21bd
00000070: a1b4 30bd 9a39 f0bd 82a3 463d 1ed7 26bd
00000080: 78cb 85bb 8605 a2bd 77b3 b3bd 5e9d 093d
00000090: cec0 813d 13c3 90bd 9e34 303c a0ec 2dbb
000000a0: ccb1 c2bd b355 c3bd aca7 79bd 2e1d 80bd
000000b0: 6dbe cdbd b17a 2bbc adea 36bd 3807 403c
000000c0: 93ec cc3c 74e1 f3bc 38fe 413d 7c98 88bd
000000d0: 8e1b 4dbd 4291 02be e22d b7bd 6fca 82bd
000000e0: c348 19bd a16b df3c 0d1d 6d3d 996f 62bc
000000f0: 256d 88bd 5cf2 c23c e785 733d 46ef 933d
00000100: 57c4 dcbd 3d3b 90bd 2e00 e7bd a407 cbbc
00000110: 7194 43bd f4c7 9d3c 191d 8ebd e5d1 dc3b
00000120: 8d0a 83bd 0475 253d d1a4 b8bd 2a2d 01be
00000130: 3c06 80bd 4774 1c3d 3932 a03c 3407 12be
00000140: ba2f 29bd d610 c1bd 2c14 95bd e0a7 7fbd
00000150: e2bc b9bc 0d47 8f3d 572d 7f3d 1218 363d
00000160: 2390 1ebe 9ded 2b3d 5092 39bd 38e9 cd3b
00000170: 25e5 8abc d9d4 403d cb3a 89bd 4d2b 1d3d
00000180: 5aef 483c 7344 b5bd 124e 9e3d 9879 2abc
00000190: 9d05 1e3d 1ae9 8abd 0461 813d cde8 d63c
000001a0: 0905 29bc f093 073d 318d 83bd 6d21 8e3d
000001b0: c0ac a4bb 46de 5b3d 3baf 743c 7cb9 7e3d
000001c0: 8f96 4cbc f8f2 8ebb 7a2f a73c 77c3 123d
000001d0: d8a1 ffbc e501 07bd 1867 85bd bff8 db3c
000001e0: 8b12 5ebb a7d2 71bd 0a82 1c3c 4b54 febc
000001f0: 36da ccbc 4b4c 80bd 7204 87bd cb4c a6bd
00000200: 97f2 b0bc a94b 11be 8b7b a5bd d77d 06be
00000210: 6394 0abe ebeb 9c3d 470c a33b 2877 eebe
00000220: db46 07bd 57c1 6d3e 6873 63be 894b e5be
00000230: 0cb9 d4bd c3b5 173c 2813 833d aec1 0ebe
00000240: e352 5abd 4a2a 16be 8535 66bd a76e c4bd
00000250: ebb3 3c3d b2df c3bc 281c fa3d ef9b 90bc
00000260: 0f34 c53c aa0b a43d 0177 133d 6b18 afbd
00000270: d306 9bbf 011d eabb 498f 743d 2f42 54be
00000280: 7522 84bc 0ebf 45bc df80 a43d 6f8e e9bd
00000290: 01be 693d 5244 12be 1b1d 0fbe 3c3d 133d
000002a0: 9e06 25be 0c1f 2a3e f098 10bd dad2 cebc
000002b0: 4c89 efbe e8dd 82bd ceb3 80bd 482c 043e
000002c0: 4dde 6a3e d58f c03d cb48 33bd 66c4 783c
000002d0: 4b1d 41be dd1a afbe d917 84bb d11e 233d
000002e0: 2db8 6bbe b43c 5a3c fa1f 853d d899 e8bc
000002f0: 4d13 90be 5d9a 25bd 3cd0 aabe b4c4 333d
00000300: ee32 723c 15d6 1dbd 72e0 24bf dd5c 03bd
00000310: 3946 003d a6ea 783d 87b0 dcbb d0ad 8fbe
00000320: f794 f5bb baba 96bd f124 08bd c234 02be
00000330: 7603 92be 1efc 0b3d a4e2 223d c535 e1be
00000340: ba05 8e3d 3f5a 2a3c 27e1 4bbd f02e ebbd
00000350: 502f 223d af82 36be 360c ae3a d6ba a03d
00000360: f21f 1a3e f6e8 d6bb 68a1 f53c 4dc7 26bf
00000370: 098b 8f3d 70e7 323c ff37 b1bd 8ae0 dfbc
00000380: 061f 87bd 9d7d 28bd 3766 54bd 5188 89be
00000390: 0cd2 f6bd ec8b 01be ae24 69be 1565 cfbe
000003a0: b8eb f23d 4658 08be 899b 79be 8a17 b03c
000003b0: 4cbf 6d3e 1b8f 2abd a5d1 aa3d 6069 07be
000003c0: 73cc 90bd b8cd 95be 72ee 533d a78b 2d3d
000003d0: 852b 99bd cfca 0ebd e50e e8be 552e 3d39
000003e0: 0548 293e d414 12be 9954 a7bd b67b 483e
000003f0: e0d8 33bd e422 a2be 0f97 a3bd 1ee1 abbe

fc2.bias f4 [128]
-0.14353125 0.7511865 0.017327776 -0.13171512 0.016604904 -0.10552848 0.06033303 -0.07552084
-0.08336204 0.017268637 -0.053918652 -0.09168907 -0.08948312 -0.023948578 -0.007709461 0.0073354156
-0.056936488 0.058633827 1.1320508 -0.0068790256 -0.0007828138 -0.001155558 -0.13764818 0.2856429
0.014172713 -0.0776576 0.95698655 -0.06356445 -0.06404924 0.030215241 0.025474187 -0.08156277
-0.03853031 -0.09945843 -0.016252853 0.7408284 0.12684518 -0.062120657 0.15836585 -0.30810198
-0.07580062 0.014682587 0.39885342 -0.1158948 -0.03566925 -0.05054501 -0.067515045 -0.031155745
-0.14820452 -0.06586388 0.058376316 0.9336805 -0.107028335 0.031771198 0.15636036 0.6116099
0.020241894 0.28638232 0.062965356 0.20940076 0.12607823 0.47986045 0.08463153 -0.17930727
-0.1472018 0.23292993 -0.05295031 0.9100515 -0.06968792 -0.009910503 0.5145246 -0.021441152
-0.0016373477 -0.097387545 0.15703368 -0.050621834 0.6825697 -0.11426737 -0.16997643 -0.038675584
0.010521543 0.0046303216 -0.004392254 -0.07247899 -0.1447902 -0.05970319 -0.08045822 -0.12759985
-0.10104908 -0.08755987 -0.090210624 -0.04955762 -0.0823222 -0.028720986 0.034231253 -0.06751966
-0.14189203 -0.09344044 -0.05373731 -0.0017928107 0.019032612 0.90784645 -0.09793316 0.099159956
-0.04336247 -0.060726576 0.95816183 0.2899917 0.0451847 -0.08380962 0.029617766 0.2984791
-0.057030678 0.9737267 -0.45490482 0.45086557 0.049194098 -0.044409737 -0.01695697 -0.0057055037
0.84912515 -0.82682246 0.03119438 -0.049279697 0.59867525 -0.0466941 0.87473273 0.036891542
00000000: dbf9 12be c24d 403f fbf2 8d3c 54e0 06be
00000010: 0207 883c 511f d8bd c41f 773d acaa 9abd
00000020: b8b9 aabd f576 8d3c ced9 5cbd 7bc7 bbbd
00000030: ed42 b7bd cf2f c4bc a59f fcbb ed5d f03b
00000040: 3c36 69bd 062a 703d 0ae7 903f 7369 e1bb
00000050: bf35 4dba 1876 97ba a5f3 0cbe c93f 923e
00000060: ab34 683c f30a 9fbd 12fd 743f 142e 82bd
00000070: 3f2c 83bd f485 f73c 3eaf d03c 620a a7bd
00000080: f5d1 1dbd ddb0 cbbd b424 85bc eea6 3d3f
00000090: b4e3 013e 3b72 7ebd a82a 223e 8bbf 9dbe
000000a0: 5b3d 9bbd 3c8f 703c 8436 cc3e 415a edbd
000000b0: eb19 12bd 4908 4fbd 5445 8abd 553a ffbc
000000c0: edc2 17be a4e3 86bd 011c 6f3d af05 6f3f
000000d0: ac31 dbbd 8422 023d ee1c 203e 7792 1c3f
000000e0: 54d2 a53c b4a0 923e fbf3 803d 276d 563e
000000f0: a71a 013e 45b0 f53e 4c53 ad3d 539c 37be
00000100: 12bc 16be 2f85 6e3e 6de2 58bd 23f9 683f
00000110: 8ab8 8ebd aa5f 22bc e2b7 033f 5ba5 afbc
00000120: 469c d6ba 1f73 c7bd 70cd 203e d758 4fbd
00000130: e3bc 2e3f 0305 eabd 4d0e 2ebe 4a6a 1ebd
00000140: 8d62 2c3c f4b9 973b e6ec 8fbb dd6f 94bd
00000150: e243 14be 558b 74bd 47c7 a4bd 89a9 02be
00000160: d2f2 cebd 9752 b3bd 59c0 b8bd eefc 4abd
00000170: 8b98 a8bd 4648 ebbc 1236 0c3d bf47 8abd
00000180: 254c 11be b45d bfbd a71b 5cbd bffc eaba
00000190: 48ea 9b3c a068 683f 2e91 c8bd 6014 cb3d
000001a0: d89c 31bd 6ebc 78bd 184a 753f cb79 943e
000001b0: 9813 393d 61a4 abbd f5a0 f23c 41d2 983e
000001c0: 0099 69bd 2746 793f 49e9 e8be dad7 e63e
000001d0: c07f 493d fce6 35bd 58e9 8abc 3cf5 babb
000001e0: 4460 593f a3aa 53bf 5b8b ff3c 82d9 49bd
000001f0: c842 193f 5042 3fbd 7cee 5f3f 961b 173d

fc3.weight f4 [5, 128]
0.018680757 0.2391605 0.0037205145 -0.1235877 -0.0024173653 -0.022667898 -0.0020014248 0.11482041
0.0036561748 0.016706888 -0.034312773 -0.01954098 0.055449087 0.016337764 0.08519234 -0.017414276
-0.004659006 0.011235146 0.33448318 -0.046555635 0.020070493 0.06142282 0.06147754 -0.10015763
0.13362008 -0.022346832 0.29829872 0.07893081 0.25634316 -0.05261271 -0.025843386 -0.031952728
-0.10761256 0.0022012463 0.060588665 0.1741303 0.33103043 0.021042354 0.026929613 -0.2355522
0.027765697 -0.03963999 -0.0526617 -0.054631986 0.09929356 0.023011215 0.06432073 -0.05851251
-0.0042139874 -0.015681732 0.2636526 0.2635904 0.0384847 -0.05304582 0.006434016 0.1252167
0.15045513 0.06305187 -0.03133796 0.1424301 0.020579757 0.06341138 -0.061723806 -0.26855907
0.012580795 -0.019276641 -0.029106792 0.30870292 0.02141414 -0.09232406 0.21987504 -0.040572606
-0.18940653 0.0016482942 0.33924285 0.031628195 0.12735243 0.061719038 -0.0052300966 0.04112917
-0.0145839695 0.021963434 0.046758786 0.14920181 0.023572475 0.03688679 0.035545558 -0.00399414
-0.014145604 0.087321065 0.03422732 -0.015734164 0.16608515 -0.026529783 0.0100816125 0.059299916
0.18158899 0.0059140716 -0.058019403 -0.030111447 -0.008112165 0.21722852 -0.042349156 0.077763475
0.045542635 -0.028429458 0.1940441 -0.030444345 -0.034673214 0.011759594 0.08316358 -0.010903419
0.02561977 0.31371158 -0.18887281 -0.19098777 0.16201961 0.018041266 0.03117672 0.069128
0.15870693 -0.43596068 -0.016655833 0.004675413 -0.25190455 0.08737974 0.31298143 0.05381978
0.094161466 0.23230997 -0.043900102 -0.063122734 0.07245247 -0.04484941 -0.026392767 -0.014484896
0.08000116 -0.0380947 0.041230764 -0.024009036 0.07627265 0.038630016 -0.008317342 0.026879285
0.009300887 0.018325176 0.31148076 -0.03257316 -0.04027707 0.0937295 -0.04230799 0.0050967564
0.09020835 -0.055120945 0.2815921 0.19061445 0.053558562 -0.061666757 0.07019675 0.02272615
-0.34629616 -0.060243536 -0.012928325 0.1810722 0.33557788 -0.075154215 0.0058024866 -0.0024601412
0.036174707 0.04359117 0.00029646684 0.009516325 -0.014219728 -0.075392514 -0.03921269 -0.036738276
-0.054381058 0.055927563 -0.021718835 0.2791188 -0.018140325 0.06888782 -0.030106163 0.08927626
0.08186749 0.121047996 0.040608414 0.013619814 0.095017776 0.06879064 -0.08669177 -0.04890651
0.0025989038 0.029275805 0.05033563 0.30863923 -0.07221554 -0.18007664 0.18956259 -0.059292853
-0.31583902 0.0015166438 0.35653055 0.12345932 0.11297967 -0.038622018 -0.05755892 0.0710884
0.02921861 0.037662238 0.019774128 0.04901309 0.07792483 0.08088274 0.02199654 0.04953452
0.09795865 -0.0068100817 -0.061567727 0.0222101 0.07102667 -0.0035090507 -0.028730309 -0.001305694
0.121161945 0.042308014 -0.038541175 -0.00919502 0.04200309 0.23797649 0.02776344 0.13536659
0.08363909 -0.10768444 0.21818091 0.053302456 0.09914103 0.0040584886 0.18054165 -0.02901362
0.019492075 0.34428996 -0.15242139 0.15151969 -0.009844134 -0.1324058 0.01121312 0.016688662
0.18968354 -0.33669427 -0.0072925105 -0.017965063 -0.23162311 0.02681885 0.28318423 0.021981034
00000000: 6308 993c 7de6 743e e0d3 733b 8c1b fdbd
00000010: a96c 1ebb 07b2 b9bc 562a 03bb f726 eb3d
00000020: 6f9c 6f3b e2dc 883c 8d8b 0cbd 6814 a0bc
00000030: 951e 633d c6d6 853c 5279 ae3d 62a8 8ebc
00000040: 93aa 98bb 9e13 383c 6141 ab3e 1fb1 3ebd
00000050: e06a a43c 7f96 7b3d dfcf 7b3d 721f cdbd
00000060: b4d3 083e b410 b7bc 9cba 983e 7aa6 a13d
00000070: 693f 833e 6d80 57bd 82b5 d3bc dde0 02bd
00000080: f963 dcbd c942 103b d22b 783d 374f 323e
00000090: d27c a93e 0461 ac3c 7e9b dc3c 9934 71be
000000a0: e374 e33c 8b5d 22bd cbb3 57bd cac5 5fbd
000000b0: 6c5a cb3d 0482 bc3c 96ba 833d d0aa 6fbd
000000c0: 7d15 8abb fa76 80bc 79fd 863e 52f5 863e
000000d0: 22a2 1d3d 9346 59bd 70d4 d23b ce38 003e
000000e0: e910 1a3e 5721 813d 3c5c 00bd 32d9 113e
000000f0: e196 a83c d3dd 813d 1ad2 7cbd 9380 89be
00000100: ae1f 4e3c 0cea 9dbc 5e71 eebc 4f0e 9e3e
00000110: b56c af3c 6614 bdbd ec26 613e 762f 26bd
00000120: c9f3 41be 930b d83a 3db1 ad3e 918c 013d
00000130: ad68 023e 1acd 7c3d 3b61 abbb 1077 283d
00000140: 9af1 6ebc a9ec b33c 2486 3f3d 5cc8 183e
00000150: 101b c13c 9a16 173d 3898 113d 46e1 82bb
00000160: f7c2 67bc 63d5 b23d f231 0c3d efe4 80bc
00000170: 3a12 2a3e fd54 d9bc 592d 253c 78e4 723d
00000180: 77f2 393e d4ca c13b c1a5 6dbd 48ac f6bc
00000190: e3e8 04bc 2771 5e3e 4f76 2dbd 7542 9f3d
000001a0: ea8a 3a3d e5e4 e8bc 7fb3 463e 6b66 f9bc
000001b0: 8005 0ebd 50ab 403c ab51 aa3d 41a4 32bc
000001c0: 8de0 d13c ce9e a03e e067 41be 4c92 43be
000001d0: 78e8 253e 47cb 933c 5266 ff3c fb92 8d3d
000001e0: 1284 223e 3d36 dfbe d071 88bc 3534 993b
000001f0: a2f9 80be 26f4 b23d 1a3f a03e 2172 5c3d
00000200: bad7 c03d aae2 6d3e 98d0 33bd 7e46 81bd
00000210: f661 943d 04b4 37bd a535 d8bc 0f52 6dbc
00000220: a6d7 a33d 3009 1cbd 97e1 283d 99ae c4bc
00000230: d634 9c3d 823a 1e3d 7645 08bc f231 dc3c
00000240: bf62 183c ae1e 963c 687a 9f3e 6f6b 05bd
00000250: 92f9 24bd 41f5 bf3d 254b 2dbd b102 a73b
00000260: 28bf b83d 80c6 61bd d72c 903e 6f30 433e
00000270: 3960 5b3d 4896 7cbd 50c3 8f3d 312c ba3c
00000280: bb4d b1be edc1 76bd 53d1 53bc fe6a 393e
00000290: ddd0 ab3e 74ea 99bd c922 be3b 523a 21bb
000002a0: ee2b 143d a88c 323d 1b6f 9b39 5cea 1b3c
000002b0: ddf9 68bc 6467 9abd 7c9d 20bd e07a 16bd
000002c0: acbe 5ebd 4d14 653d b3eb b1bc a9e8 8e3e
000002d0: 059b 94bc 0f15 8d3d 33a1 f6bc 79d6 b63d
000002e0: 25aa a73d 03e8 f73d 0255 263d a425 5f3c
000002f0: ae98 c23d 1be2 8c3d 748b b1bd 3152 48bd
00000300: 5f52 2a3b d0d3 ef3c bc2c 4e3d f605 9e3e
00000310: bee5 93bd 0366 38be b21c 423e 10dd 72bd
00000320: a7b5 a1be 1fca c63a 2c8b b63e 3dd8 fc3d
00000330: e361 e73d 1f32 1ebd e7c2 6bbd cc96 913d
00000340: de5b ef3c b843 1a3d 5afd a13c f3c1 483d
00000350: 0e97 9f3d daa5 a53d 1632 b43c b5e4 4a3d
00000360: 8b9e c83d 1b27 dfbb 712e 7cbd f5f1 b53c
00000370: 6e76 913d 1af8 65bb d35b ebbc d223 abba
00000380: c123 f83d 2b4b 2d3d 5add 1dbd b6a6 16bc
00000390: 6f0b 2c3d 1cb0 733e 2770 e33c 8a9d 0a3e
000003a0: f94a ab3d a989 dcbd d16a 5f3e ad53 5a3d
000003b0: 740a cb3d 12fd 843b e9df 383e f9ad edbc
000003c0: d8ad 9f3c c646 b03e 5a14 1cbe fa27 1b3e
000003d0: 4a49 21bc 6395 07be 3cb7 373c a9b6 883c
000003e0: 673c 423e 3163 acbe 03f6 eebb 782b 93bc
000003f0: 9c2e 6dbe 34b3 db3c 86fd 903e 9211 b43c

fc3.bias f4 [5]
0.3744002 0.6886644 0.77158475 0.88726974 0.2831539
00000000: 62b1 bf3e 4f4c 303f 9486 453f 1c24 633f
00000010: 8cf9 903e
