dqn_with_human_intent.pth (torch, 12631 bytes, 6 tensors)

net.0.weight f4 [64, 6]
0.10229392 0.32413507 0.24096476 -0.17145097 -0.21468903 0.08157383 0.2788884 -0.3258221
-0.12936842 0.16343443 0.19584823 0.21513239 0.30164453 -0.35268074 0.32659325 -0.21950711
-0.20554681 -0.08352766 -0.002805678 -0.25201687 -0.08894325 0.0051477836 -0.9737562 0.32010862
-0.10205945 0.11120983 -0.0011284194 -0.13106008 0.14950421 0.052354522 -0.20155925 0.2723792
-0.12377017 -0.33215082 0.02213979 0.31492192 0.1114896 0.24392061 -0.21313469 -0.26539996
0.3269068 0.124132365 0.36438745 0.15602437 -0.0037173082 0.24560136 -0.33194742 -0.27751502
0.30794463 -0.41994023 -0.3434761 -0.013459399 0.07576282 -0.3238828 0.038344517 -0.42889294
-0.0362492 -0.35906637 0.17590706 -0.32655883 0.1317658 0.09366179 0.19442667 -0.055133063
0.03769775 0.14037049 0.07412926 0.19070284 -0.10079501 0.094917215 0.13456368 0.18239884
-0.22581236 -0.2947731 -0.23216525 -0.10327286 -0.33546185 -0.07346964 0.13061851 0.26493877
-0.24033277 0.039410967 -0.015781334 0.32242396 -0.11623264 -0.020624341 0.14554457 0.12929739
-0.15250114 -0.27903593 -0.23384105 -0.21712446 -0.35438746 0.13751948 0.124309756 -0.32600853
0.30498615 0.19757317 -0.316212 -0.15279977 0.04472216 -0.35749274 0.020000841 0.046550807
0.0010701431 -0.044765167 -0.24641575 0.08856896 0.12297037 0.20779054 0.0052620666 -0.36418244
-0.07834317 -0.34213927 -0.20117936 -0.36282805 -0.37862062 -0.09672579 -0.32509696 -0.37100035
0.16370666 0.032982763 0.008629721 -0.3316048 0.3897031 0.079905875 -0.14778176 0.058964685
0.04396372 -0.13701975 -0.15075065 0.29737493 0.37875333 -0.41554978 -0.3390317 -0.32360378
-0.014246619 0.13145919 -0.12907644 -0.2289068 -0.22008002 -0.3429446 0.18082169 0.1254151
-0.39990264 -0.37479806 -0.24192448 -0.30118456 0.023706956 -0.22538218 -0.27028912 0.27787757
-0.16436225 -0.15014838 0.16183355 -0.2685657 -0.3102506 0.01674356 0.21754667 0.20144874
0.21471031 -0.045103647 -0.17701124 -0.051162586 -0.29399842 -0.34799716 0.067743525 -0.12010085
-0.13843934 -0.16938782 0.305911 0.28421512 -0.26360416 0.37364975 0.19441597 0.25983334
0.19956551 0.013246505 0.05126308 -0.28479865 -0.31256145 -0.3314556 0.17255335 -0.32265213
-0.053147227 -0.31460533 -0.3714161 -0.123718694 -0.35557762 0.3417685 0.1354011 -0.35796937
0.14165281 0.15926605 0.36293703 -0.08359381 0.29887936 -0.08569412 0.2531844 0.07734108
-0.2753916 -0.11477548 0.082437165 0.29535523 -0.2562912 0.050643668 0.15464696 0.032229688
0.29112172 0.0820684 0.056557674 0.16449966 -0.33481768 -0.2572106 -0.16621067 0.23247185
-0.29856172 -0.28969654 0.2881277 0.4521787 -0.12522015 -0.33251953 0.06963269 -0.37421566
0.2823343 -0.29084334 -0.24475473 -0.4081063 -0.65454197 -0.2888961 -0.6489285 0.22542548
-1.2046561 0.102545515 0.06674566 -0.07400181 -0.17013605 -0.0008241755 -0.010947785 -0.34002337
0.28444797 0.05265596 -0.27679855 -0.28055546 0.1533871 0.10603622 0.16709018 -0.12326066
0.025961392 -0.36494237 0.108669 -0.43220317 -0.17980926 0.27976474 0.09006681 -0.08215299
00000000: 7a7f d13d 08f5 a53e 77bf 763e d890 2fbe
00000010: 71d7 5bbe 2e10 a73d 76ca 8e3e 27d2 a6be
00000020: 2879 04be 5b5b 273e 708c 483e aa4b 5c3e
00000030: 2771 9a3e 9292 b4be 3b37 a73e 79c6 60be
00000040: dd7a 52be 8d10 abbd 77df 37bb 5b08 81be
00000050: e127 b6bd bdae a83b 1648 79bf 47e5 a33e
00000060: 8b04 d1bd fbc1 e33d 79e7 93ba 9d34 06be
00000070: a217 193e b271 563d 8c65 4ebe 4975 8b3e
00000080: 377b fdbd ac0f aabe 815e b53c 723d a13e
00000090: a954 e43d 53c6 793e fb3f 5abe 81e2 87be
000000a0: 5460 a73e 1c39 fe3d fe90 ba3e dac4 1f3e
000000b0: 159e 73bb ec7e 7b3e 03f5 a9be 7316 8ebe
000000c0: ebaa 9d3e 6802 d7be 19dc afbe d084 5cbc
000000d0: 8a29 9b3d f7d3 a5be 240f 1d3d db97 dbbe
000000e0: 0b7a 14bd 8cd7 b7be fb20 343e b832 a7be
000000f0: 9ded 063e c1d1 bf3d c917 473e 35d3 61bd
00000100: f568 1a3d 48bd 0f3e 15d1 973d 9b47 433e
00000110: 9d6d cebd f563 c23d 10cb 093e c3c6 3a3e
00000120: 5b3b 67be 80ec 96be babc 6dbe b980 d3bd
00000130: a8c1 abbe 4077 96bd dcc0 053e 0ea6 873e
00000140: cb19 76be 656d 213d db47 81bc c114 a53e
00000150: 610b eebd 61f4 a8bc a309 153e 8966 043e
00000160: 4229 1cbe ccdd 8ebe 0774 6fbe e055 5ebe
00000170: 4672 b5be e8d1 0c3e 1d96 fe3d 97ea a6be
00000180: 2527 9c3e 9f50 4a3e 8ae6 a1be 8b77 1cbe
00000190: 952e 373d 4a09 b7be ced8 a33c 0fac 3e3d
000001a0: 0b44 8c3a ae5b 37bd 6954 7cbe a563 b53d
000001b0: e4d7 fb3d 0bc7 543e 6a6d ac3b 1f76 babe
000001c0: 6272 a0bd e12c afbe f601 4ebe 99c4 b9be
000001d0: 90da c1be 2c18 c6bd 1c73 a6be c2f3 bdbe
000001e0: b8a2 273e ef18 073d ac63 0d3c 1bc8 a9be
000001f0: 2a87 c73e b1a5 a33d 1a54 17be f484 713d
00000200: 4d13 343d e84e 0cbe 615e 1abe 8741 983e
00000210: f5eb c13e f1c2 d4be 9095 adbe 65af a5be
00000220: a76a 69bc 3d9d 063e 9d2c 04be 8b66 6abe
00000230: a85c 61be 6f96 afbe 5229 393e d16c 003e
00000240: 0ac0 ccbe 88e5 bfbe 0dbb 77be dd34 9abe
00000250: 1735 c23c 96ca 66be 5663 8abe f845 8e3e
00000260: 944e 28be 7fc0 19be b2b7 253e 7281 89be
00000270: 2bd9 9ebe ca29 893c 8ec4 5e3e 9448 4e3e
00000280: 05dd 5b3e 9abe 38bd 6f42 35be dc8f 51bd
00000290: f686 96be af2c b2be 1ebd 8a3d 6ff7 f5bd
000002a0: 0bc3 0dbe 0074 2dbe 5ea0 9c3e a584 913e
000002b0: 20f7 86be 054f bf3e fb14 473e e008 853e
000002c0: e75a 4c3e de07 593c 3cf9 513d 21d1 91be
000002d0: 0e08 a0be 8cb4 a9be d3b1 303e a932 a5be
000002e0: e8b0 59bd f313 a1be 402a bebe 3a60 fdbd
000002f0: 450e b6be 48fc ae3e 96a6 0a3e c347 b7be
00000300: 6f0d 113e a416 233e e2d2 b93e 3b33 abbd
00000310: b706 993e 6680 afbd 63a1 813e 0065 9e3d
00000320: 2100 8dbe 680f ebbd d1d4 a83d cd38 973e
00000330: 9a38 83be bc6f 4f3d c65b 1e3e 4703 043d
00000340: e80d 953e 7a13 a83d 05a9 673d 9972 283e
00000350: 396d abbe 1cb1 83be 2133 2abe 1a0d 6e3e
00000360: 15dd 98be 1b53 94be 7985 933e f783 e73e
00000370: b639 00be 0040 aabe 959b 8e3d 3299 bfbe
00000380: 1f8e 903e 6be9 94be fca0 7abe 4ff3 d0be
00000390: 1090 27bf 31ea 93be 2e20 26bf f0d5 663e
000003a0: 2c32 9abf 6203 d23d f3b1 883d 438e 97bd
000003b0: 2538 2ebe 7b0d 58ba 575e 33bc 8b17 aebe
000003c0: 2aa3 913e c7ad 573d 8ab8 8dbe f7a4 8fbe
000003d0: 8211 1d3e 8529 d93d b019 2b3e 1670 fcbd
000003e0: fcac d43c bad9 babe da8d de3d bc49 ddbe
000003f0: eb1f 38be 533d 8f3e f374 b83d d43f a8bd

net.0.bias f4 [64]
0.1547492 -0.24798226 0.23511414 -0.23051228 0.3052867 -0.34363955 0.20916617 0.40012577
-0.3530736 0.1432261 -0.05152735 0.33328524 -0.30478704 0.32790574 -0.39674172 0.38989252
-0.061423365 0.2153011 -0.20629911 0.30665392 -0.029223708 0.37832522 0.29597193 -0.17919509
0.077043444 0.031043034 -0.054824635 -0.2538978 -0.08549013 0.008359733 -0.17884234 -0.024828147
0.40972087 -0.3524241 0.2542173 0.09528425 -0.20983358 0.26977775 -0.2936321 -0.40410718
0.35307717 0.052964956 0.30995512 -0.018972974 -0.071169995 0.3398456 0.086803526 0.07825275
-0.15906121 -0.44640043 0.19924203 -0.064219564 0.12997612 -0.017900908 0.13071458 0.017918676
0.23433216 -0.32053396 -0.15071824 -0.079877116 0.21231978 -0.1604871 0.39562076 0.20741819
00000000: 9376 1e3e 10ef 7dbe c3c1 703e 690b 6cbe
00000010: 8a4e 9c3e 86f1 afbe a82f 563e 49dd cc3e
00000020: 10c6 b4be dda9 123e 580e 53bd 5da4 aa3e
00000030: 0c0d 9cbe 43e3 a73e bb21 cbbe fe9f c73e
00000040: 1197 7bbd e477 5c3e 1340 53be be01 9d3e
00000050: 8f66 efbc d8b3 c13e a289 973e eb7e 37be
00000060: f4c8 9d3d f64d fe3c cc8f 60bd e4fe 81be
00000070: 7315 afbd 43f7 083c 7222 37be 6664 cbbc
00000080: efc6 d13e ee70 b4be c528 823e 6424 c33d
00000090: 9dde 56be 4f20 8a3e f256 96be 23e7 cebe
000000a0: 88c6 b43e c8f1 583d 70b2 9e3e 366d 9bbc
000000b0: 93c1 91bd 3e00 ae3e 0cc6 b13d fa42 a03d
000000c0: f1e0 22be 998e e4be 1a06 4c3e 8c85 83bd
000000d0: 7618 053e eda4 92bc 0bda 053e 30ca 923c
000000e0: c5f4 6f3e 071d a4be e255 1abe 9d96 a3bd
000000f0: 5b6a 593e bb56 24be ce8e ca3e 6f65 543e

net.2.weight f4 [32, 64]
0.078852125 -0.02421661 0.047928844 0.25755763 -0.04367236 -0.03543155 -0.07196952 0.138691
0.029853651 0.07308569 0.10906071 0.10486515 0.09238675 0.11942206 0.018979058 -0.10616481
0.10895964 -0.08146916 -0.029234435 0.022541046 0.1484616 -0.0647747 -0.09075447 -0.051085837
-0.027988747 -0.04373922 -0.102746025 0.09149742 0.035803016 -0.13817114 -0.08255738 0.093522
0.06501951 -0.0069188937 -0.06434192 0.054221567 -0.08887012 -0.002880852 0.3229626 -0.05044052
0.07040288 0.08227318 -0.06322533 0.013120205 -0.054244213 -0.09802571 0.09153233 -0.12007657
-0.0875144 0.08848419 -0.020674974 0.08149117 0.02716506 -0.028512063 0.17129229 -0.06741741
0.029629929 0.02693092 -0.074595064 -0.100479424 0.13788219 0.5152605 0.089844316 -0.025628233
-0.070001274 0.006072358 -0.00848792 -0.06442305 0.04446308 0.14415926 0.06604553 0.034864478
0.041024193 -0.13086413 0.008203317 0.0748705 0.0653701 0.053435236 -0.034065634 -0.102746725
0.0534829 -0.085149094 0.08968463 -0.12024513 -0.031575687 -0.09050499 -0.13352592 -0.07143119
0.116096005 -0.1552975 -0.04277026 0.08563382 -0.032959107 0.12794189 0.0786815 0.11568442
0.041927435 -0.014465049 -0.041493725 -0.16141367 -0.10096199 -0.020453358 -0.01851756 -0.046946064
-0.010461 -0.065385915 0.05012726 -0.017895041 0.07361064 0.10514 0.055919435 0.063824825
-0.12085868 -0.14812197 -0.008453021 -0.076072864 -0.05685915 0.06339716 -0.093465716 0.12049532
0.0958767 0.129696 -0.11238644 0.10907465 -0.026477477 0.10527889 -0.009228967 -0.031038454
0.09694716 0.1030395 0.033197694 0.21535169 0.10189725 -0.007350833 0.020727124 -0.12115088
-0.00419949 -0.010278794 -0.0940174 0.036274955 0.02698636 0.091826275 0.093315884 0.06627901
0.087989785 0.079657346 0.02451241 0.010711789 -0.05966787 -0.03441411 0.09117017 -0.11268213
-0.105162114 0.06888653 0.03850686 -0.007447047 -0.10780529 0.11427229 -0.020571977 -0.08206411
-0.08487943 0.033734027 -0.04703347 -0.1401277 -0.10185313 0.10400653 0.18687868 -0.03011933
0.030406704 -0.0570602 -0.08361145 0.07291298 0.07908054 0.07714464 -0.06363702 0.07342734
0.011171426 -0.08866684 -0.010880091 0.054111674 0.021467118 0.098876804 -0.0036652791 0.028793963
0.102888964 0.074652135 -0.06346406 0.0043215626 0.005112511 0.37870616 -0.0512251 0.11502465
-0.10951995 -0.07779322 -0.07979077 -0.07351981 -0.051719654 -0.038736768 0.09860232 0.05972894
-0.018801613 -0.063927405 0.099282436 0.0909683 0.02033262 -0.0363164 0.075343505 -0.012802795
0.0543617 -0.012779234 -0.08635931 0.028918669 0.033761993 -0.033159867 0.059438094 0.032742348
-0.10764207 -0.020384692 -0.015160718 0.021507343 -0.004801569 0.06464259 -0.035203815 -0.12232301
-0.094650984 0.0016117922 0.08840061 -0.018587502 -0.12733665 -0.11892983 0.0073569566 -0.039316505
-0.123677656 0.04036216 0.08866062 -0.06223483 -0.034675684 -0.1285706 -0.09730155 0.031033585
-0.068578474 -0.108317636 -0.09431391 0.02017685 -0.11209483 0.04425895 -0.09784354 0.10236085
-0.047800288 0.051771067 -0.06523173 -0.10370359 0.030472774 0.081815556 0.06521575 0.100468345
00000000: 397d a13d e961 c6bc 0951 443d 98de 833e
00000010: cae1 32bd ac20 11bd c164 93bd 0305 0e3e
00000020: a58f f43c f3ad 953d 395b df3d 8ac3 d63d
00000030: 4435 bd3d 8e93 f43d f879 9b3c f06c d9bd
00000040: 3b26 df3d 4ed9 a6bd 0e7d efbc 00a8 b83c
00000050: 5106 183e 99a8 84bd 7bdd b9bd 623f 51bd
00000060: a848 e5bc e527 33bd 826c d2bd 0063 bb3d
00000070: 2fa6 123d bc7c 0dbe d813 a9bd 7688 bf3d
00000080: f328 853d e3b7 e2bb b2c5 83bd 6f17 5e3d
00000090: 8a01 b6bd adcc 3cbb 5b5b a53e b89a 4ebd
000000a0: 632f 903d d77e a83d 487c 81bd 21f6 563c
000000b0: 2e2f 5ebd b4c1 c8bd 4d75 bb3d b4ea f5bd
000000c0: c03a b3bd 3337 b53d 905e a9bc d8e4 a63d
000000d0: 4389 de3c 2192 e9bc 3f67 2f3e 2412 8abd
000000e0: 77ba f23c 3c9e dc3c 4cc5 98bd 28c8 cdbd
000000f0: fd30 0d3e 1de8 033f 4c00 b83d 4df2 d1bc
00000100: d45c 8fbd a2fa c63b eb10 0bbc 3bf0 83bd
00000110: eb1e 363d 7c9e 133e e142 873d 0ece 0e3d
00000120: fc08 283d 3f01 06be 3567 063c b455 993d
00000130: c2e0 853d e8de 5a3d 6888 0bbd e06c d2bd
00000140: e310 5b3d a662 aebd 93ac b73d 1443 f6bd
00000150: 8255 01bd ae5a b9bd 05bb 08be 844a 92bd
00000160: bec3 ed3d 4f06 1fbe de2f 2fbd c960 af3d
00000170: 2100 07bd 3303 033e c423 a13d f4eb ec3d
00000180: 1abc 2b3d d0fe 6cbc 53f5 29bd a049 25be
00000190: 29c5 cebd cd8d a7bc 23b2 97bc 844a 40bd
000001a0: 9d64 2bbc 0de9 85bd 3e52 4d3d 9f98 92bc
000001b0: 2dc1 963d a453 d73d c70b 653d 97b6 823d
000001c0: c184 f7bd 49ad 17be 8a7e 0abc 17cc 9bbd
000001d0: 24e5 68bd 5fd6 813d f46a bfbd 40c6 f63d
000001e0: 015b c43d 07cf 043e dd2a e6bd 8862 df3d
000001f0: 4be7 d8bc 759c d73d 1835 17bc 5b44 febc
00000200: 3c8c c63d 6006 d33d 4efa 073d 2785 5c3e
00000210: 81af d03d 42df f0bb eecb a93c f41d f8bd
00000220: e09b 89bb 6368 28bc 328c c0bd 0c95 143d
00000230: 8012 dd3c 6a0f bc3d 661c bf3d 4abd 873d
00000240: fd33 b43d 6423 a33d 40ce c83c 8080 2f3c
00000250: 4c66 74bd cff5 0cbd 6db7 ba3d e3c5 e6bd
00000260: 3c5f d7bd 6214 8d3d 5fb9 1d3d 5c06 f4bb
00000270: 05c9 dcbd 9707 ea3d 9086 a8bc 3a11 a8bd
00000280: 44d5 adbd b12c 0a3d 2ba6 40bd a37d 0fbe
00000290: 6098 d0bd 6001 d53d 205d 3f3e d0bc f6bc
000002a0: 7b17 f93c f5b7 69bd 7b3c abbd 6753 953d
000002b0: faf4 a13d 02fe 9d3d 2054 82bd 1361 963d
000002c0: 5b08 373c f696 b5bd 6942 32bc 34a4 5d3d
000002d0: cfdb af3c ec7f ca3d 2e35 70bb 51e1 eb3c
000002e0: 73b7 d23d 38e3 983d 72f9 81bd e59b 8d3b
000002f0: da86 a73b c6e5 c13e 69d1 51bd 0b92 eb3d
00000300: ff4b e0bd 0d52 9fbd 5869 a3bd 8e91 96bd
00000310: fdd7 53bd 72aa 1ebd 03f0 c93d 55a6 743d
00000320: d705 9abc 5fec 82bd 9754 cb3d 974d ba3d
00000330: 9890 a63c 81c0 14bd b24d 9a3d d0c2 51bc
00000340: 60aa 5e3d fe5f 51bc 26dd b0bd d8e6 ec3c
00000350: 044a 0a3d a4d2 07bd 5c75 733d d71c 063d
00000360: 7273 dcbd ccfd a6bc a964 78bc 2b30 b03c
00000370: 7b56 9dbb 5663 843d e031 10bd 7c84 fabd
00000380: 60d8 c1bd c642 d33a 610b b53d d144 98bc
00000390: 8a64 02be 7c91 f3bd a012 f13b 580a 21bd
000003a0: b64a fdbd cb52 253d b393 b53d f3e9 7ebd
000003b0: 1708 0ebd 03a8 03be 0946 c7bd 253a fe3c
000003c0: df72 8cbd a3d5 ddbd a727 c1bd ec49 a53c
000003d0: f991 e5bd df48 353d 3262 c8bd 91a2 d13d
000003e0: 3cca 43bd e60d 543d 3798 85bd 8c62 d4bd
000003f0: 0aa2 f93c ea8e a73d d68f 853d 59c2 cd3d

net.2.bias f4 [32]
0.1174876 -0.0064100954 -0.0065390966 0.10670593 -0.069667235 -0.12278734 -0.07562443 0.0153352115
-0.0198376 -0.046444472 0.08295512 0.06625483 0.014566973 0.11740138 -0.11738755 0.050153516
0.005687999 -0.013719452 -0.047235727 -0.13525593 -0.020407708 -0.010208964 -0.07705411 -0.01610475
0.0062756413 0.016397187 -0.086072326 0.08313056 0.06743275 0.017902188 0.052054092 0.026735926
00000000: 579d f03d c70b d2bb eb45 d6bb a388 da3d
00000010: b2ad 8ebd ee77 fbbd fbe0 9abd 8a40 7b3c
00000020: 7682 a2bc 8f3c 3ebd 60e4 a93d 9db0 873d
00000030: 50aa 6e3c 2270 f03d e268 f0bd c66d 4d3d
00000040: 6562 ba3b 8dc7 60bc 407a 41bd 8880 0abe
00000050: 112e a7bc 8043 27bc 8cce 9dbd 1cee 83bc
00000060: e5a3 cd3b 6553 863c b046 b0bd 5b40 aa3d
00000070: 2e1a 8a3d 9ca7 923c ac36 553d 4d05 db3c

net.4.weight f4 [5, 32]
-0.2282798 -0.10583115 -0.04695079 -0.095721506 0.0070835785 -0.059243593 -0.29542664 0.11815273
-0.100243725 -0.036597565 0.12788345 0.1615522 0.16155165 0.015463131 -0.08087685 -0.058997784
0.18166935 -0.048906233 -0.124451414 -0.13367918 -0.041640967 0.065265216 0.19322532 -0.011302404
-0.021732582 0.13273191 0.036116984 0.121951155 0.06350825 -0.033965874 0.19838266 0.28992742
-0.18917109 0.03426227 -0.14861828 -0.0031319112 0.045190375 -0.129954 0.0063451887 0.016373439
0.10157209 -0.008649065 -0.034937147 0.0069703218 0.007147178 -0.115658455 -0.14038925 -0.18926859
0.14231801 0.17095946 -0.13544773 -0.10968921 -0.13055944 0.091330536 0.19665204 -0.10415377
-0.047764257 -0.06768857 0.06539958 0.06583402 0.17079379 0.20459515 0.004175567 -0.127799
0.05110678 -0.018915126 0.0038978131 -0.12858738 0.05690347 -0.102530226 -0.11852255 0.07925681
0.007583364 -0.0832975 -0.119453385 0.19613828 0.032623746 -0.075080186 -0.03203188 -0.13982612
0.15247868 -0.11925026 -0.07909765 -0.09285215 -0.014426913 -0.10277364 0.07239246 0.07956728
0.01354847 -0.16041681 -0.07830739 0.12857264 -0.06198621 0.11922672 0.08958102 -0.2044866
0.04268048 0.00052137766 0.084280714 -0.0297212 0.113012515 0.16020927 0.033816855 -0.14920676
0.06062014 -0.14318949 0.088630214 -0.026981711 0.12150085 0.1532947 0.037011422 0.002132597
0.0040008635 -0.04846986 0.031428102 -0.08927615 -0.08232454 -0.008745977 0.10130219 -0.023317646
-0.122187085 0.15747419 0.021246858 0.015241337 -0.020582337 0.083268404 0.14592169 -0.15729052
-0.017961094 -0.07903213 0.11564691 -0.07697314 -0.11727668 0.0012285174 -0.030135874 0.06960171
0.18366265 -0.17192473 -0.21340054 -0.01020837 0.105999574 -0.059099723 0.08784771 0.047091976
0.061873037 -0.05683889 -0.014246136 0.07607448 -0.09334522 0.16437207 0.06066753 0.07546658
0.051887024 0.13141535 -0.13250595 0.02382906 -0.052276954 -0.074291125 0.064813115 -0.11960631
00000000: 2ec2 69be 01be d8bd 794f 40bd a309 c4bd
00000010: 5d1d e83b 69a9 72bd 2942 97be 0ffa f13d
00000020: 954c cdbd 54e7 15bd e1f3 023e f16d 253e
00000030: cc6d 253e 1259 7d3c c3a2 a5bd a9a7 71bd
00000040: 8807 3a3e e751 48bd 62e0 febd 32e3 08be
00000050: b88f 2abd c5a9 853d dcdc 453e b82d 39bc
00000060: 8708 b2bc e0ea 073e 67ef 133d 87c1 f93d
00000070: 9d10 823d cd1f 0bbd d324 4b3e 5e71 943e
00000080: 11b6 41be 9856 0c3d 642f 18be c040 4dbb
00000090: 8b19 393d a912 05be 4deb cf3b 9721 863c
000000a0: 0705 d03d cfb4 0dbc 411a 0fbd 4c67 e43b
000000b0: e032 ea3b 57de ecbd 33c2 0fbe a0cf 41be
000000c0: d0bb 113e ff0f 2f3e cfb2 0abe bda4 e0bd
000000d0: 60b1 05be 810b bb3d 275f 493e 924e d5bd
000000e0: 74a4 43bd 4ea0 8abd 37f0 853d fdd3 863d
000000f0: 91e4 2e3e 6481 513e 32d3 883b bedd 02be
00000100: 5855 513d e5f3 9abc 7472 7f3b 69ac 03be
00000110: 9d13 693d 5efb d1bd f3bb f2bd 6551 a23d
00000120: de7d f83b e197 aabd faa3 f4bd 79d8 483e
00000130: 7aa0 053d a4c3 99bd dc33 03bd 942e 0fbe
00000140: 5f23 1c3e 7b39 f4bd f3fd a1bd 4529 bebd
00000150: dc5e 6cbc fc7a d2bd 8042 943d 2cf4 a23d
00000160: 67fa 5d3c 4e44 24be a05f a0bd 8ca8 033e
00000170: 41e5 7dbd 232d f43d 4176 b73d ef64 51be
00000180: bad1 2e3d 10ad 083a 5e9b ac3d e079 f3bc
00000190: 1b73 e73d e60d 243e 8b83 0a3d a8c9 18be
000001a0: d34c 783d 44a0 12be c283 b53d c008 ddbc
000001b0: 70d5 f83d 49f9 1c3e 4a99 173d 0ac3 0b3b
000001c0: ad19 833b 5588 46bd c1ba 003d 6ad6 b6bd
000001d0: c599 a8bd 494b 0fbc 8677 cf3d a604 bfbc
000001e0: 393d fabd ea40 213e e40d ae3c cdb6 793c
000001f0: 4a9c a8bc a088 aa3d 7f6c 153e c410 21be
00000200: 2523 93bc 99db a1bd 4ad8 ec3d 18a4 9dbd
00000210: c22e f0bd 3406 a13a 82df f6bc 578b 8e3d
00000220: 1012 3c3e 090d 30be ac85 5abe 0241 27bc
00000230: 4e16 d93d 8d12 72bd 80e9 b33d 84e3 403d
00000240: 956e 7d3d e5cf 68bd a068 69bc f0cc 9b3d
00000250: c72b bfbd 2751 283e 847e 783d 398e 9a3d
00000260: 7d87 543d bf91 063e a4af 07be 2935 c33c
00000270: 5c20 56bd f225 98bd bdbc 843d 27f4 f4bd

net.4.bias f4 [5]
0.078663245 0.06568848 0.09478878 0.03467196 0.116527855
00000000: 321a a13d af87 863d 9f20 c23d 2f04 0e3d
00000010: 28a6 ee3d
