enhanced_dqn_motor_control.pth (torch, 545415 bytes, 10 tensors)

fc1.weight f4 [256, 110]
00000000: 22fa bc3a 845a 07bc b65d 8e3c 3cc9 883c
00000010: 64e9 9dbb 8352 03bc c03c cb3a cc03 8f3c
00000020: b6ac 863c 6e19 a0bc 6cce 40bc 5a58 bb3a
00000030: 829e 8f3c a5d6 843c aa7c 3abd 274f 67bc
00000040: e91d bbbb 9e31 903c 04ee 833c 34cd 45bd
00000050: c105 3fbc 1709 20bc 17bd 903c f0ff 823c
00000060: 7431 3bbd 07a2 5dbb aef8 a8bc 7a43 913c
00000070: e5ad 823c 50ef 2abd 323f 4dbd 9205 37bd
00000080: b3c3 913c 0a10 823c ad47 5ebc 5419 02be
00000090: 551e c9bd 4c40 923c d516 813c e704 9d3c
000000a0: cc53 1cbc e949 183b d9bb 923c 0e51 403c
000000b0: a9b3 8c3c b1f6 8a3c 81f0 873b 4b72 933c
000000c0: dae3 093b 1d6e b2be fa33 ff3d a82a f180
000000d0: 0827 8dbb 7908 333a dcb2 5180 e2ed fc3d
000000e0: dcc2 e600 e81b 3c3c cfb4 193b f78c a201
000000f0: 76fc fe3d 7d06 4b3b dcab dabb 660c 76ba
00000100: 0104 ee01 0009 ff3d aa37 d301 002b 87bb
00000110: c35e 94ba cf5a a001 b958 ff3d d8cc ca80
00000120: bdb5 99bc 5fdc ab3b 811d 5e3b 39ff ff3d
00000130: 6a06 0302 a374 a8bc ae22 3b3c 69a6 2335
00000140: 0e3d 023e d7ee 973a c727 1ebc 342d df3b
00000150: 019d eb01 7d4a 043e a149 af3a 2816 a0bb
00000160: a4bc d3b7 3629 d33b d7c8 0c3e 778f bc3a
00000170: 88cc 54bc 6127 183b b47e da3b 4bba bc3d
00000180: e2ae a43b 5947 2abc 994e b43c 56f3 053d
00000190: 1125 23bc 3d4a 16bc e2a1 383c ce8e c53c
000001a0: b86a cebb d276 d3bb dbae aaba e670 4a3c
000001b0: 0f6f 343d 600a 323d ac9a 56ba 1e20 32b8
000001c0: f403 7a01 173c 1d8f 6019 1996 a8bc 39ba
000001d0: f96a 3db8 204f 7501 4c75 c28f 589d 4296
000001e0: df45 27ba eb30 53b8 9879 6601 c1be 6590
000001f0: 8fb5 6095 e1df 39ba c04f 35b8 d655 6a01
00000200: b9a0 0791 34aa c296 dd38 44ba a9fd 2ab8
00000210: a2bb 8401 f0a5 9d91 92b6 6797 d49d 40ba
00000220: 1222 39b8 0c99 8201 e4e5 2f92 3b04 9696
00000230: cd92 36ba 99ed 35b8 925e 6301 60f5 bc92
00000240: 247e da95 7fea 30ba 2894 5fb8 168a 8001
00000250: 50a8 4393 e3b4 2e95 7d78 31ba a286 78b8
00000260: 4222 7e01 417b c693 c1fa 5895 4ecc 2eba
00000270: 0ae3 73b8 d632 7401 1410 4694 0ccb 7d95
00000280: 7412 0581 7017 3200 1c64 1082 57f2 1702
00000290: 7b6d e801 be11 0b81 b25e ef01 438b 8181
000002a0: 4c4e 7e00 e6a3 1402 2ec0 2480 d775 fc81
000002b0: e8f2 1e82 70dd e500 bbfe 2b82 26d5 7700
000002c0: 386c 3880 9b25 c381 8c02 2082 3872 3782
000002d0: 667b ab00 f93d 0a02 6e50 0c02 7a45 af01
000002e0: ac07 f081 63d3 4100 f0cd b001 3423 a980
000002f0: 14b9 bf01 7d90 5f01 19f1 6300 0669 1a81
00000300: 8437 7181 a9dd 6581 2bd5 ac01 05ec 1d80
00000310: 9cfc 1901 0a80 dd00 9dd3 a601 cd5d c081
00000320: e0de 9100 355e 0882 4439 a580 29a0 4701
00000330: 8f7e 8981 7cc3 8b01 6c46 dc01 1c3e 5881
00000340: 2822 9e00 8eee 0181 66b8 3701 bdec 8a81
00000350: 489b 0400 609a 8381 12fb 4381 f392 1082
00000360: 56c1 5581 9016 1e81 d8dd ce81 aecb 0e81
00000370: 43f8 413d a291 2b3d c838 f73c 577c 163d
00000380: dd31 f2be e77d 9b3c bed5 143d 7dad fa3c
00000390: 06c2 ff3c 4c82 fdbe 1dbc ad3c 5876 a3bb
000003a0: b3dd fd3c 9ae0 d23c 37ed 00bf 37e3 1cbc
000003b0: 0953 bbbc 545f 003d 8825 a23c 9e0a 08bf
000003c0: b97a 66bc db91 83bc d9a8 013d 3f2e 613c
000003d0: 29a6 0abf bd81 ffbc 34db a2bc 1aca 023d
000003e0: ab38 f83b 0fee 0cbf cc4f 02bd b986 22bd
000003f0: c6bc 033d b2ed 933a 0625 12bf 033c dc3c
0.0014417807 -0.008261327 0.01737867 0.016697519 -0.004819082 -0.008015278 0.0015505776 0.017457865
0.016439777 -0.019543376 -0.011767965 0.0014293299 0.017531637 0.016215632 -0.045529045 -0.0141179925
-0.0057103527 0.017601784 0.016104706 -0.0482914 -0.011659087 -0.009767792 0.01766829 0.015991181
-0.04570146 -0.00338185 -0.020626392 0.01773237 0.01595206 -0.041732132 -0.050109096 -0.044683047
0.017793512 0.015876789 -0.0135668935 -0.12704974 -0.098202385 0.017852925 0.015757957 0.019167377
-0.009541463 0.0023237413 0.017911838 0.011738075 0.017175512 0.016963335 0.0041485433 0.017998835
0.002104035 -0.34849635 0.124610856 -2.2147657e-38 -0.0043076314 0.00068295706 -7.502838e-39 0.1235006
2.1192066e-38 0.011481263 0.0023453718 5.9711676e-38 0.12450497 0.003097921 -0.0066733193 -0.0009386003
8.743314e-38 0.124528885 7.758903e-38 -0.004124999 -0.0011319745 5.890502e-38 0.124680944 -1.8624254e-38
-0.018763417 0.005244776 0.0033892097 0.12499852 9.626201e-38 -0.02056343 0.0114218425 6.096439e-07
0.12718603 0.0011591566 -0.009653038 0.0068108086 8.6550656e-38 0.1291904 0.0013373384 -0.0048854537
-2.5241003e-05 0.0064441217 0.1374849 0.0014386018 -0.012988217 0.002321683 0.006667936 0.0921522
0.0050257305 -0.010392987 0.022010135 0.032702766 -0.009957568 -0.009172973 0.011269065 0.024115946
-0.006299343 -0.0064533735 -0.0013022082 0.012356019 0.044051226 0.043466926 -0.00081865 -4.246842e-05
4.5920584e-38 -7.7522705e-30 -1.2367249e-25 -0.0007085302 -4.5160737e-05 4.5056163e-38 -1.9175058e-29 -1.5720844e-25
-0.0006380956 -5.035188e-05 4.2331567e-38 -4.5309238e-29 -4.5379664e-26 -0.00070905505 -4.3228036e-05 4.3040596e-38
-1.0699149e-28 -3.1449804e-25 -0.000748528 -4.0767398e-05 4.875838e-38 -2.48725e-28 -7.487056e-25 -0.0007347737
-4.4139168e-05 4.797407e-38 -5.5503625e-28 -2.4236477e-25 -0.0006964624 -4.3375043e-05 4.1761166e-38 -1.1924958e-27
-8.8248514e-26 -0.000674881 -5.3305324e-05 4.721792e-38 -2.4695445e-27 -3.5281715e-26 -0.00067699683 -5.9253194e-05
4.667701e-38 -5.0103765e-27 -4.3818663e-26 -0.0006668017 -5.814716e-05 4.4852195e-38 -9.999616e-27 -5.125312e-26
-2.4441481e-38 4.600183e-39 -1.0608179e-37 1.1163276e-37 8.538044e-38 -2.5542997e-38 8.7930615e-38 -4.7586947e-38
1.159936e-38 1.0920359e-37 -3.375019e-39 -9.273927e-38 -1.1677717e-37 2.1109765e-38 -1.26362e-37 1.1004887e-38
-5.18161e-39 -7.168565e-38 -1.1755674e-37 -1.3477496e-37 1.5748137e-38 1.0156424e-37 1.0308658e-37 6.438454e-38
-8.8173085e-38 6.045139e-39 6.4947695e-38 -1.5532827e-38 7.0427893e-38 4.1062297e-38 9.178204e-39 -2.8360683e-38
-4.430454e-38 -4.221969e-38 6.34887e-38 -2.747897e-39 2.82829e-38 2.0341576e-38 6.128242e-38 -7.066426e-38
1.33961e-38 -1.0018738e-37 -1.51734e-38 3.6665437e-38 -5.0507455e-38 5.134104e-38 8.0916287e-38 -3.9717496e-38
1.4522261e-38 -2.3864713e-38 3.374409e-38 -5.1032897e-38 4.23046e-40 -4.834332e-38 -3.5995978e-38 -1.0621622e-37
-3.9260633e-38 -2.9036205e-38 -7.599078e-38 -2.6227414e-38 0.0473559 0.041886933 0.030178443 0.036739673
-0.47303668 0.018980933 0.036336653 0.030600304 0.031220447 -0.4951347 0.021207863 -0.004988473
0.030989503 0.025741864 -0.5036196 -0.009575657 -0.022866743 0.031340912 0.019793287 -0.531412
-0.014067345 -0.01606076 0.031655166 0.013743936 -0.5415979 -0.031189794 -0.019879915 0.03193102
0.0075751147 -0.5505075 -0.03181438 -0.039679263 0.03216245 0.0011286049 -0.57087743 0.026884085

fc1.bias f4 [256]
00000000: 3e8f fd3d 061b 7301 e243 4c3d 5a5c 0882
00000010: a382 5b81 8dee 653d 7df8 0c02 dc66 94b2
00000020: 77a1 833d a2ae 9381 595d 1902 6231 fc3d
00000030: 5cca 1d81 bb43 6db3 b0b3 7701 ef11 94bc
00000040: 60dc 66b8 c621 6881 1c48 5a81 9a95 2b3e
00000050: 3b92 3a02 8950 483d a37b 313e 5e8c 6901
00000060: 35f2 143e 6ecf ef81 b4db fd80 0824 84ad
00000070: 65e7 6f00 11af 0699 e88f a53d 383a a13d
00000080: 1f59 d53d 1d35 053d ba89 333e 5b03 5a81
00000090: 0548 3782 204b 0502 9e3a cb01 2afa d801
000000a0: 7897 e500 9a65 313e c134 f43d a6b6 0f81
000000b0: 95a5 4581 888c f001 88be d401 59d5 2a02
000000c0: 92b2 2d01 766c b501 7162 be3c 652a 1aba
000000d0: f6b0 c3bc ea09 1302 b9a7 533d 50eb 3381
000000e0: c683 3f2d 2e13 ae3d afa0 ab81 762d 1c3e
000000f0: e4c3 8e01 db7d 1401 78ef c13e 529e 4701
00000100: 5c44 043e 3e97 3d3e 8801 0482 fdcc 9681
00000110: 1a9c 1782 bc98 1f81 f59d c2bc eddd da3b
00000120: b394 a881 fcc0 e53d 583c 1282 c611 6501
00000130: 04f3 3f81 1ad4 223d 8472 3800 3e8f 1b00
00000140: 2e82 9bbb 7d5c 1ebc 2a74 bf81 0e28 2382
00000150: abba 4e00 30d7 8e1f 9884 4481 b989 ec80
00000160: 82bb 533e dd5c b7b2 876f 1582 c8af 9d81
00000170: 80ed 1402 1839 7181 45d7 383b 5b54 843d
00000180: f822 e001 8bfc b4bb a18f e03d 9910 213e
00000190: 927d d53c f79d f93d 1ae4 96bd 363f 1f82
000001a0: 25b7 9100 feaf 4a3e 2b72 4910 cee9 a63d
000001b0: 3eee 7395 5bef 133e c832 2700 8198 113e
000001c0: f30b 4d80 0e86 9fb9 60a8 b101 8e18 85bc
000001d0: cf19 d63d 64bc 093e de0b 2900 8e88 b1b7
000001e0: aaf2 df81 b569 d3af 1314 a03e 6b0c 9001
000001f0: 7b5a 7b81 b47b c381 b3e9 cc3c 6e2e 1e82
00000200: 0336 5108 b6e7 153e d264 4e81 a012 3f80
00000210: ae91 463e 2685 7281 75a3 769b 2bcd 053e
00000220: 7393 0001 6707 103e 3747 9d01 c132 a53e
00000230: d829 c881 ed83 293b a7b8 1fb8 b642 df01
00000240: a485 18a5 1925 3781 6135 4781 5c2d cd81
00000250: 96a3 e93d 6f82 c781 02af f780 429f 1f82
00000260: a03a 0a3e 9a95 ec01 61b8 1182 035c 0d02
00000270: dce4 2182 3434 68b5 bb03 1a01 6a67 8e3d
00000280: 3fba 013e 9e75 5e81 00f9 a33c 2bf5 0cbd
00000290: b7f9 4aba e8ea bd00 f68d cd01 2ab9 2e3e
000002a0: 7783 b181 6322 b53d 1108 2982 c8e7 2d3e
000002b0: f82a b93d 4805 7600 383a 2b01 dab2 0f81
000002c0: aa62 1ebd 403d 043e 4b4a 2c82 7697 bd81
000002d0: 2a2a 203e 8ae5 24bc 782b 863b 1503 2880
000002e0: 8a3d 5781 961a d381 6259 0f3e 8045 5f01
000002f0: 0439 ee81 b217 1502 c874 ac3d ef05 4ba7
00000300: 7c14 6a81 c4d1 3e8f 3d28 2502 41c8 e8a8
00000310: dc19 bd3e 098b ab00 1e24 0e01 5e3f 2382
00000320: 57b9 73bd 9c9e 1482 169e e33d ac5e ee3d
00000330: 7477 ab99 e1ed 3202 5d3a 7500 24ca 45ac
00000340: a62a b1b7 c830 3401 696c 113d 90da 6501
00000350: 267d 913d 543b 993d ff80 d014 58c8 213e
00000360: 1015 cf01 49c6 193d fbb0 3c3d e891 0702
00000370: 2925 c100 e8a4 f3bd dbaf de80 b24a 763d
00000380: e880 dd3c 056d 8301 9077 8501 1aa9 d43d
00000390: f410 2681 6d21 9f00 e16b ba3e ab37 41bd
000003a0: 80c7 a93c c2bf 9381 6d9e fd3d 816c 0a3e
000003b0: 6e25 5481 6e0a 4700 eaba 7301 b67e 1981
000003c0: af3f c081 497e 2c14 8810 7f80 a52c 103e
000003d0: 3cbd f000 8070 853d c93d 0102 f74d 8a3d
000003e0: 9044 bd3e 56e3 0c02 e486 dd81 6504 b83d
000003f0: 9ac8 103d 6e4c 7501 999e cba7 19a2 81a4
0.12380837 4.465144e-38 0.049869426 -1.0018206e-37 -4.0317675e-38 0.056135703 1.0356888e-37 -1.7276243e-08
0.06427281 -5.424986e-38 1.1267454e-37 0.123141065 -2.8981532e-38 -5.5242463e-08 4.5495655e-38 -0.018074958
-5.5041513e-05 -4.2635901e-38 -4.0092012e-38 0.16756287 1.3707088e-37 0.04890493 0.1733232 4.289605e-38
0.1454552 -8.809238e-38 -2.3313195e-38 -1.5022664e-11 1.0276749e-38 -6.962992e-24 0.080840886 0.078724325
0.10417389 0.032521356 0.17533007 -4.0042684e-38 -1.3465385e-37 9.792857e-38 7.4654534e-38 7.9704837e-38
2.1084665e-38 0.17323914 0.119241245 -2.6395996e-38 -3.6301985e-38 8.836373e-38 7.81499e-38 1.2550855e-37
3.19032e-38 6.6644533e-38 0.0232403 -0.0005880951 -0.023888092 1.08027e-37 0.051673625 -3.3045936e-38
1.0886353e-11 0.08499752 -6.304605e-38 0.15251717 5.244365e-38 2.7273604e-38 0.37878013 3.6664117e-38
0.12916702 0.18514726 -9.698268e-38 -5.539544e-38 -1.1138527e-37 -2.931327e-38 -0.02375696 0.0066792876
-6.1926826e-38 0.112184495 -1.0743704e-37 4.207341e-38 -3.5255515e-38 0.039753057 5.183868e-39 2.530944e-39
-0.0047457432 -0.009665606 -7.0329006e-38 -1.1986844e-37 7.230133e-39 6.049534e-20 -3.6094646e-38 -2.1722583e-38
0.20676997 -2.1346233e-08 -1.0978798e-37 -5.7924925e-38 1.0941482e-37 -4.4305672e-38 0.0028204483 0.06461402
8.233478e-38 -0.0055232695 0.10964895 0.15728988 0.026060853 0.121883325 -0.07367726 -1.1699616e-37
1.3381847e-38 0.19793698 3.9728212e-29 0.081500635 -4.92614e-26 0.14446776 3.599801e-39 0.14218332
-7.07562e-39 -0.00030426722 6.526114e-38 -0.01624706 0.10454141 0.13450772 3.769512e-39 -2.1163632e-05
-8.226547e-38 -3.8455786e-10 0.31265315 5.2915065e-38 -4.6166336e-38 -7.180919e-38 0.02501378 -1.1621331e-37
6.295714e-34 0.14639172 -3.790856e-38 -5.792318e-39 0.1939151 -4.454391e-38 -2.0401459e-22 0.13066547
2.3615677e-38 0.14065324 5.777488e-38 0.32265285 -7.352844e-38 0.0025865987 -3.8080525e-05 8.201299e-38
-1.3229178e-16 -3.3638408e-38 -3.6588825e-38 -7.5370194e-38 0.11408155 -7.328822e-38 -2.2746149e-38 -1.172718e-37
0.13498926 8.6907376e-38 -1.0705832e-37 1.038545e-37 -1.1894091e-37 -8.65027e-07 2.828801e-38 0.069533184
0.12668703 -4.0859346e-38 0.020016193 -0.034413498 -0.0007742899 1.7441177e-38 7.550881e-38 0.17062822
-6.5208174e-38 0.08844449 -1.2418474e-37 0.16982949 0.09041399 1.0838483e-38 3.144951e-38 -2.6393272e-38
-0.038668312 0.1291399 -1.2657885e-37 -6.964497e-38 0.15641084 -0.010064492 0.0040945373 -3.674525e-39
-3.9533415e-38 -7.754731e-38 0.1399894 4.1008495e-38 -8.7509206e-38 1.0953591e-37 0.08420712 -2.8175126e-15
-4.299371e-38 -9.408123e-30 1.2133833e-37 -2.584402e-14 0.36933792 1.5753746e-38 2.6107194e-38 -1.1993534e-37
-0.059502926 -1.0918841e-37 0.11114137 0.11639151 -1.7729232e-23 1.3145643e-37 1.076569e-38 -2.8107594e-12
-2.1119904e-05 3.3095777e-38 0.03550378 4.2217468e-38 0.07103948 0.07482019 2.1053513e-26 0.15799081
7.6070014e-38 0.037542615 0.04606722 9.960107e-38 1.7737581e-38 -0.11896688 -2.0450565e-38 0.06012983
0.027039006 4.8278235e-38 4.902805e-38 0.10383816 -3.0501548e-38 1.4613835e-38 0.3641043 -0.04717223
0.020725012 -5.427443e-38 0.12383733 0.13517953 -3.8965105e-38 6.524062e-39 4.4766155e-38 -2.8192572e-38
-7.062104e-38 8.708686e-27 -1.1669038e-38 0.1407953 2.2108404e-38 0.06515598 9.495155e-38 0.06753152
0.36966372 1.0350818e-37 -8.1376137e-38 0.08985213 0.03534756 4.505423e-38 -5.651577e-15 -5.6219436e-17

fc2.weight f4 [256, 256]
00000000: 7eb5 343d 82d5 d134 ebdd b2bd fdc5 b4b3
00000010: faa4 55ba 9587 7abd 3823 9201 2ba4 3cbc
00000020: cf9a 2d3d 798b 91b7 c1ac 3b82 4770 653d
00000030: 5dc2 5eba 2ecb 6d01 99f4 f780 1e7b 77bc
00000040: 80af 0d39 6a8f 7901 3a27 42b3 8ec1 833d
00000050: aeb0 0302 1006 d13c 29e9 863d 1afd 183a
00000060: b061 6a3d 8853 2001 97b2 b7bb ef8a e13b
00000070: eb4d 65b2 204c 9c17 b531 453d 05da 613d
00000080: 1fca 24bd 7d68 74bc 7b84 a03d 69dd 0bab
00000090: 391c 8c01 fe91 13ba 8876 5101 f9fe f0a5
000000a0: e9ee 7f01 e35e 643d fc36 c93c a144 ad3a
000000b0: 5ee8 cd2c ccfe 0405 a47d 90b8 489a 8701
000000c0: 04f5 dcb9 f165 b901 22fc fdbd 174d b839
000000d0: 9ad8 0e3c e196 4bac 76a6 cdbb ea4d ae00
000000e0: 269e 332e 90a2 b33c 96f8 8101 13ad a9bd
000000f0: 34ad d480 07c9 e937 7303 383d 2406 5e9a
00000100: 6677 8f3d 49ca 5c3d f948 b881 4e62 7b01
00000110: 5447 9901 b2b0 d3bb b5a9 b0bc a7ea 19bd
00000120: 81cc 8501 7ff4 5d3d 2bae b1b0 8b27 5d36
00000130: 9486 1501 2fcc ab3c 6842 9001 7be7 e713
00000140: 5e34 69bc bb5d 77bc b812 d581 a473 7d01
00000150: 355f 923b 277c 381d 4258 6a21 d1be 8401
00000160: b7d6 f2ba 685c 51bc d5b3 30a9 0ca5 20a0
00000170: e16b a601 8189 feba 225b f9bc 6aed d93c
00000180: e1cb 7e93 3485 30bc 3e24 aebc db5d 363d
00000190: bf65 43bd dadb 993d 2bc0 98bd 5f37 d081
000001a0: 18c9 fe3a 54d8 843d 2ab6 f4b4 c59c 1c3d
000001b0: 59a5 febb f102 883d f003 ac01 d57d 8b3d
000001c0: 2b1b 1c38 1179 60bc 16c6 9401 ed3c 093d
000001d0: 2cf9 673d 14e2 b03d 6b78 c800 6892 22bc
000001e0: c285 e981 ec87 aa36 bffd 53ba abda 1e3a
000001f0: f051 de2c b555 daa2 3a20 fdbd f4f6 7701
00000200: c95d 51bc e21f aa3d 9ef6 08b6 112f 3b82
00000210: 04eb 61bc 5c5a 3a14 2772 59bc f604 773d
00000220: 79a3 00aa de35 803d 4341 8881 2267 f03c
00000230: b4bd 8b01 183e 243d c179 113c 63db 0e02
00000240: 7858 b1b8 a72e 7b23 db77 dcb9 9093 1126
00000250: 5001 e43c 7991 3aba 0b08 279a 75ac 4eb1
00000260: c955 a73d b036 ba17 5f46 7581 a635 ef80
00000270: e68a 59b8 1096 d62b 8cec 1310 d644 343c
00000280: 6563 0b3d baea 8b01 1c3c 3a3c 4180 e9bb
00000290: ca03 38bc f7d3 2c81 25e6 d1b3 db3a 91ba
000002a0: 9053 4b00 0307 073d 6acf 9601 b5fa b93b
000002b0: ecb2 8cbc e607 b601 c1a4 fd01 983c 3db8
000002c0: 1757 563c 74a4 783d 5c04 52b2 09d6 d281
000002d0: 6166 3e3d cd0f 4fbc 806c 84bd c4ac 693a
000002e0: 8dba d6b8 e42f 1181 8c56 523d 78fc 81ab
000002f0: 8122 02b1 c4ed 51b9 ced7 30bb 23e3 573c
00000300: 6e09 61b8 3218 f23a 2ffa 24ba 5b4d 3fa5
00000310: 05cc fabb b9e0 19bc aa05 84b9 93ba c8ba
00000320: dac7 ac3c 7a6a d9b6 bf23 583d 7fd1 f63d
00000330: c21b 223b 02d1 d7ba 4430 9581 9167 af3a
00000340: 7a4b a3bb fbda 29b5 c96a b1bd 5844 9580
00000350: 1c8c b9bc 0bb4 953d 825f 8b3c 3769 843d
00000360: ff49 82ba 70b5 e0bc 625e 95bc 3e6d 7e01
00000370: 0912 7b01 38a2 2cbd 5dca 92ba 7cdd 8cbc
00000380: 4192 023d ee52 7901 3b7d c48f 12e0 593d
00000390: 6434 0481 9571 b4b2 bc3d 9cbc 8e71 00be
000003a0: d63e 1a3d 78e9 b711 d365 403d 245c 8b3d
000003b0: d8fb 8cb8 f7a5 5501 0eb0 892c fa0e 2b30
000003c0: 6ec9 8a01 a5c9 5039 aa5a 3c82 450c a13d
000003d0: 1f5e 1d02 c098 aabd 8b62 8601 7446 263b
000003e0: ec90 a3bd b6b5 fc01 5081 d201 a8eb d63d
000003f0: dc43 7e3c 7670 783b 000f 2b3c d30d e1b9
0.044118397 3.908463e-07 -0.08733734 -8.417917e-08 -0.00081498886 -0.061164457 5.3682466e-38 -0.01151375
0.042383965 -1.7350294e-05 -1.3788168e-37 0.05601528 -0.00084975903 4.36758e-38 -2.2771113e-38 -0.015105037
0.00013512187 4.5836972e-38 -4.520482e-08 0.06433402 9.675065e-38 0.025515586 0.065874405 0.0005836055
0.05722207 2.944729e-38 -0.0056060064 0.0068830173 -1.3347271e-08 1.010048e-24 0.048143107 0.05513956
-0.04023182 -0.01491749 0.07837769 -4.968999e-13 5.1468375e-38 -0.00056293595 3.847228e-38 -4.180614e-16
4.7007513e-38 0.055754554 0.024562351 0.0013219306 5.8522484e-12 6.253409e-36 -6.8898575e-05 4.981255e-38
-0.0004214422 6.8104546e-38 -0.12401606 0.0003515265 0.008718634 -2.893179e-12 -0.006275947 1.6007327e-38
4.0840352e-11 0.021928102 4.774382e-38 -0.082849644 -1.9531259e-38 2.7869375e-05 0.044925164 -4.5913484e-23
0.07005195 0.05390385 -6.7695636e-38 4.617195e-38 5.6305674e-38 -0.0064602727 -0.021565298 -0.037577298
4.914993e-38 0.054188248 -1.2927946e-09 3.2954583e-06 2.7463533e-38 0.020971386 5.2992534e-38 5.8540855e-27
-0.014233677 -0.015098031 -7.8270703e-38 4.655173e-38 0.004466916 2.4416382e-21 7.939909e-19 4.876295e-38
-0.0018527125 -0.012778379 -3.923583e-14 -1.3607137e-19 6.113357e-38 -0.0019419641 -0.030438963 0.026602466
-3.2159827e-27 -0.010773946 -0.021257516 0.0445231 -0.047704455 0.075126365 -0.07458528 -7.6486586e-38
0.0019438593 0.06486574 -4.5581083e-07 0.038235445 -0.007771176 0.06641186 6.318847e-38 0.0681111
3.72186e-05 -0.0137007395 5.4650853e-38 0.03350537 0.056634113 0.08636871 1.8410297e-38 -0.009922601
-8.5782615e-38 5.082218e-06 -0.00080868223 0.0006059806 6.3187164e-12 -5.9179764e-18 -0.12359662 4.5543915e-38
-0.012778708 0.083068624 -2.040913e-06 -1.3752098e-37 -0.013788942 9.4084205e-27 -0.013271845 0.060307465
-1.14254e-13 0.06260274 -5.0052156e-38 0.029346053 5.1332746e-38 0.04009828 0.008879126 1.0495473e-37
-8.456496e-05 1.3616616e-17 -0.0004205097 5.0506965e-16 0.027832657 -0.0007117014 -3.4541288e-23 -3.0074976e-09
0.08170659 1.2033773e-24 -4.5049882e-38 -2.1967929e-38 -5.186619e-05 1.5247265e-12 2.9172867e-29 0.01100274
0.034030337 5.139735e-38 0.01136687 -0.0071258848 -0.011231372 -3.1743488e-38 -9.774184e-08 -0.0011080162
6.917639e-39 0.03296567 5.539892e-38 0.0056756386 -0.01717516 6.6867575e-38 9.317393e-38 -4.5117544e-05
0.013082287 0.06070371 -1.22246e-08 -7.744894e-38 0.046484355 -0.012638045 -0.06466007 0.0008913989
-0.00010239063 -2.6666654e-38 0.05135207 -9.236075e-13 -1.8937103e-09 -0.00020020368 -0.0026984098 0.013176712
-5.3652962e-05 0.0018470346 -0.0006293384 -1.6592818e-16 -0.0076537156 -0.009391957 -0.00025181222 -0.0015314393
0.02109139 -6.4794995e-06 0.052768465 0.12051677 0.0024735783 -0.0016465487 -5.4803213e-38 0.0013382306
-0.0049833627 -6.3276065e-07 -0.08662946 -1.3708006e-38 -0.022649817 0.07309731 0.017013315 0.06465381
-0.0009940265 -0.027430266 -0.018233482 4.673081e-38 4.611436e-38 -0.04214689 -0.0011199225 -0.017195456
0.03187776 4.5793576e-38 -1.9375329e-29 0.053192206 -2.428216e-38 -2.1006409e-08 -0.019072406 -0.12543318
0.03765758 2.9016195e-28 0.046972107 0.06804684 -6.72263e-05 3.9240995e-38 3.91332e-12 6.223072e-10
5.098223e-38 0.00019911544 -1.3838078e-37 0.07863668 1.156155e-37 -0.08329916 4.936523e-38 0.0025371583
-0.07986626 9.283092e-38 7.732737e-38 0.104941666 0.015519109 0.0037908829 0.010440588 -0.00042925644

fc2.bias f4 [256]
00000000: 85cc 54bd 8f65 72bc 3baa 7f3e d300 c63d
00000010: 9244 483e 0feb 8abe 9df6 9a3e d73e 5c3e
00000020: 37db 593e beeb 68bd 5f1c 0dba 9d42 2b3e
00000030: b799 debd cdca d8bd 3d89 df3e 2175 94bd
00000040: 34ec 90bd 9ce9 25bc d90b da3e 0922 4f3c
00000050: c685 9c3e 6fda ac3e bece 313d dde2 133e
00000060: a784 d6bd 41ea d63d 69e8 e83d 5503 39be
00000070: 4380 b1bd e77c 7bbd 4e04 15be 65d2 a4bc
00000080: 8d72 bcba 86b7 653e fc9b 0c3d 872d 48bc
00000090: f9bd 023c 8ba7 22be f9d3 1e3f 12d8 153e
000000a0: 965a 49bd e4f6 e03d 76e5 653c b7c6 8cbb
000000b0: 5fdc 533b ef58 df3e 8edd a13e 4867 9d3d
000000c0: 2151 1cbd 047c 9ebd 3a4e 9a3e 2303 9fbc
000000d0: 5bc5 93bd 1d63 7dbd d561 153d 9063 d3bb
000000e0: 552e a93d ac1b a7bd 7d7d 983e 73c4 92bc
000000f0: d495 b73e ae9f 6abb 4d1d 2ebd aec2 0bbe
00000100: 681c 993e 10bf 68bc cb29 8dbd a720 81bc
00000110: a231 b1bd 2a76 3d3c 261f b13e 9869 943d
00000120: c578 9cbd 851b f2bd 98d3 363e 127d 09bd
00000130: b698 8bbc c3d4 a33d 771c 62ba 794d 07be
00000140: 02a4 1bbc f412 2f3d a9c0 7e3d 0c6e 673e
00000150: 8b1e ef3d dbd3 a6bd e5f4 433e 1024 d6bc
00000160: 41eb e73e 1d9d 4fbe 2410 c03e 6363 25bc
00000170: e5f2 2c3d 6aa7 84bd c01d 663e ef46 a33d
00000180: 5fc2 01be eb59 ca3c 408b 9dbd d01e 5dbb
00000190: 248d 82ba 7719 0a3d 1852 ee3d 9132 9cbd
000001a0: 3d4c a73d c891 8bbc d446 38be f1a0 a6bc
000001b0: 677b b7bc 72d5 23be bb0b bb3e 8435 b9bd
000001c0: 60f6 90bd 4795 88bd 53e2 b33e b6ae a5ba
000001d0: 8822 a33e e180 2e3e 3541 8d3e ecc9 ff3d
000001e0: 413b 633e a7eb adbd 4011 9dbb 2c17 0bbc
000001f0: 5f56 94be d437 1f3e 4a80 11bb 3380 5ebb
00000200: f48a 78be c75c f5bd 1473 dabc f060 1bbe
00000210: 64ab d4bc 37e8 17bb b506 0e3e 9a8a 883e
00000220: 7193 8a3e 21a4 003d ea29 c63e 13ca 2dbc
00000230: bc92 69bb b4aa 24bc 4f31 f6b9 7b96 873d
00000240: cc90 6dbd cdd9 53be 4523 293e 52cb e5bd
00000250: 9b18 13bd 84fb c0bd 503f de3c 7407 38bc
00000260: e2ed 27bb d228 12bc ca2e b4bd 4a8b e33d
00000270: ebc7 133e ff13 863e b200 87bd 0a65 383e
00000280: d56f 3cbd 671d 7abd 20a2 2abe a242 b8bc
00000290: 8396 9fbd 0097 bbbb a017 31bd e006 72bd
000002a0: aaf7 74bd eef7 3dbb cb3c 6bbd c75c 8fbd
000002b0: 656f c6bb ab94 eabd 985a 963e 7bd4 d03d
000002c0: 529b fcbd ee5e bd3c 4ed0 09be ea30 a43d
000002d0: 33a1 88bc 59ce 3a3d ed8a 0c3e 410d 9a3e
000002e0: 4533 0dbd 4519 4abe 262d 7a3e 67cf 803e
000002f0: db06 033e 8edb bbbb 3b05 3abd 34c5 943c
00000300: 1616 e73c 42b3 aeb8 8f7c 8e3d ff9c 9ebe
00000310: d209 e83e 28ae b0bc 6efc 0d3e c167 bd3e
00000320: 360e a7bc 6f1d fc3d 2a32 f73d 18d8 80be
00000330: bbae f3bd c011 32be dd83 b63e 4822 8fbd
00000340: da2d c23e e71a de3b 5367 b23d 3e03 a43c
00000350: 2c62 8f3e 16ef 913e d58d 0abe 9209 ce3e
00000360: 4b23 6a3e 8e96 53bd 3f9f b2bc 2169 bb3d
00000370: 7c6a b1bb 371c 5c3e 36a3 ed3d dd3e 93bc
00000380: 9f05 1abe c287 5fbd 2ebe f9bc c701 fe3b
00000390: 732e fabd aa7d cd3e 2694 fbbd c221 be3c
000003a0: e03b 3ebd 4948 50bd fd9e 7a3e 12ce 11bd
000003b0: 6301 28bd 82b1 96bc fe90 9f3e e1d2 803e
000003c0: 1d64 a9bc 40fc 873e 998a 1cbc 6258 b33e
000003d0: 0855 983e b3d0 35be 40ac e8bc bac0 b4bd
000003e0: 09c6 3cbe f491 1ebd fe40 e23d 02ae b6ba
000003f0: 76c8 b6bc b467 cabd 80ff 69be 4ed1 7bbd
-0.051952858 -0.014794721 0.24967282 0.09668126 0.19557407 -0.2713246 0.30266276 0.21508346
0.2127503 -0.056865446 -0.0005382951 0.1672463 -0.108691625 -0.10585556 0.43659392 -0.07248903
-0.07076302 -0.010126498 0.42587164 0.012642392 0.3057081 0.33760402 0.043410055 0.1444201
-0.1047452 0.10493899 0.11372454 -0.18067677 -0.08667042 -0.061398413 -0.14552423 -0.020119855
-0.00143774 0.2243329 0.034328446 -0.012217886 0.007979863 -0.15884225 0.62042195 0.14633206
-0.049158655 0.10984591 0.0140317585 -0.0042961496 0.0032327396 0.43622538 0.31614345 0.07685715
-0.038163308 -0.07738498 0.30137807 -0.019410675 -0.07215377 -0.0618621 0.036470253 -0.0064510778
0.0826079 -0.08159575 0.2978324 -0.01791594 0.35856497 -0.0035800743 -0.042508412 -0.13648483
0.29904485 -0.014205709 -0.06892737 -0.01576264 -0.08652045 0.011563817 0.34594077 0.07246703
-0.076402225 -0.11821655 0.17854154 -0.033566542 -0.017040592 0.079995655 -0.00086254574 -0.13213147
-0.009499552 0.042742684 0.062195454 0.22600573 0.116757475 -0.08145877 0.19136389 -0.026140243
0.45296672 -0.20274778 0.37512314 -0.010094496 0.04222383 -0.06477244 0.22472286 0.07972514
-0.12671803 0.02470108 -0.076925755 -0.003374029 -0.0009960276 0.03371569 0.11636752 -0.07626832
0.08168838 -0.017037287 -0.17995769 -0.020340415 -0.02239771 -0.15999392 0.36532387 -0.090434104
-0.07078242 -0.066690974 0.3513361 -0.0012640569 0.31862283 0.17041351 0.27588812 0.124896854
0.22190572 -0.08492213 -0.004793316 -0.008489411 -0.28972146 0.1554864 -0.002220171 -0.0033950924
-0.24271756 -0.119805865 -0.026666202 -0.15173697 -0.025960632 -0.0023179182 0.13869746 0.26668245
0.27065614 0.031406526 0.38703853 -0.01060726 -0.003564044 -0.010050464 -0.00046957514 0.06620499
-0.057999417 -0.20688553 0.1651736 -0.11220421 -0.035912137 -0.09422973 0.0271298 -0.011232246
-0.0025623967 -0.008920865 -0.08797987 0.11110552 0.14431731 0.2618713 -0.065919295 0.18007293
-0.04600509 -0.061063197 -0.16663408 -0.02249271 -0.0779238 -0.0057247877 -0.04323542 -0.059088588
-0.059806503 -0.002898689 -0.057431024 -0.07000118 -0.0060557597 -0.114541374 0.29365993 0.101967774
-0.123343125 0.023116555 -0.13458368 0.08017142 -0.016678428 0.045606945 0.13724871 0.30088237
-0.034472723 -0.19736202 0.24431285 0.25158235 0.12795584 -0.00573296 -0.045415144 0.01816044
0.028208774 -8.330356e-05 0.069573514 -0.30979154 0.45319992 -0.02156742 0.13865826 0.3699322
-0.020392518 0.123103015 0.12070115 -0.25164866 -0.118985616 -0.17389584 0.3564748 -0.069889605
0.37925607 0.0067781094 0.08711114 0.020021077 0.28004587 0.2850272 -0.13530667 0.40241677
0.22865026 -0.051657252 -0.02180445 0.09150911 -0.0054143053 0.21495138 0.11603396 -0.017974311
-0.15041207 -0.054572828 -0.030486193 0.0077516767 -0.12215891 0.40134937 -0.122841164 0.023209456
-0.04644382 -0.050850186 0.24474712 -0.035596915 -0.041016947 -0.01839519 0.31165308 0.25160888
-0.02067762 0.2655964 -0.009554529 0.35028368 0.29752374 -0.17755394 -0.028402448 -0.08825822
-0.1843492 -0.03871341 0.110475525 -0.0013937356 -0.022312384 -0.09883061 -0.22851372 -0.061478905

fc3.weight f4 [128, 256]
00000000: 4225 c03c ee37 0ebb 2d0d 653b 5084 fbba
00000010: 5532 48bc fdc1 a5bd b289 82bc 2fda e5bb
00000020: 30ef 5abb f29a ba3c b406 053d 4edb b23c
00000030: cd20 b53c 989d bb3c 9769 98bc 0826 403c
00000040: 5b49 13bc 9d17 76bc 39c2 99bc 3cca 50bb
00000050: 2694 89bc 38ef 82bc 9978 3f3d 8351 1bbc
00000060: 1148 543b 5295 50bc 5b9c 973a 1360 4b3d
00000070: 3057 f83c 2dc6 483c 1909 e03c c24e 84bc
00000080: ee46 febb 5121 20bc ea51 3fbc 15a9 2e3c
00000090: 3a59 f63c b206 8a3d c6ae c6bc 5c33 833c
000000a0: 3e57 fcbc 013f a4bc c8ca d1bb 9a9f 0bbc
000000b0: 69c5 1b3d a37b 64bc f89a 3dbc 36c8 b53c
000000c0: 49e7 b13c 0b22 0dbd de88 69bb 066f 4f3b
000000d0: 0ee1 863c eff9 b2bc 4087 a5bb fec8 873c
000000e0: 5bc6 94ba 41eb 4d3d 1013 79bc 09b4 f9bb
000000f0: 2ff9 1abc 15f7 5a3a e9e1 f43b 8a21 033c
00000100: d558 90bc 894d ecbc fa4e 073c c225 083a
00000110: eeb2 f5bb a6d1 f53b f62e cfbc 4409 ca3c
00000120: f0d6 0dbd b730 38bd 3c93 513a b3e2 e33b
00000130: 1af8 eb3c 46d9 2ebd f79c 86bc d650 f2bc
00000140: 384a 8a3a 52e7 813d fac0 f13d f08a 7d3d
00000150: f72d a1bc 9a27 6bbd 6a1d 493d bca6 0f3d
00000160: 39c2 e9bc 9e3d 163d 9957 eb3c de78 973b
00000170: a0ff c53c 610d 1fbd 35e4 92bc 4e2e 34bb
00000180: 29b2 fa3a 27c6 203b 1068 29bc 7a8e da3c
00000190: 8342 c9bc 346a 893c ddc9 7b3c 7a4f a8bc
000001a0: 2598 8d3d 5d9c c3bc f4e5 86bd b9b9 2fbc
000001b0: c621 71bc f524 a2bc 6836 7ebc 0d06 28bc
000001c0: a2ab 853d 5f47 66bc 8a46 c83c eb31 e6ba
000001d0: 0282 82bc 38aa b2bc 90fb 06bc 2917 cd3b
000001e0: 57df 153d fbed 47bc d220 1dbc 3573 533c
000001f0: f6b4 1bbd 264d 81bc 4d69 c93c b8e4 66bd
00000200: d2ac a0bd 00e4 393b fe4c 17bd 1ddb 82bb
00000210: c799 9dbd 67c6 9b3d 50ae 0dbd 3b5e 9bbb
00000220: 41c2 bdbb 9d6b 5abc 3d3b 24bd 5cf5 2b3c
00000230: e2da 533d 7bc5 5cbc b534 103d 15cf d23b
00000240: 5552 b13c bc2b 45bc 99c1 b3bc d5b8 24bc
00000250: 5544 823c 0ba8 503d a103 913c bb75 853c
00000260: e6f9 98bb ec3a ba3c 585a 25bb b114 1ebb
00000270: 1444 bbbb 3d33 b2bc bddb 0e3d 85a8 7c3c
00000280: ad93 01bd aa9d c43c b945 723b 44f9 0ebc
00000290: 8bd9 67bc 7751 b4bc c8b9 4bbd d227 713c
000002a0: 03a9 ccbb 9bd8 e2bc 1db4 a33a 2bd2 a0bc
000002b0: 64a8 7cbd 9594 953d 6207 6ebc a886 90bc
000002c0: 2ef1 d5bc cbf1 f6bb a7bc 32bd 16c5 07bb
000002d0: 7db0 73bc 1356 10bc 80f2 463c 631c 71bb
000002e0: 0681 fdbb 0997 a8bc 3e39 123d d48f 0ebc
000002f0: 349c c03c 8281 0fbc a794 8fbc 7205 4a3d
00000300: d548 5c3c 0f4b ca3c dcfb 92bc dde5 dcbc
00000310: 88b8 95bc 8162 8dbb 1e26 fd3c 30bc 2fbc
00000320: 7e11 afbc b560 bd3c 95ca 16bc 97bd 6bbd
00000330: e157 13be 3b6a 8ebc b40f 50bd 1fe3 523c
00000340: 9b35 21bc 9361 0dbb 03e4 5f3b 9412 37bd
00000350: 099b 40bc c6ee 29bc 83da 023d 23ec a7bc
00000360: 1615 2f3d 8eb7 133b a7c5 2cbc cffb dd3c
00000370: e806 ba3c deb6 97bc 9c46 73bc 2505 c7bc
00000380: 803e 83bc 92f1 493b a474 293d 4bbf 67bc
00000390: cb24 c4bd 78a9 a5bc 5985 93bb 83b2 67b8
000003a0: 86f9 18bc e564 163c 2f3c 773b ea20 27bc
000003b0: 2f86 4d3c 036b c2bc 34f3 29bc f8f5 52bc
000003c0: 416a 7fbc fdc5 93bc 73e0 57bc c093 78bb
000003d0: 562c 1bbc 713c 91bd c83a f4bc 234c b53a
000003e0: 6ba9 bebb ecb9 683c 5a22 7cb9 6bec 8dbd
000003f0: 4dc7 efba 679f bd3b 7e1b c439 3950 51bb
0.023455266 -0.0021700817 0.003495048 -0.0019189212 -0.012219031 -0.08093641 -0.015934799 -0.007014535
-0.0033406727 0.022778962 0.032477096 0.021833088 0.022110367 0.022902295 -0.018605037 0.011727817
-0.008989657 -0.015020278 -0.01876937 -0.0031858822 -0.016794275 -0.015983209 0.04674587 -0.009479883
0.0032391588 -0.012730913 0.0011566983 0.04965217 0.030315012 0.01225428 0.027348088 -0.016150836
-0.0077599203 -0.009773568 -0.011677245 0.0106604295 0.030071843 0.06739558 -0.02425326 0.016015701
-0.030803319 -0.020049574 -0.0064023472 -0.008521939 0.038030062 -0.013945493 -0.011572592 0.022190195
0.02171673 -0.034456294 -0.0035634558 0.0031651868 0.016464736 -0.021847693 -0.0050515234 0.016575333
-0.0011350618 0.050273184 -0.015202299 -0.007620339 -0.009458824 0.0008352858 0.0074732197 0.008003602
-0.017620483 -0.028845565 0.008258576 0.00051936146 -0.0074981367 0.0075017987 -0.025290947 0.024662621
-0.03462881 -0.044968333 0.0007994657 0.006954515 0.028804827 -0.042687677 -0.016432269 -0.029579561
0.0010550683 0.06342949 0.118043855 0.06190008 -0.019675238 -0.057410814 0.049100317 0.03507112
-0.028534995 0.036679856 0.028728293 0.004622563 0.024169743 -0.03883112 -0.017931083 -0.002749342
0.0019126582 0.002453217 -0.010339752 0.026679266 -0.024567848 0.016774274 0.015367952 -0.02054571
0.06913785 -0.02387827 -0.06586829 -0.010725432 -0.014717525 -0.019793013 -0.015515901 -0.010255349
0.06526877 -0.014055102 0.024447698 -0.0017562484 -0.015931133 -0.021809682 -0.008238688 0.0062588644
0.036589947 -0.012202735 -0.0095903445 0.012905885 -0.038014375 -0.015783858 0.024586344 -0.056370467
-0.07845463 0.0028364658 -0.03693866 -0.0039934055 -0.07695346 0.076062016 -0.034590065 -0.0047414578
-0.005790979 -0.013331321 -0.040095557 0.01049551 0.051722415 -0.013474817 0.035206515 0.0064333775
0.021645704 -0.012034353 -0.0219429 -0.010053833 0.015901724 0.05094151 0.017701926 0.01629149
-0.004668462 0.022733174 -0.002523085 -0.002412122 -0.0057149027 -0.021752948 0.034877528 0.015421038
-0.031634975 0.024000961 0.0036967827 -0.008726422 -0.014150987 -0.022011502 -0.04973772 0.014718967
-0.0062457337 -0.027691176 0.0012489591 -0.019631466 -0.061684027 0.073037304 -0.014528127 -0.017642334
-0.02611598 -0.007536148 -0.043636944 -0.0020716838 -0.014873621 -0.008809584 0.012142777 -0.0036790601
-0.007736328 -0.020579832 0.03569912 -0.0087012835 0.023511983 -0.008758904 -0.017526938 0.0493216
0.013445099 0.024693994 -0.017942362 -0.026965076 -0.018276468 -0.004314721 0.030901965 -0.01072602
-0.021370646 0.023117403 -0.009203573 -0.057553854 -0.14388992 -0.017384639 -0.050796226 0.012871533
-0.009839441 -0.0021573051 0.0034163005 -0.04469545 -0.011755713 -0.010371869 0.03194667 -0.020498341
0.04274472 0.0022539827 -0.010545171 0.02709761 0.022708371 -0.018519815 -0.014848378 -0.024294445
-0.016021013 0.0030814153 0.041371003 -0.014144729 -0.0957733 -0.02022241 -0.0045019803 -5.5240944e-05
-0.009336835 0.009179329 0.0037725081 -0.010200718 0.012544199 -0.023732668 -0.010372926 -0.012876026
-0.015589298 -0.018038744 -0.013176071 -0.0037929863 -0.00947102 -0.070916064 -0.029813185 0.0013831895
-0.005818536 0.0142044835 -0.0002404539 -0.06929859 -0.0018293649 0.0057868245 0.00037404516 -0.0031938686

fc3.bias f4 [128]
00000000: a698 213d a8ec 7f3c ff8e 2ebd 2143 ebbe
00000010: eddc 82be b7c5 0abe f35f b1bd 7361 4fbe
00000020: 55e4 f4bd 7290 2a3d ca8f 533b cab9 683d
00000030: 6d86 99bd 2b08 c0bd e1e9 21b9 9025 bfbb
00000040: 4d76 2f3e 8b0b f8bd baf0 82bd 5c0d 3e3d
00000050: cd9e e7be f3a4 2fbd f078 3cbc 7451 2dbd
00000060: 93a3 103e d596 bcbc f580 07ba aef3 153f
00000070: d3fc a9b1 4730 903d a40f 28be 6d60 323c
00000080: 964f 15bd 8cc3 df3a 18df f9be ddee 253f
00000090: 3c6a 3d3f 4d2d 8d3d aed6 11bc 2977 b9bd
000000a0: f127 9c3e c833 383e f4bb bdbd 0855 39bd
000000b0: 5518 0e3b 9422 13be b130 dfbd 437d bd3c
000000c0: c25f 0b3e 2222 413c 79dd f23e d439 d8ba
000000d0: 658c 373d a7a1 dcbd 9c69 13be a653 62bd
000000e0: b94c eeb7 33d1 50be 0db5 b53e 536b b9be
000000f0: 124f 9c3f cfca 75bc c2d5 9fbe 6ba1 b63d
00000100: 3c1f bbbb 852d 08be 5445 5201 89cd 70bc
00000110: 13b6 083e ccf0 803b 7a08 913d 8772 69bd
00000120: de69 763c dd4b 3cbc b2f1 2a3d 6526 4c3d
00000130: b0c4 113e aafe a4bd e01d e5b5 1d1f a8bd
00000140: b072 c8bd 64f5 80be 576f be3d d7ca 3fbd
00000150: 432e 2bbd da12 973c 2245 27bc 01e2 003e
00000160: e66c 12be 10e4 6cbe c087 de3d 290a 4abe
00000170: 03ad d4bd 4280 af3c b3f0 f3b9 fe13 b1be
00000180: 0435 5ebe f420 b7ba aaee bb3c 8080 debc
00000190: cc40 82bd bf5e 8e3e 62de 973c dc73 163f
000001a0: c0f0 e3b3 fc9c a33d bba5 49bd 8010 1a3f
000001b0: a08c 48bd e5cd d03e 4144 6d3d 36ba 6abb
000001c0: 8ed0 e000 b106 d63c 65f3 553c 7256 6c89
000001d0: 9c16 213d 6edd 933d 2a69 21bd c4d8 ebbb
000001e0: 6595 98be 4016 553b b50e ddbb 26bd 033f
000001f0: c1d3 363e 7d53 333e 7b87 6bbb 5472 35bd
0.039452218 0.015620388 -0.04261684 -0.45949653 -0.25559178 -0.13551985 -0.08660879 -0.20252018
-0.119576134 0.04164166 0.003228175 0.056817807 -0.07496343 -0.09376558 -0.00015441283 -0.005833335
0.17134972 -0.12111577 -0.06393571 0.04639946 -0.45238343 -0.042881917 -0.011503443 -0.042314008
0.14124899 -0.023021141 -0.00051690574 0.5857495 -4.94729e-09 0.07040458 -0.16412216 0.0108872475
-0.036452852 0.0017071827 -0.4880302 0.648176 0.73990226 0.06893406 -0.008901281 -0.09055931
0.30499223 0.17988503 -0.09264365 -0.045247108 0.0021681983 -0.1436866 -0.10897959 0.023131019
0.13610747 0.011787923 0.47434595 -0.0016496726 0.044811625 -0.1077302 -0.14395756 -0.055255555
-2.8407538e-05 -0.20392303 0.35489693 -0.36214694 1.221163 -0.015001967 -0.31217772 0.08917507
-0.0057105105 -0.13298614 3.862065e-38 -0.014697441 0.13350706 0.003934955 0.07081695 -0.056993987
0.015039889 -0.011492697 0.041734405 0.049841303 0.14235187 -0.08056386 -1.7070524e-06 -0.082090594
-0.097875 -0.25187218 0.0929858 -0.046824303 -0.041792165 0.018441606 -0.010209354 0.12586214
-0.14299354 -0.23133874 0.10865736 -0.19730438 -0.10384562 0.021423463 -0.00046527907 -0.34585565
-0.21699911 -0.0013971613 0.022940952 -0.027160883 -0.06360015 0.2780666 0.018538658 0.5877054
-1.06143034e-07 0.07988927 -0.04923032 0.60181427 -0.048962235 0.40782085 0.05792642 -0.0035816557
2.0645966e-38 0.026126238 0.013058518 -2.8448113e-33 0.039328203 0.07219969 -0.039406933 -0.0071974713
-0.2980148 0.0032514483 -0.006746138 0.5146049 0.17854215 0.17512317 -0.0035938907 -0.044298485

fc4.weight f4 [64, 128]
00000000: 2550 cabb 1ed9 d3bb 2f93 e7bc 7df2 d2bd
00000010: 9286 cdbd 7665 103c a2f0 b33c 3d39 3dbd
00000020: 5b95 f63c 9d5b 99bb 5055 48bd 9b09 58bd
00000030: 3643 6ebd 530f c9bc 3507 b739 8586 28bb
00000040: cf4b 703c 07eb 4bbc 1b72 16bd 416e 8cbc
00000050: 2169 76bd c5ed 6dbd bde0 023d 6fad 5c3d
00000060: b439 f039 544e 14bd 6cde 7ab8 8850 c73c
00000070: fb13 b018 dd8e 28bd 01d0 16bd ef00 b4bc
00000080: 2d5a 2e3d 590a d1bc c8d1 bcbd 68b6 73bd
00000090: bc39 73bd dbdf 14bd 32ee 843b 71b7 42bc
000000a0: 684c 0cbd ff3b 29bb 1aef 573c b18f 62bd
000000b0: b268 11bd e12e 983c 5968 83bd cb4f a5bd
000000c0: 272d 12bd c180 e83a 25fb 71bc 326c 033b
000000d0: cc51 a8bc 71c4 593d cf2f 76bc bc3e 113d
000000e0: cf03 0c00 094f 6bbd bd5f cabc 14ea f9bc
000000f0: fc7c adbd b39a 34bd 84bd b1bd e8af b5bc
00000100: e54a 903d 3827 2e3b 4410 6db5 0f27 ef3c
00000110: 1894 00bb 3b36 893d cfb6 e33c 25da 07bc
00000120: 85b2 65bc 37cc 52bb 0deb 01bd 1210 0ebc
00000130: 8908 923b fbd1 a53d b48a baa9 5b46 133c
00000140: 392b 4abc 871c 0eba 69ee 32bc 56cc e6ba
00000150: 6bfc 843c 6c18 c8bc 49ce 45bc 2d76 17b8
00000160: 41eb 48bd 7f44 bcbc ebb1 53bd fad5 83bd
00000170: 87c4 e1bc dca8 41bc dce7 28bc 18c7 9ebd
00000180: 041c a7bd 6b07 b7bc a4b4 ee3d d56a 83bd
00000190: 3571 e1bc ee3d bbbc d4a2 35bd 862c b43c
000001a0: 455e 86b8 2524 50bc bc0c ef3c 9f46 4abd
000001b0: 13f8 873c a5ba 0a3c 5206 11be 363c 1dba
000001c0: c1dd 912c 3e74 873b fc04 31bd 612c 0402
000001d0: 54fe babd 9b74 16bd bb08 a7bd 661d 5ebd
000001e0: 8146 d9bd 062b 1cbd b4de ecbb a105 d1bc
000001f0: beaa bebc ed0b 6cba da9d 9ab9 d9f0 77bd
00000200: a636 a9bc c86f c1bc 975b a8bc 3fb5 51bd
00000210: 94ea 4cbd 7c98 fd3b 6433 1dbd 3f5e 02bc
00000220: a56f 813c 9ba2 abbb 2b97 c53c 55ed 43bc
00000230: 8ea8 81bc f551 923d bd67 8c29 01bf 053a
00000240: 1631 f6bc 4914 04bd 1ae3 2f3c 1fbf 53bc
00000250: 7b74 67bd c890 40bd 8dbf e2bc dfcb a3bc
00000260: bdcf 573c 3b91 ed3c c112 7cab 1a81 873d
00000270: 1e61 2101 66ef 4bbd 3f12 cb3b 3ab3 5abc
00000280: 00e2 43bb a07b 27bd 42d2 8abc 69a7 423c
00000290: 5608 183e 4985 88bc abb3 4abc 829c 543c
000002a0: c562 693d 8da7 24bc 1998 633d 2367 77bc
000002b0: fdd1 163c ab02 4dbc 0c5d 2abd ce55 19bd
000002c0: 36e1 a8bd f3db adbc 13df 323d 3631 5d3b
000002d0: cbfb 9cbb daf5 b8bc c12b f43b dc3e 36bc
000002e0: a29b eb1c b4e3 2b3d fe51 2c3d c9be cfbc
000002f0: e3e9 373c dada 40bd 647f 8fbd 4390 a5bc
00000300: fd52 00bd 42ae 083d f7ea 0b82 35c1 e6bb
00000310: df1e 123d 8d68 0fbd bb58 71bb 2a2b 50bc
00000320: f958 12bd 4f56 3a3d 52cf c5bc 149c 43bc
00000330: cfaf 303b 945a 6fbd 4b0e 0926 0270 99bc
00000340: 1d90 41bc a36b 65bd 3d44 e0ba 1daf d3bc
00000350: 8e56 a33c c10f d73c 93fa 7a3b acb6 6dbb
00000360: d076 cc3b 24ee c23b 2fd0 e7bc 997f dc3b
00000370: 9190 a1bb ae9a aabc b09d 23b4 8e2c 25bd
00000380: 233a 86bd 8dae bc3b b845 05bd 3086 16bc
00000390: e85d b43c 1797 223d 584f ae39 fa0f 513d
000003a0: 2cf0 3527 a2fb e5bc 9e95 853b 10f3 fa3b
000003b0: 6cb5 febb 6bd0 9f3d 7aa3 673d 4cf0 d7b7
000003c0: 1a8d 1a02 7476 493b edea adbc 54cd 5881
000003d0: a776 2bbc 83fe 1b3c 04df 62bc 737c a3bc
000003e0: 69e3 623c b0ba 8dbb d1ec f33a a369 293d
000003f0: 8463 a43a 9e8c 373b d5e4 c8b9 1222 52bb
-0.0061741048 -0.0064650914 -0.028268425 -0.10300157 -0.10035433 0.008813253 0.021965329 -0.046197165
0.030100515 -0.0046801106 -0.048909485 -0.052743535 -0.058169566 -0.02454344 0.0003490985 -0.0025714946
0.014666512 -0.012446172 -0.036729913 -0.017142417 -0.060158852 -0.058088083 0.03195261 0.053876337
0.0004581936 -0.036207512 -5.981179e-05 0.024330392 4.551511e-24 -0.04115187 -0.03681946 -0.021973101
0.042566467 -0.02551763 -0.092197 -0.059500128 -0.05938123 -0.036346298 0.0040567154 -0.011884556
-0.034252554 -0.0025823114 0.013179565 -0.055312816 -0.035500236 0.018577041 -0.06416387 -0.0807186
-0.035687592 0.0017738567 -0.01476935 0.0020053503 -0.020546816 0.053165857 -0.015026047 0.03546022
1.103392e-39 -0.05744842 -0.024703855 -0.030507125 -0.084711045 -0.044092845 -0.08678725 -0.022178605
0.07045535 0.002657367 -8.831305e-07 0.02919343 -0.001961952 0.06699797 0.02779713 -0.008291756
-0.014019613 -0.0032165179 -0.031718303 -0.008670824 0.004456584 0.08096691 -8.2841205e-14 0.008988942
-0.012339407 -0.0005421121 -0.010921099 -0.0017608504 0.016233644 -0.024425708 -0.012073108 -3.6111265e-05
-0.04905248 -0.02298188 -0.051683348 -0.06437297 -0.027559532 -0.011820044 -0.010309186 -0.07752818
-0.081596404 -0.022342404 0.11655548 -0.06416861 -0.027519802 -0.022856679 -0.044344738 0.021993887
-6.407177e-05 -0.01270393 0.029180877 -0.049383756 0.016597783 0.008467351 -0.14162567 -0.0005998047
4.1457675e-12 0.00413373 -0.043217644 9.710565e-38 -0.091305405 -0.036732297 -0.08155962 -0.054227255
-0.10609151 -0.038126968 -0.0072286967 -0.02551538 -0.023274776 -0.00090044626 -0.00029490778 -0.060532425
-0.020655941 -0.023612872 -0.020551486 -0.05119824 -0.0500284 0.007739125 -0.038379088 -0.00795704
0.015800307 -0.00523789 0.024119934 -0.01195844 -0.015827443 0.07144538 6.2352447e-14 0.0005102009
-0.030052703 -0.032245908 0.010735298 -0.012923985 -0.05650757 -0.047013074 -0.02767923 -0.019994674
0.013172087 0.028999915 -8.955441e-13 0.06616421 2.9640708e-38 -0.049788855 0.0061972435 -0.013348395
-0.0029889345 -0.040889382 -0.016945962 0.011880734 0.1484693 -0.016665118 -0.012371938 0.0129767675
0.05697896 -0.010049713 0.055564974 -0.015100273 0.009205339 -0.012512843 -0.041592643 -0.037435345
-0.082460806 -0.021223044 0.04366977 0.0033751256 -0.0047907582 -0.022578169 0.007451505 -0.011123385
1.5591226e-21 0.0419652 0.04207038 -0.025359528 0.0112251965 -0.047083713 -0.0700672 -0.02021039
-0.031329144 0.03336931 -1.0279539e-37 -0.007042075 0.035673972 -0.035011817 -0.003682657 -0.012705604
-0.035729382 0.045492467 -0.02414671 -0.011939067 0.002696026 -0.05843599 4.7550794e-16 -0.018730167
-0.011814144 -0.056010853 -0.001711018 -0.025840336 0.019938733 0.02625263 0.0038296327 -0.003627221
0.0062397495 0.0059487987 -0.028297512 0.006729078 -0.0049305637 -0.02082571 -1.5237924e-07 -0.040325694
-0.065540574 0.0057581128 -0.032537192 -0.009187266 0.022017434 0.03969487 0.00033246982 0.051040627
2.5248993e-15 -0.02807409 0.0040766736 0.00765837 -0.007773092 0.078034244 0.056552388 -2.5741894e-05
1.1354627e-37 0.003074077 -0.021230185 -3.982025e-38 -0.010465301 0.00952113 -0.013847116 -0.019956803
0.013848164 -0.0043252334 0.0018610005 0.04136051 0.0012541865 0.0028007398 -0.00038317466 -0.0032063765

fc4.bias f4 [64]
00000000: 37c5 24bd f237 3fbd 0b89 993e 84c3 8db6
00000010: 72fb acba 5c34 323f 0e6e 1940 2191 aab8
00000020: 2207 f13f 3f1a a4ad 9dac 693f 8cfc 30bc
00000030: 3b68 423f c1f8 d1be 8a0c 4340 8bff f3b3
00000040: 8d60 8b3e 15b4 28bb 440e 6d3c f149 543e
00000050: c693 48bb cfa8 9cba 350f 823f 4820 753e
00000060: 8272 a33e 3d94 cb3f d0f9 3c3f 6b9c e539
00000070: f067 c03f c2a6 91be 258a e8be 1c7e 2d3c
00000080: cad5 9fb9 ebd5 bc3c 918b 313f 182a 369a
00000090: 04bc 14bc 2e2a a5a8 9d6c 1540 b285 ccb9
000000a0: 5581 a93d 40e2 4895 2d18 49c0 1d1c 133f
000000b0: 5ee8 4a82 1d45 89b9 e4cf 89ba d40e 859f
000000c0: f47e dd3c 5330 813d 9429 0c3e 86d8 e999
000000d0: a5e2 923f a6a4 d93e babe 45bc 1206 04bc
000000e0: 1a1f 303f 8e36 c1ae 47ac d7bf d6a2 5fb6
000000f0: 3e29 2da6 7d50 aebe 4b8f dcbb e9a3 17bb
-0.04022714 -0.046684213 0.29987368 -4.2248885e-06 -0.0013197495 0.69611144 2.3973422 -8.133264e-05
1.8830302 -1.8656297e-11 0.9127901 -0.010802399 0.75940293 -0.41010097 3.0476403 -1.1362052e-07
0.272221 -0.0025742103 0.014468733 0.20731331 -0.0030605658 -0.0011952164 1.0160891 0.23938096
0.319233 1.5904614 0.73818684 0.00043794824 1.5031719 -0.2844754 -0.45417896 0.010589149
-0.00030486129 0.023051223 0.69353586 -3.767072e-23 -0.00907803 -1.8336972e-14 2.3347542 -0.00039009523
0.08276621 -4.0568158e-26 -3.1421006 0.5746477 -1.4907302e-37 -0.0002618217 -0.0010514227 -5.635222e-20
0.027038075 0.06308045 0.13687736 -2.4179088e-23 1.1475416 0.4250843 -0.012069399 -0.008058088
0.6879746 -8.786315e-11 -1.684945 -3.3324372e-06 -6.0077326e-16 -0.34045783 -0.006730949 -0.002313847

fc5.weight f4 [5, 64]
00000000: f8ab dcbc 21bc f83d 6ab0 96be 80ec aab8
00000010: e946 b2bb 3c41 343e fc0b bdbd e2ca 71ba
00000020: 64dd 87bc eca1 dd3b d0ab a83e 92e8 90bc
00000030: 9168 66bd 4dde ccbc c5df 6cbe ec78 0e3c
00000040: 61cf 063d 1694 b0bb 6fb6 46bd e7e4 89be
00000050: 9c55 6dbc c920 963b 6960 163e b954 9f3c
00000060: feb0 953c c803 363d b76d 033e 5ae2 55bb
00000070: 0f25 e73e fcae ccbc b804 54bd 2cb1 34bd
00000080: 3fc3 d7bc 7238 2abc 6a4d e43d 44e3 08b7
00000090: 3a74 92bc 6cb5 9b34 edc8 1fbe 6c5c 5b3c
000000a0: 098f 19bd 2ab2 6f01 23c6 543e 58cd c23d
000000b0: 30c2 5538 d027 a03b 63cc 3cbb 6237 45ad
000000c0: bed5 9cbd 33fa a6bd fa0d b6bb a5b7 da23
000000d0: f192 623d 4d97 12bd 611c b7bb c692 8f3c
000000e0: d2ac 2bbe 4148 1736 8e5b 033e 76c3 83b6
000000f0: f5d7 45b9 1b95 8cbd 4ebf 8abc 00e5 b8bb
00000100: 35bf 11bd cf67 0e3d 4f31 a1be 7de6 c1bb
00000110: 2106 d139 f088 473e c56b cbbd c091 083a
00000120: df6b 3dbd 3df1 0438 c09f 2b3e f6b0 253b
00000130: 884f 44bc 0131 d9bc c775 3ebe 9761 3ebc
00000140: e3d6 dabb 84a4 653d e27d d2bb 154c 8dbe
00000150: 3b5d 95bc bbe5 94bc f5d7 793e ff4e 023d
00000160: eb3c 763c cc26 05bc 73fd 363e f806 36bc
00000170: a0b0 cd3e 13e4 7d3c f25d c9bc 83da febc
00000180: 4905 2abb 5708 b3bc 7bb2 4e3e 3d74 6336
00000190: 55d0 d73c 52c6 fb3a 637d 01be 0ee6 3e3c
000001a0: 53d1 57bd b960 9280 c284 153e 032a 273e
000001b0: 9522 c33b 11da 253c e5fc f3bb 32f9 5432
000001c0: 1ae7 8cbd fdc6 29bd fbd7 7d3c 29fe 0e22
000001d0: d2df cd3d 6cec 89bc 7707 88bc c58f 8abb
000001e0: 9ac0 22be 191c 8132 bda8 053e befc 0c35
000001f0: cc99 1339 3474 e63b c622 033c eaea 133c
00000200: 6543 11bd 9499 2abd 35ed 98be c618 ddba
00000210: 2fc0 08bc 1768 843e c660 9bbd 188f 65bb
00000220: dbb4 d0bd 6c4b 62bb 26d5 7d3d faee 3cb6
00000230: e87b fb3d 9dd1 03be b6b9 03be 3089 56bb
00000240: bb42 953d cecd 74bb 6991 9f3c 7817 87be
00000250: 2edf 95bc 81ae 563c 6c94 243e 7c05 b23c
00000260: e6b6 9d3d 98d4 73bd 1ad1 833e 6ddc 13bc
00000270: 2e86 d03e 97f8 b2bd 3c90 86be 237c 48bc
00000280: a4c0 c139 01c1 d9bd 7576 853e 54cc fdba
00000290: 0468 b5ba b973 d2bb f9f1 adbd 63cb 0dbc
000002a0: fffb 82bd 2000 6e3b 5331 723e f0e6 523e
000002b0: 0187 403c 78ff 29bc 9c24 3abb 0062 09ba
000002c0: 3f08 e3bd 353a 3fbc 9b1c 603d e0ea 6db9
000002d0: 9c88 3d3e acc6 523d a096 583c 1d77 c7bb
000002e0: 92f2 05be 7919 c3b9 6753 ce3d 3c8e a1bb
000002f0: a330 9cbb 3a35 2ebe 8a30 533b 606d 50bb
00000300: b2cd c3bc db78 12bc a7fa 8abe f4fe 163b
00000310: dbee babc 481a 3a3e b8b8 92bd cef3 403a
00000320: 9a80 cebd 72b0 dbbb d720 263d 509d b3bb
00000330: 8ed0 023e 1957 17bd 476e b2bd c3bc d2ba
00000340: c9f6 563d b5d1 b23c a2dd ce3c b188 6ebe
00000350: ac7e 083c c343 aa3b 12a6 bc3e 5400 de3c
00000360: 4fac 943c 0c21 cebd 84ff 663e e165 393b
00000370: 35b2 a83d cbba c3bc 3aa2 11bd 8202 e23c
00000380: 2a13 5cba 6017 2abd 5703 5a3e 4dc8 61b8
00000390: 3394 9cbc 9fe1 3939 c726 30bd 2d47 133c
000003a0: 3e7b 38bd 4b0b 00b7 9578 493e b9f7 b23d
000003b0: 418f aabb cbd2 e03a 0dbb c53b ff4b e9b3
000003c0: 4aa1 b1bd 41df 2b3d 0b9a 7c3d ffe0 063b
000003d0: dca7 c03e 8820 723d e389 1f3c 7735 283c
000003e0: 7602 fdbd d5ed 5a38 d1f5 c63d 86f1 5cbb
000003f0: fe36 643b cf6d 84bd 7c9b 13bc e58d e13a
-0.02693747 0.12145258 -0.29431468 -8.150283e-05 -0.005440582 0.1760301 -0.092308015 -0.00092236523
-0.01658506 0.0067636874 0.32943583 -0.017689023 -0.056252066 -0.025008345 -0.23132236 0.008695822
0.032912616 -0.005388747 -0.048513826 -0.2693245 -0.014485743 0.004581545 0.14685215 0.019449579
0.018272873 0.0444372 0.12834822 -0.0032636137 0.4514546 -0.024985783 -0.051762313 -0.044114277
-0.026338218 -0.010389434 0.11147578 -8.159146e-06 -0.017877687 2.9003002e-07 -0.15603991 0.013388734
-0.037489925 4.4025194e-38 0.20778708 0.095118225 5.096401e-05 0.0048875585 -0.0028808347 -1.1210451e-11
-0.076579556 -0.081531905 -0.0055558654 2.3713384e-17 0.055315915 -0.035788823 -0.0055881 0.017526042
-0.16765144 2.254281e-06 0.12827894 -3.926859e-06 -0.00018867834 -0.06864377 -0.016936924 -0.0056425333
-0.03558274 0.03476697 -0.31482932 -0.005917369 0.00039868153 0.19485831 -0.09932665 0.0005209707
-0.046245452 3.1695923e-05 0.16760159 0.002528248 -0.011981852 -0.026512625 -0.18599616 -0.011619947
-0.0066784485 0.056065097 -0.006423698 -0.27597108 -0.018232932 -0.01817595 0.24398787 0.031813618
0.015029172 -0.008126926 0.1787012 -0.01111006 0.40173817 0.015496272 -0.02458093 -0.031110054
-0.0025943092 -0.021854563 0.20185272 3.3893295e-06 0.026344458 0.0019208884 -0.12645487 0.011651529
-0.05268986 -1.344268e-38 0.14601424 0.1632462 0.0059550502 0.010122792 -0.007445919 1.2396685e-08
-0.068800166 -0.041449536 0.015493388 1.937914e-18 0.10052456 -0.016836368 -0.016605122 -0.0042285644
-0.15893784 1.5030354e-08 0.1305265 5.252185e-07 0.00014076306 0.0070328955 0.008003896 0.009028176
-0.035464663 -0.04165037 -0.29868475 -0.0016868345 -0.008346601 0.25860664 -0.075868174 -0.0035027917
-0.101907454 -0.0034529818 0.061970852 -2.8153286e-06 0.122794926 -0.1287293 -0.12863812 -0.0032735579
0.072881185 -0.0037354114 0.019478517 -0.26385093 -0.018294897 0.013103128 0.16072243 0.02173113
0.07700901 -0.059528917 0.2574547 -0.009024722 0.4072737 -0.08738821 -0.26281917 -0.012236628
0.00036955357 -0.10632516 0.26066938 -0.0019363263 -0.0013840203 -0.0064224866 -0.08493418 -0.008654448
-0.06395721 0.0036315992 0.23651628 0.20595908 0.011750937 -0.01037585 -0.0028403169 -0.00052407384
-0.11085557 -0.0116715925 0.05471478 -0.00022689579 0.18509144 0.051459 0.013219506 -0.0060871975
-0.13080814 -0.00037212277 0.100745015 -0.0049302857 -0.00476654 -0.17012492 0.0032224976 -0.0031803474
-0.023901794 -0.008939947 -0.27144358 0.0023040147 -0.022818973 0.18174088 -0.071641386 0.00073605485
-0.100831226 -0.0067043835 0.040558662 -0.0054813996 0.1277487 -0.036948297 -0.0871244 -0.0016077984
0.052481446 0.021828512 0.025252167 -0.23294331 0.008330982 0.005196066 0.36845452 0.027099766
0.01814857 -0.10064897 0.22558409 0.0028289484 0.08237115 -0.02389278 -0.035555102 0.027589086
-0.00083951897 -0.0415262 0.21290337 -5.3830725e-05 -0.019113636 0.00017727025 -0.04300573 0.008989138
-0.045039408 -7.632024e-06 0.19674905 0.087386556 -0.0052050655 0.0017152665 0.006034261 -1.08637316e-07
-0.086733416 0.04196096 0.061670344 0.0020580885 0.37628067 0.059113055 0.009737465 0.010266653
-0.12353985 5.219675e-05 0.097148545 -0.0033713295 0.0034822817 -0.06466257 -0.009009238 0.0017208426
