fixed_dqn.pth (torch, 12631 bytes, 6 tensors)

net.0.weight f4 [64, 6]
-0.2574303 -0.24338996 -0.38019848 0.37921664 0.30570877 -0.06335279 0.29989493 0.17179841
-0.02741303 -0.059028957 -0.30493796 0.18675928 -0.18759856 -0.030372364 0.14380477 0.0655711
0.45955795 0.3238757 -0.23696956 0.26497638 -0.029758831 -0.39150178 0.30299714 -0.3760556
0.056723747 0.17872599 -0.05421741 0.25551847 -0.28775933 0.3243754 -0.17203888 0.033294678
0.22578771 -0.02536984 0.13288508 0.009315233 0.3526937 0.38345993 -0.08035986 0.0063449517
-0.030938718 -0.3599005 0.21527015 -0.045436155 0.20128787 -0.042179283 -0.28728977 0.05448279
0.023994237 -0.0945623 0.015353656 -0.0809935 -0.39199576 -0.015818572 0.10568813 0.34248227
0.0008596855 -0.36333245 0.2964981 -0.20160894 -0.34670177 -0.32706645 0.17552201 0.36169767
0.4443291 -0.024482816 0.15760542 0.0011356443 -0.047530763 -0.3383572 -0.35972697 -0.1860156
0.21068205 -0.031794228 -0.1627766 0.25088012 -0.79227436 -0.13164277 -0.345002 -0.079853565
0.3676233 0.14887865 0.04817574 0.39797488 -0.340724 0.33245748 0.2859973 0.16361232
-0.19910955 0.33724546 0.24042597 -0.2658384 0.33750778 0.14197482 0.35014376 -0.34061438
0.29893652 0.08817983 -0.13564762 0.35822722 0.28679013 -0.27947852 -0.029101703 0.35261992
0.09385206 -0.21187466 0.2869336 0.17799988 0.30787155 -0.0054439893 -0.25598708 0.0964216
0.3851142 -0.14880191 0.028604107 -0.26732802 -0.0023602538 -0.14849798 0.32935348 0.13721667
0.0035336127 -0.11356845 0.4083525 0.1036047 0.097053796 -0.08670502 -0.25762615 -0.40368477
0.1845583 0.31563318 -0.73583865 0.18043393 0.28743738 -0.42579016 -0.35710898 -0.10461166
0.3259694 -0.2595048 -0.12573677 -0.29982555 -0.05694641 -0.07429741 0.0102269305 -0.37797496
0.15446654 -0.13473822 0.23629025 0.25592497 0.16619849 -0.022502841 0.043008972 0.23758797
0.38119087 -0.37839305 0.024565756 0.0032133856 0.14551604 -0.22864778 0.31959432 -0.036878332
0.20026992 -0.12654416 -0.18557288 0.023157846 0.16739824 -0.39687678 -0.38804045 0.06998678
0.18256478 0.3821755 -0.41617012 -0.16090035 0.24587971 -0.1844133 -0.2485446 -0.14547147
-0.15150838 0.20417131 -0.025218602 -0.16824402 -0.3871111 0.38581514 -0.033045776 -0.14264561
-0.23155025 0.10058848 -0.113273464 0.39924565 0.020416064 -0.1186154 0.3841845 -0.22912404
0.10504062 0.11469696 0.044034626 -0.041468058 -0.11373257 0.2508903 -0.18132834 0.34916848
0.19226532 -0.2494333 0.033370893 0.32059312 0.08132282 0.16689189 0.122000895 0.06982872
0.06845893 -0.24336165 -0.2720399 0.120679475 -0.3015708 -0.021470955 -0.29971784 0.33574575
-0.16475375 0.02678475 -0.0754761 0.0940783 -0.62873906 -0.03987993 0.21186946 0.16055636
-0.025434555 0.2879425 0.4490513 -0.07188658 -0.2699704 -0.20992881 0.20502834 0.003399146
-0.16661218 -0.14821737 0.08320229 0.2248251 0.41013756 0.23349464 0.33696482 0.17352118
-0.13524143 0.21833715 0.10858224 0.3517505 0.019664925 -0.13198389 0.3241496 0.37553117
-0.3465919 -0.28359365 0.24133025 0.164777 -0.37760514 0.3295553 -0.10030577 -0.21553253
00000000: e7cd 83be 383b 79be 60a9 c2be af28 c23e
00000010: dc85 9c3e 1cbf 81bd d48b 993e eceb 2f3e
00000020: 4a91 e0bc 59c8 71bd d420 9cbe d33d 3f3e
00000030: d619 40be 77cf f8bc 8f41 133e 244a 863d
00000040: 2e4b eb3e 09d3 a53e 26a8 72be fcaa 873e
00000050: cbc8 f3bc ec72 c8be 7122 9b3e 5c8a c0be
00000060: 2957 683d f203 373e 1313 5ebd 51d3 823e
00000070: 3155 93be 8814 a63e f62a 30be 0060 083d
00000080: e534 673e 69d4 cfbc 0713 083e eb9e 183c
00000090: 4594 b43e dc54 c43e b693 a4bd 50e9 cf3b
000000a0: 3273 fdbc e144 b8be c76f 5c3e 431b 3abd
000000b0: 681e 4e3e 2fc4 2cbd a517 93be 5929 5f3d
000000c0: 908f c43c e1a9 c1bd e78d 7b3c ecdf a5bd
000000d0: abb3 c8be f395 81bc 0573 d83d d659 af3e
000000e0: 845c 613a b606 babe 99ce 973e 9372 4ebe
000000f0: e582 b1be 4175 a7be 0bbc 333e 7030 b93e
00000100: 1b7f e33e 3090 c8bc 5163 213e e6d9 943a
00000110: 9eaf 42bd 283d adbe 222e b8be e07a 3ebe
00000120: 09bd 573e aa3a 02bd e9ae 26be 5c73 803e
00000130: 7ed2 4abf 5dcd 06be 1aa4 b0be 448a a3bd
00000140: 1f39 bc3e a573 183e ed53 453d 5dc3 cb3e
00000150: 6073 aebe de37 aa3e 3d6e 923e fd89 273e
00000160: 60e3 4bbe 70ab ac3e 3a32 763e f91b 88be
00000170: d2cd ac3e d961 113e 0b46 b33e 0265 aebe
00000180: 350e 993e a097 b43d 36e7 0abe 8f69 b73e
00000190: 28d6 923e cf17 8fbe b266 eebc 998a b43e
000001a0: 8235 c03d acf5 58be f6e8 923e 9a45 363e
000001b0: 57a1 9d3e 7e63 b2bb bd10 83be b078 c53d
000001c0: b02d c53e 875f 18be 2953 ea3c 38df 88be
000001d0: 7dae 1abb db0f 18be 05a1 a83e 8782 0c3e
000001e0: 2f94 673b 9396 e8bd 9413 d13e b32e d43d
000001f0: 24c4 c63d 6792 b1bd 93e7 83be c5af cebe
00000200: dafc 3c3e ac9a a13e ec5f 3cbf acc3 383e
00000210: fe2a 933e 2b01 dabe fdd6 b6be a33e d6bd
00000220: 76e5 a63e d0dd 84be 24c1 00be bc82 99be
00000230: a440 69bd 3e29 98bd db8e 273c ef85 c1be
00000240: 7a2c 1e3e d1f8 09be 12f6 713e 9908 833e
00000250: f02f 2a3e e157 b8bc 2d2a 303d 434a 733e
00000260: 732b c33e bcbc c1be 203e c93c aa97 523b
00000270: 2802 153e a522 6abe dea1 a33e bc0d 17bd
00000280: 8f13 4d3e cb94 01be d106 3ebe 86b5 bd3c
00000290: 726a 2b3e 6f33 cbbe 3dad c6be 3b55 8f3d
000002a0: 43f2 3a3e 82ac c33e 4014 d5be 10c3 24be
000002b0: e4c7 7b3e d7d6 3cbe 7a82 7ebe 79f6 14be
000002c0: 0325 1bbe 4912 513e 3e97 cebc 2948 2cbe
000002d0: 6d33 c6be 9089 c53e 025b 07bd b111 12be
000002e0: 821b 6dbe 5501 ce3d ebfb e7bd ed69 cc3e
000002f0: 973f a73c a1ec f2bd d5b3 c43e 7e9f 6abe
00000300: 891f d73d 3de6 ea3d a75d 343d 69da 29bd
00000310: 9fec e8bd b274 803e 23ae 39be 36c6 b23e
00000320: 33e1 443e 716b 7fbe ebaf 083d c824 a43e
00000330: 948c a63d b5e5 2a3e 9bdb f93d 5c02 8f3d
00000340: 3234 8c3d cc33 79be d048 8bbe cd26 f73d
00000350: 7d67 9abe dbe3 afbc 9e74 99be dee6 ab3e
00000360: 35b5 28be b16b db3c 3793 9abd 20ac c03d
00000370: 0bf5 20bf 2359 23bd 4ff4 583e e368 243e
00000380: 215c d0bc 336d 933e 0dea e53e 4539 93bd
00000390: 8f39 8abe 94f7 56be f3f2 513e 35c4 5e3b
000003a0: 629c 2abe 4bc6 17be f665 aa3d 8d38 663e
000003b0: 8dfd d13e 3819 6f3e a786 ac3e 89af 313e
000003c0: bb7c 0abe c693 5f3e 5e60 de3d a418 b43e
000003d0: 5618 a13c c926 07be f0f6 a53e 9f45 c03e
000003e0: 7e74 b1be 3033 91be 471f 773e 4dbb 283e
000003f0: 7655 c1be 79bb a83e 1d6d cdbd 8fb4 5cbe

net.0.bias f4 [64]
0.46535113 -0.19687453 0.28855702 0.37527233 -0.018642515 -0.2558454 -0.57876396 -0.22242884
-0.30430803 0.15954718 0.38801634 0.11220437 0.07450388 -0.05174378 -0.30371308 0.26624778
0.17163873 0.13511856 0.32423976 0.010576051 0.16937174 -0.10699003 0.24615632 -0.26133162
0.113828644 -0.23046438 0.15339625 -0.01572703 -0.189042 -0.28935763 -0.06353191 0.44182232
0.3247816 0.5736674 -0.36623603 -0.14241408 -0.35330078 0.24455628 0.37285933 -0.13522483
-0.01674357 0.08460408 0.41655728 0.39716542 0.3626506 0.13439673 0.09212058 -0.28724337
-0.25946742 -0.28889737 -0.10135446 -0.2820134 0.35332823 0.44133478 0.19668302 -0.2924131
0.092001274 0.13957094 -0.53952825 -0.2851831 0.28127518 0.20822737 0.2572621 0.02708187
00000000: 8142 ee3e 7a99 49be bfbd 933e b223 c03e
00000010: 30b8 98bc 2bfe 82be e029 14bf 63c4 63be
00000020: 43ce 9bbe 5660 233e 14aa c63e 68cb e53d
00000030: 7e95 983d 49f1 53bd 4880 9bbe a151 883e
00000040: 10c2 2f3e 855c 0a3e c102 a63e 2c47 2d3c
00000050: c96f 2d3e 971d dbbd 6710 7c3e 42cd 85be
00000060: fe1e e93d dbfe 6bbe e813 1d3e f9d5 80bc
00000070: 3a94 41be af26 94be 051d 82bd 8936 e23e
00000080: c649 a63e dedb 123f 4a83 bbbe ffd4 11be
00000090: d7e3 b4be f66c 7a3e 6be7 be3e 6178 0abe
000000a0: d029 89bc e744 ad3d ff46 d53e 4459 cb3e
000000b0: 57ad b93e 4c9f 093e b7a9 bc3d 9011 93be
000000c0: ead8 84be 5bea 93be ed92 cfbd 0f64 90be
000000d0: 70e7 b43e a2f6 e13e 4667 493e 2bb7 95be
000000e0: 2a6b bc3d afeb 0e3e 861e 0abf 8503 92be
000000f0: 4d03 903e 8e39 553e dcb7 833e ccda dd3c

net.2.weight f4 [32, 64]
0.09685287 -0.09770491 0.020430347 -0.041371204 0.12501551 -0.10157022 -0.0719889 -0.09717207
0.024647444 0.13346638 -0.007682087 -0.032504022 -0.08603068 -0.0035758691 0.10965843 0.08603567
-0.011970575 0.018140504 -0.020815466 0.10791188 -0.104372256 -0.11556757 -0.02510281 0.049814746
-0.012434241 0.09674438 -0.06475251 0.013872743 0.10407739 0.008651733 -0.12503089 0.0061281356
0.008328077 0.05965235 -0.14941852 -0.1417397 -0.1823708 -0.023961416 0.110113055 0.074149095
0.13002415 0.052477915 -0.005202255 0.14713526 -0.03280949 -0.06580888 -0.018094677 -0.05417596
-0.102641895 -0.05332065 0.090079956 -0.015996821 0.15878259 0.0017403077 0.017411113 0.0076413155
-0.055528287 -0.068316355 -0.07713078 0.04844408 0.10679871 0.056100734 0.05101893 -0.08536861
-0.060659602 -0.038955715 -0.07026337 0.0022073248 0.07992277 0.06558785 0.1279436 -0.044375155
-0.086202174 -0.080941804 0.05361753 0.10467769 -0.0594532 0.055395033 0.09568604 -0.12332007
-0.048118412 0.07278701 -0.0074518756 -0.010892833 -0.09048954 -0.15240529 -0.11841024 -0.08964124
-0.015981255 0.082382195 0.11067185 0.00882861 -0.018612064 -0.054649428 0.023771597 -0.051928937
-0.024808265 0.028036151 -0.08548399 -0.10863469 -0.037131622 -0.07484267 0.122539476 0.05385671
0.097073615 -0.13113552 0.05973087 0.036186237 -0.033275556 -0.10170388 -0.050014697 -0.1469659
0.035505496 -0.06393994 -0.04037621 -0.07543952 -0.470801 0.0026271963 0.04836932 -0.014056578
0.11641955 -0.10087314 0.0047020856 0.048913952 0.05873806 0.09059346 0.034139644 -0.0075543006
0.058132946 0.07394947 -0.01875621 -0.05174558 -0.042834207 0.0827079 0.010509923 -0.072428405
-0.07860528 -0.11822367 0.080899164 0.07225968 0.0930631 0.06821743 -0.023089588 0.08865918
-0.1201113 -0.12259813 -0.10305245 0.057446346 -0.09207398 -0.11697611 -0.10905865 0.110899836
0.011293337 -0.10548699 -0.09636089 0.01388821 0.11852585 0.024764776 -0.10808286 -0.07426046
0.11663246 -0.054339558 -0.11974414 -0.08437356 -0.08174245 -0.11812408 -0.014318809 -0.12392281
-0.051005438 -0.058699206 0.06438932 -0.072236136 -0.07093535 0.115239576 -0.111900076 0.05840093
-0.08731103 0.118887976 0.12388389 0.04061404 -0.111324385 -0.059851885 0.067439154 -0.1227956
-0.010435596 -0.081221625 -0.068155885 -0.0669239 -0.024440557 0.093789265 -0.09534842 0.022488475
-0.082237355 0.028637452 0.029112479 -0.035814606 0.0618273 -0.04620406 -0.019002127 0.023241034
-0.11967394 -0.05533354 -0.038371567 -0.017420024 -0.11361937 -0.10291774 -0.023226699 0.09685211
-0.09210358 -0.10757172 0.060548346 -0.01583726 0.051158484 0.08211409 -0.11616512 0.029583633
0.06649071 0.109524995 -0.07175615 0.07379964 0.031422976 -0.028191403 0.11143951 0.018717445
0.0063781245 -0.074921206 0.0032221086 -0.05822874 -0.06992917 -0.045684796 0.04623176 0.05879203
0.024325844 -0.030932004 0.0074887723 -0.012192264 -0.043761797 0.019488912 0.08920748 -0.13347813
0.058276385 0.09898553 0.061750125 -0.08487838 -0.10892706 -0.058903467 0.04314156 0.064458266
0.019362167 -0.11255492 -0.0943753 -0.053466678 0.033633724 -0.056241848 -0.054709636 -0.055113237
00000000: cc5a c63d 8319 c8bd 8b5d a73c da74 29bd
00000010: 1104 003e 0c04 d0bd eb6e 93bd 2602 c7bd
00000020: 70e9 c93c 69ab 083e 04ba fbbb f022 05bd
00000030: da30 b0bd 2159 6abb 9994 e03d 7833 b03d
00000040: 3b20 44bc 659b 943c 3285 aabc e700 dd3d
00000050: 1fc1 d5bd b1ae ecbd 68a4 cdbc 8c0a 4c3d
00000060: fdb8 4bbc eb21 c63d f79c 84bd 804a 633c
00000070: 8726 d53d 00c0 0d3c 1908 00be 87ce c83b
00000080: 7d72 083c 0656 743d 2b01 19be 3624 11be
00000090: 69bf 3abe bb4a c4bc f482 e13d 7bdb 973d
000000a0: 0d25 053e 15f3 563d ae77 aabb a0aa 163e
000000b0: 3e63 06bd cec6 86bd 4a3b 94bc 9de7 5dbd
000000c0: ea35 d2bd c166 5abd d77b b83d c40b 83bc
000000d0: e797 223e 091b e43a c0a1 8e3c 0064 fa3b
000000e0: a171 63bd 72e9 8bbd bef6 9dbd 4d6d 463d
000000f0: 48b9 da3d e2c9 653d 3af9 503d bdd5 aebd
00000100: 3476 78bd 0790 1fbd 3ee6 8fbd c4a8 103b
00000110: 8dae a33d ec52 863d a603 033e b9c2 35bd
00000120: c48a b0bd d1c4 a5bd 0e9e 5b3d 4261 d63d
00000130: 3385 73bd e7e5 623d 0bf7 c33d 3c8f fcbd
00000140: d017 45bd 5b11 953d dd2e f4bb da77 32bc
00000150: 9452 b9bd 2210 1cbe 1181 f2bd d495 b7bd
00000160: 1feb 82bc ffb7 a83d eca7 e23d e0a5 103c
00000170: 5478 98bc 14d8 5fbd a7bc c23c 70b3 54bd
00000180: b43a cbbc 12ac e53c 3b12 afbd dd7b debd
00000190: 5417 18bd 1d47 99bd faf5 fa3d db98 5c3d
000001a0: 88ce c63d 6448 06be 5ba8 743d 0538 143d
000001b0: f34b 08bd 204a d0bd 36dc 4cbd 3b7e 16be
000001c0: 366e 113d f1f2 82bd 8661 25bd 0980 9abd
000001d0: d40c f1be 0a2d 2c3b e81e 463d 904d 66bc
000001e0: 5f6d ee3d 9496 cebd f413 9a3b ff59 483d
000001f0: 5297 703d 1089 b93d 03d6 0b3d 118a f7bb
00000200: d01c 6e3d d272 973d a0a6 99bc 2cf3 53bd
00000210: ec72 2fbd c262 a93d d031 2c3c 5855 94bd
00000220: cefb a0bd 401f f2bd 76ae a53d e2fc 933d
00000230: de97 be3d 94b5 8b3d 6026 bdbc f292 b53d
00000240: eafc f5bd ba14 fbbd 2a0d d3bd dc4c 6b3d
00000250: 4891 bcbd 2c91 efbd 245a dfbd 741f e33d
00000260: b007 393c 9009 d8bd dc58 c5bd 608b 633c
00000270: aebd f23d 80df ca3c 8c5a ddbd de15 98bd
00000280: 00dd ee3d 2893 5ebd 6a3c f5bd 0ccc acbd
00000290: 9668 a7bd 0aeb f1bd 7099 6abc 3ecb fdbd
000002a0: 14eb 50bd 946e 70bd 8cde 833d 8af0 93bd
000002b0: 8e46 91bd ba02 ec3d de2b e5bd d035 6f3d
000002c0: 20d0 b2bd 8a7b f33d d6b6 fd3d e85a 263d
000002d0: 0afe e3bd 4027 75bd 8a1d 8a3d 427c fbbd
000002e0: 10fa 2abc 8657 a6bd 5095 8bbd 660f 89bd
000002f0: 9037 c8bc 9614 c03d 0846 c3bd c039 b83c
00000300: 0f6c a8bd 1799 ea3c 4b7d ee3c 56b2 12bd
00000310: 9f3e 7d3d 7840 3dbd 59aa 9bbc fb63 be3c
00000320: 9c17 f5bd 6ca5 62bd 812b 1dbd 70b4 8ebc
00000330: 46b1 e8bd 89c6 d2bd eb45 bebc 665a c63d
00000340: cda0 bcbd 904e dcbd 8b01 783d 24bd 81bc
00000350: 8f8b 513d 6f2b a83d fae7 edbd 6059 f23c
00000360: 482c 883d a44e e03d e3f4 92bd 4424 973d
00000370: 61b5 003d a8f1 e6bc 663a e43d 5455 993c
00000380: 96ff d03b 4a70 99bd 032a 533b 4281 6ebd
00000390: 0637 8fbd fb1f 3bbd 845d 3d3d e9cf 703d
000003a0: fe46 c73c 1d65 fdbc 6064 f53b 10c2 47bc
000003b0: 923f 33bd 36a7 9f3c 69b2 b63d 7eae 08be
000003c0: 38b3 6e3d edb8 ca3d b3ed 7c3d b7d4 adbd
000003d0: 2715 dfbd c344 71bd 34b5 303d b202 843d
000003e0: 689d 9e3c 3283 e6bd d647 c1bd e0ff 5abd
000003f0: 84c3 093d da5d 66bd 3617 60bd 6bbe 61bd

net.2.bias f4 [32]
0.06228856 -0.068232305 -0.06119241 0.035294376 0.027678877 -0.08895664 0.10790537 -0.19144428
0.0764395 0.042998407 0.1321787 0.06089351 0.08113543 -0.051171664 0.04580264 0.023022953
-0.07183071 0.027681153 0.012367112 0.33263293 0.005232066 0.14673181 0.03539973 0.11923235
-0.17752616 -0.13499449 0.053915016 0.03440223 0.033384606 -0.048214257 0.08147504 -0.04067739
00000000: 4a22 7f3d 61bd 8bbd e4a4 7abd d690 103d
00000010: d0be e23c e62e b6bd 7efd dc3d f809 44be
00000020: 508c 9c3d 191f 303d da59 073e 796b 793d
00000030: 552a a63d 6199 51bd 8d9b 3b3d a29a bc3c
00000040: fb1b 93bd 96c3 e23c 6d9f 4a3c dd4e aa3e
00000050: c071 ab3b dd40 163e 4fff 103d 1730 f43d
00000060: 6bc9 35be ff3b 0abe fed5 5c3d 5ae9 0c3d
00000070: 4cbe 083d 507c 45bd 63dc a63d 569d 26bd

net.4.weight f4 [5, 32]
0.18661384 0.043889154 0.057912655 -0.13314264 0.104279816 -0.16628131 0.11800683 -0.05761669
-0.016276928 -0.017010402 -0.048051916 0.17005074 -0.3363576 -0.029357785 -0.06774764 -0.0142020695
-0.073199265 -0.049465075 0.26099795 0.090893514 -0.09628835 0.18357544 0.08669662 -0.036938835
0.14813867 0.18963379 0.015929539 0.020643126 0.0411804 -0.03003612 -0.047082007 -0.053998213
0.031777285 0.105555244 0.1236995 -0.11090845 0.051610626 -0.08912577 0.15422712 -0.040144656
0.18900259 -0.045516916 0.12932785 0.17367262 -0.01979396 -0.108652174 0.02258843 -0.032805618
-0.018354526 -0.024678929 -0.26291877 -0.014980426 -0.091674745 0.16064389 0.05737357 -0.039501417
-0.055214684 -0.10528624 -0.021763574 0.15553059 0.02017264 0.12691984 0.041867215 0.16312212
0.11020603 0.0058473325 0.05078495 0.069663346 -0.050261043 0.027695997 0.14247239 -0.040457856
-0.15544322 0.121532135 0.088070795 0.007347001 0.044371214 -0.113107316 0.11881177 -0.08476277
-0.066906065 -0.08512638 -0.020039696 0.1512784 -0.10210023 0.13448107 -0.007352388 0.005248108
-0.048439134 0.1273671 -0.010008508 -0.0027007207 -0.114677146 0.028492238 0.022815607 -0.0071405787
-0.048730403 -0.06294718 -0.044871137 -0.1018355 0.08191322 -0.16548093 0.09347269 0.0063040275
-0.06558958 -0.08380446 0.10771403 0.025100194 -0.046784382 0.0433151 0.16255689 -0.088695146
0.09261145 -0.14279427 -0.022135107 0.19751887 0.04772374 -0.085357234 -0.07935031 0.102406025
0.029700039 -0.01210148 -0.09400602 0.009407804 -0.03276007 0.11023643 0.03697803 0.027401721
0.05736851 0.077530876 -0.074538745 0.08233564 -0.046629608 -0.07977848 0.14947306 -0.103950955
-0.14483257 -0.05557263 0.184372 -0.049777783 0.09223838 0.10948431 -0.11731934 0.20104107
0.043031894 -0.07049852 0.2263668 0.057830907 0.07398021 -0.06686732 0.06799315 -0.006327303
-0.06471679 -0.14145766 -0.092987075 0.077884115 -0.08303138 0.010650845 0.05341167 0.15616941
00000000: b317 3f3e 1dc5 333d d235 6d3d 8b56 08be
00000010: a890 d53d a645 2abe 91ad f13d 7aff 6bbd
00000020: 3157 85bc 6659 8bbc 16d2 44bd c821 2e3e
00000030: 1037 acbe bd7f f0bc 46bf 8abd ccaf 68bc
00000040: 7fe9 95bd e49b 4abd 86a1 853e 6126 ba3d
00000050: d432 c5bd 33fb 3b3e ff8d b13d 2d4d 17bd
00000060: aab1 173e 5c2f 423e aa7e 823c c61b a93c
00000070: c7ac 283d 4f0e f6bc 10d9 40bd 3b2d 5dbd
00000080: e628 023d 592d d83d 2a56 fd3d f823 e3bd
00000090: aa65 533d 9287 b6bd b7ed 1d3e b96e 24bd
000000a0: e589 413e f26f 3abd 856e 043e 3cd7 313e
000000b0: f126 a2bc 0885 debd 5f0b b93c 2f5f 06bd
000000c0: 3b5c 96bc 772b cabc 4a9d 86be 7670 75bc
000000d0: f8bf bbbd d57f 243e 8c00 6b3d 3dcc 21bd
000000e0: cb28 62bd 50a0 d7bd 8649 b2bc 6943 1f3e
000000f0: 1841 a53c 46f7 013e f57c 2b3d 7c09 273e
00000100: b3b3 e13d fb9a bf3b e103 503d a8ab 8e3d
00000110: 86de 4dbd b7e2 e23c 48e4 113e 23b7 25bd
00000120: 822c 1fbe d7e5 f83d 765e b43d 1dbf f03b
00000130: 97be 353d cfa4 e7bd 9653 f33d 1a98 adbd
00000140: 0c06 89bd bd56 aebd 4a2a a4bc bae8 1a3e
00000150: ed19 d1bd 68b5 093e 4dec f0bb 52f8 ab3b
00000160: 1d68 46bd 856c 023e bafa 23bc 93fe 30bb
00000170: dadb eabd 8e68 e93c cce7 ba3c 84fb e9bb
00000180: 8899 47bd 73ea 80bd ccca 37bd 218f d0bd
00000190: 1ec2 a73d d573 29be 9c6e bf3d 0492 ce3b
000001a0: d453 86bd aca1 abbd 2c99 dc3d ec9e cd3c
000001b0: fba0 3fbd 2d6b 313d 5075 263e cda5 b5bd
000001c0: 12ab bd3d a938 12be af54 b5bc 6342 4a3e
000001d0: f879 433d c6cf aebd 6a82 a2bd 40ba d13d
000001e0: 7f4d f33c 4945 46bc 3a86 c0bd 3123 1a3c
000001f0: 6c2f 06bd a3c3 e13d 4676 173d 9379 e03c
00000200: 3efb 6a3d 82c8 9e3d c5a7 98bd 979f a83d
00000210: b0fe 3ebd e662 a3bd 770f 193e 3de4 d4bd
00000220: fd4e 14be 20a0 63bd 03cc 3c3e cae3 4bbd
00000230: 7ae7 bc3d 4f39 e03d 1f45 f0bd b6dd 4d3e
00000240: 3642 303d 8761 90bd b3cc 673e 1ae0 6c3d
00000250: f082 973d bcf1 88bd fe3f 8b3d 4455 cfbb
00000260: 3d8a 84bd 47da 10be 0270 bebd b581 9f3d
00000270: 5b0c aabd e280 2e3c 32c6 5a3d e0ea 1f3e

net.4.bias f4 [5]
-0.15841754 0.16277952 0.08545539 0.1706648 -0.011682084
00000000: 3538 22be adaf 263e 3c03 af3d c1c2 2e3e
00000010: 3666 3fbc
