ppo_rope_lift.pth (torch, 48715 bytes, 6 tensors)

weight f4 [128, 21]
00000000: 330f 34be 118f 483e 88cc bfbd 9610 6ebd
00000010: 043d 43be c303 01be e125 89bd 36d5 5a3e
00000020: c7b0 033e e757 b8bc 6647 0d3e e827 d83d
00000030: 4a4c af3d b5b8 bd3c efab 213e f100 1b3e
00000040: 1a15 2f3e 745b e43d 0e7c eebc 6553 53be
00000050: 1ea2 a83d af89 a2bd 113e 4b3d 97c5 083d
00000060: ad54 96bd ca6e 093e c92e 29be a44b 213e
00000070: b25c 4b3e 11b9 523e 9d9a 36be 5b5f 7e3d
00000080: 8945 ba3d 61d1 4ebe 1910 443e 23cd 3e3e
00000090: 31d5 143e c889 3ebe 535d 9dbc 12a9 1ebe
000000a0: 2064 0a3e ddc8 a23d f6e8 06bd 3a79 1abe
000000b0: c6bd abbd a5bd 4d3d 55a1 10bd bad9 8b3d
000000c0: abc1 103d 6f4c c4bc 4832 a7bd fef9 5b3d
000000d0: b4f1 48be 2a55 d2bd d084 793d d522 60be
000000e0: 3dee 0cbe 31a7 54be 4ee7 873d 91a5 f1bd
000000f0: dfbc ef3b 6a6f 363e cbe8 0dbd 217a 343e
00000100: 1e25 e4bd 7f7b 493d 78fe 443e ecad 25be
00000110: 2e29 20be c219 c73c 6ba9 da3c aea1 7abc
00000120: 1760 ad3d aa91 523e 0ac2 463e 031b 523d
00000130: 309f 353e 62f9 54bd 2c6c 6e3d e975 5dbe
00000140: 0e58 eebd 62e1 0e3e 0843 8f3d 5502 543d
00000150: ec1f b2bb be1d 953d 3614 99bd 6ba9 87bd
00000160: b838 f7bc 8fbb c5bd 756c 023e a061 473e
00000170: af5d 1cbd 4ba6 c9bd c05d 08be 0f5e 09be
00000180: 9c08 5abd 2e44 8bbd bca9 99bb d06f efbd
00000190: 654c d13d 2e97 003e 4475 29bc efe3 9e3d
000001a0: dad7 17be f1c9 973d b78e 24be 4eda 16bd
000001b0: 8388 4a3e 8bac afbd 0c72 173c 136c 17be
000001c0: b047 ba3d 25d1 2f3d fd2c 36be 520b 423e
000001d0: 1e7c 17be 1654 ddbc 5049 0d3e 559a e73b
000001e0: 930b 1abc 457a 233e 7df9 083e 154f a53d
000001f0: 1737 a4bd 862a 373e f69b 1dbe 9df8 17be
00000200: 51a1 273e f9ef b53d 620c 5e3e 7bf2 94bd
00000210: 7cc4 c03d 7446 9f3d e1f5 223e b33c acbd
00000220: 8a29 b839 4c2f 45be 7097 3c3e 0c15 b3bd
00000230: 105c 133e c4c0 af3d fa00 2fbe 919c 7c3b
00000240: 2836 7cbd 3cbd 053e f975 f3bd 6f0f a539
00000250: 91e0 9bbd bd75 fb3d abed 39be 0a42 3e3e
00000260: d7c7 8f3d 8e6b 313e 66fe 423e aabe 1b3e
00000270: a076 71ba 87d7 223d 550e e6bd 6ccf 57bd
00000280: 7d16 f83d bf1c e3bd 67ee fd3d 8385 ddbc
00000290: dba1 5ebe 1ccd c13d 4d3c 543e 3efa 113d
000002a0: f8e8 1ebe 79c8 863d eaec 19be 6822 a6bd
000002b0: 0aca 963d b6ee 0d3e de92 85bd e80e 52be
000002c0: caa7 26bd 1cdb 39be 7974 1b3e 3e12 22bd
000002d0: f269 433e 8e8e 303e 2522 abbd 6e35 33be
000002e0: 815e c83d 2523 39be 167b 573b 5c69 49be
000002f0: 5c0a 63bd 2d42 88bc 0e3c 22be 0d85 5b3e
00000300: ccd2 143d e581 b33d 3d06 0a3e 25b7 083e
00000310: 91ae ddbd 300b e93d f2db 23be 4ab4 e23d
00000320: f110 383e ee6d dfbb 2aeb 643d 4a01 58bc
00000330: 8519 adbd b6b2 2b3e 1370 52be 9bc5 3d3d
00000340: 0ee9 873b ac72 bbbc 7043 103e 8d08 2c3d
00000350: 9ad4 363e a645 e83d 7034 863d 0784 c63d
00000360: 3cdd 47bd 538a cebd 871e d6bd 526a 51be
00000370: 2656 35bd f28e 893d 6e17 273d 0ce0 ac3d
00000380: 5776 14be 6c6f bd3d 9cc9 6ebc c5e2 223e
00000390: 8a72 6e3d 1622 bc3d 9d11 543e 4be7 7f3b
000003a0: 2d1a 573e 1e07 e93d b183 8cbd 893f cbbc
000003b0: c231 d93d dc78 0c3e 5598 3abe 19d9 393d
000003c0: efc5 1dbc ccd2 bcbd 20c8 3a3e 5ddf 00bd
000003d0: 7d63 163b f8ce c3bd fc72 59be 2d9d 8a3b
000003e0: fb55 813c 269d be3d 69b6 633d 39b6 c3bd
000003f0: 58e1 c33c 588c 2bbe ac62 523e 8ea6 01be
-0.17583923 0.19585826 -0.09365183 -0.058121286 -0.19066244 -0.12599091 -0.06696678 0.21370396
0.12860404 -0.022502853 0.13796768 0.105544865 0.08559473 0.023159364 0.15788244 0.15137078
0.17097893 0.11150256 -0.029111888 -0.20637281 0.082340464 -0.07936417 0.049619738 0.03339156
-0.073403694 0.13421169 -0.16521753 0.15751511 0.19859579 0.2057841 -0.17832418 0.062102657
0.09095294 -0.20197059 0.19146766 0.18632941 0.14534451 -0.18607247 -0.01920954 -0.15494183
0.13514757 0.07948468 -0.032937013 -0.15085307 -0.08385806 0.050229687 -0.03531011 0.068286374
0.035340946 -0.023962228 -0.08163887 0.053705208 -0.19623452 -0.1027015 0.060917675 -0.21888287
-0.13762756 -0.20766903 0.06635915 -0.117991574 0.0073162164 0.17815939 -0.034645837 0.17624713
-0.11139892 0.04919004 0.19237697 -0.16179627 -0.15640709 0.024304274 0.026692113 -0.0152973365
0.08465593 0.20563379 0.19409958 0.05129529 0.17736506 -0.051995642 0.05820863 -0.2162701
-0.11637889 0.13953164 0.06995207 0.051760036 -0.0054359343 0.072810635 -0.07474558 -0.06624111
-0.030178413 -0.096549146 0.12736686 0.19470835 -0.03817528 -0.09846171 -0.13317013 -0.13414787
-0.053230867 -0.068001136 -0.0046894234 -0.116912484 0.10219649 0.1255767 -0.0103429 0.07758319
-0.14828435 0.07411564 -0.16070066 -0.036829285 0.19778638 -0.08577832 0.0092434995 -0.14787321
0.090957046 0.042924065 -0.17790599 0.18949631 -0.1479344 -0.027017634 0.13797498 0.0070679584
-0.009402174 0.15964611 0.13376422 0.08071724 -0.0801832 0.17887315 -0.15391526 -0.14840932
0.16370131 0.08883662 0.21684411 -0.07272812 0.094124764 0.0777711 0.15914108 -0.08410015
0.00035126164 -0.19256324 0.18417144 -0.08744249 0.14390588 0.08581689 -0.17090216 0.003854547
-0.061575085 0.13060468 -0.11887736 0.0003148275 -0.07611192 0.12278316 -0.1815707 0.1857988
0.07020538 0.17326185 0.19042358 0.15209451 -0.0009211097 0.039756324 -0.11233202 -0.052688047
0.12113664 -0.11089467 0.12398987 -0.027041202 -0.2174143 0.0946295 0.20726128 0.03563904
-0.15518558 0.06581206 -0.15031782 -0.08112031 0.07362755 0.13860592 -0.06522153 -0.20513499
-0.04068736 -0.1814999 0.1518115 -0.03956818 0.19083384 0.1724188 -0.08356122 -0.1750085
0.0978365 -0.18079813 0.0032879761 -0.19669098 -0.0554298 -0.016633118 -0.15843222 0.21437474
0.036333844 0.0876501 0.13478942 0.13351114 -0.108243115 0.11379087 -0.16001871 0.11069544
0.17975213 -0.0068185246 0.055888332 -0.013183901 -0.08452133 0.16767392 -0.20550565 0.04633103
0.0041476553 -0.022881828 0.14088225 0.042000342 0.17854539 0.113414094 0.065529704 0.09693151
-0.04879497 -0.10084977 -0.104550414 -0.20450714 -0.04427161 0.06716718 0.04079383 0.08441171
-0.14498268 0.09249768 -0.014574435 0.15906818 0.0582147 0.09186189 0.20709844 0.0039047773
0.21006079 0.113783106 -0.06861056 -0.02481057 0.10605194 0.13717979 -0.18222173 0.045373056
-0.009629711 -0.09219894 0.18240404 -0.031463016 0.0022947483 -0.095609605 -0.2123527 0.0042301626
0.015788069 0.093073174 0.05559388 -0.095562406 0.023911163 -0.16752756 0.20545453 -0.12661192

bias f4 [128]
00000000: db71 1a3e dce5 a73d 5cf4 993d 5c55 df3c
00000010: 8638 8b3d 927d 7fb9 20ef 413e aa8a d23a
00000020: 411f 3f3d 0c3f 1b3e 440e 3e3e c471 f23b
00000030: 8941 7bbd 8c87 60be f471 ae3d 781b 1a3d
00000040: 960e f93d 8a97 ab3b 60af 183e aa20 92bc
00000050: 9c10 a2bd 1427 293e a0a2 eebc 5299 36bd
00000060: bd8b 89bd 0831 22be 0264 50be 0194 d63d
00000070: 0531 053e 1c48 7dbd 3dae 393e c3f3 d3bd
00000080: e8ab 6c3d 5e7a 55be 5a8e 333e f28f 23be
00000090: 3b84 283d e9bd dfbd dd28 0a3e 2e79 13bd
000000a0: 4688 323e 8f0b 54bd d214 e03d 0e7a 053d
000000b0: fc45 f53d 0280 183e e454 633d a254 383e
000000c0: 587a 1ebe c433 1c3e ec20 35bd f3ea 33bd
000000d0: 1f52 1a3d 9ce8 dfbd dffd 4b3e ef8d 3e3e
000000e0: d29f 42bd ff81 9fbd 11dc 623e 080d 433d
000000f0: af86 9abd 9797 443e 392f f03d 3bf9 193e
00000100: a792 e73d ab84 503e 1b0d 4a3e a773 c23d
00000110: fcd4 cd3d 0dd1 43be ac73 2f3e 4854 f83c
00000120: 0a22 cb3c 9b37 293c 91eb f63d 1031 c0bc
00000130: bc83 453d abf7 4bbe 2420 cc3d 7f37 033d
00000140: e5b2 55be bb63 20bb 9062 093e 79b8 d83b
00000150: 3f1d efbb a4c8 033e b6f6 4ebd 09d1 20be
00000160: de81 f5bd 6a32 32bd 18e5 1abd 3650 1ebe
00000170: 576c 9ebd 4497 27be feb1 c83c d3b5 3e3e
00000180: 95a3 ab3b 702c b43c 09c0 333e dd19 17be
00000190: 8dc5 3b3e e922 15be 407d f0bd 1e6c abbd
000001a0: 4bc2 2f3e 2fbc 2a3e cf60 a23d 98e6 673c
000001b0: fa4b 0c3e 7ff7 493e 8875 4ebe 19f7 4ebe
000001c0: c1bb 3f3e 3540 15be b724 1cbe 6f07 3a3c
000001d0: f67d 5cbe fae5 9b3b 5943 5f3e e767 153e
000001e0: 8ef7 8d3d 0e1c c2bd c736 ed3d 19eb 8d3c
000001f0: 1ba2 c9bd b347 28bd 4e16 da3d ef7a 083e
0.15082495 0.08198139 0.07517311 0.027262382 0.0679789 -0.00024365474 0.18938875 0.0016063054
0.046660665 0.15160769 0.1856013 0.007398816 -0.061341796 -0.21926707 0.085178286 0.037623852
0.12160985 0.0052365707 0.1491065 -0.017837841 -0.07913324 0.16518813 -0.02913028 -0.04457981
-0.06716106 -0.15839016 -0.2035065 0.10477448 0.1300698 -0.061836347 0.18132873 -0.10349228
0.05778113 -0.2084746 0.17534772 -0.1597288 0.04114173 -0.10924894 0.1349215 -0.036004238
0.17434797 -0.051768836 0.10941471 0.032587104 0.11976239 0.14892581 0.05550088 0.18001035
-0.15476358 0.15254122 -0.04422085 -0.043925237 0.037675973 -0.109330386 0.19921063 0.18608831
-0.047515698 -0.07788467 0.22154261 0.04761985 -0.0754522 0.19198452 0.11727757 0.1503648
0.113072686 0.20363109 0.19731562 0.09494715 0.10050389 -0.19122715 0.17133969 0.030313626
0.024796505 0.010328199 0.120566495 -0.023460895 0.048221335 -0.19918697 0.09967068 0.032035347
-0.20869024 -0.0024473506 0.13416505 0.0066137877 -0.0072971876 0.12869507 -0.05052825 -0.1570474
-0.11987661 -0.04350511 -0.037816137 -0.15460286 -0.07735508 -0.16366297 0.024498936 0.18624048
0.0052380064 0.021993846 0.17553724 -0.1475596 0.18337078 -0.14564098 -0.117426395 -0.08370231
0.1716396 0.16673349 0.07928621 0.014154099 0.13700858 0.19723319 -0.20162022 -0.20211448
0.18723966 -0.14575274 -0.1524838 0.011354311 -0.21532425 0.00475764 0.21803035 0.14590417
0.06931983 -0.09478007 0.115827136 0.017324017 -0.09845372 -0.041084003 0.106487855 0.13328145

weight f4 [64, 128]
00000000: ddb5 a73c 9431 ea3c b1c8 a43d 1a57 bd3d
00000010: 8108 c2bc 1b97 4ebc 0156 cebc a538 c93c
00000020: 1229 e73b 94fd bc3c 43e8 f7bc c975 a33d
00000030: c774 75bd 5f2e a83d bb99 0d3c e773 963d
00000040: 3041 24bd 4194 9f3d a85f 9cbd 00d5 debc
00000050: f40a 213d 4476 eabc 05f7 b1bb 2c3f 5d3d
00000060: 864b eabc 88b7 7fbd e1c4 453c 8631 0fbd
00000070: 0b1b 9d3d 419f 26bd 6259 15bc 811a b73d
00000080: d608 93bd cdeb 9b3d daaa 9dbd 8bb1 0dbd
00000090: cbce 213d e568 abbd 5ffb 46bc 95e2 17bd
000000a0: e700 87ba c269 95bd e97d 853d 485c 693d
000000b0: dcab fcbc fc20 48bc 75be 833c d0c2 b63d
000000c0: a639 eb3c 1204 f53c 958c 5b3d 700f 4b3d
000000d0: 1b32 aabd f7ec c7bc dbb5 f4bc 32ac 243c
000000e0: 73c4 473d ec9a d03c 36c0 923d ac40 87bd
000000f0: d2b9 63bc 85f7 243c de64 9c3d dbbb 4dbc
00000100: cd83 703d 019f 16bd 0e8d 98bd 0639 283c
00000110: 6bbf 43bd 2d5a 7c3d 8996 813d a049 193c
00000120: 38d7 3abd 97b8 b73b 93bf 933d 6873 8fbd
00000130: abd3 953b 3d65 523d d8e5 20bd 5167 443d
00000140: a161 243d 99f7 80bd 0ab1 a5bc cc50 4ebd
00000150: fd4c ba3d b921 8abd 5c14 5b3d 0f09 f1bc
00000160: 5985 2c3d 273c 283c 62fd e9bb aaca d5bc
00000170: 34a2 6abd 6e27 a8bd ec11 343d fa35 01bd
00000180: d9a6 5e3d 1c61 32bd 4b1e 37bd ff9a f93c
00000190: e9c2 8fbc f466 bc3d 04f3 e63c fd5c 46bc
000001a0: c207 83bd 6542 753d dec4 2bbd 7d69 b43c
000001b0: ddd6 51bd 0099 e8bc f007 d3bc 419e 9d3c
000001c0: 5f18 193d 28f0 7bbd a40b 54bd 4503 4c3d
000001d0: 730c 8a3d f341 a0bd a059 983d 49bd 8cbd
000001e0: ba1b 3dbd 7233 0ebd e4a7 9bbc 3ede 62bd
000001f0: 4e80 233d 3fe2 b73d 7ec3 4dbc 158e a03d
00000200: 54f8 773c 0fce ab3d eb24 5ebc b404 13bc
00000210: b38b 063d 880c a83c 93c7 7a3c 4bb4 a7bc
00000220: d09e 773d 5ea0 ff3c 76f2 e23c f3a1 8abd
00000230: 8ab1 88bd 05cf b53c 6c0b 803c 387a a33d
00000240: 605f c3bc 5eef dbbb b3d4 c33c f563 873d
00000250: f279 d43c 662e 58bd 81a2 96bd 1286 a1bd
00000260: 6014 353d 1a8a 26bd 28f5 a5bd d86e 13bc
00000270: e637 40bc 28d7 49bd fb07 83bc aaf1 21bc
00000280: bb71 abbd 5b4f 493c 0a3b ae3d d909 9dbc
00000290: 1a03 65bd 20fb 95bd fbbf 643d c0c7 6dbd
000002a0: 68e5 2dbd 2de3 fd3c 4ef1 e03b dbc8 7ebd
000002b0: 91dc cf3c 09ed e2bc 91a9 f8bc 422c 27bd
000002c0: cc4e 0bbc 8103 13bd 70a6 24bc 424f 6abd
000002d0: a98f afbd 61cc 153d 9deb f7bc 03ea bebc
000002e0: b4b5 8cbd 9e1c 55bd 0290 003d 3c92 a6bd
000002f0: 04a2 65bd 63e1 22bd 8cd9 aebd 55ac 1abd
00000300: 8028 34bd 5170 243c 1b79 aa3c 5ff5 5e3d
00000310: 6ee2 8c3d 4dba 8cbb 16f2 443c ac5a 103d
00000320: 7b98 5fbd f84f 37bd e4af afbd 2f7e 7bbd
00000330: 7d97 383c fa31 ab3d d203 cc3c 91cf 7fbd
00000340: 9596 92bd c0e2 4cbd a86e 83bc f3fe 42bd
00000350: 30c1 503d fc61 653d 9ea4 973b d153 fcbc
00000360: eb37 3d3d f31b e53c 5f8a 0ebd 3501 ccbc
00000370: 6c86 5e3c 0ce8 cd3c f04f 063d 3831 95bd
00000380: 0f61 9d3d 078c d7bb 0f06 a8bd 7b13 ab3d
00000390: 4e6d acbd e18a a4bc 1baf 443d 3661 543d
000003a0: edf8 fa3c 6f5d 3ebd 8a15 95bd 8b64 2e3d
000003b0: 0a07 3dbd b300 fcbc eb8b 363c 4b40 7abd
000003c0: 885c 8ebd a8cb 8dbc 77db 05bd bbe0 4dbd
000003d0: 180f a23d 6f48 47bc 0ace c1bb f742 afbc
000003e0: bfc8 edbc 2067 43bd 9b4d 96bd 8d90 343c
000003f0: 2ab6 963d b6dc 62bc 1046 863d edff 8dbd
0.020472461 0.028588094 0.08046091 0.09245129 -0.023685696 -0.012609269 -0.025187494 0.024563143
0.0070544565 0.023070134 -0.030262118 0.0798145 -0.05992582 0.082119696 0.008642609 0.07346325
-0.04010123 0.07791949 -0.076354325 -0.027201176 0.039317086 -0.028620847 -0.0054310584 0.054015324
-0.028600466 -0.06243089 0.012070865 -0.03495934 0.07671174 -0.04067922 -0.009115549 0.08940602
-0.0717942 0.07613335 -0.07698603 -0.034593146 0.039503854 -0.083696164 -0.0121448925 -0.03708132
-0.0010299952 -0.07295562 0.06518156 0.056972772 -0.030843668 -0.012214895 0.016082028 0.08923876
0.028714012 0.029909167 0.053600866 0.04957527 -0.08310338 -0.024404986 -0.029871872 0.01005082
0.048771333 0.025464498 0.071655676 -0.06604132 -0.0138992835 0.010068779 0.076364264 -0.012556995
0.058719445 -0.03677273 -0.07448779 0.010267502 -0.047789972 0.061609436 0.063275404 0.0093559325
-0.045615405 0.0056067216 0.07214274 -0.07004434 0.004572352 0.05136608 -0.039281696 0.047950093
0.04013217 -0.062972255 -0.02022602 -0.050370023 0.090967156 -0.06744713 0.053486213 -0.029423265
0.042119358 0.010268248 -0.0071408013 -0.026097614 -0.057283595 -0.082106456 0.043962404 -0.031545617
0.054358337 -0.043549642 -0.044706624 0.030469416 -0.017548995 0.09199324 0.02819205 -0.012107131
-0.06397964 0.059877772 -0.041935794 0.022022957 -0.0512303 -0.028393269 -0.02576062 0.0192405
0.037376758 -0.061508328 -0.051768914 0.049807806 0.06740656 -0.07825079 0.074389696 -0.06872041
-0.04616902 -0.03471703 -0.019000955 -0.055387728 0.039917283 0.089787 -0.012558816 0.078396
0.01513489 0.08388912 -0.013558607 -0.008973289 0.03284807 0.020513788 0.015306371 -0.020471713
0.06045419 0.031204399 0.027703505 -0.067691706 -0.06674488 0.022193441 0.015630446 0.07982296
-0.02384919 -0.0067118844 0.023905134 0.06610862 0.025937054 -0.052778624 -0.07355214 -0.078869
0.044208884 -0.040659048 -0.081034005 -0.008998595 -0.011732077 -0.049277455 -0.015995016 -0.009884277
-0.08371302 0.012286986 0.085073546 -0.019169735 -0.05591116 -0.07323289 0.05584715 -0.058051825
-0.042455107 0.030992115 0.0068647033 -0.06220327 0.025373729 -0.027700918 -0.030354293 -0.040813692
-0.008502673 -0.035892013 -0.010049447 -0.057204492 -0.08572323 0.036571864 -0.030263716 -0.023304945
-0.068705946 -0.052029245 0.031387337 -0.08133361 -0.056062713 -0.039765727 -0.085375875 -0.037762005
-0.043983936 0.010036544 0.0208097 0.054433223 0.068791255 -0.0042946697 0.012020608 0.03524272
-0.054588776 -0.044754 -0.0857847 -0.061399635 0.011266586 0.08359142 0.024904165 -0.06245381
-0.071576275 -0.050020933 -0.016043976 -0.04760642 0.050965488 0.05600165 0.004627778 -0.030801686
0.046195906 0.027967429 -0.03479993 -0.02490292 0.013581853 0.025135063 0.032791078 -0.07284778
0.07684528 -0.006577972 -0.082042806 0.08353325 -0.08419286 -0.020085754 0.048018556 0.05185052
0.030636275 -0.046475824 -0.07279499 0.042576354 -0.04614929 -0.030762052 0.0111417575 -0.06109647
-0.06951243 -0.017309025 -0.03268 -0.050263148 0.07913035 -0.012163266 -0.0059144543 -0.021394236
-0.029026387 -0.04770577 -0.07339021 0.011020792 0.07358964 -0.013846567 0.06556332 -0.069335796

bias f4 [64]
00000000: 84d1 a2bd e164 2d3d f363 72bd 91b7 44bc
00000010: 9b41 90bd 3703 873c 141e 5fbd 8fc3 e3bc
00000020: 6445 3dbd edfb a7bd 9eb8 28ba 3a8b d4bc
00000030: 425b e1bc 0190 083d 3083 8e3d a65d 8c3d
00000040: 6a8e 843d 5a64 b63d c261 92bc efeb 2e3d
00000050: 3021 4c3d 506a 863d 44cb 47bd 9639 053c
00000060: b9ab 273c 012a 963d 7ffd a93d e6e2 30bd
00000070: 318c 013d fb88 ae3d 14db abbc ebe5 d0bb
00000080: 57e2 9b3c 3742 52bd bc3a 823d d0da 68bc
00000090: 701b 4e3d b383 a23a 043e 403d c23a 933d
000000a0: f528 d9bc a5e2 293d f57c 243d ddaa 23bc
000000b0: b9af 5ebd 34bf 883c 07ff 6b3d ee8f 7cbd
000000c0: 0a8e 10bd dd56 aabb 049c 853b 59e9 94bc
000000d0: e22a 87bc 8ead 373d 848c 1bbd 923d bcbd
000000e0: a879 f1bc 5b1d b73d e847 2e3b 5754 8a3d
000000f0: d9d0 853d 329b e83c 6d89 1d3c 7190 8a3d
-0.07950118 0.042332534 -0.05917735 -0.012006656 -0.07043763 0.016481025 -0.054472044 -0.02780321
-0.046208754 -0.08202348 -0.00064362015 -0.025945295 -0.027509335 0.033340458 0.06958616 0.068537995
0.06472476 0.08905859 -0.01786888 0.042705473 0.049836338 0.06563246 -0.048777834 0.008131405
0.010233813 0.0733223 0.08300304 -0.043185137 0.031627838 0.08522221 -0.020978488 -0.0063750646
0.019028826 -0.05133268 0.06358859 -0.014212325 0.050319135 0.0012398869 0.046934143 0.071889415
-0.026508788 0.04147591 0.04015823 -0.009989467 -0.0543668 0.016692735 0.05761626 -0.0616607
-0.03529171 -0.005198343 0.0040774364 -0.018177675 -0.01649994 0.04484325 -0.037975803 -0.09191431
-0.029476956 0.08941146 0.0026593152 0.06754368 0.06533975 0.028394315 0.009615284 0.06765831

weight f4 [1, 64]
00000000: e790 81bc 67f0 753d eeab a8bd bc76 dc3d
00000010: f466 4ebd 60dc a6bd 16e8 ad3d 118a 963d
00000020: bc10 bbbc 2a42 8fbc b8d4 ff3d ca9b 593d
00000030: 49ea d9bd bb64 babd 7807 273d 316b c9bd
00000040: ecdf 40bc 1811 38bd 1729 ec3c 6f65 80bd
00000050: 86c3 55bc 6456 debb 8022 b6ba ee78 fe3c
00000060: 1578 01be 7c97 373d ae2c 16bd 4a62 ffbd
00000070: 5395 d43d c904 803d 77f7 4ebd eb05 4abd
00000080: 13f5 3f3c 6cc7 2cbd 6b04 2a3d cc64 e03d
00000090: f995 483c 93c1 d93d 09eb 66bd 90e9 e2bd
000000a0: 1044 7bbd 269c 9f3d ccbf 963d 3002 7a3d
000000b0: d338 7bbd 199d 843d 634d d23d 654d 4bbd
000000c0: 55f0 d4bc 9474 fabd fa5f c73d 10b4 5b3d
000000d0: dcbb 9cbc 066b 6d3d 4bf2 e93d 8162 b0bd
000000e0: ec7b 03bd 8972 81bc a3d2 843d 74f4 cfbd
000000f0: 98c3 a0bc 6761 acbd 28c1 48bc d6ed f13b
-0.015816165 0.06004372 -0.08235918 0.10764834 -0.050391153 -0.08147502 0.084915325 0.07350553
-0.022835128 -0.017487604 0.12491745 0.053127088 -0.106403895 -0.09101244 0.040778607 -0.09834898
-0.011772137 -0.044938177 0.028828187 -0.06269347 -0.013047105 -0.006785201 -0.001389578 0.031063523
-0.12643464 0.0448222 -0.036663704 -0.12469919 0.10380044 0.06250913 -0.05052897 -0.04932205
0.011716145 -0.04218237 0.04150812 0.109567255 0.0122427875 0.106326245 -0.05637649 -0.11079705
-0.061344206 0.07793455 0.07360801 0.061037242 -0.06133349 0.064752765 0.102686666 -0.049634356
-0.025993505 -0.12229267 0.09735103 0.053638518 -0.019132547 0.057963394 0.11423167 -0.08612538
-0.032100603 -0.015801685 0.06485488 -0.101540476 -0.019624516 -0.084170155 -0.012253083 0.0073830886

weight f4 [1, 64]
00000000: fddf 43bd b132 e43d 68e3 a93d 3776 c23d
00000010: ab06 e43d 4c03 f6bc 9a3d cbbd e36f d9bc
00000020: c3f4 1d3d 6b43 a2bd 0404 aabd 3fc4 0e3c
00000030: 442c 783d 093d 993d 1440 f33d 24cf 9e3c
00000040: b35c b4bd 1286 d9bc 6c00 83bd a293 c5bd
00000050: ac2f 7f3d f414 c23c 4e32 ba3d 0805 04be
00000060: e081 433d f8e5 03bd 7cb1 a03d 30c1 b83d
00000070: 83df b03d 7db2 2fbd c798 a93c 3151 82bb
00000080: 27e7 b43d cf5e c9bd 314d d5ba 630e 573d
00000090: 3b27 3ebc 7f8d a4bd 50dc d63d 6b6d 8d3c
000000a0: d496 5e3d 8767 d83c b957 073d 7ea5 bdbd
000000b0: 9eb0 4dbd 6dd7 993d 94b2 0f3d 292a a7bd
000000c0: ff13 d73d c8ee 513d 154e 3b3c e0e4 a93c
000000d0: 4466 473b 534f 45bc 1166 e23a 1057 983d
000000e0: 0d8f f7bd 0f23 55bd fc22 283d 66c3 02be
000000f0: 748e a6bd ca5d af3d fd6d 00bc 4836 96bd
-0.047821034 0.11142481 0.082953274 0.09495204 0.11134084 -0.030030869 -0.09923859 -0.02654261
0.0385635 -0.07923015 -0.08301547 0.008713781 0.06058909 0.07482345 0.11877456 0.019385882
-0.088067435 -0.026553188 -0.06396565 -0.09647299 0.062301323 0.023691632 0.09091626 -0.12892544
0.04773128 -0.032201737 0.078463525 0.090212226 0.086363815 -0.04289483 0.020702733 -0.003976964
0.08833151 -0.098325364 -0.0016273615 0.052503955 -0.011606033 -0.08034801 0.1049124 0.017264089
0.05434306 0.026416553 0.033042643 -0.09260081 -0.050217263 0.07511792 0.035082415 -0.08162338
0.10501861 0.05125311 0.01143219 0.020739019 0.0030425945 -0.012042838 0.001727285 0.07438481
-0.12087832 -0.052035388 0.04104899 -0.12769851 -0.081326395 0.08562811 -0.007838723 -0.07334572
