ppo_rope_lift.pth (torch, 48715 bytes, 6 tensors)

weight f4 [128, 21]
00000000: 6dea 12be 3509 05bd ff34 063d 7d03 48be
00000010: f7ff 5fbc 3360 9c3b a62f 243d 7d61 45be
00000020: cf76 a6bd 619c 3cbc e5db 943d e334 513e
00000030: f3e6 53be 3f70 09be fe14 6fbc 9863 d8bc
00000040: 6a4e 8cbd 2ddb 25be 0b33 13be 2e80 8a3d
00000050: 8be7 3c3d e1fc cc3d d41e 20be bfd9 36bd
00000060: 046b febd 1667 293e 1351 bebc 7278 99bd
00000070: 526e 223e f5f7 5b3e 7e50 17be c94a 5dbe
00000080: 075d c83d e5ad 1fbe 0139 07bd 72c0 3fbe
00000090: 4db8 503e fdcc 043e 25ae dd3d c4ce 963d
000000a0: 2a0c f0bc 5739 c2bd 5dda 70bc e74d 3ebe
000000b0: 2c1b 07be 1d10 3dbe 2b14 023e 4378 19be
000000c0: f700 0d3e 480c 8c3c baa3 b83d 5256 0d3d
000000d0: 518c 02be cef4 5a3d 1f48 23be 2c29 993d
000000e0: 29d7 203e 4012 a93d e063 263e bb0b 1a3e
000000f0: 4c84 e63c ff59 a73d 0724 4abe 7662 02be
00000100: 22cf 29be 0f38 30be e2f6 3b3e 66fa 3e3e
00000110: 0b74 73bd c5b2 493e 7135 0e3e add9 7b3c
00000120: 5883 cf3d 5b67 593d a0f9 e03d 1703 753d
00000130: be4c 4dbc 5ff2 5bbe 4269 84bd cf9a 1cbe
00000140: 0b4e 7c3d df58 fd3d 6a2b 5dbe c106 10be
00000150: d8a6 083e b566 313e 58bc 53be 81e0 c2bd
00000160: a915 5f3d ab62 bfbd 5b31 833d 78bb 7abd
00000170: 8a32 1fbe 7300 57be a39a 0dbe 7bdb b9bd
00000180: 4579 2f3e b752 90bd 7007 533e 4871 873d
00000190: 4cda 1c3c 9941 3cbe af6e 48be a93b 2fbe
000001a0: 77d9 12be 32d2 1d3e 1dab bfbc 79bb f83d
000001b0: 681a b6bc 5f86 bebd 92ed 863d 3029 373e
000001c0: c83a 4bbe 6f3d 493e a8a0 27be 718a 4ebe
000001d0: 9fc0 48be 057b 32bd b3c1 77bd c754 0bbe
000001e0: 51d5 b43d e789 8d3c ccd9 26be 716b 4d3d
000001f0: 3284 8f3d 0809 2ebe 52a5 973b 2b48 943d
00000200: 4b3c 42be 3f3b a03d 47ec 263e a397 203e
00000210: d52f f83d d4f5 12be 31fd 9abc 6dc6 ac3d
00000220: e1dd 443e 0546 e63d dcde 53bd eabb 513e
00000230: 1506 b03d 1b16 1bbe 6f7d d93d 80a4 283e
00000240: d3aa 503e badf 14bd 4daa 4dbe 2210 c3bd
00000250: 9dcc f13b 73c2 74bd e936 0d3e 57a6 0fbe
00000260: 3559 91bd 8455 ca3c eef3 82bd edf4 873d
00000270: e278 a33d 576b 5bbe fff9 5b3d 2e87 38be
00000280: 9a34 3abe 2028 59be ae6e 293d df1f 883d
00000290: 1f1d 23be 0b16 0dbe 3ca7 27be 7afa c4bc
000002a0: 22a3 3cbe 0517 0f3e f00b ebbd 94e2 353e
000002b0: 923b e3bd 267a 223e 7c19 de3d c2f9 533e
000002c0: 2acf f43d 26ce 563e d78b d0bd 1184 2a3e
000002d0: 5528 36be dc4b 383e 1d76 ed3d 9825 313e
000002e0: bdfa 003e 51ea 1f3d 935a 0fbd 3928 e53d
000002f0: 8f8a 2b3d df7e e23d 99f9 bd3d a89c 2f3e
00000300: d185 aa3d 1fd5 1ebc b6eb e43d b09e 4dbe
00000310: 2bf7 d9bc a413 d63d 051b 833d f486 703d
00000320: 32b7 70bd 135f 263e c651 96bd 4778 4d3d
00000330: 21a4 d1bc af5f e73d ae75 f33c 6133 8a3d
00000340: 3c6a 3fbe f268 53be 4478 52bd e4fc 593d
00000350: ef7d 58be 6478 88bd f954 13be 930d 643d
00000360: 4b70 0c3e 8091 4fbe 9bb9 323e 1d80 c33b
00000370: e93e 3d3e ffe1 1c3e 991d b33d 4931 3b3d
00000380: eb07 3dbd 9d7d 1cbd bbbf 853d e796 d6bc
00000390: 5d58 76bd 2265 8bbd 8e0f 3abe 07c0 093e
000003a0: 94b7 9a3d 7f20 323d fc93 3d3d 57ab 9ebd
000003b0: e1d4 0a3d ebc6 553e 9771 38be 9a25 88bd
000003c0: cf24 e73d 1cec 88bd 32ff 04be 3455 f23d
000003d0: 731d 91bd 61f2 0a3e 1c56 ca3c cf33 b1bd
000003e0: 2713 4abe 7a46 e7bc 0d5e dabd faf3 f7bc
000003f0: b8c5 a43d b755 22be ec28 09be 1e34 4a3d
-0.14347239 -0.032479484 0.032765385 -0.1953258 -0.013671867 0.00477221 0.040084504 -0.1927547
-0.0812813 -0.011511893 0.07268504 0.20430331 -0.20693569 -0.13421725 -0.014592407 -0.026414678
-0.06850894 -0.1619689 -0.1437494 0.067627296 0.046119254 0.1000917 -0.1563676 -0.044641253
-0.12422755 0.1654323 -0.023232019 -0.07493676 0.15862396 0.21481307 -0.14776799 -0.2161056
0.097833686 -0.15593679 -0.033013348 -0.18725756 0.20382805 0.12968822 0.10824231 0.07363656
-0.029302675 -0.09483593 -0.014700499 -0.18584405 -0.13193959 -0.18463178 0.12703006 -0.14987282
0.137699 0.0170957 0.09015603 0.03450615 -0.12748839 0.05345612 -0.15945481 0.07478556
0.15707077 0.08255434 0.16249037 0.15043537 0.028139256 0.08171462 -0.19740306 -0.12732872
-0.16582921 -0.17208885 0.18355897 0.18650207 -0.05943684 0.19697101 0.13887574 0.015371722
0.10132474 0.053077083 0.10985112 0.0598174 -0.012530504 -0.21479176 -0.06465389 -0.1529343
0.061597865 0.123704664 -0.21598592 -0.14065076 0.13344896 0.17324336 -0.20677316 -0.09515477
0.054464016 -0.09344991 0.06405898 -0.06121394 -0.15546623 -0.20996265 -0.1382852 -0.09075066
0.17136104 -0.070470266 0.20608306 0.066134036 0.00957353 -0.18384399 -0.19573472 -0.17112602
-0.14340769 0.15412214 -0.023397023 0.121451326 -0.022229388 -0.09302973 0.06588282 0.17886806
-0.19846642 0.19652341 -0.16369879 -0.20169999 -0.19604729 -0.04357435 -0.06048746 -0.13606559
0.088297494 0.017277671 -0.1629402 0.050151292 0.07007636 -0.16995633 0.004627862 0.072403274
-0.18968312 0.078238 0.1630107 0.15682845 0.12118498 -0.14351588 -0.01891956 0.08436284
0.19225265 0.11243824 -0.051726207 0.2048184 0.0859491 -0.15145151 0.10619628 0.16469002
0.20377664 -0.036346175 -0.20084496 -0.095245615 0.007379128 -0.059755754 0.13790478 -0.14028297
-0.07097093 0.02469898 -0.06394182 0.06638513 0.07982041 -0.21427666 0.05370521 -0.18020317
-0.18184128 -0.21206713 0.041365318 0.06646704 -0.15929078 -0.1377794 -0.16372389 -0.024045218
-0.18421605 0.13973625 -0.11476886 0.17762214 -0.110953465 0.15866908 0.108447045 0.20700744
0.11953576 0.20977077 -0.10182922 0.16651942 -0.17788823 0.17997688 0.11594794 0.17299497
0.12595649 0.03904182 -0.034998488 0.111893125 0.041880187 0.11059355 0.092761226 0.17149603
0.08326305 -0.009694367 0.11177771 -0.20080066 -0.026607117 0.10452965 0.06401638 0.05872245
-0.05876846 0.16247205 -0.07339816 0.050163534 -0.025590958 0.11297547 0.0297192 0.06748081
-0.18692869 -0.20645502 -0.051384225 0.05321969 -0.2114179 -0.06663588 -0.14387883 0.055677008
0.13714711 -0.20270348 0.17453615 0.0059662 0.1848103 0.15320586 0.0874588 0.0457013
-0.04615013 -0.03820573 0.0653071 -0.026195003 -0.060142864 -0.06806399 -0.18169996 0.13452159
0.07554546 0.043488022 0.046283707 -0.07747524 0.033894423 0.20876662 -0.18012081 -0.06647797
0.112863176 -0.06685659 -0.12987974 0.118326575 -0.07085695 0.13569023 0.024699263 -0.0865246
-0.19733869 -0.028231848 -0.1066247 -0.030267704 0.08045524 -0.1585301 -0.13394517 0.04936611

bias f4 [128]
00000000: 80c1 23be 04f6 5dbe ee6a dcbd fb6f 4bbe
00000010: 8dc0 21be cb06 673d ae26 873d 73de d7bc
00000020: 26bf 5abe d0e2 48be 5ce8 07be 9d83 29bd
00000030: 2379 233e db0f 3d3e 3b3a c8bc d597 1c3e
00000040: 2e3c 4dbe 8cad d03d a70c 31be c89c 24be
00000050: fc7e 063e d0e9 ccbc b094 6c3d a8e1 95bb
00000060: ab3f 08be 0e66 f0bd 24c6 503e ee90 273e
00000070: 8b70 37be 3b50 8dbd df3e fbbd 77ef 56be
00000080: 1662 b6bd 83a9 a03d 80a5 c8bd a605 20be
00000090: f72b 823b 08d1 603e f9c1 ac3d 5af9 c73d
000000a0: 520d fb3d 564b 173d af21 4bbe a804 883c
000000b0: 5eb3 df3d f4d3 46be 6307 453e 54c7 3f3e
000000c0: a700 b7bc fec2 f8bd 9fbf 1d3d 19fe d3bd
000000d0: bfe1 d03c a80e 2dbe 9e3c 513d 0fc4 2f3e
000000e0: b5c7 253c 1791 b03d 5a68 273e a535 eabd
000000f0: 16cf 483e 6dff 1dbe 3372 653c dc7a c73d
00000100: 7105 d4bb f080 c9bc aaf9 02be 4601 acbc
00000110: 4a8e 5d3e 46a5 6abc fe60 20be d819 0cbe
00000120: f5a5 d83d 2c2d 22be 4440 663c ec2c 563a
00000130: f024 5a3e 10cc 14be 02fe ba3d 7f86 3cbe
00000140: 7c02 ec3d 30e0 8bbd f9f8 91bd 3fae 063e
00000150: 7640 25be 0b2d 123e 050f 1e3b bf15 363e
00000160: 00e9 d4bd 02d8 37be 137d f13c 92ad 8dbd
00000170: f488 97bb 98a7 4fbe a1ab 873d 7c6d 02be
00000180: e1a8 75bd d692 44be 9c3c da3d 5a9b 223d
00000190: 0eb7 90bd f1c6 053d 2968 5dbe 9af3 0f3e
000001a0: b2c6 653d e4cc 9cbd 1b7a 2bbe 298b 0e3e
000001b0: d8d8 513d 4a56 0bbe 0225 233e 1b96 8bbc
000001c0: 9c8d 4dbd 6adb 6e3c ef9d 6d3d 4b87 02be
000001d0: db3b c93d 109b 343d 6a2e 03be 953a abbd
000001e0: e8b7 14be f427 01bd e3ae 80bd ec7a d5bd
000001f0: bfcb 563e ecc2 33bd d64c 98bc 820e 133e
-0.15991783 -0.21675879 -0.10762583 -0.19866936 -0.15796109 0.056402963 0.065991744 -0.02635119
-0.2136198 -0.19617772 -0.13272232 -0.04138528 0.15964179 0.1846308 -0.024441829 0.15292294
-0.20042488 0.101893514 -0.17289983 -0.16075432 0.13134378 -0.025013834 0.057758987 -0.0045740195
-0.13305537 -0.117382154 0.20388085 0.1636388 -0.17914025 -0.06900068 -0.12267851 -0.20989786
-0.08905427 0.07844832 -0.097971916 -0.15627155 0.003972526 0.21954739 0.08435435 0.09764357
0.122584 0.03693708 -0.19837068 0.016603783 0.109228835 -0.19416791 0.19241099 0.18728381
-0.022339178 -0.12146567 0.038512822 -0.103512 0.02549827 -0.16900122 0.0510832 0.17164634
0.010118415 0.08621424 0.163484 -0.11436013 0.19610247 -0.15429468 0.014004278 0.097402304
-0.006470375 -0.024597615 -0.12790552 -0.020996701 0.2163631 -0.014321631 -0.15662 -0.13681734
0.10578529 -0.15837544 0.014053408 0.0008170146 0.21303153 -0.14530969 0.091304794 -0.18410681
0.11523911 -0.0682987 -0.07127566 0.13152407 -0.16137871 0.14274995 0.002411784 0.17781733
-0.10396004 -0.17953494 0.029478585 -0.069178715 -0.0046244804 -0.20278776 0.066245325 -0.12737077
-0.05997551 -0.19196638 0.106560916 0.039698936 -0.07066165 0.03266043 -0.21621765 0.1405777
0.056097694 -0.07656267 -0.16745798 0.13920273 0.05123219 -0.13607135 0.15932086 -0.01703935
-0.050183877 0.01457868 0.058011945 -0.12746923 0.0982587 0.04409319 -0.12810674 -0.08360783
-0.1452328 -0.031532243 -0.06283357 -0.10423836 0.2097616 -0.043887064 -0.018591326 0.14361003

weight f4 [64, 128]
00000000: b971 fdbb b8dd 453d e825 a8bd 0439 68bd
00000010: 77ad 9a3b d785 f63c 3168 813d 9838 85bc
00000020: 7c64 79bc 2891 edbc 6ff2 593d 24c5 a03d
00000030: c8a6 9f3b 1f94 a33c 580a ecbc 2e12 a0bd
00000040: 0cca b0bd 40c5 22bc 6487 babc ae77 1a3d
00000050: e733 0d3d 07b2 abbd fb1d 563d dff0 a4bd
00000060: d7eb 4f3d 0c00 a23c 1fb5 923d d9fd c4bc
00000070: 4ad1 14bd 6741 673d 07ee 913d 20d6 8ebd
00000080: 548a e03c f496 973c 7829 34bd b4a0 5ebc
00000090: 60d4 eb3a aeb7 d8b9 2f7e c73c bc6d 853d
000000a0: d60b 893b 4ab8 5bbc e2f5 813d 33c9 513d
000000b0: e657 fabc 5cfb c23c a090 d23b 4c4c 85bd
000000c0: 9b0c 47bd afb3 58bc 9e59 453d 3523 103c
000000d0: 8a5b 9d3d 7221 593d ea06 4e3d 7e43 933d
000000e0: 38d1 8abc a1cd 39bd 0177 333d b59c 7bbc
000000f0: 2a94 11bd fb67 a9bd c01a 063d 1f9e 7abd
00000100: 05d4 9fbc 4d48 00bb 618e 82bd bf21 203d
00000110: 1b51 e0bc 2816 853d 3348 fabc 0777 62bc
00000120: ef62 8b3d fc50 873d 1fa4 ec3b 500c 2ebd
00000130: 375d aabd ed33 be3c a7fa 84bd 36a7 2ebc
00000140: 18f6 8e3d 3ea5 a53d c889 8abb 14bd 96bc
00000150: 040d c7bc 58de a0bd 4447 31bd 4d9c 4a3d
00000160: 58fd ac3d 8282 27bd f9b8 aabd 1ccc edbc
00000170: feb8 8c3c 4bc0 b5bd 60ac 89bc 316a 933d
00000180: 8855 86bd 852a 84bd e375 a03d 112b 733d
00000190: c3d2 813c 589f 94bd d5a3 98bd bd65 1fbd
000001a0: ffd3 9bbd f3b9 6cbd c1b4 183b 119c 1f3a
000001b0: 5955 62bd a40c 9abd d2b3 a0bd ce89 96bd
000001c0: e6c6 20bc 07bf 39bd 41e9 773d 1f99 063d
000001d0: d004 7b3c 1be2 8ebd 61e4 603d abb5 db3c
000001e0: 33f3 01bd 6867 9bbd 5b7b c7bc 6d0f b53b
000001f0: 8fe9 f5bc fbd9 953c eed2 593d e17f 5f3c
00000200: 0171 1a3d 3b9c 683a 467d a6bd 76b6 6a3d
00000210: c46a 703d 226b 60bc 709f 743c c646 eabc
00000220: f0b2 dd3c c2df 113d a029 95bd 8d19 f9bc
00000230: 8c0a 2cbd 177e 84bd 5ec0 de3c e268 bf3a
00000240: 5574 c83c d59a 9bbd eb25 9a3d ec50 a7bd
00000250: fc39 2abd 0ae2 5cbd 5de5 26bd 2493 39bd
00000260: 30e7 783d c502 95bd a2d6 20bd 0ac1 babc
00000270: eea8 8bbd 005a fcbc 1c44 7c3d 4fc8 4cbd
00000280: 060a b03d bfec b3bc d347 753d 1ff8 ae3d
00000290: cd2b c03c d70b 953d 270e 983b f19b afbd
000002a0: 72dc 3d3c 9599 ac3c e8a2 3d3c f08e 093d
000002b0: f5ad 983d 2bae 883d b7ab 51bd 338c 81bd
000002c0: d96d 963d 15e5 1e3d fc18 f6bc fb16 833d
000002d0: 0f19 b5bd 5eb2 b4bd 20fc 213d 3807 05bd
000002e0: 3e2d 36bd bdf8 4fbc 3069 66bd 1af7 c7bc
000002f0: 0fdc 573d 296b 343b 56c2 debc 5ead 0d3d
00000300: 23bb 7c3d cfeb a23c 3846 4d3d a54c ffbc
00000310: 0bca 5f3d 3e5c b5bc 4584 0f3d da37 4cbd
00000320: 4284 8b3d fd2f 7b3d 69c3 013d 190e 60bd
00000330: e273 423c 9f60 22bd 2fe5 e53c 4fbc 993c
00000340: 35a5 993d ea83 3dbd aea1 823d a224 92bd
00000350: 635d 08bd adb7 a1bd b94a 72bd ce4c 97b9
00000360: a077 b5bc feb7 383d fbd2 09bd c8fd 0ebd
00000370: d49b 0a3c dc39 b23d e78f b03d 4a0f 9f3d
00000380: def7 dfbc ce11 61bd 493e c43c 367d 043d
00000390: f5b5 7bbd 99c3 de3a 1880 d23b 7322 f43c
000003a0: b202 633d fade 853d 10d5 02ba 719d 9bbc
000003b0: a64a 123c 02f5 2a3d 9813 423d 0a58 d6bc
000003c0: 2560 b43c 828e 0dbd 1c62 eb3c fd36 f23c
000003d0: 6391 6b3d 4347 b73d e406 ec3c 6944 2c3d
000003e0: 1563 94bd 0bb9 8fbc a6d3 51bc 5176 30bd
000003f0: 3541 793d 2c92 64bd fe5c 8abd 44db 93bc
-0.007734504 0.04830715 -0.08210355 -0.056695 0.0047203857 0.030093117 0.06318701 -0.016262338
-0.015221711 -0.02899988 0.05320972 0.078501016 0.004872177 0.01996809 -0.028813526 -0.078159675
-0.086322874 -0.009934723 -0.022769637 0.03771179 0.034473326 -0.083835654 0.052274685 -0.08053755
0.050762024 0.019775413 0.07163452 -0.024046825 -0.036332406 0.056458857 0.07125478 -0.06974435
0.02740971 0.018504597 -0.04398486 -0.013588119 0.001799237 -0.00041335583 0.024352161 0.06515071
0.004182319 -0.013410637 0.063457265 0.05121727 -0.030559491 0.023801498 0.006425932 -0.06508693
-0.048596006 -0.013226434 0.04818117 0.0087974565 0.07683475 0.05301041 0.050299563 0.071906075
-0.016945466 -0.04536212 0.043814663 -0.015357186 -0.03554169 -0.08271786 0.032740355 -0.061185952
-0.019510278 -0.0019574345 -0.06374813 0.039094683 -0.027382424 0.064983666 -0.030552005 -0.013822324
0.068059795 0.066072434 0.007221713 -0.04249221 -0.083185606 0.02321812 -0.06493121 -0.010659983
0.069805324 0.08088158 -0.0042278506 -0.018400706 -0.024298199 -0.07854909 -0.043280855 0.049465466
0.08446759 -0.040895946 -0.08336062 -0.029027991 0.017178055 -0.088745676 -0.016805828 0.07197989
-0.065592825 -0.064534225 0.07834985 0.059367243 0.01584757 -0.07256955 -0.074531235 -0.038915385
-0.076087944 -0.057794522 0.0023301097 0.00060886244 -0.055257175 -0.07521942 -0.07846798 -0.07350503
-0.009813046 -0.045348193 0.060525183 0.03286087 0.015320972 -0.0697672 0.0549053 0.026820024
-0.031726073 -0.075880826 -0.024350813 0.0055255205 -0.030018596 0.018292418 0.053179674 0.013641329
0.037705425 0.0008873378 -0.08129363 0.057302915 0.05869557 -0.013697417 0.014930591 -0.0285982
0.027062863 0.035613783 -0.0728333 -0.030407691 -0.042002246 -0.06469362 0.027191337 0.0014603401
0.024469534 -0.07597891 0.075267635 -0.081697315 -0.041559204 -0.053926505 -0.04074608 -0.04530634
0.060767353 -0.07275919 -0.03926719 -0.022797126 -0.0681933 -0.030804634 0.06158839 -0.049995717
0.08595662 -0.021963475 0.05988295 0.08543419 0.023458386 0.07277649 0.004640359 -0.08574665
0.011588203 0.021069327 0.011574484 0.03358358 0.07455055 0.06673845 -0.05118915 -0.06325569
0.073451705 0.03879269 -0.03004121 0.064008676 -0.0884267 -0.08823083 0.039547086 -0.032477587
-0.04447674 -0.012693581 -0.05625266 -0.02440982 0.0527001 0.0027529693 -0.027192276 0.034589164
0.061701905 0.019887833 0.050115794 -0.031164477 0.054636043 -0.022138711 0.03503825 -0.04985795
0.068123356 0.061325062 0.0316805 -0.054700945 0.011868449 -0.039642926 0.028063385 0.01876655
0.07502214 -0.04626838 0.06378494 -0.071358934 -0.033292186 -0.078963615 -0.059153292 -0.00028858188
-0.022151768 0.045097344 -0.033648472 -0.034909993 0.008460004 0.08702442 0.08621197 0.07766588
-0.027339872 -0.05494862 0.023955481 0.032345973 -0.061452825 0.0016995549 0.0064239614 0.029801583
0.055422492 0.0653667 -0.0004990855 -0.018995972 0.00892893 0.041737564 0.047381967 -0.026165027
0.022018502 -0.034559734 0.028733306 0.029567236 0.0575117 0.08949139 0.02881188 0.04205743
-0.07245461 -0.01754429 -0.012806809 -0.043081585 0.060853202 -0.055803463 -0.06756018 -0.01804889

bias f4 [64]
00000000: e3ee fd3b d6e2 8d3d d125 1c3d fc95 103d
00000010: 0bbd e6bc 71df 8cbc 2950 05bd 384c 7cbd
00000020: ed31 3bbc fb6b f2ba 9a13 9d3d 867b a63d
00000030: b3fb 913c 84aa a73c 1164 173d 9bc8 4b3d
00000040: d2c9 3fba 502e 9fbd 80cf d73b 9108 6dba
00000050: 7b18 56bc 9732 2dbd 025d be3c 3d37 63bd
00000060: 1b2a 64bd 97bc 78bd 3570 8abd bfe0 3abc
00000070: 5088 8c3d 924b 663c c935 4fbc 7a5e 85bd
00000080: 031b 3ebb e30d 2cbc d753 523d d427 3dbd
00000090: 55f1 943d 0d47 9a3d 9cfb 3ebd 1994 723b
000000a0: 1304 253d b183 b7bd 9a0a 0abd 02fb 663d
000000b0: f47f 46bc 6f8e 8dbd 8ed5 7f3d 886a 953d
000000c0: 1f20 89bd 2f33 08ba 7020 a4bd 3b3f ab3d
000000d0: f9a5 09bd 3bc8 55bd a5c9 81bd d452 c93c
000000e0: 3941 b6bd 6bf2 88bd b2cd de3c 0928 613c
000000f0: 3d5d b93c 58d6 a53d 902b 9ebd 2095 113c
0.007749425 0.06928031 0.038122002 0.035299286 -0.028166315 -0.017196389 -0.03254715 -0.061596125
-0.011425477 -0.0018495315 0.07669754 0.08129029 0.017820215 0.02046705 0.036960665 0.04975186
-0.00073161453 -0.07772505 0.006586015 -0.0009042109 -0.01306736 -0.042284574 0.023237709 -0.0554726
-0.055704217 -0.06072673 -0.06759683 -0.011406123 0.06861937 0.014056103 -0.012647101 -0.065121606
-0.00290078 -0.010501358 0.051349487 -0.04618056 0.07272593 0.07533083 -0.046626672 0.0037014543
0.04028709 -0.08960665 -0.033701517 0.056391723 -0.012115467 -0.06911933 0.06245952 0.0729571
-0.0669558 -0.0005195615 -0.080139995 0.0836167 -0.03360555 -0.052192908 -0.06337289 0.024575628
-0.08899159 -0.066868626 0.027197693 0.013742455 0.022627467 0.080975235 -0.07723153 0.008885652

weight f4 [1, 64]
00000000: bc33 76bd 9be9 383d 5f63 f53c 1d11 5ebd
00000010: 0648 e33d 3a1d 91bb 796b ce3d dc0d 373d
00000020: 6019 0b3c 5db4 ccbd 8d1f d03d 8ce0 06bd
00000030: c58e 163b 76e8 dc3d 6743 90bd e093 8bbd
00000040: f1be f6bd f1f1 a53d c05c 41bc 4da2 9cbd
00000050: f0bd d4bd fef5 8abc 92a9 6a3d cf24 eb3d
00000060: 726e c5bd a0e9 1abd b108 e1bd cc29 c6bd
00000070: bb47 113d 9719 bebd e83e 9c3c 6f9b 6fbc
00000080: ecc9 203c da3e c73a 2d9b 9f3d 4e5b 693b
00000090: e8bb a839 a658 3bbd f564 f53d ded8 c4bd
000000a0: a8f6 2a39 bb4c ba3d 56d3 e1bd ebeb 4ebd
000000b0: 20da b0bc 3e12 88bd 2338 cf3d 3fb3 8bbd
000000c0: fcca 8e3d 59c1 cb3d 6b1b c93c fff0 bc3b
000000d0: baa7 5ebd 962f 873d 3702 b0bd 14b7 f1bc
000000e0: 1ef3 b83d 8191 c43d 8ace 3d3d 79ff e9bc
000000f0: fba1 c6bb fd71 acbd cf11 a73d d0a7 bc3d
-0.06010793 0.04514466 0.02995461 -0.05421554 0.11097722 -0.004428533 0.100790925 0.04469095
0.008489937 -0.09995339 0.10162268 -0.03292899 0.002297328 0.10786526 -0.07044106 -0.06815314
-0.12048138 0.08102787 -0.0118018985 -0.07648144 -0.1038779 -0.016963001 0.05729062 0.1148163
-0.096402064 -0.03782046 -0.10987986 -0.09675941 0.035468798 -0.092822246 0.019072965 -0.014624461
0.009813767 0.0015201226 0.07793269 0.00356074 0.00032183458 -0.04573884 0.11982147 -0.09611677
0.0001630435 0.090966664 -0.11026637 -0.050517958 -0.021588385 -0.066441044 0.10118129 -0.06821298
0.0697231 0.099489875 0.024549207 0.0057660337 -0.054359175 0.06600873 -0.085941724 -0.029506244
0.09030746 0.09598065 0.04633955 -0.028564202 -0.00606179 -0.08420179 0.081576936 0.09211695

weight f4 [1, 64]
00000000: ff50 5dbd 2c15 6c3d 5a6b cbbd 8499 9c3d
00000010: e77b a83c fe8a 84bd 89d3 823d 0f11 cbbd
00000020: a73c 0ebc e02e 2bbd db6a 13bd b88c f6b7
00000030: b1e1 f3bd 7a3b 7bbd 5ba2 313d 0e7f 5dbd
00000040: 2367 9e3d 6348 3e3d e23a 5fbc ec33 9e3d
00000050: 2e51 3db9 3a0a 6b3d 01f7 f0bd b116 193c
00000060: 01e4 f43d 2dde 4ebc d45a 793d e83b 0bbb
00000070: f830 86ba f946 2ebd 85ea 6fbd f398 b63d
00000080: 31ac d8bc a74f dfbb e0c2 373d 8e6f ab3d
00000090: 74da ebbc bb1b edbd 23b3 d9bc 68e2 f6bd
000000a0: d642 e6bd 318c b43b 022e ad3d 3dbb cd3d
000000b0: 2b9b 943d 989d d03d bdb1 1e3d 2677 acbb
000000c0: 5adb b6bd 5525 3e3c 5091 023d 4f64 da3d
000000d0: a20d 93bd cf5d 74bd 7f06 fbbd 7463 9ebd
000000e0: f617 9c3d 3897 5bbd e6d3 debd 9d59 e8bb
000000f0: 53a6 dabd 5972 81bd c8bd 94bc b1cc 72bd
-0.054032322 0.05763738 -0.09932585 0.07646468 0.020566894 -0.06471823 0.063880034 -0.09915363
-0.008681453 -0.04179275 -0.035990577 -2.9391013e-05 -0.119082816 -0.06133602 0.043367725 -0.054076247
0.077345155 0.046455752 -0.013624879 0.07724747 -0.00018054686 0.0573828 -0.11765862 0.009343789
0.11957551 -0.012626213 0.060877636 -0.0021245424 -0.0010237982 -0.042548154 -0.058573265 0.089158915
-0.026449295 -0.006814915 0.04486358 0.08370887 -0.02879069 -0.11577555 -0.026574677 -0.12054902
-0.11243217 0.005509876 0.08456041 0.100454785 0.072561584 0.101863086 0.038743723 -0.005263227
-0.08928557 0.01160558 0.031876862 0.106636636 -0.07180335 -0.059659775 -0.122570984 -0.07733813
0.07621758 -0.05361101 -0.1088026 -0.007090761 -0.10676255 -0.06320638 -0.018156901 -0.05927724
