rate_reward_dqn.pth (torch, 12631 bytes, 6 tensors)

net.0.weight f4 [64, 6]
000000 49 31 3b 3e a5 f7 70 bd 79 7a a9 be bb 68 2c 3e
       0.1828052 -0.058829922 -0.33101252 0.16836827
000010 3a db 9e be a3 b6 33 3e 97 3a 34 be 6d 2d 58 3d
       -0.31026632 0.17550139 -0.17600475 0.052777696
000020 42 17 b0 be 5f 9b 06 be b7 1b 79 be 10 37 cb be
       -0.34392744 -0.13145207 -0.24326979 -0.39690447
000030 09 13 60 ba 53 c4 a4 bc 0c 51 1c be e3 37 6b 3e
       -0.00085477583 -0.020113146 -0.15265292 0.22970538
000040 02 9b 27 3e e1 79 a2 be 7b 4e ca 3d d6 28 97 bd
       0.16367725 -0.3173361 0.0987825 -0.07380836
000050 16 95 cc be fe 6f d0 3e 3d 13 5f be ed 9e bf be
       -0.39957494 0.40710443 -0.21784683 -0.37425938
000060 57 1b 84 be b8 6c bc be 5e fe ad 3e fa 44 25 b8
       -0.2580211 -0.36801696 0.3398313 -3.9403305e-05
000070 e9 b1 86 be c4 c4 3d be 6b 3c 27 be b7 bd 66 3e
       -0.2630761 -0.18532091 -0.16331641 0.22533308
000080 74 20 3a 3e fa 52 89 3d ad d8 6f be 28 9a f1 bd
       0.18176442 0.0670528 -0.23422499 -0.11796981
000090 0b 6c e1 bd 24 e8 92 bd 0e bb 89 3d cf b0 52 3e
       -0.11006936 -0.071731836 0.06725131 0.2057526
0000a0 ff 4f c2 be 18 2c 3f be 49 85 dc 3c c5 83 b8 be
       -0.37951657 -0.18669164 0.026919024 -0.36038032
0000b0 9d ac 31 3e 33 91 31 be 77 77 5e bd 5e ee ee bd
       0.17351003 -0.17340545 -0.05431315 -0.11666559
0000c0 8a 0c 40 3e 6e 64 10 3c 83 59 78 be e2 33 39 3e
       0.18754783 0.008813007 -0.24252896 0.18086198
0000d0 12 f2 46 3e 10 00 1d 3c 40 2f 41 3e a4 28 a8 bd
       0.1942828 0.009582534 0.1886568 -0.082108766
0000e0 92 cd 07 3b 8c a3 51 be 61 1c ad bd 64 a9 2b be
       0.0020721895 -0.20472544 -0.084526785 -0.16763836
0000f0 0e c4 78 3e 7b 14 b2 3e 2f aa bd be 93 cd d3 bd
       0.24293539 0.3478125 -0.37043902 -0.103419445
000100 9d 82 ae be 33 6c f2 bd c3 bd 6e 3e 42 13 8f bd
       -0.34084025 -0.118370436 0.23314576 -0.06986095
000110 58 2d ae be d8 d9 b9 3e 12 4a a3 3d 80 48 b3 be
       -0.3401897 0.36299014 0.07973112 -0.3501625
000120 9f d8 a9 be 19 bf 5d bd a7 7a 8c bd e0 1d 3c 3e
       -0.3317308 -0.054137323 -0.068593316 0.18370771
000130 4c 3b db bc 57 42 84 3c ea 7f 89 be 67 a9 99 3d
       -0.026761673 0.016144915 -0.26855403 0.07503014
000140 fd 21 9b bb 61 ea 94 3d 47 9f a1 be cc f0 96 be
       -0.0047342763 0.07271267 -0.3156683 -0.29480588
000150 2e b5 30 3c e0 f2 f9 bd 34 ef 8d 3e 09 d7 55 bd
       0.010785384 -0.12204528 0.2772156 -0.052207027
000160 51 73 9b be 19 79 d2 bd 34 b4 29 be c8 62 73 be
       -0.30361417 -0.10277004 -0.16572648 -0.23768151
000170 c0 cd 8e 3e a0 cf 19 3e c2 93 cb be 2e 21 09 3d
       0.2789135 0.15020609 -0.39761168 0.03347891
000180 43 c3 40 be 1d d1 50 be 99 03 4c 3e 5b 38 0f 3e
       -0.18824486 -0.2039227 0.19923247 0.13986342
000190 c5 07 92 be 01 88 27 bd a7 a6 23 3e 6e ec 2a bd
       -0.28521553 -0.040901188 0.15981542 -0.041729383
0001a0 c4 4e 0f 3d d9 2a 5b be f6 d3 b8 bd 8a 6a a5 be
       0.034987226 -0.21403064 -0.09024803 -0.32307845
0001b0 27 7d 06 3e 2e 35 fe 3c 6a 46 b2 3c 23 7f 61 be
       0.1313368 0.031031217 0.021762092 -0.22021155
0001c0 74 1b 16 be f6 bd 1f 3e 53 e8 1e be 4b 4b 95 be
       -0.1465891 0.15599808 -0.15518312 -0.29159006
0001d0 6a 74 44 bd e2 a2 cb bd db 8c 38 be 40 9b 2d be
       -0.047962584 -0.09943177 -0.18022482 -0.16953754
0001e0 47 2f cc 3d e2 6f 13 be e1 bc 73 3b cb 5f 15 be
       0.09969955 -0.14398149 0.0037191438 -0.14587323
0001f0 a8 1e 95 3d 98 72 ac be 71 5f 01 bb f5 28 ea 3d
       0.07281238 -0.33681178 -0.0019740725 0.11433593
000200 ba 1c 39 3e 47 50 a5 be 93 e5 e0 bd 7d 1f 3e be
       0.18077365 -0.3228781 -0.10981288 -0.185667
000210 2d ea 7a bd 42 13 e5 bd e4 04 80 3e 46 cf 5f 3e
       -0.061258484 -0.11185314 0.2500373 0.21856412
000220 44 04 1d be 9e 8e e4 be 98 8a 7d 3e 60 dc b0 be
       -0.15333658 -0.44640058 0.247599 -0.34543133
000230 6b e1 64 3e c1 34 0a be ac 14 81 be 63 ad b5 be
       0.22351615 -0.13496687 -0.25211084 -0.35483846
000240 e2 3d b9 be 8a 44 1c bb e7 14 de 3c 4f 92 8e 3d
       -0.36180025 -0.0023844563 0.027109576 0.069615
000250 9a 56 ad 3d c5 45 ab be e2 95 0d be 16 c6 97 bd
       0.084637836 -0.33451667 -0.13826707 -0.07410829
000260 0f bf 52 3e b9 e7 54 3e bc 51 ea bd b3 e9 ab 3e
       0.20580696 0.2079152 -0.11441371 0.33576736
000270 04 26 d6 be a9 1e 82 3d 88 62 2e be cd 27 1b 3e
       -0.4182588 0.06353504 -0.17029774 0.15151902
000280 5d 88 13 be 11 f4 8b 3e 08 79 ef bd 48 27 97 3d
       -0.14407487 0.27334645 -0.11693007 0.07380539
000290 ff cc 87 be 38 cf d1 bd a0 65 20 3d 61 1d 06 3e
       -0.26523587 -0.10244602 0.039159417 0.13097145
0002a0 db 21 8c 3e d8 c8 60 be ad 7c 1d be 85 cd 82 be
       0.2736958 -0.21951616 -0.15379591 -0.25547424
0002b0 04 42 a8 be 24 36 8e be d4 86 31 be ce 32 97 be
       -0.32862866 -0.2777568 -0.17336589 -0.29530948
0002c0 cc b3 94 be 3a 32 ce be 71 17 34 be 65 75 93 be
       -0.29043424 -0.40272695 -0.17587067 -0.28800502
0002d0 85 be ca be 1b cf ee 3d c5 5d 87 be a7 e3 b3 be
       -0.3959848 0.11660596 -0.26438728 -0.35134622
0002e0 10 7e b1 bd 3e d5 18 be 7e 03 a3 bd a8 b5 c5 bd
       -0.08666623 -0.14925095 -0.079596505 -0.09653789
0002f0 95 c4 81 bd 06 d8 da bc b7 a2 21 3d 0c ad 81 bd
       -0.06336323 -0.026714336 0.039461818 -0.06331834
000300 b0 d9 d0 be 37 88 87 3e 34 3b 3b 3e 50 33 a4 3d
       -0.40791082 0.2647111 0.18284303 0.080175996
000310 5f fe 80 3c 19 94 00 bf e0 9d e1 3c 01 24 b9 be
       0.015746294 -0.5022598 0.027541101 -0.3616028
000320 d0 58 96 bd 36 c8 c1 3d 74 19 01 bd 2c 06 ca 3d
       -0.073411584 0.09462015 -0.031518415 0.098644584
000330 92 8c a1 be d7 a7 5c 3e 0d d8 8b bd 51 ea a2 3e
       -0.3155256 0.21548401 -0.06828318 0.31819394
000340 5f 66 44 be b8 c8 12 3e e5 68 b4 3e 2f 00 35 3d
       -0.19179676 0.1433438 0.35236278 0.04418963
000350 05 f7 9a be d6 19 bb be 1d a3 39 be ce 21 f7 bd
       -0.30266586 -0.3654315 -0.18128629 -0.120669946
000360 72 52 85 be 67 d2 18 3d c3 86 90 3d bf 00 14 3e
       -0.26039463 0.03731003 0.07056954 0.1445341
000370 46 5e 52 bd 33 ad 65 be b0 e9 73 3e 89 01 ac be
       -0.051359437 -0.22429352 0.23819613 -0.3359492
000380 7f ce 32 be 3d 5d d0 be 2d dc 17 3e 84 9b 8b be
       -0.17461585 -0.40696135 0.14830084 -0.27267087
000390 27 0c 6a be 1c 07 ae be 6d cd 92 be 0a 94 53 3e
       -0.22856198 -0.339898 -0.28672352 0.20661941
0003a0 42 77 89 bd bb c7 2a be 0c f2 0f 3e ea 7d 2a be
       -0.067122 -0.16677754 0.14057177 -0.16649595
0003b0 be 04 7c be 80 f0 70 3d 1c 6d 93 be 88 b1 bf be
       -0.24611184 0.05882311 -0.2879418 -0.37440133
0003c0 aa b1 30 3d ec a5 97 bd a8 1c 73 be 29 1c a2 3d
       0.043138184 -0.07404694 -0.237414 0.079155274
0003d0 7c 5c 9b bd 6f 1a 13 3e c8 da 53 3e fa 73 3c bd
       -0.07585999 0.14365552 0.20688927 -0.04600904
0003e0 a1 af a4 be e2 51 08 be 2d d5 bf be 64 c1 b3 3e
       -0.32165244 -0.13312486 -0.37467328 0.35108483
0003f0 db e2 ac 3d c0 c8 a6 bd ab 44 cc bd b9 f0 e8 bd
       0.08441707 -0.08143759 -0.09974035 -0.11374039

net.0.bias f4 [64]
000000 a2 c9 6e be 34 b5 87 be 96 b5 2b be a2 7e 00 be
       -0.23319104 -0.26505435 -0.16768488 -0.12548307
000010 cc 96 86 3c a1 22 84 be 37 f3 36 3d da ae 90 be
       0.016429327 -0.2580767 0.04466554 -0.282584
000020 46 53 c5 bd 7a ac 48 3c b9 17 0b 3d 4e 3d 9a 3e
       -0.09635024 0.012248153 0.03395817 0.30124897
000030 9b d0 ab be 64 9a f8 3d e3 2b c7 3e 93 f5 06 be
       -0.3355759 0.12138823 0.3890067 -0.13179617
000040 11 98 80 be 1e 2e d8 bc fd 29 02 bf 10 c0 f4 bd
       -0.25116017 -0.026389178 -0.5084532 -0.119506955
000050 92 05 81 3e a6 ac 0b 3e c1 7a 96 3e f2 cd d1 be
       0.25199562 0.13640079 0.2939053 -0.40977436
000060 49 4a 3b 3e 81 1b 86 be 0a 91 13 3e 31 f9 d2 be
       0.18290056 -0.2619286 0.14410797 -0.41205743
000070 4f 71 b9 3e a6 fb bb be 71 f9 ad bd 12 39 05 bf
       0.3621926 -0.3671543 -0.08494843 -0.5204021
000080 2d ad 9a 3d bb 2e 25 bf fe d2 28 be dd 1a 1d be
       0.07552562 -0.6452443 -0.16486737 -0.15342279
000090 ea a2 f6 bc 50 76 d9 be 95 1e 5f 3e 94 e2 b6 3d
       -0.03010698 -0.42473078 0.2178901 0.08929935
0000a0 f8 79 e6 bd 5b 2b ab 3e 48 35 0e 3e f1 a1 d2 bd
       -0.112537324 0.33431515 0.13887513 -0.10284794
0000b0 6c ce b8 be 09 ac 41 be bc 15 ea 3d 4e 8c ce be
       -0.36094987 -0.18913282 0.11429927 -0.4034142
0000c0 29 da f5 bd 57 fa ea be 64 fe d1 be 9c 88 e2 be
       -0.120045014 -0.4589412 -0.41014397 -0.4424485
0000d0 ba c8 0f be eb af 96 3e 4f 27 fa bd d0 0a cf 3d
       -0.14041415 0.2943109 -0.12214529 0.10109484
0000e0 67 30 82 3e 59 71 f5 bd 50 20 8a be 3e 9c f0 bd
       0.25427553 -0.1198451 -0.26977777 -0.11748551
0000f0 cd 77 62 be a4 9a 87 3e 46 e2 b0 3e af b2 8b be
       -0.22116013 0.2648517 0.34547633 -0.27284762

net.2.weight f4 [32, 64]
000000 48 45 01 bd bc 74 e8 bd 00 3c c9 b9 c4 8c 0e 3d
       -0.031560212 -0.1135039 -0.0003838241 0.034802213
000010 c8 28 59 3d 04 83 10 3d f0 93 a6 bc 80 35 f6 3a
       0.053017408 0.035281196 -0.020334214 0.0018784255
000020 e8 1e 7c bd 8c e9 a9 bd 5a aa 87 bd 80 a2 7f 3d
       -0.061552912 -0.08296499 -0.06624289 0.06241083
000030 4e b7 a1 bd 34 41 60 bd 50 35 fb 3d c0 dd 95 3b
       -0.07896291 -0.054749683 0.12266028 0.004573554
000040 5c 9f 8c 3d 54 92 b7 3d 8c b0 79 bd dc 3f 22 bd
       0.06866333 0.08963457 -0.060959384 -0.039611682
000050 80 e4 72 3d 8a d2 d7 bd 14 23 1d bd ae e1 f1 3d
       0.059299946 -0.10538204 -0.03836353 0.11810623
000060 84 69 00 bd 98 a4 e6 bd ee 4c bc bd c0 ec 16 3c
       -0.031350628 -0.112618625 -0.09194361 0.009211719
000070 f6 1d b0 bd 60 30 b2 bd 8c e2 14 3d c8 11 22 bd
       -0.085994646 -0.08700633 0.036348864 -0.03956774
000080 0c 92 66 bd 80 b9 df 3a a8 43 bd 3d 10 86 d6 bc
       -0.056291625 0.0017068833 0.0924142 -0.026186973
000090 c4 a5 53 3d 1e f7 f0 3d 98 d0 09 bd 10 be 8f 3c
       0.05167176 0.11765884 -0.033646196 0.017546684
0000a0 28 a2 b4 bd 2a c5 97 bd c0 e4 b9 bc a0 91 68 3c
       -0.08819991 -0.07410653 -0.022692084 0.014194876
0000b0 a8 42 9f bd be 05 86 bd 60 ad 7a 3d f8 a3 3d 3d
       -0.077763855 -0.06544064 0.0612005 0.04629895
0000c0 f2 b7 93 bd 2e ba cd bd b0 6b 38 bc d8 9e bb bc
       -0.07212819 -0.100452766 -0.011256143 -0.022902891
0000d0 50 bf 4d bc e0 2f db bc fc f1 be bd 80 11 6e bc
       -0.0125578195 -0.026756227 -0.093234986 -0.0145305395
0000e0 ce f3 e7 bd 70 f9 0c bd 2a 60 dd 3d d6 a9 c6 bd
       -0.11325799 -0.03441757 0.108093575 -0.097003624
0000f0 7c b7 8c bd be 2b dd 3d 78 bd af 3d b0 fb 3c 3d
       -0.06870934 0.10799359 0.0858106 0.046138465
000100 b0 f8 c1 3c aa 42 af 3d 2b bd f6 bd 28 5b 40 bd
       0.023678154 0.08557637 -0.120478 -0.046961933
000110 8d 27 61 ba d1 63 d7 bd 40 e6 92 bc db f3 21 be
       -0.00085889624 -0.10517085 -0.017932057 -0.1581568
000120 1f aa 85 3c 06 49 11 3e 18 06 89 bd 5e 00 7d 3d
       0.016316472 0.14188012 -0.066906154 0.06176793
000130 9f 5b 20 bd 34 44 29 3d bc 8f 2c bd 75 ad 8f 3c
       -0.039149877 0.04132481 -0.042129263 0.017538765
000140 0c cf 21 3d 3c e8 11 3d 97 3f dd 3d cc 3d 82 3d
       0.039504096 0.035621867 0.108031444 0.06359443
000150 82 d9 e9 bd 87 9a a7 bd 59 37 ac bd 6f ea b8 bd
       -0.114184394 -0.081837706 -0.08408994 -0.0902909
000160 b6 44 cd bd 65 d0 91 bd 13 ce e1 bd 08 0c bc bd
       -0.10022871 -0.07119826 -0.11025634 -0.09181982
000170 a4 c5 a4 bd 92 ad dd bd a2 2b d7 3d 8e 25 ba 3c
       -0.080455095 -0.108241215 0.10506369 0.022722986
000180 c2 62 a1 bd 4b 21 03 3d f5 5b 8b 3d a2 0e d1 3d
       -0.07880165 0.032014173 0.06804649 0.10207869
000190 31 0d 11 be 90 4d b1 3d 28 7d 52 3d c0 89 0f 3c
       -0.14165188 0.08657372 0.05138889 0.0087608695
0001a0 ed 1b 46 3d d4 60 58 3d a3 bf 25 3d bb bd c7 3d
       0.048366476 0.052826717 0.040465962 0.09752985
0001b0 50 fb 13 3c 61 f9 c4 3a 45 2e 13 3c 8c 90 83 bd
       0.009032086 0.0015027934 0.0089831995 -0.064240545
0001c0 66 4f ca 3d ab 58 88 3d 84 5e 27 3d 2a d8 e0 bd
       0.09878425 0.06657537 0.04086162 -0.1097873
0001d0 48 1b 5e bd 1a 7c 8c bd 7e 33 94 3d 83 8b bd 3d
       -0.054225236 -0.06859608 0.07236384 0.092551254
0001e0 c9 cf 13 be 7b 3b a1 bd 8a 0a bb bd 92 b3 b2 bc
       -0.14434732 -0.07872673 -0.091328695 -0.021814141
0001f0 b3 02 54 bc 7f 72 49 3c d9 7b 3f 3c 48 c1 ff bc
       -0.012940097 0.012295364 0.011687242 -0.031220093
000200 84 f6 76 3d de 3b a8 bd 98 4a 1b be 02 c9 dd bd
       0.06029369 -0.08214544 -0.15165174 -0.10829355
000210 b8 1e 59 3d 85 1b 14 be c6 2d c9 bd 49 ef b4 3c
       0.05300781 -0.14463623 -0.09823184 0.022086756
000220 d0 ca 76 be 18 d7 5d 3d 10 dc 2e 3c b0 57 bb bc
       -0.24100804 0.054160208 0.010672584 -0.022868961
000230 a8 e2 19 bd d8 09 11 bd d0 4f 0d bd 2e 3b a3 bd
       -0.037569672 -0.03540978 -0.034499943 -0.07970272
000240 11 98 11 be bc f7 53 3d a0 c6 65 bd 0c b1 4f bd
       -0.14218165 0.05174993 -0.056097627 -0.050705954
000250 60 dd bc bd a0 17 a4 3b 5c e5 b9 3d 3b 8f 01 be
       -0.092219114 0.005007699 0.0907695 -0.12652294
000260 1c de ac 3c d0 99 b8 3b 38 bb 8a 3b 93 92 b9 3d
       0.021102004 0.0056335703 0.004233744 0.0906116
000270 88 9b 14 3d b4 08 d1 bd de 5c 84 3d 38 2b 13 be
       0.03628114 -0.10206738 0.064630255 -0.14371955
000280 2c 89 9a 3d 56 26 48 bc d4 61 a3 bd 18 5b 43 bd
       0.07545695 -0.012216171 -0.079776436 -0.047694296
000290 56 a4 d6 bc 78 f6 ab 3d 68 da c5 bd 36 f7 ca 3d
       -0.026201408 0.083966196 -0.09660798 0.09910433
0002a0 9b 56 e6 bd b0 e6 7d 3d 85 1e 2c bd 21 50 9c bd
       -0.112469874 0.06198758 -0.042021293 -0.07632471
0002b0 78 4a 37 3d ea 54 89 bd 55 33 7b 3d 82 3b ed bd
       0.044748753 -0.06705649 0.06132825 -0.11583616
0002c0 cc 63 eb bd b2 0b be 3d 72 91 6d bd 1a 09 ee bd
       -0.11493644 0.092795745 -0.058000036 -0.1162283
0002d0 00 39 ab ba 4a c4 8f 3d 94 5c ef 3d fc c7 bf 3d
       -0.0013063252 0.07019861 0.1168758 0.09364316
0002e0 aa 3a 43 be 58 aa 99 3c 9c c4 ea 3d e4 24 7b bd
       -0.19065347 0.018757984 0.114632815 -0.06131448
0002f0 02 ba 58 bd 58 92 80 bd 90 e3 84 bd b0 d2 2b 3d
       -0.052911766 -0.06277913 -0.064887166 0.041948974
000300 4c 3f ea bd e8 c1 e4 3d 04 4f ac 3d 00 f0 a2 bb
       -0.11437854 0.11169797 0.084135085 -0.004972458
000310 6c c4 8a bd 86 21 f0 bd dc 6d cf 3d 80 19 dd bc
       -0.06775746 -0.11725144 0.10128376 -0.026989698
000320 86 5e 3a be 34 1a cd 3d 10 cf 4a 3d 0c 6c f0 bd
       -0.1820012 0.100147635 0.049513876 -0.11739358
000330 a8 74 8e bc 84 5e d2 3d a0 0e 32 3c 48 2a 73 bd
       -0.01738961 0.10271934 0.010867745 -0.059366494
000340 2e 03 93 bd 46 35 d8 bd 7a a4 e2 bd e2 7c c1 bd
       -0.07178341 -0.10557036 -0.11066528 -0.09447648
000350 90 07 c4 bc 18 da af 3c 44 f8 5c bd 22 e3 ea 3d
       -0.023929387 0.0214663 -0.053947702 0.114691034
000360 08 56 3c bd f9 5c 17 bb 04 e0 60 bd a8 94 83 3c
       -0.045980483 -0.0023096188 -0.054901138 0.016062096
000370 f0 60 b6 3d 44 e3 2b 3d 52 4b e4 bd 7e 57 e3 3d
       0.08905208 0.041964784 -0.11147179 0.11100672
000380 28 26 c3 bd 18 d8 0b be 00 87 62 3c ca 4f bc bd
       -0.09528762 -0.13656652 0.013826132 -0.09194906
000390 12 21 27 bc 60 01 2d bd 40 b1 9e 3b 00 09 83 3a
       -0.010200756 -0.04223764 0.004842907 0.0009997189
0003a0 50 d7 bb 3c 1a 12 d7 3d 7c c5 b1 3d 4c 6d ec bd
       0.022929817 0.105014995 0.08680245 -0.11544284
0003b0 c8 77 9d 3c e0 11 1d 3c 04 29 39 bd cc 51 2c 3d
       0.019222155 0.009586781 -0.04520513 0.042070195
0003c0 ea 15 a4 3d 00 4b 7e ba 16 23 84 3d b9 14 e3 bd
       0.08011992 -0.0009700507 0.064520046 -0.11087937
0003d0 b0 6a 16 3c ec f5 10 bd 48 fe 8e bd a0 1c 20 3c
       0.00918071 -0.03539078 -0.06982094 0.00977245
0003e0 4b 37 f6 bd 68 9d 04 bd 64 b4 2c bd f8 a2 8f 3d
       -0.12022265 -0.032376677 -0.04216422 0.07013506
0003f0 50 02 51 bd 10 be 46 3d 2c de 67 3d 60 6a 9b 3d
       -0.051027596 0.0485211 0.056608364 0.07588649

net.2.bias f4 [32]
000000 30 56 51 3d dd be dc bd 30 c0 5c be 0c 5d 34 3d
       0.051107585 -0.10778592 -0.21557689 0.04403405
000010 bf a6 e7 bc bd 34 c0 3d 66 a6 e8 bd 3f 7c aa 3d
       -0.028277753 0.09385059 -0.11359863 0.08324479
000020 24 58 8c bd c9 0d 75 3d 9a 2d 13 be 72 de 2d be
       -0.06852749 0.0598276 -0.14372864 -0.16979387
000030 39 5e 2b be 05 c9 87 bd 4b 33 21 be 3a 1b 05 be
       -0.16735162 -0.06630138 -0.15742223 -0.12998667
000040 3a c2 6f 3c 4a 82 3c be a4 0e df bd ce e3 01 3d
       0.01463371 -0.18409076 -0.10891464 0.031711392
000050 9f 48 06 be e0 43 2f be 80 6a f4 bd 8e 1d af 39
       -0.1311364 -0.17115736 -0.11934376 0.0003340062
000060 5c ec 8e bc e2 70 ec bd c3 f1 8d bc 47 72 ad bd
       -0.01744669 -0.11544968 -0.017327195 -0.08469062
000070 11 9c 83 bd 4f 9e ca bd ca 5d bc bd 35 4e 92 3d
       -0.06426252 -0.09893476 -0.09197576 0.07143823

net.4.weight f4 [5, 32]
000000 96 ac 28 be a3 4a b5 3b fe 97 9c bd 9e ea d4 bb
       -0.16472086 0.005532579 -0.07646178 -0.006497695
000010 7f 90 16 3e ce c4 18 be b7 a0 0b 3b 45 28 89 bd
       0.14703558 -0.14918825 0.002130551 -0.06697134
000020 d9 3f 5a 3d 54 c1 0b 3e 3e fc bf bd 14 05 0b be
       0.053283546 0.13647968 -0.09374283 -0.13576156
000030 6a 7c 8c 3c f0 73 fa bc 64 ed e7 3d af 27 d7 3d
       0.017149169 -0.030572861 0.113245755 0.10505616
000040 2b 98 59 bc bb 10 9f 3c b3 16 e2 3d cf 4b c9 bb
       -0.013280909 0.019417157 0.11039486 -0.0061430703
000050 f7 51 1f be fb 98 bb bd 3f e9 b7 bc 9f 21 99 bd
       -0.15558611 -0.09160038 -0.022450088 -0.07477116
000060 21 d9 d7 38 4d 9e ee bd 65 33 ef bd 5e 00 e0 bd
       0.00010292442 -0.11651287 -0.116797246 -0.1093757
000070 22 48 6d 3d 0e 3b fd 3d 17 15 40 bc 66 3d 00 be
       0.05793012 0.123647794 -0.011723778 -0.12523422
000080 28 6e ce bd ac a8 3a 3c 36 5d 29 3e 84 36 99 3d
       -0.100796044 0.011392754 0.16539463 0.07481101
000090 ca ba 18 be fd 09 29 be 9e 3c 2b bd 89 78 38 bd
       -0.14915004 -0.16507716 -0.041805856 -0.045036826
0000a0 10 8d 91 3d d8 d5 b1 bd 58 7f c6 3b 38 da 31 bd
       0.07106984 -0.086833656 0.006057661 -0.043421
0000b0 03 71 05 3d 8c 6b fc bc 9f 34 9a 3c d0 56 ed 3d
       0.03257848 -0.030813001 0.01882392 0.11588824
0000c0 28 4e 18 3e bf 20 ab bd 54 1d bc 3b 8d b9 a6 3d
       0.14873564 -0.08355855 0.005740801 0.0814086
0000d0 65 91 15 be b0 d2 84 bd b2 43 3f bd 5f fb 8b 3d
       -0.14606245 -0.06485498 -0.04669542 0.068350546
0000e0 c5 37 63 bb 7c 1f 19 3e f8 f0 67 3d eb 15 c4 3d
       -0.0034670692 0.14953417 0.05662629 0.09574493
0000f0 ad 9e 63 3b ae f4 9f 3c 29 ea 3e bc 43 1a ff ba
       0.003473203 0.019525852 -0.011652508 -0.0019462783
000100 35 97 9c 3d 72 e6 1d 3c a3 18 0e 3d 12 59 95 bb
       0.07646028 0.009637462 0.034691464 -0.004557737
000110 ed 3a 79 3d c4 9b 0b 3d c3 e4 6d bc 21 14 9c 3b
       0.06084721 0.034084097 -0.014519873 0.0047631417
000120 e0 2f 47 3d 4f 78 b5 3d 2b d7 32 3d 41 f7 ca 3b
       0.04862964 0.08860838 0.04366223 0.0061940257
000130 49 eb cc bb b7 c7 17 be ae c5 42 bc c9 c5 11 3d
       -0.006253634 -0.14822279 -0.011887951 0.035589013
000140 76 cd 6f 3d 8f e3 e5 3d 05 9c 83 bc 32 95 ef 3d
       0.058545552 0.11225044 -0.016065607 0.116983786
000150 60 a7 1a bd 4c d8 48 bd 97 a9 c0 3d 6a 0a d1 bc
       -0.037757277 -0.0490344 0.09407347 -0.025517661
000160 87 7c cc ba 02 24 c8 3d cd 91 6e bd a0 4e 64 bb
       -0.0015601077 0.09772493 -0.058244515 -0.0034836903
000170 47 28 23 3c 8b 7f bb bc b4 45 86 bc 86 04 fe bb
       0.009958333 -0.022887966 -0.016390659 -0.007752004
000180 e5 27 d5 3d 36 9e d3 bc 71 a0 cb 3c 0d 44 2a bd
       0.10408 -0.025832277 0.024856778 -0.041568805
000190 7d 69 2f 3e 4b af c2 bd df 47 0b bd 8f 0a 6c 3c
       0.17130084 -0.09506091 -0.03400409 0.014406814
0001a0 d3 8c 32 bc b6 59 57 3d e8 0c d2 3d e1 b5 0d be
       -0.010897833 0.05257579 0.10256368 -0.13838913
0001b0 4a eb 59 3c 72 c7 a3 bc 7f b9 7e bd 97 29 c7 3d
       0.013300726 -0.019992564 -0.06218862 0.097247295
0001c0 cd 20 2b bc a7 54 5b bd 8a d6 a4 3d 8b 8b ff bd
       -0.010444832 -0.053547528 0.080487326 -0.124777876
0001d0 2f 7a 0b be 5e fb 2f 3d 9d 50 0c 3e 8d fa c6 3c
       -0.13620828 0.04296433 0.13702627 0.024289394
0001e0 8a 3f 35 bc 5b 68 6d bd cb ef 58 bd 19 23 e1 3d
       -0.011062512 -0.05796085 -0.05296306 0.109930225
0001f0 38 ac 2c bd 49 5b 1a be ac c9 84 3d d5 1c 74 3c
       -0.042156428 -0.15073885 0.06483778 0.014899452
000200 87 d3 c1 bd 62 fe 83 bb 4e c4 9b 3d 04 78 f3 3d
       -0.09464174 -0.0040281275 0.076058015 0.118881255
000210 9f 01 14 3e a1 5d 60 be 74 30 53 bd 2d af c2 3c
       0.14453743 -0.21910717 -0.05155988 0.023765171
000220 21 02 14 3c e5 3c 1f be 87 03 04 bd eb a3 65 3d
       0.009033711 -0.15550573 -0.032229926 0.056064527
000230 10 3c 2a bc 7f c8 cb bd d6 50 da 3b 90 95 16 bd
       -0.010390297 -0.09950351 0.0066624684 -0.036763728
000240 c8 5e a3 bd c3 3c 9d bd 0d 32 b9 bd 72 19 4b 3d
       -0.079770625 -0.07677605 -0.090427496 0.049584813
000250 36 a7 83 3d 84 d3 d3 bd f5 b5 2c bd 8f 8f fa bd
       0.06428377 -0.10343078 -0.042165715 -0.12234413
000260 c1 24 56 3c b3 2a a9 bd 8a 6b f0 bd dd f3 52 bb
       0.013070286 -0.08260097 -0.117392614 -0.003218881
000270 cf 5b 90 bc 83 2f da bd 06 e0 e7 bc 73 d0 66 bd
       -0.017621903 -0.106535934 -0.028305065 -0.056351136

net.4.bias f4 [5]
000000 74 6f b4 be f5 ab b5 be 93 76 d8 bc ec 2b e2 be
       -0.35241282 -0.35482755 -0.026423728 -0.44174135
000010 09 04 b8 be
       -0.3594058
