simple_dqn_motor.pth (torch, 22615 bytes, 6 tensors)

net.0.weight f4 [64, 10]
000000 23 d0 21 3b 81 68 4e bd 8c 43 61 bd 87 d6 e9 3c
       0.002469071 -0.05039263 -0.05499606 0.028544677
000010 78 c8 c5 bd b8 1e f2 be 68 95 46 be 3d b8 9c be
       -0.09657377 -0.47289062 -0.19392931 -0.30609313
000020 cf 13 00 bd 9b 3a 0e 3f 10 9b 9b 3d 60 84 b1 3e
       -0.03126889 0.55558175 0.07597935 0.34671307
000030 bc 13 f6 3e 12 ad 0d 3e 51 a5 0a bf 56 a2 8c bf
       0.4806193 0.13835552 -0.541585 -1.0987041
000040 85 0f a5 be 83 c7 1b be cb d0 8c be 7a 63 b7 bd
       -0.32238403 -0.15212826 -0.27503046 -0.089545205
000050 87 f4 1d 3b 7a 37 3c be b6 c9 84 be 9f 09 ac 3d
       0.0024102048 -0.18380538 -0.25935143 0.084002726
000060 22 c5 55 be fb 36 c4 3d 2b 72 df 3c 2c cf 8c be
       -0.20875981 0.09580799 0.02727612 -0.2750181
000070 e7 57 a8 bd 8d ab 0f be 94 37 c2 3c 36 cb ea be
       -0.08219891 -0.14030285 0.023708142 -0.45858163
000080 7a bc ca be 1c b6 d0 be f1 7f 02 3e 39 d5 bc be
       -0.3959692 -0.40763938 0.12744118 -0.36881426
000090 2b 30 47 3c 48 d5 d2 3d 7a 03 17 3e 28 00 3f b8
       0.01215748 0.102945864 0.1474742 -4.5538094e-05
0000a0 f8 b3 5f be 04 1f 15 bd 36 d2 24 bc 0a c2 74 be
       -0.21845996 -0.036406532 -0.010059884 -0.23902145
0000b0 f8 09 79 3b 4d 6c a8 be eb 9d a0 bc 22 dd 6d 3e
       0.0038000327 -0.32895127 -0.019606551 0.23228887
0000c0 3c 66 8d be ce bf 68 3d 50 a3 24 be ac 9d 50 be
       -0.2761706 0.056823544 -0.16077924 -0.20372647
0000d0 3d ba 0f be 00 2d 87 3d 83 48 99 be 8b e5 65 be
       -0.14035888 0.0660038 -0.29938135 -0.22450845
0000e0 0b aa 8c 3c d3 6a 84 be bd c2 75 be 8a 26 8a be
       0.017170927 -0.2586275 -0.24000068 -0.26982528
0000f0 b6 06 b1 bc ec d7 4d bd 0c e2 53 be 06 72 d2 bd
       -0.021609645 -0.050254747 -0.20691699 -0.102756545
000100 c1 8e eb 3c 77 a7 df be 58 2e 55 be f3 df 2e 3d
       0.028754594 -0.43682453 -0.2081846 0.042694043
000110 3f 20 c0 bd 2d e5 80 3e 44 3a eb bd 5c 3e a0 be
       -0.093811505 0.25174847 -0.11485723 -0.31297576
000120 e6 d0 8d 3b bc 08 76 be 00 47 3e 3c 3e 7d 9e be
       0.004327881 -0.2402677 0.011613607 -0.30954927
000130 64 1a 12 3e 46 43 00 3b 4a 7b 80 be 20 2c 81 be
       0.1426788 0.0019571348 -0.25094062 -0.25228977
000140 a3 f2 b2 be a2 3d 1a bf 9a 03 45 3e 2d 4b b2 be
       -0.34950742 -0.60250294 0.19239655 -0.3482298
000150 49 c5 95 3d 87 9c c7 bd 49 1c 25 bb ad 15 75 be
       0.0731302 -0.09746652 -0.0025193861 -0.2393405
000160 ff 68 a1 3d b0 7e 8b 3e b2 37 c1 be 89 5c 13 3e
       0.078813545 0.27245092 -0.37737805 0.14390768
000170 60 31 15 3e 56 bf 08 be 1e 60 d2 3c 85 1c c7 be
       0.14569616 -0.13354239 0.025680598 -0.38888946
000180 af 20 9d bd c9 d5 b5 3d 6a da 0b bf 40 2f ec be
       -0.076722495 0.08878667 -0.5463015 -0.461298
000190 22 5d 08 bd 44 43 c4 be 44 1d 80 3c bc 45 7e bd
       -0.033291943 -0.3833257 0.015638955 -0.062078223
0001a0 b4 d8 3c bd d7 9d 1c bf 24 8b f5 bd d7 c0 a2 be
       -0.0461051 -0.61178344 -0.119894296 -0.3178775
0001b0 e3 b3 9d bd 64 00 15 bf da 62 54 bd 70 c3 f0 bd
       -0.07700326 -0.5820372 -0.051852085 -0.11756027
0001c0 86 06 ad bd 28 38 1d be b4 e2 06 be 37 e4 1b 3d
       -0.0844851 -0.15353453 -0.13172418 0.03805944
0001d0 ac aa ac be 66 57 44 3e 01 15 35 3e 3d 90 b8 be
       -0.33723962 0.19173965 0.17683794 -0.36047545
0001e0 62 e1 b8 bd bd b5 74 bd 21 23 89 be e4 c1 fd 3d
       -0.09027363 -0.05974363 -0.26784614 0.12390497
0001f0 b4 ef d7 be b5 46 0e 3e 91 b1 4d bf 21 ea 17 3e
       -0.42175066 0.1389416 -0.8034907 0.14835407
000200 a4 1c 6f be 4e c1 56 bf 85 a7 ca bd 9a 55 57 be
       -0.2335077 -0.8388871 -0.09895233 -0.21028748
000210 9b b6 82 be 72 f9 77 bc f3 29 af 3d 25 ff 8f bd
       -0.25529942 -0.015135156 0.08552923 -0.07031087
000220 3d 83 5a be e9 2c b8 3d b9 28 99 3e c5 2b e4 bd
       -0.21339126 0.08992941 0.2991388 -0.11141161
000230 de 07 57 bc de 08 4e be 17 bd 43 be 2d 07 8c bc
       -0.013124434 -0.2012057 -0.19115101 -0.017093265
000240 ae c5 33 bd 7c 5f 0f be af 19 80 be b0 e2 69 3d
       -0.043889694 -0.14001268 -0.25019595 0.05710095
000250 9a a2 50 be 9a bf 47 3d 4e 17 8c be e9 a7 bc bd
       -0.20374528 0.04876671 -0.2736153 -0.09211714
000260 ff 6b e1 be 14 da 50 be 6f 73 96 3c b7 2a 23 3e
       -0.44027707 -0.2039569 0.01836559 0.15934263
000270 f3 d5 11 3d e3 52 83 3e d5 a4 c9 bc c8 9d 15 bf
       0.03560443 0.25649175 -0.02461473 -0.5844388
000280 c3 94 68 3c 98 27 15 bf 59 7c ef bd e0 2b bc bd
       0.014195624 -0.5826354 -0.11693639 -0.09188056
000290 e5 61 8f be c5 45 15 3e cc b3 1c bd 98 81 c4 3e
       -0.28004375 0.14577396 -0.038257405 0.38380122
0002a0 16 0b 9c be 30 f0 ef be fd 56 6e be 33 0b 38 be
       -0.30477208 -0.46862936 -0.23275371 -0.17973022
0002b0 2a fe 7d 3d ab 30 1f 3e ca 24 b6 bd ca 62 91 bd
       0.062009968 0.15545909 -0.08893736 -0.07098921
0002c0 de b8 52 3e e7 00 1f be 05 61 ac bb 2f a3 8c be
       0.20578334 -0.15527688 -0.005260589 -0.2746825
0002d0 45 f8 36 bb 88 78 e0 bd 43 c0 a9 be 83 58 ae be
       -0.0027918976 -0.109604895 -0.33154497 -0.34051904
0002e0 ee 22 55 3e 18 78 06 be 7a 62 90 bb e4 dd 95 bc
       0.20814106 -0.1313175 -0.0044062706 -0.018294282
0002f0 8b b0 12 be 59 e6 42 3e ba 2b c4 bc de 49 80 be
       -0.14325158 0.19033183 -0.023946632 -0.25056356
000300 c4 a6 30 3d 8c b7 31 bd 94 9c 8e bd 24 a1 02 bf
       0.04312779 -0.043387935 -0.06963459 -0.5102713
000310 c8 86 9a be 33 62 4e 3e fc 2e 13 be 2e 08 3f 3e
       -0.30180955 0.20154648 -0.14373392 0.18655464
000320 78 6b 26 be 59 2b 5f be b9 85 d8 bd b8 c8 ae 3d
       -0.16251934 -0.2179388 -0.105723806 0.08534378
000330 ac 6b a4 be dd 34 39 3e f9 07 41 bd a9 89 fc be
       -0.32113397 0.18086572 -0.047126744 -0.49323776
000340 d8 89 16 bf b5 c4 83 bd 8d b2 02 3d 5f 2b 0b bf
       -0.5880408 -0.06434003 0.03190856 -0.54363054
000350 29 f2 25 be a7 95 33 be e6 41 10 bd 25 04 3c be
       -0.16205658 -0.17537557 -0.035219096 -0.18360956
000360 29 5b f2 3d 40 da f0 be ec 7d 73 3d 12 c6 48 3e
       0.11833794 -0.47041512 0.05944626 0.19606808
000370 06 d6 de bd 0b 79 80 be 7f 7b 85 3c 12 db c0 be
       -0.108806655 -0.25092348 0.01629424 -0.37667137
000380 e5 48 b8 3d 00 ce 23 be 41 7b 2c be fc 72 e4 bb
       0.089982785 -0.15996552 -0.16843893 -0.006971715
000390 2e ee 32 bf 92 ae 97 3e 41 73 cf be ca 33 4a 3e
       -0.69894683 0.29625374 -0.4051762 0.19746318
0003a0 2e 82 15 be c2 0c 54 bd a8 54 f8 be e7 56 f0 be
       -0.14600441 -0.05176998 -0.48502088 -0.469413
0003b0 5b cc 83 be 0a f7 ab be ec 6d 61 be 81 1a 70 be
       -0.25741848 -0.33586913 -0.22014588 -0.2344761
0003c0 aa f8 9f 3c 16 b0 75 be 7c 04 42 3d 70 ec a1 be
       0.019527752 -0.23992953 0.047367558 -0.316257
0003d0 a3 c5 90 bd af 01 89 be 5c 44 86 be 1d 49 09 bd
       -0.07068946 -0.26759097 -0.2622403 -0.033516992
0003e0 30 10 ed 3d 04 8c 11 bd f1 0b c1 bd 46 ca 79 3d
       0.11575353 -0.03553392 -0.09426106 0.06098392
0003f0 72 ca 41 be 16 fa 8f be dd 34 a0 bd 56 1f 31 be
       -0.18924883 -0.28120488 -0.07822583 -0.1729711

net.0.bias f4 [64]
000000 06 e4 f4 3d 68 4d 36 bc 27 c2 3d 3f 22 6e cb be
       0.119575545 -0.0111268535 0.7412438 -0.39732462
000010 1d 52 a3 3e bf ee 00 bd 99 9f 8e 3e c9 10 31 3e
       0.31898585 -0.031477686 0.27856138 0.1729156
000020 2e 8a f0 3d f1 24 03 3f cd 33 18 be 2f 52 e4 3e
       0.11745106 0.51228243 -0.1486351 0.4459395
000030 47 5f a6 3f fa 5f bb 3e bc 5c 94 3d b4 bd cc be
       1.2997826 0.36596662 0.0724425 -0.39988482
000040 f9 08 25 bf da 21 7f 3e 81 ee b1 3d 9a 43 96 3e
       -0.64466816 0.24915257 0.08688069 0.2934845
000050 18 f6 89 3f 8c 9a 27 3f 30 8c 53 3f 29 9b 0c 3e
       1.0778227 0.65470195 0.82635784 0.13731064
000060 6c e9 fb be fc 64 db be 5d 8c ce bd 4c 70 10 3f
       -0.49201524 -0.42850482 -0.10085366 0.5642135
000070 a9 02 b3 be de 39 e5 bd 53 08 da bd d3 37 80 3e
       -0.34962967 -0.11192678 -0.10646119 0.2504259
000080 e1 1b cc be c2 bc 61 be 2c 77 9b 3d 2a 83 2d 40
       -0.3986502 -0.22044662 0.075910896 2.7111306
000090 14 c1 ca be e8 a4 39 bf 1b cb 3f 3c a0 50 74 be
       -0.39600432 -0.7251725 0.011706139 -0.23858881
0000a0 c4 1e a0 be 3d 03 7b bd 6c 99 8a 3f e9 d9 e5 3e
       -0.31273472 -0.061282385 1.0828071 0.44892815
0000b0 5a 9d 0a be bd cf 7e bc dc 75 b7 be fc 04 85 3f
       -0.13536587 -0.015552458 -0.35832107 1.0392146
0000c0 ff 3f 74 3f 13 28 ff bd ca f8 22 bd cd 32 ef bd
       0.9541015 -0.124588154 -0.039788045 -0.11679611
0000d0 e4 71 20 3f 20 ae 1e bf c2 f8 c1 be 0a 0c 35 be
       0.62673783 -0.61984444 -0.378851 -0.17680374
0000e0 c1 7a 76 be 7b f5 2a 3f 7a 08 12 bf 03 70 0d 3d
       -0.24070264 0.66780823 -0.57044184 0.03453065
0000f0 18 a7 ff bd 7f 94 63 3d b4 88 23 3f e1 91 07 3e
       -0.124830425 0.05556154 0.6388047 0.13239242

net.2.weight f4 [64, 64]
000000 06 0e 8c be 8e 01 13 bd 69 7a ee bd 42 df ad 3c
       -0.2735445 -0.035890155 -0.11644442 0.021224622
000010 c6 01 0d be ee 98 98 bd 8b 7d af bd 1f 72 1b bd
       -0.13770208 -0.07451044 -0.08568867 -0.03795063
000020 69 89 e0 be 35 de bc bd 75 78 5f 3d be 2f 57 bc
       -0.43854836 -0.0922207 0.054558236 -0.013133941
000030 0d 94 3f bd 6c c2 96 3d 0f 6e 85 be 12 dc 07 3e
       -0.04677205 0.07361302 -0.2606053 0.13267544
000040 46 98 8e bd da f3 94 bd 89 50 e9 3d c6 45 9e bb
       -0.069626376 -0.072730735 0.11392314 -0.004830095
000050 6e ea 6d 3d 16 32 7d be 8a a7 45 be 48 cd dd 3d
       0.058084898 -0.24726138 -0.19302192 0.1083017
000060 21 eb a1 bd 79 3f f9 bd 7c ba b1 3d e6 42 86 be
       -0.079061754 -0.121703096 0.08678147 -0.26222914
000070 c5 50 8e 3c 38 56 c2 bc 40 d1 d0 bc 66 ce 07 3d
       0.017372498 -0.023722753 -0.025490403 0.03315582
000080 a5 7c 94 bd 00 65 0c be 26 91 21 3e 2e 6e c9 be
       -0.072503366 -0.13710403 0.15778026 -0.39341873
000090 0f de c9 bb 3f ae c6 3c 9c 42 20 bd 54 1d dd bd
       -0.0061605047 0.024253009 -0.039126024 -0.107966095
0000a0 a0 58 72 3d 66 ad 84 bd 8a 27 b6 bc 9e 5d da bc
       0.05916655 -0.064783856 -0.02223565 -0.026655968
0000b0 62 b6 3c be 66 7b 82 bb d8 b9 54 be 16 3e 9f 3c
       -0.18428949 -0.0039819954 -0.20774019 0.019438785
0000c0 5c d2 3b be d5 14 88 bd 72 d3 1f bd d8 b4 54 3c
       -0.18341964 -0.066445984 -0.03902001 0.01298257
0000d0 c4 a3 8e be 23 dd 8c be 5e 18 4d 3d 04 48 2d 3c
       -0.27859318 -0.27512464 0.050072066 0.010576252
0000e0 ae d5 01 bd 04 19 1d be 26 11 ee 3d d6 8d 25 be
       -0.03169792 -0.15341574 0.116243646 -0.16167387
0000f0 f2 08 f5 bd 44 86 8c bc 17 58 de 3d 1d 95 f0 bd
       -0.11964597 -0.017153867 0.108566456 -0.11747191
000100 3c 37 21 3b 56 1e 2b 3d 64 d7 43 3d 01 bc 19 be
       0.0024599573 0.041776977 0.047812834 -0.15013124
000110 3d 87 49 be 80 39 27 3b b6 6f 41 3d 70 2d 68 bc
       -0.19680496 0.002551645 0.047225676 -0.014170989
000120 6a 6c 62 bd 7b c2 cf bd 2e bd d5 3d 9c 12 8c bc
       -0.055279173 -0.10144516 0.10436474 -0.017098717
000130 62 d3 f9 bd 80 43 f4 bd 0e d5 4f 3d 63 cf d9 3d
       -0.12198521 -0.11926937 0.050740294 0.10635259
000140 e2 3c 0b be 55 c8 be 3d 70 51 37 be 5f c4 23 be
       -0.13597444 0.09315554 -0.1790216 -0.15992878
000150 48 24 d2 bd 6f cf 06 be f7 8d 0c be 2e 05 df bc
       -0.10260826 -0.13165067 -0.1372603 -0.02722415
000160 3f d3 87 3d 9d 65 55 bd 30 ae 1a bd f5 10 df bc
       0.06632089 -0.05209886 -0.037763774 -0.027229765
000170 62 d8 c0 3d 7d 4e ec 3d 49 56 66 bd 13 1a d6 bd
       0.09416272 0.11538408 -0.05623463 -0.10454192
000180 25 e2 f3 3b cc 72 47 3d 8d 5e 6c bd d1 7e 61 bd
       0.00744273 0.048693463 -0.05770736 -0.055052582
000190 10 61 55 bc a7 4e d7 3a f8 e9 4e bd e2 91 ff bd
       -0.01302363 0.0016426638 -0.0505161 -0.12478997
0001a0 28 2c dd 3c 76 83 14 3d b2 42 b3 3d 91 d4 bf bd
       0.026998594 0.036258183 0.087529555 -0.09366716
0001b0 b8 bb a3 bd cb c0 56 bd 88 86 2a bc 4e 5d 29 bb
       -0.07994789 -0.052429955 -0.010408051 -0.0025842967
0001c0 6d 22 a7 bc 53 99 58 3d 47 65 7b bd d3 90 e2 bd
       -0.020402158 0.052880596 -0.061375882 -0.11062779
0001d0 32 6d d6 3c da bd b2 bd 74 67 ae bd 08 ec e2 bd
       0.026175115 -0.087276176 -0.08515826 -0.11080176
0001e0 eb b6 94 3d b6 d3 a9 bc ee 97 7e 3d a5 f5 ca bc
       0.07261451 -0.020730834 0.06215661 -0.024775336
0001f0 95 f5 07 bd 11 01 08 3c c7 bb 0a bc 06 ce db bd
       -0.03319319 0.0083010355 -0.008467621 -0.10732655
000200 20 6b a9 bc 25 8a 1d be cc ba a2 bd 80 c0 b9 bd
       -0.020680964 -0.15384729 -0.07945785 -0.090699196
000210 e0 10 b9 3d 10 5c 39 bc 30 5b c3 bd c8 74 e3 bc
       0.09036422 -0.011313453 -0.09538877 -0.027765647
000220 73 60 2d be fb de 0b bd 9a f2 86 bd 6e aa e8 bd
       -0.16931324 -0.034148198 -0.06589241 -0.11360632
000230 e1 4d 68 bd 5e 2b a5 bd 8c b2 13 3c 78 a5 ed bc
       -0.056714896 -0.08064912 0.009014737 -0.029009566
000240 41 0d 18 be c4 f8 d1 3d b8 14 9a bc 9e 46 ae bc
       -0.14848806 0.102525264 -0.018808708 -0.021273907
000250 0b ab 14 be d6 f9 23 be 04 26 3e bc 5d 76 e0 bd
       -0.14518373 -0.16013274 -0.011605743 -0.10960076
000260 c0 9e a0 bb 94 b6 f8 bd 02 0d bf bd eb 0f 5e be
       -0.004901737 -0.12144199 -0.09328653 -0.2168576
000270 26 92 21 3d 20 f3 dc 3b 86 38 57 bc 50 cf 86 bd
       0.03944602 0.00674285 -0.013136035 -0.065825105
000280 20 ae 5e 3d 7e 4e 18 be 04 e7 91 bd a6 b3 a0 bc
       0.054365277 -0.14873692 -0.07124141 -0.019616913
000290 78 d6 48 3d 30 20 9f 3d 90 39 01 bc c0 77 a1 bc
       0.04903266 0.07769811 -0.007887259 -0.019710422
0002a0 c4 74 98 bd 68 c7 1c 3c eb d8 ee 3c 03 33 e4 bd
       -0.07444146 0.0095690265 0.029156169 -0.11142542
0002b0 84 ad 5d bd 9c 12 7d bd 4a b6 29 be 09 b4 9d 3d
       -0.054120556 -0.061785325 -0.16573444 0.077003546
0002c0 c0 11 42 be a2 44 8e 3d c1 e3 f0 bc 24 a9 5a bd
       -0.18952084 0.069466844 -0.029405477 -0.05338396
0002d0 24 1e 57 bd 1d 5d 03 be c6 ef 63 3d b0 ff 67 3c
       -0.05251898 -0.12828489 0.055648588 0.014160082
0002e0 bd fe ea bd c9 26 a7 3d 6f 37 0c be e4 ad 82 bd
       -0.11474369 0.081616946 -0.13693021 -0.06380823
0002f0 e4 68 ef 3d 1d fc 3d bd 13 10 9a 3d 02 0c bb 3d
       0.11689928 -0.046383012 0.07522597 0.0913315
000300 49 b1 17 be 0e ea c6 3c fc 0e 87 bd e4 4f e4 bc
       -0.14813723 0.024281528 -0.06594655 -0.027870126
000310 28 31 59 3c 4c ea c8 bd 27 ba c5 bc 50 31 ac 3d
       0.013256349 -0.098103136 -0.024136616 0.08407843
000320 83 ff 24 bd f6 6f 6f 3c 8e d0 12 3d 5c 2e d5 bc
       -0.040282737 0.014614096 0.035843424 -0.026023082
000330 a0 43 19 be 6f be 24 bd ff ee c5 3d 74 fe d4 bb
       -0.14967203 -0.040220674 0.096647255 -0.0065000597
000340 3c cd 83 3d db 53 4e 3d 9f d5 13 be 93 c3 01 be
       0.0643563 0.05037294 -0.14436959 -0.12672262
000350 c2 91 99 3d 1d 4f b8 bd 5c 00 53 3d da dc 2b 3e
       0.07498504 -0.08999465 0.051514015 0.16783467
000360 7e d4 1d be 89 c0 32 3d b9 2b 76 3b 3f d4 ae bd
       -0.1541309 0.043640647 0.0037562682 -0.085365765
000370 5c 32 c6 3d 46 cf 85 3d ea 95 8b bc 14 00 27 bd
       0.09677574 0.06533675 -0.017039258 -0.04077156
000380 d3 45 0c bd b4 95 09 bd 48 d1 db bc 15 95 1f bd
       -0.034246277 -0.033590034 -0.026833192 -0.038960535
000390 16 8d cc bd bd 65 ec 3d 92 07 ea 3d 84 3e 94 3d
       -0.099878475 0.115428425 0.11427225 0.072384864
0003a0 f8 4d cf 3d 03 f5 7e 3c 91 89 a8 bd 9c a4 97 bd
       0.10122293 0.015561345 -0.08229364 -0.074044436
0003b0 9c 62 3e 3c ba cb b9 3d f9 41 5a 3d 1d 01 81 3d
       0.01162019 0.09072061 0.053285573 0.062990405
0003c0 e9 48 27 3d d8 59 b6 3d 5f 71 d9 bd a6 10 d5 3c
       0.040841017 0.08903855 -0.10617327 0.026008915
0003d0 e1 e2 48 3d 20 56 7d bc fe 04 30 be 18 d8 ff bc
       0.049044494 -0.015462428 -0.17189404 -0.031230971
0003e0 92 bb b3 bd b6 5e 2b be 7f 5b 4d 3d 26 20 9e bd
       -0.087760106 -0.16735348 0.050136086 -0.077209756
0003f0 11 bb a0 bd a2 40 e4 bd b1 c7 25 bc 49 cd ef 3a
       -0.0784818 -0.1114514 -0.010118411 0.0018295433

net.2.bias f4 [64]
000000 6f 09 5b 3e ad 19 fb bc 99 84 07 bc 73 32 56 3c
       0.21390317 -0.030651892 -0.00827136 0.0130735515
000010 11 b7 a0 3f 6e 23 d3 bd 29 60 87 be 87 e5 0c be
       1.2555867 -0.10309492 -0.26440552 -0.13759433
000020 c2 2d 06 3f a0 fc 65 3f 0c 9d 4a bd 8c eb 4c be
       0.5241357 0.898386 -0.049466178 -0.20011729
000030 a4 5f 38 be e7 4b 32 be b6 1c 07 be d3 0a 96 bd
       -0.18005234 -0.17411767 -0.13194546 -0.07326283
000040 cd 33 54 be 3a a7 89 bd 76 e4 d4 3d 8f 6c 27 3d
       -0.20722885 -0.06721349 0.10395138 0.040875014
000050 52 d9 96 bd 41 75 59 be d4 14 2b bb 34 0a 86 be
       -0.07365669 -0.21236135 -0.0026104944 -0.2617966
000060 77 54 88 bc 90 5e dc bc 42 45 03 3d 8a b4 e6 bd
       -0.016641838 -0.02690056 0.03204847 -0.11264904
000070 48 03 9c bd 52 56 13 bd 16 7b 0c 3f 62 7f a3 3e
       -0.07617813 -0.035970993 0.54875314 0.31933123
000080 67 bc e6 3f c7 fb eb 3c 49 41 9b bd 91 c8 27 3e
       1.8026246 0.02880658 -0.075808115 0.16385104
000090 27 93 01 3f 44 50 4e 3f bf f9 42 bd dd 5a bd bd
       0.5061516 0.80591226 -0.047601458 -0.092458464
0000a0 2f 0c d5 bd bb f3 9b bd b1 69 ae bd b0 69 18 3e
       -0.104027145 -0.07614847 -0.08516253 0.14884067
0000b0 8a a5 81 3e 03 5b 00 3e 3d b5 54 bd 5c 3f d7 bd
       0.2532161 0.12534718 -0.051930655 -0.10510132
0000c0 92 23 b6 bd e5 a8 07 3d 6c c2 81 bd 23 7f 39 be
       -0.08893503 0.033120055 -0.06335911 -0.18114905
0000d0 6e d3 8d bd 3f f6 12 3f 68 28 4a bd fe cd 6f bd
       -0.06925093 0.5740699 -0.04935494 -0.05854606
0000e0 e2 71 93 3c 3f 13 17 be 7c 5d 58 3c 32 d2 34 be
       0.01799864 -0.14753436 0.013205882 -0.17658308
0000f0 87 5e 75 3f 5a 08 25 3d 47 3d 99 bc cb fa 7a 3b
       0.9584736 0.040291168 -0.018705977 0.0038296457

net.4.weight f4 [5, 64]
000000 89 93 d3 3b d7 25 93 bc d2 4f f6 bc b2 2a 1f bd
       0.0064567965 -0.01796238 -0.030067358 -0.038859077
000010 71 a3 4d bc 9b b1 42 3d 22 4c 0c bd 28 09 3b bb
       -0.0125511745 0.04753266 -0.034252293 -0.0028539393
000020 6b 50 38 bd e4 5e 09 3d 0d 2d af be 33 b8 b5 bb
       -0.044998568 0.03353776 -0.3421406 -0.00554564
000030 c4 5c c6 bc 30 d0 14 3d 73 de f2 3c 7f a6 a1 bc
       -0.024214156 0.036331356 0.029647088 -0.019732712
000040 41 af ff bc c0 4c fa 3d 48 b0 21 bd d6 92 2b 3d
       -0.031211497 0.1222167 -0.039474756 0.04188808
000050 20 69 a0 bd 1d 3f 0a bd fc f9 01 3d f2 26 44 bc
       -0.07832551 -0.033751596 0.031732544 -0.011972176
000060 fe 67 9c 3d a4 d2 99 3d 64 3c 99 be c6 23 16 3d
       0.076370224 0.0751088 -0.29928887 0.03665521
000070 5e 5e 45 3d fb f0 b7 3a 48 0d 21 bc b8 96 86 bc
       0.0481857 0.001403361 -0.009829827 -0.01642929
000080 90 e7 dd be 77 39 f9 3d 1b 3e 6a 3c be 2b 2e 3e
       -0.4334073 0.12169164 0.014297034 0.17008874
000090 8c 20 bd be 0d bd 6e be 87 ac f7 bc ef 68 70 bc
       -0.36938894 -0.23314305 -0.030233635 -0.014673456
0000a0 d8 98 86 3d f5 f0 84 bd b3 91 9b 3c 93 21 83 be
       0.065721214 -0.064912714 0.018990373 -0.25611553
0000b0 39 8b 55 bc 6b 0e 95 bd 7d f3 cf 3d 1b 93 44 bd
       -0.013033682 -0.07278141 0.101538636 -0.047991853
0000c0 7e 3a 59 bd 73 25 ab 3c e5 32 b7 3d d4 9b 17 bc
       -0.053034298 0.02089188 0.08945254 -0.009253461
0000d0 9a 73 f2 3c 97 ac c8 bc ea 74 97 bd 13 12 44 3c
       0.029596139 -0.02449636 -0.073953465 0.0119672
0000e0 22 e1 5c bd 4a 0f 7d 3a 6b ac a7 bc d3 f4 37 be
       -0.05392564 0.00096534623 -0.020467957 -0.17964487
0000f0 42 3f 10 3c 2c bb 2a bd 20 90 c2 bc e8 9f 12 3c
       0.008804144 -0.041682407 -0.023750365 0.008949257
000100 dc 04 c0 bb 17 91 22 3c 02 db 9e 3c da 55 47 3c
       -0.0058599543 0.009922287 0.01939154 0.012166465
000110 03 53 a3 3d ee eb ed 3c d5 94 a3 3c a6 e7 97 bb
       0.079748176 0.029043164 0.01996843 -0.004635769
000120 b5 76 d4 3c 82 91 10 3e da 51 9c be be b5 d8 bc
       0.02593551 0.14118007 -0.30531198 -0.026453849
000130 f0 3a b7 bb 46 6e 12 bc 10 31 0d bd 15 8f 9c 3d
       -0.0055917427 -0.008937424 -0.034470618 0.07644478
000140 7d 5c 87 3c 40 fa 30 bc 86 8c 2c 3d f9 cd 9d bd
       0.016523594 -0.010801852 0.0421262 -0.07705302
000150 e1 72 81 bd 22 42 6c 3c 71 ae 3c bd 20 c2 d6 bd
       -0.063207395 0.014420064 -0.046064798 -0.10486245
000160 6a 47 93 bd 89 c1 39 3c 78 21 8e be ce d7 2f bd
       -0.071913555 0.011337646 -0.2775991 -0.042930417
000170 80 70 60 3d 6c 3b ac 3c be 01 c8 bc 85 d9 d4 3c
       0.05479479 0.021024428 -0.024414893 0.025982628
000180 7a ee 23 be a7 f7 33 3e 58 8c d8 bc 27 88 97 3d
       -0.1600894 0.1757494 -0.026434109 0.07399016
000190 cf 1c b1 be 0e d5 92 3c a4 e9 97 bd 6a 9a 2a 3d
       -0.34592292 0.017923858 -0.0741761 0.041651167
0001a0 c2 18 87 bd 30 92 ea bc 22 82 c6 bd 2c a9 a1 be
       -0.06596519 -0.02863416 -0.096927896 -0.3157438
0001b0 b0 c6 13 bc fb 19 57 bd 98 38 b1 bd 66 92 db 3b
       -0.009019539 -0.05251501 -0.086533725 0.0067008017
0001c0 78 7a 18 bb f8 50 b5 bd be 56 dc bd 7e 2c f9 3b
       -0.0023266356 -0.08853334 -0.10758732 0.007604181
0001d0 6e 38 8a 3d be 4e 51 3c 95 86 e2 bc aa 74 82 3d
       0.06749044 0.012775121 -0.027652064 0.06369908
0001e0 f0 c4 3b 3d d1 13 ba bd 5f e9 a0 3c 18 f5 39 bc
       0.04584211 -0.09085811 0.01964253 -0.011349939
0001f0 ef fc dc bd 46 97 b5 bd b3 9c 83 bc 83 2d ba bd
       -0.10790431 -0.08866744 -0.016065931 -0.09090712
000200 e9 fa 8a bd cc 49 66 bc 9f 63 a0 bc 1e f8 11 bd
       -0.067861386 -0.0140556805 -0.019578753 -0.035637014
000210 1d 5a 91 3d a0 8b 83 3c ff 2c 80 3d 65 9f 46 bc
       0.07097266 0.01605779 0.06258582 -0.012122964
000220 7d 0a a8 bc d2 7e 0e be 76 df 85 be 61 f0 37 3d
       -0.020512814 -0.13915566 -0.2614705 0.044906978
000230 81 68 a9 bc df 4a 55 3c a1 c2 b6 3c bc 1c bf 3a
       -0.020679714 0.013018339 0.022309603 0.0014580707
000240 95 d1 19 3d 48 88 da bc 03 46 8e bc e3 d3 63 bd
       0.03755339 -0.026676312 -0.017367369 -0.055621993
000250 d6 ed cc 3c 2d e9 9f 3c 58 c5 28 bd fe 1b b9 bb
       0.025015753 0.019520367 -0.041203827 -0.005649089
000260 ca a4 a3 3c bf c4 c4 3b 2e b9 83 be 33 49 66 bd
       0.019976038 0.0060048993 -0.25727218 -0.056222152
000270 7d 9f 9b 3d 67 5b e7 bd ae 23 a5 3d ad 3e 90 bc
       0.07598779 -0.112967305 0.08063446 -0.017608011
000280 31 f0 9f bc 7e 10 cc bc 27 3f 8c bd d9 5d c4 3c
       -0.019523712 -0.024910208 -0.06847983 0.023970531
000290 07 05 a4 be 25 05 45 3e cc e8 1d 3c c1 e0 89 bd
       -0.32035086 0.19240244 0.009638023 -0.067323215
0002a0 86 1a ac 3c 43 23 9b bd 56 6e 08 be db e4 c1 be
       0.021008741 -0.07575085 -0.1332334 -0.37869915
0002b0 13 a3 54 bd 61 b1 dd bd bd 16 ec 3d 03 26 43 3d
       -0.051913332 -0.10824848 0.115277745 0.047643673
0002c0 74 a7 9e bd fb 28 48 3d 7e ed 4e 3d 37 77 49 bd
       -0.07746783 0.048867207 0.05051946 -0.049185958
0002d0 85 67 fe bc 6f 88 ee bd ec 6e d7 bc 86 d8 d9 3c
       -0.031055221 -0.116471164 -0.026298009 0.026592504
0002e0 cc d6 86 3d 51 7c 01 3e ea c9 65 3c 68 07 35 3d
       0.06583938 0.12645079 0.014025191 0.044196516
0002f0 d1 fe 8b be 61 f1 7b 3b d8 36 13 bc 8a 10 91 bc
       -0.27342847 0.0038443434 -0.008985244 -0.017708082
000300 a9 15 c7 bd 07 6b 8c bc 2c af 58 bd fb 4b a6 bd
       -0.09720928 -0.017140878 -0.052901432 -0.08119961
000310 a4 66 06 3b 3c c5 33 3b bb 2c f1 3c d9 d6 32 bd
       0.0020507956 0.0027430793 0.029440274 -0.043661926
000320 c0 e1 92 3c 2a a9 8e be 3e 30 6a be b1 6a 96 3c
       0.017929912 -0.27863437 -0.22869965 0.018361421
000330 c3 cd 3d 3d af 4f 63 3d 3d 16 a2 3c 2c 74 1c be
       0.046338808 0.055495914 0.019785995 -0.15278691
000340 eb 57 e6 3c 4c a8 4d bd ae 9d da 3c 3e 52 8a bd
       0.028118094 -0.05020933 0.026686516 -0.06753968
000350 15 57 32 3c 41 bb c9 3d 08 41 d5 3d 0d 60 8c bd
       0.01088502 0.09850169 0.10412794 -0.06854258
000360 00 b1 89 3d c6 9b 93 bd 04 a7 7f be e8 20 85 bd
       0.06723213 -0.07207446 -0.24966055 -0.06500417
000370 b6 38 c8 3d 52 5d 48 bd 45 05 5e bd 3b 9f 26 bc
       0.09776442 -0.048917122 -0.054204244 -0.010169799
000380 ad 57 a1 3d c1 3f db 3d 92 48 bf 3d f4 ce 25 3e
       0.07878051 0.107055195 0.093400136 0.16192228
000390 98 87 93 be 42 f4 c5 3d be b1 a7 3d 81 54 67 bc
       -0.28814387 0.09665729 0.081881985 -0.014119268
0003a0 5c 90 28 bd f8 a7 ae bc 87 a6 9d 3c a9 28 d9 be
       -0.041153297 -0.021320328 0.019244445 -0.42413834
0003b0 f9 29 87 be 8e d2 ef bc ee ca eb 3c 99 57 33 3d
       -0.2639921 -0.029275205 0.028783288 0.04378471
0003c0 33 ac 8e bd 40 7f 7f 3d 98 6a 31 3d a5 df 51 bd
       -0.06966438 0.062377214 0.043314546 -0.051238675
0003d0 49 b4 37 3c 1c 1b 13 bd a1 d3 62 bd a2 04 9f 3d
       0.011212417 -0.035914525 -0.055377606 0.077645555
0003e0 cd 4b 7c bb 29 73 34 bd f1 4c 96 3d e9 89 ac 3d
       -0.003849733 -0.044055138 0.07338894 0.08424742
0003f0 6f 01 5b be 08 15 24 3d fe 89 fb bd 5d 1b b1 bd
       -0.21387266 0.04005912 -0.12282179 -0.08647797

net.4.bias f4 [5]
000000 ca 8e 06 bf 39 f6 d0 be 66 d9 f9 be 68 5a 79 bf
       -0.5256163 -0.40812853 -0.48798674 -0.97403574
000010 45 f3 d7 bf
       -1.6871115
