super_simple_dqn.pth (torch, 7639 bytes, 6 tensors)

net.0.weight f4 [32, 6]
-0.08623048 0.17042081 -0.18289119 0.16012664 0.2743776 -0.41018617 -0.052385934 -0.49502373
0.3717786 -0.36622968 -0.4277998 -0.02198944 0.08123263 -0.16879657 0.007918589 -0.6755483
-0.096843004 -0.42315474 0.406493 0.2235232 -0.37642923 -0.4984507 -0.39229146 -0.66562784
-0.10208003 -0.14238185 -0.20654646 0.0038944785 -0.08463501 -0.37045747 -0.23079231 0.0785387
0.2390198 -0.15714422 -0.19878498 -0.34433508 0.06260172 -0.3146544 0.15334049 0.16324177
-0.1271348 -0.092137255 -0.42848164 0.09234745 0.40087542 -0.10941676 0.3660873 -0.07310119
-0.20872839 -0.15976351 -0.37925923 -0.008954142 0.29359627 -0.2486361 -0.3294231 0.45158252
0.16934976 -0.3437591 0.09117524 -0.40924317 -0.36119056 0.075607754 0.19388998 0.15904155
0.18325226 0.16132899 -0.511549 -0.036500186 0.008762145 0.21506742 0.4761881 -0.22742589
-0.34740955 0.24271192 -0.2851854 -0.18907325 0.18170078 -0.14860013 -0.23639633 0.0010489502
0.017587997 0.21235733 -0.18761568 0.2018254 -0.37991244 -0.067509584 -0.03392216 -0.096931264
-0.20725247 -0.35079312 -0.24289282 -0.015118888 -0.18328626 -0.3755604 0.36646053 0.015752483
0.07506642 -0.14721112 -0.04924826 -0.4570328 -0.32404876 0.01869925 0.16530408 -0.10362948
-0.15445814 -0.26411027 -0.00015443531 0.29092366 0.18481211 -0.13879324 -0.27868176 -0.21747737
0.11030008 0.2854742 0.12227866 0.20687024 0.24228744 0.17453866 -0.34897482 -0.46847403
-0.19023058 0.056268997 0.23498504 -0.24888842 -0.35640034 -0.048079338 -0.105467685 0.05006269
0.50956434 -0.57207334 0.27340612 -0.7530734 -0.17802544 -0.29314888 0.021815225 0.015949996
0.168018 0.06250452 -0.33081976 -0.32122272 -0.37923265 0.23247126 -0.30710602 0.08114863
0.18165201 -0.3632862 0.047256134 -0.3729962 -0.37999845 -0.005078011 -0.37906942 0.11974722
0.09916809 -0.39314276 -0.2987534 0.19735764 0.027086983 -0.08200021 -0.1374657 -0.28597006
-0.08678351 -0.33886513 -0.21964997 -0.1750235 -0.039698254 -0.11345893 0.21799396 -0.14573127
0.12965202 -0.24541527 -0.15864186 -0.39543828 -0.48984796 -0.2691611 -0.1740972 -0.09991568
0.003099282 0.12163326 -0.12978259 0.2458672 0.08337647 -0.43686596 -0.23919205 -0.674461
0.12982206 -0.58352864 -0.2251142 -0.15038301 0.26194495 -0.04362092 -0.45576534 0.18946789
00000000: 9b99 b0bd cb82 2e3e d447 3bbe 3df8 233e
00000010: 397b 8c3e ec03 d2be a292 56bd c073 fdbe
00000020: c459 be3e 7582 bbbe 9308 dbbe 3323 b4bc
00000030: 4b5d a63d 02d9 2cbe f8bc 013c bcf0 2cbf
00000040: a055 c6bd bda7 d8be da1f d03e 44e3 643e
00000050: 55bb c0be ee34 ffbe 6dda c8be 9666 2abf
00000060: 560f d1bd 8ccc 11be ea80 53be 823a 7f3b
00000070: 1f55 adbd 9aac bdbe d254 6cbe e6d8 a03d
00000080: 9bc1 743e 6aea 20be 4a8e 4bbe b04c b0be
00000090: 5535 803d 621a a1be 4a05 1d3e da28 273e
000000a0: a02f 02be 75b2 bcbd f261 dbbe a920 bd3d
000000b0: 8b3f cd3e e515 e0bd cb6f bb3e 14b6 95bd
000000c0: e5bc 55be 0c99 23be 442e c2be 65b4 12bc
000000d0: 4052 963e 769a 7ebe 25aa a8be d335 e73e
000000e0: 066a 2d3e 3101 b0be 16ba ba3d 5288 d1be
000000f0: f8ed b8be 3dd8 9a3d 188b 463e cadb 223e
00000100: 7ba6 3b3e 6d33 253e e0f4 02bf 3881 15bd
00000110: 1a8f 0f3c a23a 5c3e edce f33e 55e2 68be
00000120: aadf b1be 7989 783e d203 92be 6b9c 41be
00000130: c50f 3a3e a22a 18be e111 72be ee7c 893a
00000140: b414 903c 3374 593e 531e 40be 51ab 4e3e
00000150: e283 c2be 7742 8abd f6f1 0abd e683 c6bd
00000160: fe39 54be 289b b3be e5b8 78be 36b5 77bc
00000170: 65af 3bbe 7449 c0be b7a0 bb3e 5a0b 813c
00000180: 6cbc 993d 83be 16be 8bb8 49bd 3400 eabe
00000190: b8e9 a5be 2b2f 993c 7945 293e b13b d4bd
000001a0: 462a 1ebe 7639 87be eaef 21b9 f2f3 943e
000001b0: 633f 3d3e d11f 0ebe 60af 8ebe 63b2 5ebe
000001c0: 02e5 e13d ad29 923e 3c6d fa3d cbd5 533e
000001d0: 331a 783e 43ba 323e d4ac b2be d4db efbe
000001e0: cecb 42be 527a 663d eb9f 703e 9bdc 7ebe
000001f0: 1b7a b6be d7ee 44bd 71ff d7bd 890e 4d3d
00000200: cf72 023f 6673 12bf e3fb 8b3e 6bc9 40bf
00000210: 4d4c 36be 9c17 96be d8b5 b23c 91a9 823c
00000220: e90c 2c3e 5f02 803d 3561 a9be 4e77 a4be
00000230: c82a c2be f20c 6e3e 003d 9dbe 4131 a63d
00000240: fc02 3a3e a600 babe a68f 413d 5cf9 bebe
00000250: 288f c2be 7265 a6bb 6315 c2be 083e f53d
00000260: a418 cb3d 024a c9be 35f6 98be 1f18 4a3e
00000270: 85e5 dd3c baef a7bd cfc3 0cbe ab6a 92be
00000280: 8ebb b1bd bb7f adbe eceb 60be 5c39 33be
00000290: a39a 22bd 285d e8bd cf39 5f3e 943a 15be
000002a0: 80c3 043e 244e 7bbe 0373 22be e376 cabe
000002b0: 5acd fabe 7ccf 89be 8946 32be 98a0 ccbd
000002c0: 531d 4b3b dc1a f93d bae5 04be 9cc4 7b3e
000002d0: 48c1 aa3d e5ac dfbe c3ee 74be 7aa9 2cbf
000002e0: 13f0 043e 2262 15bf 5684 66be 01fe 19be
000002f0: a61d 863e daab 32bd 135a e9be df03 423e

net.0.bias f4 [32]
4.1846147 -0.17117387 0.057619177 0.57096964 -0.32458308 0.28256774 4.4944463 4.115009
0.3410194 2.4674835 3.7930207 2.5292518 -0.26876366 4.2069917 0.21045893 -0.2864884
-0.08281895 4.3610525 4.1010733 4.36547 0.09522921 -0.07171688 3.851999 0.093683384
-0.33586577 -0.2659637 0.16492249 1.8602306 -0.33848116 4.2109694 -0.33949968 -0.3584956
00000000: 5de8 8540 3448 2fbe 1602 6c3d 112b 123f
00000010: c12f a6be b8ac 903e 81d2 8f40 27ae 8340
00000020: 189a ae3e 40eb 1d40 dac0 7240 43df 2140
00000030: 649b 89be ad9f 8640 8c82 573e 9cae 92be
00000040: fb9c a9bd be8d 8b40 fe3b 8340 eeb1 8b40
00000050: 8807 c33d 4de0 92bd 2787 7640 13dd bf3d
00000060: 99f6 abbe 652c 88be 71e1 283e 091c ee3f
00000070: 674d adbe 43c0 8640 e7d2 adbe bc8c b7be

net.2.weight f4 [32, 32]
0.39324388 0.12102795 -0.029242309 0.22298951 -0.12434943 0.01928186 0.19954202 0.09433171
-0.029576993 0.2627171 -0.1279976 0.33239293 -0.100867294 -0.19685727 -0.086909875 0.011901701
0.26493862 0.34741706 0.37695417 0.45128667 0.13685122 0.5311641 0.32308632 0.1466226
-0.16186757 0.14592074 0.12738517 0.30195424 0.24420969 -0.6610733 -0.034967117 0.015549232
-0.0058591403 0.06736153 -0.10737148 -0.17129748 -0.020943316 -0.13618217 -0.10622231 -0.01745191
0.17386834 -0.106321044 -0.14063534 -0.01153496 0.07441095 -0.11620152 -0.037720103 0.08411733
0.121540084 -0.038242236 -0.16634193 0.037593722 -0.15256141 -0.16714826 -0.027354632 -0.15065236
0.15779857 0.16861287 -0.021566141 -0.08013232 0.17130458 -0.073614486 -0.15999806 -0.151213
-0.1270116 0.14745297 -0.11998636 -0.14700653 -0.013435214 -0.13306516 -0.08911974 -0.12822142
-0.11239555 0.058054063 -0.06355478 -0.08001476 0.011036658 -0.15276375 -0.024435204 -0.09770014
-0.16411555 0.13729662 -0.13956288 -0.1091353 -0.04677533 -0.12392274 0.06746691 0.1608036
0.1610218 -0.12558451 0.121555746 0.021843372 0.0680574 0.012440253 0.05167917 0.113333
-0.07849225 0.057198793 -0.13144863 0.056015544 0.009659404 -0.05459511 -0.17521484 0.04264338
0.07570843 0.032963365 -0.10560101 0.13912722 -0.031084353 -0.106644675 -0.08509954 -0.040962964
-0.12849455 -0.14120601 0.030602805 -0.049200986 0.085948505 -0.1456512 -0.110267535 -0.04948674
-0.14503984 -0.11292995 -0.109861724 -0.045413923 -0.16901651 -0.07625621 -0.13982904 -0.084936626
0.41970485 -0.16128004 -0.0064434586 -0.20073201 -0.16361387 0.06951627 0.5842291 0.4369196
-0.16367368 0.26757517 0.13912126 0.16615666 0.17393328 0.26020148 -0.025855616 -0.04317329
-0.040113788 0.57526517 0.9960611 0.63885534 -0.12837969 -0.22595029 0.30177253 -0.17521267
-0.06765801 -0.11952237 0.017636687 0.033896226 0.23110192 0.23830992 0.17136817 0.063844144
0.47272617 -0.07014402 -0.019066986 -0.00019887244 0.14991695 -0.014025166 0.6371868 0.5202698
0.08438962 0.36659545 0.022530023 0.43453828 -0.16191648 0.18098775 0.026045108 -0.008816004
-0.12281032 0.74250585 1.228189 0.5929353 0.021049928 -0.03468044 0.36652952 0.090633
0.0070590307 0.050009973 -0.05305083 -0.12783805 0.039679185 0.26308805 0.083496146 -0.06307801
0.0077356608 -0.053431783 0.11752864 -0.023333957 0.17122993 0.0168081 -0.08328582 -0.1965117
0.113776386 -0.15444253 0.07239772 0.15043694 0.16153853 -0.15880601 0.09234042 0.16682333
-0.06998647 -0.08108037 0.08192326 -0.056176916 -0.12977187 -0.08897021 -0.10331039 0.11894824
0.0042238506 -0.027388118 0.15049209 0.05626587 -0.17574702 0.034322217 -0.109627225 -0.14800966
0.00986248 0.03222826 -0.029383918 -0.15438451 0.024381215 -0.0010843541 0.023577841 -0.16147827
0.16071272 -0.04016982 -0.19297755 0.019556187 0.077866115 -0.05583048 -0.10934368 0.14633916
-0.17492686 -0.08180066 -0.069687344 -0.20037496 0.055557743 -0.15146095 -0.18548638 -0.038895555
0.087175235 0.13810365 -0.0058712033 0.12697048 -0.08429985 0.13858321 0.01367111 -0.0045067626
00000000: 4357 c93e 80dd f73d 918d efbc 5d57 643e
00000010: eaaa febd fef4 9d3c be54 4c3e fc30 c13d
00000020: 734b f2bc db82 863e ce11 03be 682f aa3e
00000030: 8393 cebd f494 49be cefd b1bd 5aff 423c
00000040: 09a6 873e a6e0 b13e 2300 c13e 0c0f e73e
00000050: ba22 0c3e 5ffa 073f 926b a53e 3c24 163e
00000060: 9dc0 25be 3f6c 153e 4271 023e bf99 9a3e
00000070: 1b12 7a3e 1a3c 29bf ae39 0fbd 35c2 7e3c
00000080: 08fe bfbb d8f4 893d 94e5 dbbd 9b68 2fbe
00000090: 5191 abbc 5773 0bbe 158b d9bd 4ff7 8ebc
000000a0: 8b0a 323e d9be d9bd b602 10be 21fd 3cbc
000000b0: c564 983d 10fb edbd 6580 1abd b545 ac3d
000000c0: 02ea f83d e4a3 1cbd 8a55 2abe e0fb 193d
000000d0: 0f39 1cbe ea28 2bbe d216 e0bc 9d44 1abe
000000e0: f395 213e daa8 2c3e 7aab b0bc 6a1c a4bd
000000f0: 786a 2f3e 31c3 96bd 88d6 23be 95d7 1abe
00000100: 540f 02be e9fd 163e 69bb f5bd e188 16be
00000110: 5f1f 5cbc 3c42 08be 6984 b6bd 7a4c 03be
00000120: a32f e6bd 19ca 6d3d 0229 82bd c7de a3bd
00000130: 19d3 343c 1a6e 1cbe 562c c8bc 0317 c8bd
00000140: e80d 28be 7c97 0c3e 92e9 0ebe 5482 dfbd
00000150: 7d97 3fbd 35cb fdbd 172c 8a3d b3a9 243e
00000160: e6e2 243e 3a99 00be 38f2 f83d dff0 b23c
00000170: ae61 8b3d 34d2 4b3c 8aad 533d 221b e83d
00000180: 8bc0 a0bd 4849 6a3d 789a 06be 8e70 653d
00000190: 7a42 1e3c 1f9f 5fbd 856b 33be d3aa 2e3d
000001a0: 050d 9b3d 9804 073d 5845 d8bd 5e77 0e3e
000001b0: 9da4 febc 8668 dabd ab48 aebd c8c8 27bd
000001c0: 1394 03be 4f98 10be bcb2 fa3c f986 49bd
000001d0: c505 b03d 9725 15be f2d3 e1bd 9cb2 4abd
000001e0: 5385 14be d147 e7bd 2fff e0bd f303 3abd
000001f0: aa12 2dbe 372c 9cbd 582f 0fbe 41f3 adbd
00000200: 8ee3 d63e 9826 25be a623 d3bb b18c 4dbe
00000210: 658a 27be 8c5e 8e3d 0a90 153f edb3 df3e
00000220: 139a 27be 9dff 883e ce75 0e3e f924 2a3e
00000230: 911b 323e 2139 853e 28cf d3bc 7ad6 30bd
00000240: 5b4e 24bd 9444 133f dcfd 7e3f 068c 233f
00000250: f775 03be 835f 67be ee81 9a3e f36a 33be
00000260: 4890 8abd 25c8 f4bd d07a 903c c5d6 0a3d
00000270: fba5 6c3e 8407 743e 237b 2f3e b8c0 823d
00000280: 2a09 f23e aba7 8fbd 5e32 9cbc 6a88 50b9
00000290: d483 193e cfc9 65bc ad1e 233f 6730 053f
000002a0: 77d4 ac3d 66b2 bb3e e290 b83c cd7b de3e
000002b0: 6fcd 25be da54 393e 8d5c d53c 0071 10bc
000002c0: fa83 fbbd dd14 3e3f 4c35 9d3f 9cca 173f
000002d0: e670 ac3c 140d 0ebd c2a9 bb3e cb9d b93d
000002e0: 714f e73b 42d7 4c3d d44b 59bd fae7 02be
000002f0: a486 223d 7ab3 863e 0700 ab3d 0b2f 81bd
00000300: 6d7b fd3b 49db 5abd dbb2 f03d db26 bfbc
00000310: e656 2f3e 24b1 893c c291 aabd 5d3a 49be
00000320: 9803 e93d 2f26 1ebe 4145 943d 240c 1a3e
00000330: 5b6a 253e 0b9e 22be f91c bd3d bcd3 2a3e
00000340: 1155 8fbd 770d a6bd 62c7 a73d c419 66bd
00000350: ebe2 04be 0336 b6bd 6694 d3bd 239b f33d
00000360: 3a68 8a3b 0c5d e0bc 991a 1a3e 0a77 663d
00000370: 07f7 33be 7495 0c3d 3d84 e0bd d88f 17be
00000380: 3d96 213c c801 043d 8bb6 f0bc f916 1ebe
00000390: 1dbb c73c e320 8eba 5126 c13c 8f5a 25be
000003a0: e091 243e 1c89 24bd e89b 45be 4c34 a03c
000003b0: 4578 9f3d 80ae 64bd 94ef dfbd efd9 153e
000003c0: 0720 33be 1b87 a7bd 3db8 8ebd 182f 4dbe
000003d0: 8490 633d 9418 1bbe 24f0 3dbe f250 1fbd
000003e0: ee88 b23d 0b6b 0d3e 3963 c0bb 8d04 023e
000003f0: 66a5 acbd c2e8 0d3e cbfc 5f3c 77ad 93bb

net.2.bias f4 [32]
-0.16324966 -0.111937895 -0.00804579 -0.14663908 4.310197 4.0717235 -0.25356406 -0.12534268
-0.05266408 3.536994 4.148282 0.051642634 3.86928 -0.17868815 0.016837113 -0.14232184
-0.35805303 4.0949674 3.5970654 0.1010569 3.8268096 3.8307765 3.984413 -0.037930034
-0.1471758 3.5582428 0.5230809 -0.050898135 0.1203442 3.7224889 4.174069 3.9488459
00000000: eb2a 27be b23f e5bd 7dd2 03bc 8e28 16be
00000010: 22ed 8940 8f4b 8240 26d3 81be d559 00be
00000020: 4ab6 57bd 1c5e 6240 babe 8440 3a87 533d
00000030: 49a2 7740 07fa 36be fced 893c d1bc 11be
00000040: ba52 b7be f909 8340 5236 6640 ecf6 ce3d
00000050: 73ea 7440 712b 7540 9f00 7f40 865c 1bbd
00000060: 41b5 16be 40ba 6340 a1e8 053f 907a 50bd
00000070: 0577 f63d 423d 6e40 f991 8540 e4b9 7c40

net.4.weight f4 [5, 32]
0.36990336 0.13762105 -0.055668876 -0.085765 -0.39862934 -0.40786898 0.007315526 -0.061849847
-0.027925117 -0.5543179 -0.5230745 0.00039733516 -0.5142716 -0.101407334 -0.17140263 0.08209604
0.29074425 -0.37732208 -0.46906894 -0.16517876 -0.251536 -0.4428782 -0.5684594 -0.21970142
0.07395382 -0.29770064 0.060274873 -0.13750312 -0.48227665 -0.38738433 -0.5508477 -0.42806277
0.19770674 0.13055007 -0.02005916 0.023211155 -0.39424604 -0.40179726 -0.017670797 -0.017630951
-0.02048289 -0.5832555 -0.41430655 0.11709882 -0.33536294 -0.037393387 -0.11488291 0.08584123
0.06470246 -0.5259905 -0.5256646 0.06790189 -0.51160324 -0.31090972 -0.3282996 0.039220095
-0.01485894 -0.5150536 -0.3099813 0.07693646 -0.11253859 -0.4579855 -0.5607039 -0.58951795
0.1375988 -0.1060086 -0.12100482 -0.16969033 -0.45797837 -0.542762 -0.15929882 -0.0039320863
0.08533556 -0.26658556 -0.49688727 -0.009108777 -0.48026562 -0.15118915 0.04060461 -0.17608504
0.05055193 -0.6258781 -0.30636108 0.022177363 -0.63401085 -0.5339719 -0.46324432 0.27850807
-0.08523842 -0.53321254 -0.21624266 -0.12216209 -0.060980994 -0.6017656 -0.387768 -0.38529104
0.2609875 -0.065494955 -0.03792184 -0.087886885 -0.52622706 -0.53580236 0.08941329 0.06283375
0.011152687 -0.50581867 -0.6042264 0.01177468 -0.4423769 0.14822112 0.04067312 0.10139203
0.34068605 -0.5594385 -0.4436807 0.03254489 -0.42619157 -0.5697606 -0.45741636 0.36847016
0.047571566 -0.41219935 -0.3660929 -0.023789894 0.27295128 -0.40272987 -0.3968659 -0.56293666
0.22615755 -0.024965895 0.1276982 0.011078931 -0.55478036 -0.43376586 0.09442486 -0.13695407
0.027124364 -0.57802653 -0.5569294 0.02668721 -0.52980816 0.075165585 0.11246275 -0.10329974
0.10172426 -0.40889233 -0.59042054 0.09711698 -0.61846924 -0.41397995 -0.25651264 0.29934406
-0.10691936 -0.45474428 -0.8261769 -0.08474521 -0.42811605 -0.41580606 -0.50990295 -0.5275923
00000000: f963 bd3e 88ec 0c3e 0c05 64bd 8fa5 afbd
00000010: 2519 ccbe 34d4 d0be 14b7 ef3b 4456 7dbd
00000020: 37c3 e4bc c7e7 0dbf 36e8 05bf 6c51 d039
00000030: 4ea7 03bf a6ae cfbd 2c84 2fbe f821 a83d
00000040: 6edc 943e 5c30 c1be ce29 f0be 9f24 29be
00000050: 54c9 80be eec0 e2be 8e86 11bf 69f9 60be
00000060: 1a75 973d 386c 98be c9e2 763d 9ecd 0cbe
00000070: f7ec f6be 3d57 c6be 5b04 0dbf 0b2b dbbe
00000080: a373 4a3e ebae 053e 1c53 a4bc 5225 be3c
00000090: 9eda c9be 5fb8 cdbe 59c2 90bc c96e 90bc
000000a0: bccb a7bc 3c50 15bf fd1f d4be 82d1 ef3d
000000b0: b1b4 abbe cf29 19bd bb47 ebbd 87cd af3d
000000c0: b982 843d 50a7 06bf f591 06bf 2510 8b3d
000000d0: 6ef8 02bf 8f2f 9fbe e316 a8be 40a5 203d
000000e0: e972 73bc 8dda 03bf deb5 9ebe dd90 9d3d
000000f0: a27a e6bd 137d eabe 4a8a 0fbf a6ea 16bf
00000100: b3e6 0c3e 091b d9bd 60d1 f7bd 4dc3 2dbe
00000110: 247c eabe 73f2 0abf 3b1f 23be bbd8 80bb
00000120: 69c4 ae3d e77d 88be 0268 febe fb3c 15bc
00000130: 60e5 f5be 54d1 1abe 0551 263d a34f 34be
00000140: 8a0f 4f3d 8c39 20bf 5cdb 9cbe 4dad b53c
00000150: 894e 22bf 62b2 08bf 5c2e edbe 9c98 8e3e
00000160: 7b91 aebd 9e80 08bf b76e 5dbe 1e30 fabd
00000170: 35c7 79bd 4f0d 1abf 8789 c6be de44 c5be
00000180: 27a0 853e 3822 86bd ee53 1bbd 0afe b3bd
00000190: d1b6 06bf 582a 09bf 511e b73d fbae 803d
000001a0: c2b9 363c 557d 01bf 95ae 1abf 96ea 403c
000001b0: 3a7f e2be 47c7 173e dc98 263d a0a6 cf3d
000001c0: 676e ae3e 5d37 0fbf 1e2a e3be ca4d 053d
000001d0: c835 dabe d5db 11bf 7a32 eabe 1fa8 bc3e
000001e0: 67da 423d cb0b d3be 8770 bbbe 06e3 c2bc
000001f0: 45c0 8b3e 9c32 cebe 0232 cbbe 9e1c 10bf
00000200: d895 673e 4785 ccbc 51c3 023e 6884 353c
00000210: 1606 0ebf 8f16 debe d261 c13d b03d 0cbe
00000220: ea33 de3c 8cf9 13bf ed92 0ebf 239f da3c
00000230: 82a1 07bf 6af0 993d df52 e63d d08e d3bd
00000240: cf54 d03d 565a d1be cd25 17bf 44e5 c63d
00000250: 0054 1ebf 2ef5 d3be a055 83be a043 993e
00000260: 8af8 dabd 3ed4 e8be 5480 53bf e68e adbd
00000270: 0732 dbbe 88e4 d4be 0089 02bf 4a10 07bf

net.4.bias f4 [5]
-2.2566595 -1.9671701 -3.0669436 -1.6328429 -1.6340296
00000000: 1c6d 10c0 3bcc fbbf ce48 44c0 ff00 d1bf
00000010: e227 d1bf
