RLmylib/ppo_rope_lift_final.pth (torch, 83864 bytes, 6 tensors)

feature_net.0.weight f4 [128, 90]
0.020659981 0.054822206 0.0040603667 0.049802102 0.076769724 -0.03427168 0.075818814 0.13281758
0.03789856 0.020749282 0.011772314 0.13015492 -0.06800188 0.040243924 0.034458082 0.06451931
0.026274038 0.13013136 -0.06086597 0.060541682 0.023715455 0.13411735 -0.008336886 0.10661324
-0.068082504 0.06910407 0.00593173 0.0782645 -0.051727977 -0.024742803 0.12719429 -0.018506674
0.09916683 0.03349151 -0.06373944 0.041205045 0.107705496 0.10633455 0.13389717 0.011686811
-0.00764163 0.114551686 0.06441228 -0.023629786 -0.028967053 -0.033957016 -0.06645187 0.13304868
0.06555144 -0.006430856 0.091494836 -0.033520207 0.10733813 0.09529941 0.10048084 0.07973386
0.06257429 0.090191446 0.040853526 0.02805055 0.04935542 -0.03827541 0.1022349 -0.041864324
0.102537684 -0.044698715 -0.06525617 -0.045273267 -0.03093283 0.06859316 0.0166091 -0.08277784
0.015315701 0.115516394 0.0920297 -0.0897347 -0.02273238 -0.07297691 -0.034660608 0.023947354
0.028761772 0.112519 -0.006722712 -0.08680222 -0.10210964 0.06418227 -0.031374987 0.093380876
-0.08455396 0.08053536 0.046908263 0.09076132 0.062841594 0.047441088 0.04069676 0.08640165
0.009180432 0.046662427 -0.01959304 -0.050113134 -0.037656732 -0.081649385 -0.04161521 0.020201633
0.05290176 -0.011769846 0.111109495 -0.062510386 0.09261784 -0.0076526166 0.06470634 -0.0044464087
-0.030918969 -0.002598432 -0.012534641 -0.07706659 0.09337153 0.06531841 0.09260958 0.020028265
-0.069755204 0.058440395 0.062539116 -0.06878896 0.07482334 0.013328017 0.044282716 -0.068741895
0.07357739 0.1041613 0.08343944 0.032093767 -0.001974964 -0.044090386 -0.0857255 0.07799845
-0.03464119 -0.08610807 -0.040813785 -0.046360087 0.055309482 -0.062759295 0.03557396 0.018713048
0.03111359 -0.07524407 -0.08413647 -0.04505979 -0.05638199 0.045911793 0.030480998 0.060502946
-0.06446304 0.066588104 -0.03035098 0.07879424 -0.024646018 -0.02717032 0.010324101 -0.021596517
0.10383074 0.08609249 -0.0334008 -0.0054830494 -0.07852433 0.031209886 0.015929302 0.040417872
-0.04539903 -0.043309066 -0.0015158053 0.10940218 0.065079264 -0.032716565 -0.049294367 0.019114736
0.029993722 -0.0628959 -0.047092833 0.06492657 -0.05706429 0.049645167 -0.002583434 -0.0040576537
-0.054839667 -0.068594836 -0.078842185 0.065080136 -0.07213418 0.06584373 0.016740913 0.037673775
0.10083082 -0.0684032 -0.06254121 0.082791634 -0.0065174093 -0.034232825 -0.020174079 -0.003386232
-0.0827577 0.07096565 0.059277717 -0.06347683 0.12154273 0.03303378 0.068588264 -0.0055754124
0.024696516 0.11258001 0.09274603 -0.006856553 0.07585662 -0.018307885 0.051380616 -0.05668859
0.009632608 -0.03356741 -0.06722467 -0.0066728713 0.06900459 -0.034916345 -0.041969206 0.07604809
0.13553858 0.018947285 0.05709333 0.1201091 0.09343319 0.09356596 -0.03303132 0.07279271
-0.037030824 0.009821683 0.0048161633 -0.022086304 0.11319908 -0.008326965 -0.050634947 0.1357367
0.0066386075 -0.017875375 0.06408477 -0.011083741 -0.032863546 0.026927186 0.09952838 0.010339148
0.035968572 0.028330741 -0.02867574 -0.09240697 0.017773462 0.033947956 0.060502738 -0.119145565
00000000: 1f3f a93c 408d 603d d30c 853b 4afd 4b3d
00000010: 7239 9d3d 7660 0cbd e546 9b3d 5501 083e
00000020: 853b 1b3d 66fa a93c aae0 403c 5547 053e
00000030: 9244 8bbd d0d6 243d eb23 0d3d b322 843d
00000040: a73c d73c 2841 053e 984e 79bd 8efa 773d
00000050: ea46 c23c 0f56 093e 6f97 08bc 0b58 da3d
00000060: d76e 8bbd 6f86 8d3d f55e c23b 2349 a03d
00000070: b7e0 53bd 6bb1 cabc 383f 023e 4f9b 97bc
00000080: fb17 cb3d 652e 093d d389 82bd 9fc6 283d
00000090: b394 dc3d eec5 d93d 571c 093e 0a7a 3f3c
000000a0: a366 fabb 139a ea3d 96ea 833d 4193 c1bc
000000b0: 504c edbc 8316 0bbd eb17 88bd ea3d 083e
000000c0: d53f 863d eeb9 d2bb a561 bb3d 7c4c 09bd
000000d0: 18d4 db3d 562c c33d e6c8 cd3d 824b a33d
000000e0: f326 803d 4bb6 b83d 0756 273d 44ca e53c
000000f0: e928 4a3d adc6 1cbd 8860 d13d ed79 2bbd
00000100: 47ff d13d 0016 37bd 07a5 85bd 7670 39bd
00000110: d966 fdbc 927a 8c3d cf0f 883c 6e87 a9bd
00000120: b5ee 7a3c dc93 ec3d 117a bc3d d4c6 b7bd
00000130: 4239 babc eb74 95bd 48f8 0dbd 3e2d c43c
00000140: cf9d eb3c 5d70 e63d 324a dcbb 5dc5 b1bd
00000150: dc1e d1bd fe71 833d 0f83 00bd 793e bf3d
00000160: a02a adbd b9ef a43d e122 403d 12e1 b93d
00000170: 18b3 803d 9651 423d a5b1 263d 59f3 b03d
00000180: 8669 163c 1a21 3f3d 9581 a0bc 6e43 4dbd
00000190: f23d 1abd cb37 a7bd b674 2abd e57d a53c
000001a0: 84af 583d 50d6 40bc 608d e33d 7205 80bd
000001b0: 6cae bd3d cdc2 fabb c284 843d 2eb3 91bb
000001c0: c749 fdbc 744a 2abb 185e 4dbc 17d5 9dbd
000001d0: 9339 bf3d a9c5 853d 17aa bd3d 5112 a43c
000001e0: d1db 8ebd 325f 6f3d 8214 803d 3ae1 8cbd
000001f0: fb3c 993d c15d 5a3c cb61 353d 8dc8 8cbd
00000200: beaf 963d 8552 d53d 4ce2 aa3d c174 033d
00000210: 666e 01bb 1f98 34bd da90 afbd a7bd 9f3d
00000220: ece3 0dbd 6e59 b0bd 5b2c 27bd 13e4 3dbd
00000230: 328c 623d f287 80bd 00b6 113d 1b4c 993c
00000240: ede1 fe3c 9019 9abd be4f acbd 9d90 38bd
00000250: cdf0 66bd 010e 3c3d 49b3 f93c f0d1 773d
00000260: 3305 84bd 585f 883d 9ea2 f8bc e05e a13d
00000270: 72e6 c9bc 4a94 debc 6b26 293c 2eeb b0bc
00000280: 36a5 d43d 4251 b03d 47cf 08bd 27ab b3bb
00000290: 5dd1 a0bd e0ab ff3c 2b7e 823c 368d 253d
000002a0: 55f4 39bd d964 31bd fcad c6ba 400e e03d
000002b0: 4748 853d ce01 06bd e4e8 49bd 8296 9c3c
000002c0: 65b5 f53c 91cf 80bd 6ae4 40bd 39f8 843d
000002d0: 3fbc 69bd bb58 4b3d d54e 29bb 11f6 84bb
000002e0: 8f9f 60bd 737b 8cbd 0378 a1bd bc48 853d
000002f0: 16bb 93bd 14d9 863d 3d24 893c d14f 1a3d
00000300: 6480 ce3d fa16 8cbd 9b15 80bd a98e a93d
00000310: fe8f d5bb b837 0cbd 1c44 a5bc 8ceb 5dbb
00000320: de7c a9bd 7056 913d 31cd 723d 2400 82bd
00000330: 65eb f83d 6e4e 073d 0178 8c3d f3b1 b6bb
00000340: 5950 ca3c 5990 e63d a1f1 bd3d efac e0bb
00000350: b75a 9b3d 6bfa 95bc 7b74 523d 4c32 68bd
00000360: 16d2 1d3c fb7d 09bd 16ad 89bd 1aa8 dabb
00000370: 4752 8d3d 7104 0fbd e7e7 2bbd 1abf 9b3d
00000380: a0ca 0a3e 5637 9b3c b2da 693d c3fb f53d
00000390: e659 bf3d 839f bf3d d94b 07bd 5814 953d
000003a0: a2ad 17bd 20eb 203c e8d0 9d3b 56ee b4bc
000003b0: ebd4 e73d d36d 08bc 9766 4fbd 90fe 0a3e
000003c0: ad88 d93b 616f 92bc e03e 833d 9498 35bc
000003d0: ed9b 06bd 6796 dc3c 89d5 cb3d 8865 293c
000003e0: c853 133d df15 e83c 63e9 eabc de3f bdbd
000003f0: a799 913c 030d 0b3d b8d1 773d 9702 f4bd

feature_net.0.bias f4 [128]
0.11312009 0.018074054 0.120591186 -0.04582348 -0.04546645 0.08210468 0.047586907 0.07400004
0.081473745 0.003915887 0.06617843 -0.06414075 0.013102404 -0.060272172 -0.008881146 0.1062262
0.036218572 0.06914556 -0.009046016 0.079553574 -0.030833993 0.013789799 0.044077195 0.017120302
0.061676014 0.0698322 -0.06589356 -0.08777963 0.00014478856 0.05226101 0.07304956 -0.037461564
-0.09369293 -0.079790555 0.015700717 0.047569297 -0.0637774 0.051681463 0.038338743 -0.11946528
0.056548543 0.082477145 0.09989853 -0.0276047 -0.03340742 -0.034620024 -0.05975283 -0.09352383
-0.032522365 0.07196803 0.038646564 -0.01287065 0.0014757189 0.004309333 -0.087857895 0.0026119815
0.0115922745 -0.09617468 -0.062981755 -0.0058204564 -0.00983346 0.10057286 0.0034752646 -0.009252903
0.055907976 0.03491401 0.008974587 0.021512985 -0.016071552 0.043461896 0.11482913 0.058363933
0.022029532 -0.069870904 -0.11849249 0.01217088 -0.07807312 0.05700628 -0.08924573 -0.024079395
0.0981887 0.009597388 -0.0737029 0.050689004 0.05031555 0.034307674 -0.061726525 -0.0443548
-0.051928174 -0.04506063 -0.017252311 0.12727933 -0.07968092 0.01351816 -0.050790288 0.07550846
-0.067734584 -0.04787099 -0.04591458 0.038445722 -0.09405917 -0.021700338 -0.055919386 -0.06862244
0.08967254 0.021438863 0.03211845 0.06783492 0.060933653 -0.035764266 -0.07975328 0.06529883
0.06884029 -0.044984363 -0.0067737754 0.10395374 -0.01679516 -0.046863843 -0.013250681 0.095329896
0.06374174 -0.033579584 0.047854014 0.034063976 0.03551387 0.059934333 -0.019969897 -0.0812006
00000000: 81ab e73d 0a10 943c 83f8 f63d 67b1 3bbd
00000010: 073b 3abd 8026 a83d 7dea 423d 558d 973d
00000020: b5db a63d d750 803b 8f88 873d 3a5c 83bd
00000030: 77ab 563c f4df 76bd 3a82 11bc 1f8d d93d
00000040: ed59 143d 309c 8d3d be35 14bc fcec a23d
00000050: 9297 fcbc 9cee 613c 4a8a 343d e03f 8c3c
00000060: fd9f 7c3d 2f04 8f3d 34f3 86bd cfc5 b3bd
00000070: 62d2 1739 a40f 563d 029b 953d 4c71 19bd
00000080: 14e2 bfbd 3b69 a3bd ca9e 803c 06d8 423d
00000090: ba9d 82bd f1af 533d 1609 1d3d 36aa f4bd
000000a0: 729f 673d c7e9 a83d 9a97 cc3d 4023 e2bc
000000b0: 38d6 08bd bacd 0dbd 62bf 74bd 6c89 bfbd
000000c0: 2c36 05bd f963 933d dc4b 1e3d 6bdf 52bc
000000d0: e96c c13a 4e35 8d3b d7ee b3bd c72d 2b3b
000000e0: 86ed 3d3c 3bf7 c4bd 94fc 80bd 87b9 bebb
000000f0: 851c 21bc 25f9 cd3d 44c1 633b 7d99 17bc
00000100: c3ff 643d fe01 0f3d 250a 133c 003c b03c
00000110: 7da8 83bc 1a05 323d 892b eb3d 050f 6f3d
00000120: 4777 b43c 7a18 8fbd 31ac f2bd 5f68 473c
00000130: cde4 9fbd 6b7f 693d 77c6 b6bd 2742 c5bc
00000140: 2817 c93d 5d3e 1d3c 8cf1 96bd 469f 4f3d
00000150: ae17 4e3d 3486 0c3d f4d4 7cbd 61ad 35bd
00000160: a3b2 54bd 7f91 38bd b854 8dbc 8355 023e
00000170: c02f a3bd 467b 5d3c 7a09 50bd 2ea4 9a3d
00000180: 6eb8 8abd 5f14 44bd ed10 3cbd 4379 1d3d
00000190: 18a2 c0bd e8c4 b1bc ba0b 65bd ec89 8cbd
000001a0: 3da6 b73d 8ea0 af3c a38e 033d 09ed 8a3d
000001b0: 9195 793d 8d7d 12bd b055 a3bd 65bb 853d
000001c0: 23fc 8c3d 8641 38bd 8cf6 ddbb b3e5 d43d
000001d0: 0196 89bc 4df4 3fbd 6219 59bc 523c c33d
000001e0: 088b 823d bf8a 09bd 9202 443d ab86 0b3d
000001f0: fe76 113d b47d 753d e997 a3bc 804c a6bd

feature_net.2.weight f4 [64, 128]
0.010124518 -0.032693297 0.010183219 0.020407135 -0.042635974 0.076034114 0.07791439 -0.061003454
0.041206457 -0.04623916 0.048972018 0.022573097 0.0008620223 -0.06469873 -0.027996622 0.07665052
0.06877286 0.08602011 0.034052994 -0.036495388 -0.0871627 -0.08306904 0.0053818817 0.023373071
0.0037309702 -0.05534414 0.024474263 -0.06282079 -0.08568607 -0.07352338 -0.08693691 -0.027804403
-0.03508738 -0.07982446 0.015637934 -0.08116272 -0.013500411 0.06468224 0.017452655 -0.03423601
0.021439712 -0.039432485 0.06912613 0.029306052 0.03338455 0.03557034 0.052331798 -0.065929204
-0.0680759 -0.07647271 -0.03615327 -0.037257697 0.08690347 0.08650805 -0.02517231 0.064418115
0.079930596 -0.08344235 0.034085102 0.00416512 -0.021664144 -0.06728527 0.042336844 -0.032857638
0.039735004 -0.051206227 -0.07219597 0.033914257 -0.08154389 -0.014519452 0.025036292 -0.038488273
-0.052536532 0.08352426 0.0012011848 -0.047161948 -0.08163015 -0.086113416 0.082964905 -0.075695224
-0.036792185 0.00063653005 -0.030932067 0.05689344 -0.053001516 -0.06801317 -0.02770737 0.05451063
-0.07876225 -0.01503359 0.01829075 -0.023546675 -0.079508446 -0.08337398 0.060888402 0.059073232
0.0065188915 -0.07104885 0.02227875 -0.045742314 -0.08718139 -0.06889698 -0.04093879 0.03716664
-0.044197246 -0.03828832 0.047822684 0.02638616 0.053436786 -0.007324985 0.05974044 0.044054173
0.07272851 -0.046801347 -0.05949841 -0.0662218 -0.06171021 0.051762916 0.058573566 -0.027805911
-0.062147252 -0.056278437 0.038487755 -0.023004645 -0.041176222 -0.009581842 -0.025382655 0.06746658
0.063214645 -0.041549873 -0.04545723 0.022983555 -0.070052356 0.076472566 -0.040578015 -0.08334235
0.023075813 0.04914762 -0.07339761 -0.06897333 0.05640673 -0.08337588 -0.025071796 -0.047027875
-0.018482225 0.042214043 0.002416066 -0.016231019 -0.0738532 -0.023055362 0.0916653 -0.06960351
-0.061626643 -0.10411831 -0.047017284 0.080729134 -0.04283724 0.08164422 0.09358132 -0.07619651
0.017319595 0.035217237 0.052021917 -0.0061316798 -0.059108473 -0.01897963 -0.08036213 0.041927524
-0.08259283 0.08297166 0.067657515 -0.06769924 -0.010997209 -0.08242276 -0.085545234 0.015517815
-0.059759505 0.0015664457 -0.06534104 0.012163649 0.0572057 -0.060630117 -0.006517003 -0.04963171
0.060337216 0.013850368 0.073042825 0.06428485 -0.012595388 -0.053368326 0.07488468 0.06912698
-0.02000678 0.008308861 0.07851767 0.048918664 -0.07216887 0.025091005 -0.08969797 0.00041170698
-0.0096921995 -0.06818698 -0.0005517975 -0.012160048 -0.068670265 -0.011126026 -0.055689696 0.022731187
-0.064941585 -0.028436998 0.06841259 -0.07765923 0.044685356 0.042002928 0.070979215 0.09494578
-0.07281136 0.04245429 -0.052441016 -0.030962575 -0.057547037 -0.02805625 0.041522976 0.09334536
0.05816852 -0.005622846 -0.017626535 -0.025032075 -0.07994409 -0.056693383 0.015714005 -0.016582958
-0.08002866 -0.003310233 -0.05138253 0.076625794 -0.034463853 0.08774599 0.02355026 0.05402336
0.008807792 0.078121126 -0.076114975 -0.024251638 -0.06468451 0.04464793 -0.066933535 0.048591975
0.07427428 -0.08178035 -0.0859579 0.0076146345 0.07314653 0.00855477 0.0248095 -0.01151199
00000000: 4ee1 253c 68e9 05bd 84d7 263c dd2c a73c
00000010: 0fa3 2ebd c6b7 9b3d 9491 9f3d c2de 79bd
00000020: 1ac8 283d 4665 3dbd e296 483d 37eb b83c
00000030: 56f9 613a c580 84bd 2c59 e5bc f3fa 9c3d
00000040: c9d8 8c3d 502b b03d 277b 0b3d 307c 15bd
00000050: 5c82 b2bd 1a20 aabd 7f5a b03b e278 bf3c
00000060: 4b83 743b 89b0 62bd 407e c83c 30a8 80bd
00000070: 2e7c afbd 6d93 96bd fb0b b2bd 0fc6 e3bc
00000080: c9b7 0fbd 027b a3bd 201b 803c a438 a6bd
00000090: d430 5dbc 1f78 843d dff8 8e3c 0f3b 0cbd
000000a0: 56a2 af3c f583 21bd 0092 8d3d 3f13 f03c
000000b0: 3dbe 083d 34b2 113d de59 563d e405 87bd
000000c0: 616b 8bbd b99d 9cbd 7415 14bd 879b 18bd
000000d0: 72fa b13d 222b b13d 2936 cebc a5ed 833d
000000e0: a7b2 a33d d3e3 aabd d29c 0b3d 8f7b 883b
000000f0: 0179 b1bc dccc 89bd 6669 2d3d bb95 06bd
00000100: 2cc1 223d 9fbd 51bd 7bdb 93bd ade9 0a3d
00000110: 7c00 a7bd ffe2 6dbc e918 cd3c e1a5 1dbd
00000120: 8c30 57bd c40e ab3d 1371 9d3a e32c 41bd
00000130: b52d a7bd 3b5c b0bd 81e9 a93d 1906 9bbd
00000140: 67b3 16bd cfdc 263a 3f65 fdbc 1909 693d
00000150: 1e18 59bd 7d4a 8bbd 91fa e2bc 8a46 5f3d
00000160: 1a4e a1bd 724f 76bc 7cd6 953c f5e4 c0bc
00000170: 53d5 a2bd fabf aabd 1e66 793d c6f6 713d
00000180: 6d9c d53b 0f82 91bd ed81 b63c 4b5c 3bbd
00000190: 288c b2bd dc19 8dbd 6faf 27bd 0c3c 183d
000001a0: 2c08 35bd 37d4 1cbd b8e1 433d ca27 d83c
000001b0: 88e0 5a3d 6e06 f0bb 64b2 743d 2672 343d
000001c0: aff2 943d c5b2 3fbd 9bb4 73bd 4c9f 87bd
000001d0: d8c3 7cbd 5a05 543d d6ea 6f3d 39c9 e3bc
000001e0: 1e8e 7ebd 3884 66bd 56a5 1d3d 3d74 bcbc
000001f0: 66a8 28bd 29fd 1cbc 49ef cfbc eb2b 8a3d
00000200: ae76 813d 3330 2abd 5c31 3abd 0248 bc3c
00000210: 9c77 8fbd a69d 9c3d 2235 26bd 65af aabd
00000220: 7d09 bd3c 044f 493d 7c51 96bd e441 8dbd
00000230: be0a 673d f9c0 aabd 5e63 cdbc 4da0 40bd
00000240: 0968 97bc a2e8 2c3d dc56 1e3b eaf6 84bc
00000250: 5940 97bd 99de bcbc 04bb bb3d 498c 8ebd
00000260: 386c 7cbd fb3b d5bd 3295 40bd 5155 a53d
00000270: 1a76 2fbd 1635 a73d 90a7 bf3d ea0c 9cbd
00000280: d3e1 8d3c f33f 103d ef14 553d 42ec c8bb
00000290: ba1b 72bd 2b7b 9bbc e794 a4bd 32bc 2b3d
000002a0: 6e26 a9bd 0ced a93d 0690 8a3d e6a5 8abd
000002b0: a32d 34bc 44cd a8bd 5732 afbd 6f3e 7e3c
000002c0: 62c6 74bd 3251 cd3a 86d1 85bd 0b4a 473c
000002d0: 8650 6a3d 4957 78bd 958c d5bb 9f4a 4bbd
000002e0: 2824 773d a7ec 623c 7a97 953d c7a7 833d
000002f0: e35c 4ebc bf98 5abd 245d 993d 7292 8d3d
00000300: 42e5 a3bc e421 083c dfcd a03d f05e 483d
00000310: 46cd 93bd a78b cd3c 92b3 b7bd 60da d739
00000320: 08cc 1ebc 9ea5 8bbd 81a6 10ba f03a 47bc
00000330: ffa2 8cbd ef49 36bc e11a 64bd c136 ba3c
00000340: 1800 85bd b5f4 e8bc e61b 8c3d cd0b 9fbd
00000350: fe07 373d 430b 2c3d 8d5d 913d ef72 c23d
00000360: 1f1e 95bd 8de4 2d3d 64cc 56bd 3aa5 fdbc
00000370: 71b6 6bbd 39d6 e5bc ff13 2a3d da2b bf3d
00000380: 1d42 6e3d da3f b8bb 8665 90bc 1110 cdbc
00000390: bab9 a3bd 5237 68bd a8ba 803c fcd8 87bc
000003a0: 11e6 a3bd 7ef0 58bb 7d76 52bd fced 9c3d
000003b0: f829 0dbd 2bb4 b33d 7aec c03c 9947 5d3d
000003c0: 8f4e 103c f8fd 9f3d 2be2 9bbd 5fab c6bc
000003d0: 5079 84bd bfe0 363d 7314 89bd 6108 473d
000003e0: 1d1d 983d 757c a7bd b20a b0bd 2f84 f93b
000003f0: d9cd 953d 4e29 0c3c 4b3d cb3c c99c 3cbc

feature_net.2.bias f4 [64]
-0.014840812 -0.04430337 -0.062387574 -0.06622093 0.024801873 -0.07635294 -0.011914582 -0.07690692
-0.041602295 -0.020761248 -0.066026956 -0.00025432959 0.031621907 0.021849355 -0.07772327 -0.0044293557
0.0052848756 0.08204406 0.058635965 0.02805526 0.070399076 0.02396451 0.0453112 -0.054414827
-0.021077087 -0.07865522 0.035123143 -0.013984112 -0.09604232 -0.06114849 0.039321367 0.045011666
-0.02892553 0.014536413 0.057129372 -0.0828855 0.06871424 0.0035830135 -0.07533965 0.031508423
0.024581261 -0.0026501024 0.033979133 0.032910906 -0.069816545 -0.016334794 -0.045725282 -0.064563885
-0.030114623 -0.033171244 -0.043079954 -0.025887923 -0.010486603 0.04359317 0.003685921 0.056962825
-0.019497812 0.034766655 0.016522577 0.006992648 -0.033089247 -0.03906947 -0.0765752 -0.08153027
00000000: e126 73bc 7377 35bd 1d8a 7fbd d79e 87bd
00000010: 4c2d cb3c ee5e 9cbd 6135 43bc 6081 9dbd
00000020: 2b67 2abd 7e13 aabc 2439 87bd 8a57 85b9
00000030: f985 013d 6bfd b23c 612d 9fbd 2124 91bb
00000040: c02c ad3b b706 a83d 442c 703d 25d4 e53c
00000050: 642d 903d 3851 c43c 3d98 393d 15e2 5ebd
00000060: dba9 acbc fd15 a1bd 49dd 0f3d 9e1d 65bc
00000070: d6b1 c4bd d776 7abd 710f 213d 275e 383d
00000080: 3cf5 ecbc 232a 6e3c 7d00 6a3d dfbf a9bd
00000090: 0dba 8c3d fed0 6a3b ad4b 9abd fa0e 013d
000000a0: a45e c93c 57ad 2dbb b42d 0b3d 96cd 063d
000000b0: fafb 8ebd 8cd0 85bc 6f4a 3bbd 123a 84bd
000000c0: f1b2 f6bc 92de 07bd 9b74 30bd e912 d4bc
000000d0: 00d0 2bbc c08e 323d 7e8f 713b da51 693d
000000e0: e0b9 9fbc 7b67 0e3d 5b5a 873c 9522 e53b
000000f0: 9788 07bd 4f07 20bd 75d3 9cbd 58f9 a6bd

actor_mean.weight f4 [1, 64]
-0.024121316 0.008655134 0.05999552 0.011039207 -0.0077702836 0.026694946 -0.021175982 -0.09570801
-0.083940074 0.09198015 0.11285053 0.0032113588 -0.06573591 -0.10421022 0.031585287 -0.08143015
-0.07149731 -0.07553948 -0.079252236 -0.045303732 0.025228078 -0.11679914 -0.007968141 -0.065594055
-0.06533726 0.07876524 0.0052386983 -0.10930194 -0.03667429 -0.12791467 -0.1019888 -0.062288824
-0.13984261 0.07175786 -0.0031591137 -0.016743794 0.040156726 0.09572205 0.027043376 -0.126687
0.059150603 0.081855536 0.0918344 -0.11719504 -0.14371783 0.011722605 -0.053422123 -0.03278065
-0.012154677 -0.14433673 -0.05757904 -0.14093205 0.09999063 -0.124320045 0.07743734 -0.12116249
-0.05857995 0.033569977 0.038728047 0.029895138 -0.011325253 0.07540039 -0.05234292 -0.107865095
00000000: 119a c5bc 43ce 0d3c ddbd 753d cadd 343c
00000010: dd9d febb 5caf da3c 4179 adbc 9002 c4bd
00000020: c6e8 abbd 1760 bc3d 2e1e e73d a975 523b
00000030: 8ca0 86bd 2b6c d5bd 935f 013d dac4 a6bd
00000040: 2f6d 92bd 71b4 9abd ff4e a2bd 6890 39bd
00000050: 1dab ce3c 6334 efbd ce8c 02bc 2d56 86bd
00000060: 8bcf 85bd ac4f a13d 63a9 ab3b b2d9 dfbd
00000070: c837 16bd 10fc 02be 81df d0bd 9122 7fbd
00000080: e732 0fbe c9f5 923d 2209 4fbb 482a 89bc
00000090: 617b 243d ec09 c43d 128a dd3c 3dba 01be
000000a0: e747 723d e0a3 a73d ad13 bc3d f403 f0bd
000000b0: c42a 13be 2b10 403c 28d1 5abd 0145 06bd
000000c0: 6924 47bc 02cd 13be 00d8 6bbd 7e50 10be
000000d0: e3c7 cc3d 829b febd 7897 9e3d 0a24 f8bd
000000e0: 88f1 6fbd ac80 093d 4da1 1e3d a6e6 f43c
000000f0: 8e8d 39bc 856b 9a3d 8865 56bd 60e8 dcbd

critic.weight f4 [1, 64]
0.04803275 -0.1273109 0.08538348 0.05413483 0.082944036 -0.08332927 0.034576695 0.06531458
-0.036792986 0.033194814 -0.00999265 0.05772402 0.048019618 -0.11054512 0.09759579 0.072602645
0.09938328 0.01613331 -0.07954038 -0.06695193 0.0022444436 -0.05973847 0.07738575 0.11817854
0.119541466 0.0004999495 -0.013596318 0.10416162 0.02652248 0.026266115 0.08101899 -0.124835685
-0.116077386 0.107477166 0.066646 0.046070434 -0.1001238 0.062757544 -0.08178526 -0.000876358
0.06881506 -0.020376088 0.0018049729 0.030447682 0.073666655 0.086447276 0.09366718 -0.006318574
-0.09739839 -0.06397836 -0.029736971 0.060151342 0.013223685 -0.081686415 0.07601085 -0.023553163
0.0017238421 -0.055926554 -0.013673954 0.10048822 -0.12164101 0.048270084 -0.06233782 0.07876199
00000000: fdbd 443d ca5d 02be 89dd ae3d 7cbc 5d3d
00000010: 90de a93d 89a8 aabd 4ba0 0d3d a7c3 853d
00000020: 3eb4 16bd 49f7 073d 36b8 23bc 0670 6c3d
00000030: 38b0 443d 7b65 e2bd 4de0 c73d b2b0 943d
00000040: 7689 cb3d 012a 843c 11e6 a2bd 181e 89bd
00000050: 8417 133b 53b0 74bd 6c7c 9e3d 9707 f23d
00000060: 28d2 f43d 0b0f 033a 17c3 5ebc b052 d53d
00000070: ac45 d93c 092c d73c 49ed a53d daa9 ffbd
00000080: fbb9 edbd fd1c dc3d b37d 883d 5ab4 3c3d
00000090: b50d cdbd 0787 803d 087f a7bd 64bb 65ba
000000a0: e9ee 8c3d c1eb a6bc d794 ec3a 6b6d f93c
000000b0: 8bde 963d 450b b13d 94d4 bf3d 0a0c cfbb
000000c0: cf78 c7bd 1607 83bd f39a f3bc 4161 763d
000000d0: 28a8 583c 354b a7bd 94ab 9b3d 90f2 c0bc
000000e0: 8bf2 e13a 3e13 65bd b808 60bc c5cc cd3d
000000f0: ec1e f9bd dab6 453d f155 7fbd f74d a13d
