RLmylib/ppo_rope_lift_final.pth (torch, 91544 bytes, 6 tensors)

feature_net.0.weight f4 [128, 105]
0	0xbd083502	-0.033253677
1	0x3dbea7bf	0.09309339
2	0xbd8e85f5	-0.06959144
3	0x3d53d9a5	0.051721234
4	0xbd625de0	-0.055265307
5	0x3da64dd7	0.081203155
6	0xbdbd7ab4	-0.092519194
7	0x3d67647a	0.056492306
8	0xbdc5d575	-0.09659854
9	0x3cf4f050	0.029899746
10	0x3d8a44a4	0.067513734
11	0x3d9cc1c1	0.07654143
12	0xbce05a93	-0.02738694
13	0x3cf909e4	0.030400224
14	0x3d253576	0.040334187
15	0xbc0f4ab8	-0.008745842
16	0x3d617225	0.055040497
17	0x3d6801ea	0.05664245
18	0x3d32fe79	0.043699715
19	0xbdc33d5b	-0.09533187
20	0xbc2c25b2	-0.010507034
21	0xbd2a1f04	-0.041533485
22	0xbdc4cab2	-0.096089736
23	0x3d050f28	0.032485157
24	0xbd3d0fd3	-0.04615767
25	0x3d49cabc	0.04926561
26	0xbd0f6849	-0.035011563
27	0x3da7023d	0.08154724
28	0x3d2e59e0	0.04256618
29	0xbd99baa2	-0.075063005
30	0xbd7f8aff	-0.062388416
31	0x3d9890b7	0.07449477
32	0xbd8af010	-0.067840695
33	0x3ca27421	0.019830765
34	0x3d966c5d	0.073448874
35	0xbd738ef7	-0.059462514
36	0x3db17155	0.086641945
37	0xbd13e472	-0.036106534
38	0x3db358af	0.087571494
39	0xbd4f4dcd	-0.050611306
40	0x3d53277f	0.05155134
41	0xbdb8dd7d	-0.090266205
42	0x3d65b8e6	0.056084536
43	0xbdc4ecfe	-0.09615515
44	0xbd5adfe0	-0.05343616
45	0xbc704dc4	-0.014666978
46	0xbdb520a0	-0.08844113
47	0xbd25df09	-0.040495906
48	0x3d741b20	0.05959618
49	0x3d7fa98e	0.06241756
50	0x3c67fa98	0.014158867
51	0x3d02e13f	0.031953093
52	0xbd5ec848	-0.05439022
53	0xbd41190c	-0.047143027
54	0xbcee7a68	-0.029111102
55	0x3d62ac0e	0.055339865
56	0x3d8fd445	0.07022909
57	0xbd1c02d5	-0.03808864
58	0xbd0bf012	-0.034164496
59	0xbd87aaff	-0.06624412
60	0x3d7422e9	0.059603605
61	0xbd01306c	-0.03154032
62	0xbd85d82a	-0.06535371
63	0xbd2cf370	-0.042224348
64	0x3c956967	0.018238736
65	0xbd086569	-0.033299837
66	0xbd9338da	-0.07188578
67	0x3d8865ab	0.066600166
68	0xbd37db5b	-0.044886928
69	0x3d2aada5	0.041669507
70	0xbcdf457e	-0.027254816
71	0xbd8163de	-0.06317876
72	0xbd64e67e	-0.055883877
73	0xba9d4fe2	-0.0012001956
74	0xbd79027a	-0.060793377
75	0x3d9486d6	0.072522804
76	0xbd54f664	-0.05199279
77	0x3da1097c	0.07863137
78	0x3d8a40f6	0.067506716
79	0xbcf4b584	-0.02987171
80	0xbd768d1b	-0.060193162
81	0x3dbf0e1c	0.09328863
82	0xbd037a51	-0.032099072
83	0xbdb25ea2	-0.08709456
84	0x3d4016bd	0.046896685
85	0xbcecc7dd	-0.028903896
86	0xbd496f64	-0.049178496
87	0x3c6909fe	0.014223574
88	0x3d2598de	0.04042899
89	0x3cac856e	0.021059718
90	0x3d3221fe	0.04348945
91	0x3c0b0e1a	0.008487249
92	0xbc6a8ea5	-0.014316236
93	0x3dc53eae	0.09631096
94	0xbdac5b04	-0.08415797
95	0x3d3f5ca5	0.046719212
96	0x3dba0979	0.09083838
97	0xbdae0dbb	-0.08498713
98	0x3d2d3508	0.042286903
99	0xbcc73cd5	-0.024321
100	0x3d0407d6	0.032234035
101	0xbd93682c	-0.071976036
102	0xbda3a68e	-0.07990752
103	0xbd3b7156	-0.045762382
104	0xbdac0e75	-0.08401195
105	0x3cf5878d	0.029971862
106	0xbda88dd0	-0.082301736
107	0x3cac556b	0.021036824
108	0x3dadcaee	0.084859714
109	0x3c545f26	0.012962138
110	0x3d9c55e3	0.07633569
111	0xbd5601b6	-0.052247725
112	0xbcdfdd19	-0.027327107
113	0xbb988227	-0.0046541872
114	0x3d34b556	0.044118248
115	0xbaae4064	-0.0013294336
116	0xbdb11cd4	-0.08648077
117	0xbd364ee5	-0.044508833
118	0x3cc24c7b	0.02371811
119	0x3d11cc72	0.035595365
120	0xbdc2c0af	-0.09509408
121	0xbd82f7d4	-0.06394926
122	0x3cb2c94c	0.021824501
123	0xbdb38fdd	-0.08767674
124	0xbda6d1a2	-0.08145453
125	0x3d92666c	0.07148442
126	0x3cdc8c74	0.026922442
127	0xbd374c02	-0.04475022
128	0xbd42b75a	-0.04753814
129	0xbdba69f1	-0.09102238
130	0xbcee618b	-0.029099246
131	0x3d5670d8	0.05235371
132	0x3cde8e2b	0.0271674
133	0x3ca83b46	0.020536076
134	0x3d62403e	0.055237047
135	0x3c85a227	0.016312672
136	0xbd80a215	-0.06280915
137	0xbccd4206	-0.025055896
138	0xbd06c382	-0.032901295
139	0xbd0f5987	-0.03499749
140	0xbcb8567a	-0.022502173
141	0x3b102faa	0.0022001066
142	0xbd8ea74e	-0.069655046
143	0x3ca1da41	0.019757392
144	0xbcd0d3a3	-0.025491541
145	0x3ca86337	0.020555122
146	0x3db3bd67	0.0877636
147	0xbd363780	-0.044486523
148	0xbd72eb51	-0.059306446
149	0xbda22109	-0.07916457
150	0xbc62c871	-0.013841734
151	0x3d217604	0.03941919
152	0x3c5d97f3	0.013524997
153	0x3d3a9868	0.045555502
154	0xbda759d4	-0.0817143
155	0x3da06785	0.07832245
156	0xbbb37ef0	-0.0054777786
157	0xbd9fb70c	-0.07798585
158	0x3d575c41	0.052578215
159	0x3da920a8	0.08258182
160	0xbd5c6a6c	-0.05381243
161	0xbc1c4f5e	-0.009540407
162	0xbda6999f	-0.0813477
163	0x3dbd9a14	0.09257904
164	0x3cbf2cc1	0.02333677
165	0x3d1d3531	0.038380805
166	0xbc8f4bbe	-0.017492171
167	0xbcd822d3	-0.026383793
168	0x3bcac22c	0.006187698
169	0xbd6d31c5	-0.057908792
170	0xbcd1ae94	-0.02559594
171	0xbda38adf	-0.07985472
172	0xbd3e5321	-0.046465997
173	0x3d8801ee	0.06640993
174	0xbb87a735	-0.0041398057
175	0x3db1020b	0.08642968
176	0x3ccba2e6	0.02485795
177	0x3dab0759	0.08351011
178	0xbdb1ae82	-0.08675863
179	0xbd113ba5	-0.035457272
180	0x3c830b14	0.015996493
181	0xbd281d98	-0.041043848
182	0x3d2349a1	0.03986514
183	0x3a5a84ef	0.00083358487
184	0x3d587bed	0.05285256
185	0xbc08d0c3	-0.008350554
186	0xbc5fe01f	-0.0136642745
187	0xbdb2e98c	-0.08735952
188	0x3d68e2e2	0.056856997
189	0x3d0b717f	0.034043785
190	0x3d7e427f	0.062075134
191	0x3da9f857	0.0829932
192	0xbd84e491	-0.06488908
193	0xbd571223	-0.05250753
194	0x3cb88cb7	0.022528036
195	0xbd53010f	-0.05151468
196	0x3c3d19c4	0.011541788
197	0x3dc4405b	0.09582587
198	0x3d3f8cd2	0.046765156
199	0x3c8da591	0.017290862
200	0x3b1bb985	0.0023761701
201	0x3d8347b3	0.0641016
202	0xbd1a5379	-0.037677262
203	0xbdbb0eb7	-0.09133666
204	0x3cc59383	0.02411819
205	0xbda7029f	-0.08154797
206	0x3cb08778	0.021548972
207	0xbd3b8a48	-0.045786172
208	0xbcfeb979	-0.0310943
209	0xbd45041d	-0.048099626
210	0x3c07d7c3	0.008291188
211	0xbcf2526e	-0.029580321
212	0x3d574ca4	0.052563325
213	0xbb6d13d0	-0.003617514
214	0xbd8b3e0e	-0.06798945
215	0xbd8f4d52	-0.069971696
216	0x3cf33509	0.029688375
217	0x3da246c9	0.079236574
218	0xbc313d03	-0.010817769
219	0x3d24e818	0.040260404
220	0x3d1d155d	0.03835045
221	0xbd9bc326	-0.07605581
222	0x3d5af99a	0.053460695
223	0xbd927815	-0.0715181
224	0xbc315894	-0.010824341
225	0x3c2a28d0	0.010385707
226	0xbd4e01c9	-0.05029467
227	0x3da3215e	0.07965349
228	0x3c8999f8	0.01679705
229	0x3d0aeb82	0.033916004
230	0x3ccaaecd	0.024741555
231	0xbce02476	-0.027361136
232	0xbcc57916	-0.02410559
233	0xbc4d0fb7	-0.012515954
234	0x3db1008e	0.08642684
235	0xbd7ef026	-0.062240742
236	0xbd80c250	-0.06287062
237	0x3da2ca4d	0.07948742
238	0x3c25741d	0.010098484
239	0x3c98504f	0.018592982
240	0xbc9432cc	-0.018090628
241	0x3da1ff26	0.07909994
242	0x3d42881b	0.04749308
243	0xbd08c993	-0.03339536
244	0xbce3c5e8	-0.02780433
245	0xbc148143	-0.0090640215
246	0xbd5a4e55	-0.05329736
247	0x3d97ba2d	0.07408557
248	0xbd7bff9e	-0.061523072
249	0xbc0e2d1f	-0.00867775
250	0x3c50f3ab	0.0127534075
251	0x3d16a9da	0.036783077
252	0xbd929668	-0.07157594
253	0x3da639a4	0.08116463
254	0xbc5b083e	-0.013368664
255	0x3d20d020	0.039260983

feature_net.0.bias f4 [128]
0	0x3d435547	0.04768875
1	0xbcc3eeb4	-0.023917533
2	0x3d992d96	0.07479398
3	0xba4a172b	-0.0007709141
4	0xbd599f6c	-0.053130552
5	0xbd53ecc0	-0.051739454
6	0xbc08a3df	-0.008339851
7	0x3d1b232b	0.037875336
8	0x3d57cfc9	0.052688394
9	0x3d10e776	0.03537699
10	0x3b3d4143	0.002887801
11	0x3cfe4a90	0.031041414
12	0x3db89a79	0.09013838
13	0x3da7d599	0.081950374
14	0x3d88ec8c	0.06685743
15	0x3baa72f7	0.005201693
16	0xbd78577c	-0.060630307
17	0x3d19fc63	0.03759421
18	0xbd5f731a	-0.05455313
19	0x3d5b3cce	0.053524785
20	0xbd034cf6	-0.032055818
21	0xbdc26615	-0.09492127
22	0xbc66014d	-0.014038396
23	0x3d19879b	0.03748284
24	0xbd87510c	-0.06607255
25	0x3d82be84	0.06383994
26	0xbb656385	-0.0035001945
27	0x3cc4e03f	0.02403271
28	0xbd0fe616	-0.035131536
29	0xbcb562a2	-0.022141758
30	0x3d9c6306	0.07636075
31	0xbcab774e	-0.020930912
32	0x3d2caf7e	0.04215955
33	0x3d83cace	0.06435166
34	0xbb2e5a5a	-0.0026604147
35	0xbcc16802	-0.023609165
36	0xbd88253f	-0.06647729
37	0xbd8f7b76	-0.0700597
38	0x3d9d5e44	0.07683995
39	0x3d2da280	0.0423913
40	0xbcc4976f	-0.02399799
41	0xbd352c68	-0.044231802
42	0xbda86985	-0.08223251
43	0x3d28d90f	0.04122263
44	0x3d873a0d	0.06602869
45	0x3b0c8b18	0.002144521
46	0xbd5ca3e4	-0.053867236
47	0x3c1a7325	0.009426867
48	0x3d6d283e	0.057899706
49	0x3db0b47b	0.08628174
50	0xbd3e7ad0	-0.046503842
51	0x3d258f2e	0.04041975
52	0x3c078fa1	0.00827399
53	0x3d51450f	0.05109125
54	0xbd64068c	-0.055670306
55	0xbdb9e239	-0.09076352
56	0x3d0c2b10	0.034220755
57	0x3c985bdf	0.018598495
58	0x3cb49b76	0.022046786
59	0xbd9b9b45	-0.07597975
60	0xbd2b7344	-0.041857973
61	0x3d2cf961	0.042230014
62	0xbceb73cf	-0.028741745
63	0xbc4f9d62	-0.0126718
64	0x3d93755d	0.0720012
65	0x3d04fb85	0.03246643
66	0x3dc4fa26	0.096180245
67	0xbd6e5fd3	-0.058196854
68	0xbd83a7a2	-0.06428458
69	0x3d87f69f	0.06638836
70	0x3b3f2d41	0.002917126
71	0x3d87dadf	0.06633543
72	0xbd485001	-0.048904423
73	0x3cc96b44	0.024587281
74	0x3d8ae78c	0.06782445
75	0x3d819926	0.06328039
76	0xbdb75d11	-0.08953298
77	0xbd4ce449	-0.050022397
78	0xbd86a22e	-0.06573902
79	0x3d33500d	0.043777514
80	0x3c174bd1	0.009234385
81	0x3dc4b1ec	0.096042484
82	0xbcac3294	-0.021020211
83	0xbc05f7eb	-0.008176784
84	0x3d4a4aaa	0.04938761
85	0x3d625516	0.055256926
86	0xbdb77c8b	-0.089593016
87	0x3cd32b8e	0.025777604
88	0xbce368c7	-0.027759923
89	0xbcfac2da	-0.03061049
90	0xbd9a1bdc	-0.07524845
91	0x3b703952	0.003665526
92	0x3d77898d	0.060433913
93	0xbbff9c40	-0.007800609
94	0x3db6e02c	0.08929476
95	0x3da7ba16	0.0818979
96	0x3d91f7f2	0.0712737
97	0x3da4e51e	0.08051513
98	0x3d8ac874	0.06776515
99	0xbd530818	-0.05152139
100	0xbd28b0b1	-0.04118413
101	0x3cec3c55	0.028837362
102	0xbb01badb	-0.0019795212
103	0xbdb76e21	-0.08956552
104	0xbc2a98cc	-0.010412406
105	0xbdbdea6e	-0.092732295
106	0xbc506e0d	-0.012721551
107	0x3d8c335b	0.06845733
108	0x3d7486bf	0.059698816
109	0x3d054039	0.03253195
110	0xbdb8561d	-0.090008
111	0x3d141834	0.036155894
112	0xbc23d6df	-0.00999996
113	0x3d89f222	0.06735636
114	0x3be1679b	0.006878806
115	0x3d98c10b	0.07458695
116	0x3bfe7191	0.007765003
117	0xbdba8598	-0.09107512
118	0xbd528932	-0.05140037
119	0xbdb46179	-0.08807654
120	0xbd53352f	-0.05156439
121	0xbd115f9d	-0.035491575
122	0xbc611905	-0.013738875
123	0xbd6b5ebb	-0.05746339
124	0x3d78ac5f	0.06071126
125	0xbd6d687f	-0.057960983
126	0xbd836e0c	-0.06417474
127	0x3c052bff	0.008128165

feature_net.2.weight f4 [64, 128]
0	0x3d02b83d	0.031913985
1	0x3cc0dca6	0.023542713
2	0xbd36d875	-0.044640023
3	0xbda46280	-0.080266
4	0x3d04ef2e	0.032454662
5	0xbcf75712	-0.030192886
6	0xbcdf090f	-0.027226
7	0x3ca7995c	0.02045887
8	0xbd6d7403	-0.057971966
9	0xbd740b50	-0.0595811
10	0xbd27b821	-0.040947083
11	0x3d9e6136	0.07733385
12	0xbd79cbad	-0.060985256
13	0xbd1b5747	-0.03792503
14	0xbd84aee1	-0.06478668
15	0x3aac41a7	0.0013142125
16	0xbd9ce03d	-0.076599576
17	0xbc8f5c3c	-0.017500035
18	0xbd25b668	-0.04045716
19	0xbdaa7009	-0.0832215
20	0x3cf09911	0.029369863
21	0x3c91c46f	0.017793862
22	0x3c84f4fb	0.016230097
23	0xbd3457b8	-0.044028968
24	0xbd57efee	-0.05271905
25	0xbd1d84da	-0.038456775
26	0x3b1f833d	0.0024339699
27	0x3d9dfa96	0.07713811
28	0x3d356611	0.04428679
29	0xbc9bfcb5	-0.019041399
30	0x3daa587b	0.083176576
31	0xbd3bd184	-0.045854107
32	0x3d1aed00	0.037823677
33	0xbd479cf9	-0.048733685
34	0x3d02e529	0.031956825
35	0x3d5072a4	0.05089058
36	0xbd76a434	-0.06021519
37	0xbcfff412	-0.031244311
38	0x3d7db1fd	0.06193732
39	0xbd58cd9e	-0.052930467
40	0xbd01cdf1	-0.03169054
41	0x3c04f205	0.008114343
42	0xbd60b019	-0.05485544
43	0x3d8f640a	0.07001503
44	0x3c264155	0.010147412
45	0xbd49af17	-0.049239244
46	0xbd8d59b1	-0.06901873
47	0xbda3b851	-0.0799414
48	0x3db3ca5d	0.08778832
49	0x3d13d540	0.036092043
50	0x3da68d54	0.08132425
51	0x3c97a8d9	0.01851313
52	0xbd53d730	-0.05171889
53	0xbdaa42f2	-0.0831355
54	0x3da11c64	0.07866743
55	0xbcf7619c	-0.030197911
56	0x3d85b88c	0.0652934
57	0xbd9a516b	-0.075350605
58	0xbb95db04	-0.004573228
59	0xbd2c77e4	-0.042106524
60	0xbda3a9c3	-0.07991364
61	0x3d8c7157	0.06857555
62	0xbce5cf48	-0.028052941
63	0x3b4a0652	0.003082652
64	0xbcb7e51d	-0.022448117
65	0xbd2623d8	-0.040561527
66	0x3cf23a91	0.029568942
67	0xbcbd4e01	-0.023108484
68	0xbd0552da	-0.032549717
69	0xbb968a61	-0.004594133
70	0xbcdfc033	-0.027313327
71	0x3d3632e8	0.04448214
72	0xbd03e925	-0.032204766
73	0xbdb3c10a	-0.08777054
74	0xbd557f60	-0.052123427
75	0x3db1f500	0.08689308
76	0xbd767db3	-0.06017847
77	0xbd1310d4	-0.03590472
78	0x3c31f5c9	0.010861822
79	0xbd3c717a	-0.046006657
80	0xbd7f78d9	-0.06237111
81	0xbdaa7dfd	-0.083248116
82	0x3d256295	0.04037722
83	0x3d32eabe	0.0436809
84	0x3c293765	0.0103281485
85	0x3c26f1d8	0.010189496
86	0x3d1fdb60	0.03902757
87	0x3c8c307f	0.017112968
88	0x3d4e064c	0.050298974
89	0x3d6277b2	0.05528993
90	0x3da96d6f	0.08272826
91	0xbcf0be74	-0.02938769
92	0x3d040869	0.032234583
93	0x3d958f6b	0.073027454
94	0x3c36c8a8	0.011156239
95	0xbce6166a	-0.02808686
96	0xbd9be23c	-0.0761151
97	0x3bcb3961	0.0062019085
98	0xbd3719bb	-0.044702273
99	0x3cf462aa	0.029832203
100	0xbd7935ba	-0.060842253
101	0x3b678e5a	0.003533265
102	0x3d20ffeb	0.039306562
103	0x3da54fcf	0.08071863
104	0x3d18d0ce	0.037308507
105	0xbd46c26e	-0.048525266
106	0xbc9b691f	-0.018971024
107	0x3da2432e	0.0792297
108	0xbc625e3a	-0.013816411
109	0xbd72c5b7	-0.059270587
110	0x3d1cfbfe	0.038326256
111	0x3d936f56	0.0719897
112	0xbd061756	-0.0327371
113	0x3db3fe86	0.08788781
114	0x3d188ede	0.037245624
115	0x3c7ba847	0.015359945
116	0xbdb22c8c	-0.08699903
117	0xbc28c4e3	-0.010300848
118	0x3d8bc078	0.0682382
119	0xbd4e362c	-0.05034463
120	0xbd52fdcf	-0.051511582
121	0x3d48997c	0.0489745
122	0xbcf5e06f	-0.030014245
123	0x3da5c76f	0.080946796
124	0x3aac047d	0.0013123896
125	0xbdac990d	-0.084276296
126	0xbc2bba55	-0.010481437
127	0xbc48f451	-0.012265281
128	0xbd76aa20	-0.060220838
129	0xbcb65f7f	-0.022262333
130	0x3da1d06d	0.07901082
131	0xbdaf51ed	-0.08560548
132	0xbc54ea9e	-0.01299539
133	0xbd065cb8	-0.032803267
134	0x3d15570b	0.036459964
135	0xbd6711b6	-0.056413375
136	0xbd957b1b	-0.07298871
137	0xbc72dbe0	-0.01482293
138	0xbd89ba19	-0.067249484
139	0x3d7d1a40	0.061792612
140	0x3d3ae63a	0.045629717
141	0x3d39f99f	0.045404073
142	0xbda890a7	-0.08230715
143	0x3c883d07	0.016630663
144	0xbd873c2e	-0.06603275
145	0xbd97fd57	-0.074213676
146	0xbd41e414	-0.047336653
147	0xbd416675	-0.04721685
148	0x3d021395	0.031756956
149	0x3cf1ce8b	0.029517433
150	0x3d17fc57	0.037105884
151	0x3cb1333e	0.02163088
152	0xbc159dd5	-0.009131868
153	0xbcfa6bf5	-0.030569056
154	0x3b55801c	0.003257758
155	0x3d8493bf	0.06473493
156	0x3cabc616	0.020968478
157	0x3da82694	0.08210483
158	0xbceaa9c9	-0.028645413
159	0xbd5f6215	-0.054536898
160	0x3d3472ca	0.044054784
161	0xbdafdf2f	-0.08587491
162	0xbd93f465	-0.07224349
163	0xbd2572e9	-0.04039279
164	0x3d13c453	0.0360759
165	0xbd7c105f	-0.06153905
166	0xbd6d5bdc	-0.057948932
167	0x3d8dd1ea	0.069248036
168	0xbac8badd	-0.0015314479
169	0x3d411be9	0.047145758
170	0xbcf73537	-0.030176742
171	0x3d0b2ee7	0.033980276
172	0x3c659797	0.014013193
173	0xbdad521e	-0.08462928
174	0x3cb32952	0.021870289
175	0xbd8292f5	-0.06375686
176	0x3ce06a75	0.027394513
177	0x3d8165bf	0.06318235
178	0x3c7be483	0.015374306
179	0x3d629e5e	0.055326812
180	0xbd973250	-0.07382643
181	0xbc8b1d96	-0.016981881
182	0xbd3cfdcb	-0.046140473
183	0xbd4f1631	-0.050558273
184	0x3c32071c	0.010865953
185	0xbc6bf1b9	-0.014400893
186	0x3d88dfb1	0.06683291
187	0x3d1d729f	0.03843939
188	0x3d5c73b4	0.05382128
189	0x3c86c796	0.016452592
190	0xbccaf9f1	-0.024777384
191	0x3ced164b	0.028941294
192	0xbd182415	-0.037143786
193	0xba6b9304	-0.00089864456
194	0x3d0c635d	0.034274448
195	0xb97a91e6	-0.0002389621
196	0x3d8ee013	0.069763325
197	0x3c3ce76e	0.0115297865
198	0xbaac3157	-0.0013137263
199	0xbd56ff29	-0.052489433
200	0x3d4a6593	0.049413275
201	0x3cd81436	0.026376825
202	0xbd22e150	-0.039765656
203	0x3c8a53e8	0.016885713
204	0x3cc0c8e2	0.023533288
205	0x3d6e10e4	0.058121577
206	0x3d5b202c	0.05349748
207	0xba56e52c	-0.00081976014
208	0xbd8bb31b	-0.06821271
209	0xbd00da37	-0.031458106
210	0xbd450cff	-0.048108097
211	0x3d4f55ce	0.05061894
212	0x3d847ae9	0.06468756
213	0x3d203b35	0.039118964
214	0xbbdcb37d	-0.006735264
215	0x3cc1701e	0.023613032
216	0x3d1e873b	0.038703185
217	0x3ca8c995	0.020603934
218	0x3da92f98	0.08261031
219	0xbda5941e	-0.08084892
220	0xbd371f0d	-0.044707347
221	0x3d01c69a	0.03168354
222	0xbd54111b	-0.051774126
223	0xbda0a119	-0.07843227
224	0x3dab5e40	0.08367586
225	0x3d327c94	0.04357584
226	0x3b88ddeb	0.0041768453
227	0xbc81277f	-0.015765904
228	0x3c0eab4b	0.008707832
229	0xbb181df6	-0.0023211217
230	0x39d96c9e	0.0004147039
231	0x3d7437b5	0.05962344
232	0x3c85d106	0.016335022
233	0xb95e5998	-0.00021204946
234	0xbda0552f	-0.078287475
235	0xbd872500	-0.06598854
236	0x3d20d8d5	0.039269287
237	0x3c7a4067	0.015274144
238	0x3d267e41	0.04064775
239	0x3c03443c	0.008011874
240	0x3d126273	0.03573842
241	0xbba9b93a	-0.0051795514
242	0x3d8e10c1	0.06936789
243	0xbc6a0544	-0.014283482
244	0xbc95dfd1	-0.0182952
245	0x3d3ae26a	0.04562608
246	0x3d6753a0	0.056476235
247	0xbd82b055	-0.06381289
248	0x3cf4056a	0.029787738
249	0xbd05c8dc	-0.032662258
250	0x3d916df2	0.071010485
251	0x3cfc5b29	0.030805187
252	0xbcf62acd	-0.030049706
253	0xbd817e55	-0.06322924
254	0xbce5d54b	-0.028055808
255	0xbb78c1af	-0.0037957241

feature_net.2.bias f4 [64]
0	0x3d94cd6b	0.07265743
1	0x3cb365f1	0.021899195
2	0xbc2e73a6	-0.01064769
3	0x3c967260	0.018365085
4	0xbc3c742d	-0.011502308
5	0x3cc341f4	0.02383516
6	0x3cd2c65e	0.025729354
7	0xbd7226ca	-0.059119023
8	0xbc990b27	-0.018682076
9	0x3d998849	0.074966975
10	0xbda80ae4	-0.08205202
11	0x3d9c74da	0.07639475
12	0x3d5ed245	0.054399747
13	0xbd8a3ab2	-0.067494765
14	0x3db17b17	0.08666056
15	0x3d03c431	0.032169525
16	0xbdafeb30	-0.0858978
17	0xbd3f8e7f	-0.046766754
18	0x3d39a107	0.045319583
19	0xbd430fdc	-0.047622547
20	0x3c7d589c	0.015463021
21	0x3d8aa8f7	0.06770509
22	0x3cee3d98	0.029082105
23	0xbd3a79e5	-0.045526404
24	0xbd033ebf	-0.03204226
25	0xbd89dbd8	-0.06731385
26	0x3cc35eae	0.023848858
27	0xbdacb445	-0.08432821
28	0x3c2df515	0.010617514
29	0xbd8c349d	-0.06845973
30	0x3d8fd6de	0.070234045
31	0xbd7436c5	-0.059622545
32	0x3d1037d9	0.03520951
33	0xbc06489e	-0.008196024
34	0xbd82d49f	-0.063882105
35	0xbdaa30d2	-0.08310093
36	0xbcf8ed80	-0.030386686
37	0x3d381875	0.0449452
38	0x3cd3976b	0.025829038
39	0x3c77f787	0.015134699
40	0xbd9c09ce	-0.076190576
41	0xbd9bdb81	-0.076102264
42	0x3d4f5649	0.050619397
43	0xbd24fad9	-0.04027829
44	0xbdaf847a	-0.0857019
45	0x3c991d3e	0.018690702
46	0xbc44f2a8	-0.012020744
47	0xbd2cb706	-0.042166732
48	0x3d869663	0.06571653
49	0x3d29bbd0	0.041438878
50	0x3ce3696d	0.027760232
51	0x3c9b3ea1	0.018950762
52	0xbd8f0c52	-0.06984772
53	0x3d6d1a69	0.057886515
54	0x3d6b0c55	0.057384808
55	0x3c12aa16	0.008951684
56	0xbc14f7af	-0.0090922555
57	0x3d81a074	0.06329432
58	0xbd534a77	-0.051584687
59	0x3ca2757b	0.01983141
60	0x3c3595ff	0.011083125
61	0xbca52403	-0.020158773
62	0x3d16dd36	0.036832057
63	0xbd94ee49	-0.07272012

actor_mean.weight f4 [1, 64]
0	0x3da72ba2	0.08162619
1	0xbd821994	-0.06352535
2	0xbd37314c	-0.044724748
3	0xba3c6a00	-0.0007187426
4	0x3c80d670	0.015727252
5	0x3d2e09b0	0.042489707
6	0xbc106330	-0.008812711
7	0x3dde912a	0.108675316
8	0xbd90c224	-0.070682794
9	0xbd52002c	-0.051269695
10	0xbdf8ddd6	-0.12151687
11	0x3ded46fc	0.11585805
12	0xbd4f7540	-0.050648928
13	0xbd609520	-0.054829717
14	0xbdd2e326	-0.102972314
15	0x3dbd6d22	0.09249331
16	0xbce0efe0	-0.027458131
17	0xbdd4074e	-0.10352956
18	0x3dd1ef4a	0.10250719
19	0xbdc05382	-0.09390928
20	0x3dfad1c0	0.12247038
21	0xbde6cf48	-0.112700045
22	0xbc393c20	-0.011305839
23	0x3d8398dc	0.0642564
24	0x3c0a76d0	0.008451179
25	0x3dca9d8c	0.09893331
26	0xbcd58278	-0.026063189
27	0xbccb6048	-0.024826184
28	0x3de61b4e	0.11235677
29	0x3d4b9f00	0.04971218
30	0xbda99e6a	-0.08282168
31	0xbdeed6f6	-0.11662094
32	0xbb5e3f00	-0.0033912063
33	0x3dd658a2	0.10466124
34	0x3deb461c	0.11487982
35	0xbc8e5630	-0.017375082
36	0xbd3fe728	-0.046851307
37	0x3cdb8f60	0.026801765
38	0x3da92f88	0.08261019
39	0xbdd946c0	-0.106091976
40	0x3dce2d98	0.1006729
41	0xbca7bba8	-0.020475224
42	0xbd39ed3c	-0.04539226
43	0x3d1215f0	0.035665452
44	0x3d500594	0.05078657
45	0x3cbb6ae0	0.02287811
46	0xbdcd99b2	-0.10039081
47	0x3d927594	0.071513325
48	0xbd9f3258	-0.07773274
49	0x3dd70b64	0.105002195
50	0xbdd743ce	-0.105109796
51	0xbdc718b6	-0.0972151
52	0xbd7e5424	-0.06209196
53	0x3d95d3f0	0.073158145
54	0x3c70e0f0	0.014702067
55	0x3df18e5c	0.11794731
56	0xbddb0ff2	-0.10696401
57	0xbdd8cf5c	-0.10586426
58	0xbd87d6e4	-0.06632784
59	0x3d054e3c	0.032545313
60	0xbc957bc0	-0.018247485
61	0x3dde8d4c	0.10866794
62	0x3c52ff40	0.012878239
63	0x3dc3b3cc	0.09555778

critic.weight f4 [1, 64]
0	0xbd929c58	-0.071587265
1	0xbcee739e	-0.029107865
2	0x3dce5dd7	0.10076492
3	0xbc35f9d2	-0.011106925
4	0x3d311b14	0.043238714
5	0x3df72f2c	0.12069544
6	0xbc0f4aa0	-0.008745819
7	0x3d8222c8	0.0635429
8	0x3da43c5e	0.080193266
9	0x3925128a	0.00015742533
10	0x3d6e1e60	0.058134437
11	0xbdd15262	-0.102207914
12	0xbd8eddc4	-0.06975892
13	0xbdcd84ac	-0.10035071
14	0x3de0d67a	0.10978408
15	0x3df69050	0.12039244
16	0x3cfa2ee8	0.030539945
17	0x3dd736f2	0.10508527
18	0x3cbed3dd	0.023294384
19	0xbdae865e	-0.08521722
20	0xbd76734e	-0.060168557
21	0xbdc5a452	-0.09650482
22	0x3dfc6242	0.12323429
23	0xbc90aa78	-0.01765941
24	0xbd5c9080	-0.053848743
25	0xbcab7072	-0.020927642
26	0x3d0a9ab8	0.033838958
27	0x3d8cb823	0.06871059
28	0x3cef5f5f	0.029220281
29	0x3b2ded00	0.0026538968
30	0x3da8835c	0.0822818
31	0xbd4a118c	-0.04933314
32	0xbde0ef74	-0.10983172
33	0x3d9fd46e	0.078041896
34	0xbd9954ae	-0.074868545
35	0x3dcfe980	0.101519585
36	0xbd9b786a	-0.075913265
37	0x3dffed0c	0.12496385
38	0xbdc0c006	-0.094116256
39	0x3cfc6329	0.030809002
40	0xbd0a0484	-0.033695713
41	0x3df5cb3c	0.120016545
42	0x3d429360	0.04750383
43	0xbdcfa43a	-0.101387456
44	0x3ca8a4f5	0.02058647
45	0x3de9a08c	0.11407575
46	0xbd4d5678	-0.05013129
47	0xbddfe99d	-0.1093323
48	0xbd3e7e14	-0.046506956
49	0x3dd7395b	0.105089866
50	0x3c34c8d0	0.011034206
51	0x3d12b1a8	0.035813957
52	0x3d001150	0.03126651
53	0x3dfc7428	0.123268425
54	0x3d8f2f32	0.06991424
55	0x3dfe79cc	0.12425575
56	0xbc715e10	-0.014731899
57	0xbda19357	-0.07889431
58	0xbd1de870	-0.038551748
59	0xbd1eb318	-0.038745016
60	0xbd87dfc2	-0.06634475
61	0xbdc33b06	-0.09532742
62	0x3dadacb9	0.0848021
63	0xbdd7b218	-0.105320156
