RLmylib/ppo_rope_lift_final.pth (torch, 48024 bytes, 6 tensors)

feature_net.0.weight f4 [128, 20]
0.048692394 -0.010366388 0.17316659 -0.10617184 0.11634505 -0.029183824 0.19283447 -0.049786866
-0.17549889 0.12511842 -0.09673007 -0.083036155 -0.057499968 0.072602436 -0.12737203 -0.021231502
0.06214526 -0.21007791 0.079514705 0.113109045 0.18731329 -0.1853615 0.09208331 0.2107784
0.20449203 -0.110025205 0.18308948 -0.18767002 -0.19290489 -0.035122193 0.053823438 0.02400736
0.0598341 -0.14716928 -0.18980852 0.08353049 -0.18098015 0.07819124 0.06104851 -0.15065446
-0.20589486 -0.016836228 -0.06126734 0.091694616 -0.009243824 0.028249584 -0.21987599 0.16605079
0.20265245 -0.018520113 -0.16556673 -0.09232532 -0.034145866 -0.03259638 -0.2013244 -0.2014221
0.15359394 -0.13893461 -0.009856034 -0.1624291 -0.038094927 -0.051971696 0.15095827 0.17028487
0.1995063 0.1740489 0.21837854 -0.045694795 -0.20756039 0.056188144 0.10794174 -0.19502465
0.019991793 -0.09487403 -0.12655544 -0.06824054 -0.09841591 -0.0277018 -0.09757127 0.18687053
-0.07414717 0.059959438 -0.07240441 -0.16393332 -0.018431723 0.061749227 -0.13498613 -0.075332545
-0.18690665 -0.21307647 0.09230149 0.021127257 -0.22196348 0.12989947 0.18527748 0.07500351
-0.03545244 -0.09160681 0.05128176 -0.17824365 -0.063243404 -0.07935835 -0.05024612 0.10310043
0.028957993 -0.017667841 0.12549089 0.16915129 -0.17643932 -0.07502973 -0.05001685 -0.10510333
-0.0925866 -0.034582917 0.17387572 -0.15517947 -0.21022117 0.19773734 -0.17588495 -0.21175298
-0.20886016 -0.024970494 0.20931593 0.051534217 -0.09727515 0.060885813 -0.14940953 0.16167143
-0.20120586 0.050927076 -0.015229483 0.02260592 0.18847162 -0.030518036 0.12387595 -0.09296033
-0.110722125 -0.12585598 -0.023504594 -0.119330645 0.14632122 0.19897981 0.19654346 0.16297914
0.0042781024 0.12678085 0.062438417 -0.112317085 -0.06829738 -0.121401906 0.07968808 0.13213116
-0.105449006 0.103862144 0.22216289 -0.21482633 0.06947288 0.10329503 0.12168386 0.1152952
0.13357534 0.10379498 -0.077913746 -0.14219686 -0.14440215 0.04134736 0.19673082 0.120952114
0.14621887 0.20230131 0.13244724 0.18865672 0.16590954 0.029020209 0.054548692 -0.109351404
0.19610697 -0.17479643 0.22319621 0.05610108 -0.17261961 0.0975604 0.18427919 0.20843185
-0.08451428 -0.17003141 -0.1653352 0.12094619 -0.07161805 0.0911821 -0.1049979 -0.034740053
0.04103732 0.08401139 0.19922076 -0.0982868 -0.17006244 -0.034402855 0.09738049 0.11049605
-0.17149009 0.06307504 -0.028258113 0.20771232 -0.012286207 0.22094935 0.008471706 -0.18322465
-0.028219275 -0.012944477 -0.22012112 -0.19436161 -0.064242974 -0.15101756 0.18858896 0.005031991
-0.12471991 0.039642543 0.17690602 -0.09648094 0.17954935 0.14201489 -0.13621244 0.079717375
0.09418511 0.17557493 0.16061634 -0.20416692 0.16060764 -0.2168339 -0.08090386 0.20278648
0.09625215 0.15203686 0.215619 -0.22133546 -0.08833242 -0.023762073 0.05988268 -0.029928356
0.04802413 -0.11042477 0.01631713 0.080001 -0.13053727 -0.1572523 -0.035470296 0.18171132
-0.036117185 0.15941688 -0.0025168068 0.13916147 -0.06860737 -0.19565587 -0.21532717 0.12918122
00000000: ad71 473d c8d7 29bc 9552 313e 9f70 d9bd
00000010: 5046 ee3d ea12 efbc 6676 453e 50ed 4bbd
00000020: fbb5 33be 0b1f 003e 6a1a c6bd dc0e aabd
00000030: 1685 6bbd 96b0 943d d06d 02be b0ed adbc
00000040: 078c 7e3d aa1e 57be 9bd8 a23d b7a5 e73d
00000050: 0ecf 3f3e 68cf 3dbe 2d96 bc3d 4bd6 573e
00000060: 5c66 513e e554 e1bd cf7b 3b3e 922c 40be
00000070: dc88 45be 4adc 0fbd f775 5c3d 15ab c43c
00000080: 9a14 753d 8bb3 16be 2a5d 42be 0912 ab3d
00000090: dc52 39be bb22 a03d 010e 7a3d 2a45 1abe
000000a0: 1ad6 52be 21ec 89bc 76f3 7abd 63ca bb3d
000000b0: 6873 17bc ac6b e73c 2c27 61be 3809 2a3e
000000c0: 2084 4f3e 7eb7 97bc 538a 29be 0f15 bdbd
000000d0: 89dc 0bbd c883 05bd fc27 4ebe 9841 4ebe
000000e0: bb47 1d3e e044 0ebe 347b 21bc d053 26be
000000f0: 6d09 1cbd 46e0 54bd ce94 1a3e 285f 2e3e
00000100: 614b 4c3e e039 323e a09e 5f3e 772a 3bbd
00000110: b68a 54be 8a25 663d 8f10 dd3d 8bb4 47be
00000120: d4c5 a33c 514d c2bd c097 01be b2c1 8bbd
00000130: 488e c9bd e3ee e2bc 72d3 c7bd fd5a 3f3e
00000140: 79da 97bd 0798 753d c348 94bd 23de 27be
00000150: 20fe 96bc c2ec 7c3d ce39 0abe f347 9abd
00000160: 7564 3fbe b830 5abe 9008 bd3d 1213 ad3c
00000170: 654a 63be 5e04 053e 61b9 3d3e 719b 993d
00000180: 9436 11bd 5a9c bbbd d30c 523d 8185 36be
00000190: c285 81bd a186 a2bd e0ce 4dbd 5126 d33d
000001a0: 5039 ed3c 26bc 90bc af80 003e ff35 2d3e
000001b0: 82ac 34be 30a9 99bd 78de 4cbd 6a40 d7bd
000001c0: 0b9e bdbd d1a6 0dbd 7a0c 323e 5ee7 1ebe
000001d0: 3844 57be a87b 4a3e 2f1b 34be c6d5 58be
000001e0: 70df 55be ec8e ccbc ea56 563e 8b15 533d
000001f0: 3238 c7bd 6763 793d d0fe 18be 328d 253e
00000200: e908 4ebe e998 503d 1585 79bc 0d30 b93c
00000210: b4fe 403e f600 fabc adb2 fd3d fc61 bebd
00000220: 48c2 e2bd 64e0 00be b58c c0bc a063 f4bd
00000230: 3bd5 153e 5dc1 4b3e b042 493e 01e4 263e
00000240: 532f 8c3b d7d2 013e 6dbf 7f3d 8006 e6bd
00000250: 7fdf 8bbd 90a1 f8bd 8133 a33d 644d 073e
00000260: a6f5 d7bd adb5 d43d ab7e 633e 6ffb 5bbe
00000270: cc47 8e3d 588c d33d 6335 f93d e41f ec3d
00000280: f9c7 083e 7692 d43d 3e91 9fbd 0e9c 11be
00000290: 28de 13be d95b 293d ce73 493e beb5 f73d
000002a0: 66ba 153e 1328 4f3e 40a0 073e 3a2f 413e
000002b0: 31e4 293e cabb ed3c 736e 5f3d a1f3 dfbd
000002c0: 44d0 483e d6fd 32be 8c8d 643e 3fca 653d
000002d0: 32c3 30be bfcd c73d afb3 3c3e 296f 553e
000002e0: d315 adbd b71c 2ebe a14d 29be a3b2 f73d
000002f0: 7cac 92bd aebd ba3d 2409 d7bd 964b 0ebd
00000300: c016 283d 2a0e ac3d 8700 4c3e 974a c9bd
00000310: d924 2ebe 02ea 0cbd 6c6f c73d c14b e23d
00000320: 199b 2fbe 7d2d 813d 8f7d e7bc 8ab2 543e
00000330: 164c 49bc 8c40 623e e9cc 0a3c 3e9f 3bbe
00000340: 1c2c e7bc 1215 54bc 6e67 61be bb06 47be
00000350: d291 83bd 59a4 1abe 771d 413e 66e3 a43b
00000360: 276d ffbd 3860 223d da26 353e cd97 c5bd
00000370: c9db 373e 5a6c 113e 467b 0bbe dd42 a33d
00000380: 1fe4 c03d eac9 333e 9c78 243e 2211 51be
00000390: 5476 243e b509 5ebe ecb0 a5bd 42a7 4f3e
000003a0: d91f c53d 8daf 1b3e 3acb 5c3e c3a5 62be
000003b0: a1e7 b4bd aea8 c2bc 8b47 753d 502c f5bc
000003c0: f3b4 443d 6226 e2bd 80ab 853c 90d7 a33d
000003d0: 90ab 05be bf06 21be 4d49 11bd 8812 3a3e
000003e0: 9def 13bd 2e3e 233e 03f1 24bb 5880 0e3e
000003f0: 0582 8cbd 035a 48be ba7e 5cbe 1548 043e

feature_net.0.bias f4 [128]
-0.15081085 -0.23197792 -0.07237734 0.1692159 0.16661747 -0.09920489 0.12292168 -0.11726898
0.123369105 0.22461148 -0.018019883 -0.017548611 -0.05238494 -0.10817763 -0.11652198 0.16815767
-0.15235305 0.14807667 0.06455007 -0.1946845 0.18434785 0.19244003 0.08806187 -0.047120925
-0.0080317985 0.12638704 0.20513912 0.19702595 -0.09706647 -0.04359722 -0.070115134 0.055974916
0.16452903 0.15103605 0.014113641 0.048990816 0.16636203 0.05230197 0.016742824 0.03070085
0.08026986 -0.0842716 -0.11276388 -0.17792854 0.19078352 0.058911838 0.010534915 -0.13492082
-0.19065449 -0.18313295 0.20593032 -0.20620711 0.21494229 0.04188279 -0.080846876 -0.18283404
-0.0641805 0.0051323976 -0.07543283 0.063603915 0.05622863 -0.098393925 -0.08383436 -0.02943751
0.011534642 0.010084564 -0.13735078 -0.11784869 -0.0012748168 0.008733834 -0.078169174 -0.11642105
0.16563138 0.10198865 -0.057079483 -0.123032406 -0.12715548 0.10702518 0.07631046 0.13723996
0.04148377 0.12053789 -0.046762038 0.071470656 0.10741425 -0.07201955 0.13368446 -0.18344319
0.0441035 0.1367136 0.19334643 0.021239407 0.008919071 0.19403464 0.17078133 -0.13245507
0.081171386 0.011907959 0.13076699 -0.20659281 0.21194479 0.13518916 0.09284816 0.029898938
-0.009300071 -0.016580014 -0.22740695 -0.13707362 -0.2005821 0.17008005 0.19620314 -0.13543475
0.13752422 0.030533327 0.16274823 0.13729802 -0.103889436 0.06399411 0.16475862 0.065661296
-0.076627195 0.14917731 0.0018816595 0.014821073 0.06543689 0.07350546 -0.012520817 -0.098872475
00000000: 296e 1abe 9f8b 6dbe 923a 94bd ef46 2d3e
00000010: c59d 2a3e ef2b cbbd 5dbe fb3d b82a f0bd
00000020: f1a8 fc3d 8d00 663e 6f9e 93bc 1bc2 8fbc
00000030: 9791 56bd 3c8c ddbd 13a3 eebd 8631 2c3e
00000040: 7002 1cbe 69a1 173e d432 843d 605b 47be
00000050: afc5 3c3e 000f 453e c859 b43d df01 41bd
00000060: ce97 03bc 9b6b 013e fd0f 523e 2cc1 493e
00000070: c9ca c6bd 0093 32bd 8698 8fbd f445 653d
00000080: 4c7a 283e 32a9 1a3e e73c 673c 98aa 483d
00000090: cf5a 2a3e 973a 563d 3f28 893c 5980 fb3c
000000a0: 8664 a43d 9796 acbd c0f0 e6bd e632 36be
000000b0: c15c 433e 8a4d 713d a39a 2c3c af28 0abe
000000c0: ee3a 43be 3487 3bbe 66df 523e f527 53be
000000d0: d519 5c3e 4a8d 2b3d 0c93 a5bd d938 3bbe
000000e0: 1171 83bd ac2d a83b 877c 9abd c542 823d
000000f0: fe4f 663d c182 c9bd 59b1 abbd ef26 f1bc
00000100: ccfb 3c3c ba39 253c afa5 0cbe a75a f1bd
00000110: c117 a7ba 5b18 0f3c 2917 a0bd 296e eebd
00000120: 469b 293e 6ddf d03d 2dcc 69bd 6af8 fbbd
00000130: 0c35 02be 0430 db3d a948 9c3d a288 0c3e
00000140: e3ea 293d 92dc f63d 8d89 3fbd 355f 923d
00000150: 01fc db3d fc7e 93bd 94e4 083e 88d8 3bbe
00000160: dfa5 343d a6fe 0b3e 9bfc 453e 44fe ad3c
00000170: 4c21 123c 04b1 463e 4de1 2e3e 4da2 07be
00000180: 2f3d a63d 9a19 433c c8e7 053e 118d 53be
00000190: 0e08 593e 076f 0a3e 2d27 be3d 9eee f43c
000001a0: 535f 18bc cfd2 87bc 5edd 68be 075d 0cbe
000001b0: 6565 4dbe 7729 2e3e 7ae9 483e 68af 0abe
000001c0: 26d3 0c3e 0721 fa3c 79a7 263e da97 0c3e
000001d0: fcc3 d4bd 580f 833d 7cb6 283e 6e79 863d
000001e0: b8ee 9cbd f0c1 183e 04a2 f63a 16d4 723c
000001f0: c703 863d 088a 963d 1d24 4dbc a77d cabd

feature_net.2.weight f4 [64, 128]
-0.04684816 -0.08342272 0.03659811 -0.033672374 0.044111807 -0.0021327266 -0.03215549 -0.03346686
-0.06827426 -0.032653064 -0.08369939 -0.07196822 -0.051957797 -0.08953436 0.069565244 0.03217507
-0.05588731 -0.07715494 -0.073348135 -0.054612234 -0.05824393 0.04997054 -0.03438899 -0.05361635
0.040967252 -0.07186755 0.021985123 0.067284055 0.06846449 0.060807794 -0.040733837 -0.06354011
-0.0894738 0.043954525 0.07373531 0.07898346 -0.08884904 -0.0914772 -0.0013308824 0.059531044
-0.027669225 0.05872027 -0.021724565 -0.06788219 0.07390045 -0.08412599 -0.06926763 -0.08111341
-0.02065022 0.034179743 -0.054591972 -0.084086634 0.03818219 -0.084285066 0.0012275238 -0.05910644
0.03921995 -0.022090137 -0.02400726 -0.01792773 -0.07390582 0.008084823 -0.08810522 -0.070180185
-0.010776656 -0.047680326 0.032572236 -0.06336809 -0.04613495 0.0039403886 0.07762908 -0.045127578
-0.08851424 -0.036880672 -0.0740005 -0.03394197 -0.06708283 0.07940764 0.06514455 0.0144783
-0.00615745 -0.08325235 -0.027519155 0.046842825 -0.030466825 -0.0671928 0.009673786 0.02509596
-0.059499145 -0.07496059 -0.029191846 0.06898551 -0.017846182 -0.08628795 0.02897633 -0.08012069
-0.06699141 -0.018157698 -0.00068663026 0.0101644285 0.022127833 0.05401713 0.052254226 -0.07485535
-0.034537483 -0.08504384 0.07525395 0.036601745 0.024611553 -0.04428159 -0.07971344 -0.06542521
-0.080549024 -0.0506309 0.05166492 0.04838212 0.04932045 -0.0034683065 0.06332936 -0.05133195
-0.07407409 0.024690626 0.07765632 -0.09410671 0.075006895 -0.09438884 -0.012326895 -0.06355544
-0.046092667 -0.021398112 0.039801575 0.045945052 0.024837216 -0.03400065 0.042262845 -0.009716151
0.0583265 0.026918963 -0.020268293 0.080276616 -0.011163915 0.06347503 0.036287013 0.065434165
0.07507102 0.033047546 0.06688996 -0.07379188 0.07326336 -0.00072663615 -0.0689685 0.089144774
-0.026738146 -0.047058184 -0.08430646 0.04818835 0.012673853 0.029889956 -0.023083143 0.04115165
0.06487359 0.043875504 -0.06507542 0.038531017 0.06788414 -0.060242422 0.06914444 0.036386088
0.063642085 0.05610312 0.08488008 0.08773462 -0.0075439485 -0.026395898 0.043651897 0.072847284
-0.013346189 0.07997208 -0.053700335 0.0018662224 0.06583276 -0.0036548981 -0.0044599003 -0.026762657
0.08008537 -0.029078005 -0.04076134 0.078845106 -0.027257804 0.01835801 0.008576013 0.08055276
-0.081144534 0.06316077 0.04481415 -0.04894838 -0.08254754 -0.067560345 0.06718912 0.049088344
0.0022430788 -0.016758135 0.091669165 -0.04645075 -0.0052102525 0.06700895 0.05178971 0.083384894
0.050774135 -0.0637764 0.05500209 -0.061423842 -0.057069346 0.07818909 -0.034909204 -0.07795953
-0.009891517 -0.06755867 0.023003515 0.062115315 0.0255256 -0.026964352 -0.059226345 -0.019029967
-0.061667774 0.03517026 -0.013297198 0.0139110815 -0.04694565 0.038358293 0.026825178 -0.07513542
0.053470537 0.052065033 0.026925262 0.09445682 0.066531844 0.0645953 0.0072104307 0.07141981
-0.019348782 -0.037978474 0.060864907 -0.010139325 -0.0742952 0.06823173 -0.031637404 -0.02001154
-0.077144235 -0.0061987108 -0.03821425 0.057224136 0.011575842 -0.06514111 0.020927161 0.023557222
00000000: dbe3 3fbd 88d9 aabd e6e7 153d 0bec 09bd
00000010: 95ae 343d 37c5 0bbb 7ab5 03bd 8c14 09bd
00000020: 60d3 8bbd 38bf 05bd 966a abbd 1364 93bd
00000030: b3d1 54bd ca5d b7bd 3978 8e3d 02ca 033d
00000040: 18ea 64bd 6903 9ebd 8c37 96bd 14b1 5fbd
00000050: 3091 6ebd e9ad 4c3d 78db 0cbd d19c 5bbd
00000060: 47cd 273d 4b2f 93bd 251a b43c 39cc 893d
00000070: 1c37 8c3d 9811 793d 86d8 26bd 5121 82bd
00000080: 0a3e b7bd a909 343d 8a02 973d 15c2 a13d
00000090: 7cf6 b5bd 6658 bbbd 0171 aeba d3d6 733d
000000a0: 92aa e2bc aa84 703d b7f7 b1bc d105 8bbd
000000b0: 1e59 973d 3f4a acbd 30dc 8dbd ca1e a6bd
000000c0: a62a a9bc 0f00 0c3d d59b 5fbd 9d35 acbd
000000d0: ee64 1c3d a69d acbd dde4 a03a 9819 72bd
000000e0: 19a5 203d 60f6 b4bc e0aa c4bc 2ddd 92bc
000000f0: ef5b 97bd 3576 043c 8270 b4bd a1ba 8fbd
00000100: 9290 30bc 724c 43bd 776a 053d 21c7 81bd
00000110: 00f8 3cbd 601e 813b fffb 9e3d b2d7 38bd
00000120: f446 b5bd 3010 17bd 938d 97bd bc06 0bbd
00000130: b962 89bd 79a0 a23d 816a 853d 6436 6d3c
00000140: 6fc4 c9bb 3580 aabd da6f e1bc 43de 3f3d
00000150: 9095 f9bc 619c 89bd cd7e 1e3c 0b96 cd3c
00000160: 60b5 73bd f084 99bd bd23 efbc 4648 8d3d
00000170: 2832 92bc bdb7 b0bd c55f ed3c 5116 a4bd
00000180: cb32 89bd 74bf 94bc fafe 33ba b488 263c
00000190: 6e45 b53c 1141 5d3d 8708 563d c34d 99bd
000001a0: 2d77 0dbd 772b aebd be1e 9a3d b6eb 153d
000001b0: 2b9e c93c 9d60 35bd cd40 a3bd a7fd 85bd
000001c0: e3f6 a4bd 5962 4fbd 989e 533d 542c 463d
000001d0: 3d04 4a3d 874c 63bb d3b2 813d 7341 52bd
000001e0: 28b4 97bd ff43 ca3c 470a 9f3d 05bb c0bd
000001f0: 379d 993d f04e c1bd bff6 49bc 5b29 82bd
00000200: aacb 3cbd 184b afbc fa06 233d e130 3c3d
00000210: 6b77 cb3c 4444 0bbd ce1b 2d3d 7e30 1fbc
00000220: c5e7 6e3d 2885 dc3c b109 a6bc 1168 a43d
00000230: dae8 36bc 32ff 813d b1a1 143d 5902 863d
00000240: d6be 993d dd5c 073d 9afd 883d 3220 97bd
00000250: 1a0b 963d ba7b 3eba 5b3f 8dbd 8991 b63d
00000260: f509 dbbc 15c0 40bd dea8 acbd 2661 453d
00000270: fea5 4f3c c8db f43c dc18 bdbc a28e 283d
00000280: 72dc 843d cdb6 333d 4346 85bd b3d2 1d3d
00000290: d706 8b3d c2c0 76bd 9a9b 8d3d 9409 153d
000002a0: c856 823d 63cc 653d 9bd5 ad3d 35ae b33d
000002b0: 3a33 f7bb 363c d8bc 55cc 323d f530 953d
000002c0: f9a9 5abc 67c8 a33d e2f4 5bbd 089c f43a
000002d0: 53d3 863d 0487 6fbb 5b24 92bb 5c3d dbbc
000002e0: cc03 a43d ff34 eebc 5df5 26bd 8b79 a13d
000002f0: c24b dfbc 8a63 963c 6882 0c3c d8f8 a43d
00000300: 1b2f a6bd 6f5a 813d 0b8f 373d 197e 48bd
00000310: af0e a9bd 145d 8abd 739a 893d dc10 493d
00000320: 9e00 133b 5b48 89bc 0bbd bb3d 2443 3ebd
00000330: c4ba aabb fd3b 893d 7221 543d b3c5 aa3d
00000340: 8af8 4f3d 349d 82bd df49 613d 9197 7bbd
00000350: 8cc1 69bd 9a21 a03d f4fc 0ebd 3fa9 9fbd
00000360: 0810 22bc 335c 8abd de71 bc3c a16c 7e3d
00000370: 101b d13c 58e4 dcbc 5397 72bd bce4 9bbc
00000380: 5997 7cbd b10e 103d 7edc 59bc 4eeb 633c
00000390: 154a 40bd 961d 1d3d 7ac0 db3c 99e0 99bd
000003a0: ec03 5b3d 2542 553d 5e92 dc3c 9472 c13d
000003b0: d941 883d 8a4a 843d 7a45 ec3b 8d44 923d
000003c0: 5681 9ebc 518f 1bbd 7b4d 793d 691f 26bc
000003d0: 1528 98bd 14bd 8b3d 3996 01bd 3eef a3bc
000003e0: ccfd 9dbd 8e1e cbbb 8c86 1cbd db63 6a3d
000003f0: 9aa8 3d3c b468 85bd 706f ab3c 13fb c03c

feature_net.2.bias f4 [64]
0.045111854 0.070967376 -0.03067679 0.0636691 0.015967585 -0.030331986 0.044003148 0.011730279
-0.014939433 0.0757485 -0.055577535 0.060947135 0.05984446 -0.0193444 0.07230293 -0.041042518
-0.054547578 0.06443633 0.011468312 -0.05180483 0.018823903 -0.064719796 -0.027182687 -0.068184346
0.07280539 0.055206127 0.033324603 0.04031855 0.022237813 0.021633923 -0.025887156 -0.06519761
-0.030012086 0.06390265 0.0011369365 -0.01696032 0.058365118 -0.076799184 0.0039177537 0.051357158
0.06102812 0.0757841 0.0049205692 0.043985743 0.08196515 0.025749002 -0.06084729 -0.023076348
0.039512016 -0.08344581 0.096245565 -0.038468216 0.08116576 0.011410764 -0.013655754 0.00558339
-0.04167318 0.03732313 -0.007924844 0.044628803 -0.087548465 0.015122713 -0.06814827 0.04633931
00000000: 35c7 383d 5857 913d e44d fbbc f264 823d
00000010: 74ce 823c c97a f8bc a53c 343d 5b30 403c
00000020: 86c4 74bc 0822 9b3d 45a5 63bd b4a3 793d
00000030: 771f 753d 2678 9ebc 8f13 943d 331c 28bd
00000040: 486d 5fbd 32f7 833d 96e5 3b3c 4d31 54bd
00000050: 9634 9a3c d08b 84bd 3aae debc 3ca4 8bbd
00000060: fe1a 953d d21f 623d 617f 083d 1025 253d
00000070: 132c b63c a039 b13c 4d11 d4bc 5386 85bd
00000080: e8db f5bc 64df 823d 4205 953a 5ef0 8abc
00000090: 4310 6f3d e448 9dbd 8060 803b e25b 523d
000000a0: 9ff8 793d b234 9b3d ba3c a13b 652a 343d
000000b0: 58dd a73d 92ef d23c 023b 79bd 9c0a bdbc
000000c0: 5ad7 213d a3e5 aabd 651c c53d d990 1dbd
000000d0: 3c3a a63d 37f4 3a3c 62bc 5fbc dff4 b63b
000000e0: 7fb1 2abd 23e0 183d 34d7 01bc b1cc 363d
000000f0: 9c4c b3bd 41c5 773c 5291 8bbd 4ace 3d3d

actor_mean.weight f4 [1, 64]
-0.037622537 0.010831133 0.013086338 0.010993562 -0.034424633 -0.10232955 -0.024354244 -0.004664672
0.06903307 -0.035091694 -0.07622601 0.044215597 -0.05721951 0.003271894 -0.02296378 0.0072834105
0.10902797 -0.08814426 0.018007476 0.1118251 0.019831998 -0.060896486 0.057726864 0.03522128
-0.020721547 -0.035934594 0.03258553 -0.01853997 0.086610936 0.118717946 0.071795695 -0.050681543
-0.016821379 -0.055042498 0.0041920017 0.025193196 0.07156752 -0.042207513 0.022399757 -0.10432828
0.067313984 0.1132288 0.124087065 0.12764816 0.02127055 -0.08456505 0.04500338 0.072576664
0.07318664 0.012617737 0.09760821 0.108900025 0.01688145 -0.11215476 0.06353781 -0.02537605
-0.10108189 -0.060526982 0.10464416 -0.10068452 0.02564873 0.05509515 0.041218974 -0.0655738
00000000: 171a 1abd 1175 313c 1468 563c 571e 343c
00000010: d800 0dbd 2892 d1bd 8d82 c7bc 1bda 98bb
00000020: 3661 8d3d 4fbc 0fbd 621c 9cbd 6a1b 353d
00000030: 015f 6abd 466d 563b 8a1e bcbc ada9 ee3b
00000040: 0e4a df3d fa84 b4bd 6a84 933c 8f04 e53d
00000050: b776 a23c 986e 79bd 0173 6c3d 3044 103d
00000060: 3cc0 a9bc 2730 13bd 6878 053d 23e1 97bc
00000070: 1361 b13d 6522 f33d 9f09 933d 7397 4fbd
00000080: fdcc 89bc 3e74 61bd 0f5d 893b f661 ce3c
00000090: fe91 923d c9e1 2cbd b27f b73c 11aa d5bd
000000a0: eadb 893d 80e4 e73d 5c21 fe3d 33b6 023e
000000b0: 943f ae3c 7130 adbd 7755 383d 13a3 943d
000000c0: e1e2 953d a0ba 4e3c d0e6 c73d fa06 df3d
000000d0: f74a 8a3c 65b1 e5bd 1d20 823d 6fe1 cfbc
000000e0: 0604 cfbd 24eb 77bd ad4f d63d b033 cebd
000000f0: 491d d23c 74ab 613d 3ad5 283d 8e4b 86bd

critic.weight f4 [1, 64]
-0.057406053 -0.05929018 0.09856304 -0.016459702 -0.020420162 0.027953155 -0.111920126 -0.015261452
0.016463682 -0.044304565 0.058817793 -0.09653183 0.029582324 -0.004138048 0.08759366 -0.05132053
-0.008153613 0.029343458 -0.08893218 0.038698748 -0.08252108 -0.06912188 -0.06409787 -0.011730103
0.02489664 0.01254134 -0.030592434 0.062285777 0.0944842 0.04145872 -0.07394643 0.0046722037
0.06214333 0.05173548 -0.03459076 -0.06785694 -0.00938802 -0.06817161 -0.10166527 0.077677675
0.073586464 0.051083613 0.10495769 0.011191568 -0.038283184 0.09269042 0.05538465 -0.055678092
0.08133953 -0.10038093 -0.066004135 -0.017485496 -0.05242434 -0.048445705 -0.09254844 -0.032451704
-0.057656646 0.084340185 -0.07290661 -0.047876116 -0.114669584 0.09900229 0.015853109 0.057989478
00000000: 9c22 6bbd 43da 72bd 6bdb c93d 7fd6 86bc
00000010: 2f48 a7bc 04fe e43c 6136 e5bd 2b0b 7abc
00000020: d8de 863c b478 35bd edea 703d 7bb2 c5bd
00000030: a156 f23c 7698 87bb 4e64 b33d 7a35 52bd
00000040: bb96 05bc b161 f03c 1322 b6bd 9482 1e3d
00000050: d000 a9bd c68f 8dbd be45 83bd 9e2f 40bc
00000060: 0af4 cb3c 317a 4d3c fc9c fabc 5f1f 7f3d
00000070: ef80 c13d 9ed0 293d 3a71 97bd 4919 993b
00000080: 018a 7e3d 95e8 533d 0aaf 0dbd 94f8 8abd
00000090: 36d0 19bc 8f9d 8bbd e235 d0bd 7915 9f3d
000000a0: 80b4 963d 0d3d 513d 0ff4 d63d d75c 373c
000000b0: d4ce 1cbd 7ad4 bd3d 04db 623d b60e 64bd
000000c0: 5795 a63d 8494 cdbd 2d2d 87bd be3d 8fbc
000000d0: e8ba 56bd 016f 46bd 098a bdbd 14ec 04bd
000000e0: 6029 6cbd 8cba ac3d 1050 95bd bf19 44bd
000000f0: e3d7 eabd b6c1 ca3d 61de 813c 6086 6d3d
