RL M/ppo_rope_lift_final.pth (torch, 46987 bytes, 6 tensors)

feature_net.0.weight f4 [128, 20]
0.113040745 0.095061 -0.11599058 0.1529062 -0.028794512 -0.07105183 0.018019674 0.026242653
-0.016380863 0.026126992 0.054353733 -0.09442781 -0.17878754 -0.18028586 0.16832632 0.19793206
-0.20289277 -0.055016108 -0.046642765 -0.22377947 0.11737589 -0.062232662 0.19511963 0.019535014
-0.12715779 -0.10460249 0.085174955 -0.10523645 -0.10006697 -0.1338113 -0.038101297 -0.031241613
-0.15606351 -0.18555735 -0.22042738 -0.005100545 0.13552493 0.20678546 -0.174509 0.1185548
0.016329363 0.090321586 0.11430474 -0.18149875 0.13007323 0.05068741 0.12748405 -0.18794681
-0.03756943 0.04347704 -0.055963673 -0.21387221 0.04805977 -0.04551724 -0.099612296 0.0055159735
-0.15866177 -0.08354287 -0.17348969 0.05427801 -0.00469247 0.017677678 0.10439441 0.0021414103
-0.056317747 -0.10959559 0.18666242 -0.086887814 0.078663744 0.10145066 0.094042525 -0.07788448
0.14938386 0.1673515 0.093414724 0.19508111 0.18368308 0.19943568 -0.11650962 0.043327447
0.055990543 -0.17786042 0.060277123 0.00617633 -0.060316946 0.14465179 0.14521305 0.07931463
0.097495146 -0.09680718 0.09227318 -0.14943779 0.10460468 -0.048246466 -0.14554247 0.16724724
0.17261776 0.07846192 -0.15589598 0.16208515 0.09784762 0.08356042 0.030938588 0.004655072
0.12574801 -0.19057836 -0.070322014 0.21560162 -0.04145902 0.18303913 -0.01932579 0.22040477
-0.015606772 -0.0056623225 0.038651638 -0.15838137 0.11755035 0.026147591 0.16053894 0.016170245
0.09078279 0.074634045 -0.18541807 -0.19736716 -0.1192742 0.03339086 -0.07626545 -0.19608343
-0.1922528 0.043588437 -0.15848644 0.20732653 -0.11635017 0.14477664 -0.1785595 -0.20624289
0.10282849 0.044559456 -0.22716373 -0.16660567 0.10139967 0.13066782 0.11046604 0.16085035
-0.116930336 -0.07219654 0.13085906 -0.009633267 -0.06312902 0.19648787 -0.068312764 -0.075448066
0.0761931 0.12401398 0.13960683 0.064443484 0.01141678 0.20647341 -0.19381143 0.10137839
0.010899055 0.037492447 -0.21728423 0.06291007 -0.18581215 0.1786592 -0.05220363 0.18493143
0.14154902 -0.039908443 0.15559508 -0.045460116 0.14203075 0.123453036 0.1882206 0.07224808
0.06232626 -0.036148157 0.21441396 -0.057813413 0.16167265 0.0044025327 -0.11684863 -0.030859606
-0.13197605 0.036578733 -0.13430424 0.20894757 -0.045074534 0.10403136 0.21672186 0.19068111
0.17302811 -0.12185908 0.123257644 -0.14858201 0.07891751 0.02553445 0.028970107 -0.08163924
0.15452428 0.030652462 0.13712053 0.21826893 0.00049937365 0.21160695 -0.18624115 0.10356248
-0.13833967 0.16546792 -0.21665107 -0.056293514 -0.06565849 0.14286348 0.10092428 -0.12676457
-0.025053695 -0.10983878 -0.037466172 0.13540822 -0.13975886 0.18947956 -0.07077807 0.14534561
0.06986294 0.058797102 0.09520617 -0.07981392 0.105809554 0.19834656 0.0734554 0.043843
0.14567322 0.13695912 0.060112976 -0.20090602 -0.020666407 -0.07601837 0.213554 -0.062377837
0.055740535 0.19469064 -0.10209032 -0.020390779 -0.1389184 -0.20324403 0.009717634 0.04678297
-0.17093378 -0.13437916 -0.15218264 -0.21015188 0.011118407 -0.14149363 0.15199922 -0.050364822
00000000: e881 e73d 57af c23d 788c edbd 7193 1c3e
00000010: 78e2 ebbc 9f83 91bd ff9d 933c d5fa d63c
00000020: 2931 86bc 4608 d63c 05a2 5e3d 5e63 c1bd
00000030: 1514 37be db9c 38be bc5d 2c3e b4ae 4a3e
00000040: 1fc3 4fbe 9258 61bd 7c0c 3fbd 7226 65be
00000050: c562 f03d ade7 7ebd 71cd 473e e507 a03c
00000060: a735 02be d539 d6bd 3570 ae3d 3586 d7bd
00000070: e9ef ccbd d405 09be 1b10 1cbd 69ee ffbc
00000080: 1dcf 1fbe bf02 3ebe b7b7 61be 7922 a7bb
00000090: 0cc7 0a3e 91bf 533e 7db2 32be dccc f23d
000000a0: 28c5 853c 86fa b83d 9b18 ea3d cfda 39be
000000b0: eb31 053e 9a9d 4f3d 2e8b 023e 2175 40be
000000c0: 67e2 19bd fb14 323d 2a3a 65bd 5101 5bbe
000000d0: 52da 443d 4970 3abd 8801 ccbd 57bf b43b
000000e0: 3b78 22be 8618 abbd 48a7 31be 9e52 5e3d
000000f0: 4bc3 99bb c7d0 903c bdcc d53d e756 0c3b
00000100: 70ad 66bd a773 e0bd 6f24 3f3e 3df2 b1bd
00000110: 751a a13d 5dc5 cf3d 5e99 c03d e681 9fbd
00000120: 15f8 183e 315e 2b3e 3850 bf3d 58c3 473e
00000130: 6b17 3c3e de38 4c3e 989c eebd 1f78 313d
00000140: 5756 653d 0b21 36be 25e5 763d d062 ca3b
00000150: e70e 77bd 991f 143e bbb2 143e b56f a23d
00000160: 89ab c73d d842 c6bd b9f9 bc3d 3806 19be
00000170: fa3a d63d 169e 45bd 1609 15be dc42 2b3e
00000180: b6c2 303e a5b0 a03d 32a3 1fbe a6f9 253e
00000190: 5564 c83d ba21 ab3d ec72 fd3c 9389 983b
000001a0: 16c4 003e f926 43be fd04 90bd acc6 5c3e
000001b0: efd0 29bd 9c6e 3b3e 1f51 9ebc cab1 613e
000001c0: 8cb3 7fbc 018b b9bb 2e51 1e3d ba2e 22be
000001d0: 3dbe f03d 7933 d63c 5264 243e 7677 843c
000001e0: 54ec b93d bcd9 983d 3cde 3dbe 9e1a 4abe
000001f0: 0846 f4bd dbc4 083d 0f31 9cbd 18ca 48be
00000200: ebdd 44be ca89 323d 454a 22be 684d 543e
00000210: ff48 eebd 5440 143e 4dd8 36be 5631 53be
00000220: be97 d23d fa83 363d 9c9d 68be ad9a 2abe
00000230: a1aa cf3d c9cd 053e 053c e23d f4b5 243e
00000240: 2c79 efbd c8db 93bd ebff 053e dad4 1dbc
00000250: ca49 81bd 1e34 493e 90e7 8bbd 8484 9abd
00000260: 210b 9c3d 0bfb fd3d 18f5 0e3e f2fa 833d
00000270: 720d 3b3c c46d 533e 8176 46be 799f cf3d
00000280: f391 323c ae91 193d c27f 5ebe ffd6 803d
00000290: 8a45 3ebe 70f2 363e 79d3 55bd aa5e 3d3e
000002a0: 3af2 103e 0977 23bd 5154 1f3e 6334 3abd
000002b0: 8270 113e f2d4 fc3d e7bc 403e cdf6 933d
000002c0: d249 7f3d 1710 14bd 558f 5b3e c2cd 6cbd
000002d0: 848d 253e 1f43 903b 564e efbd 49cd fcbc
000002e0: bb24 07be 95d3 153d 0d87 09be 5af6 553e
000002f0: 13a0 38bd 650e d53d 56ec 5d3e e941 433e
00000300: 482e 313e 4191 f9bd 816e fc3d e225 18be
00000310: 819f a13d 9f2d d13c b852 ed3c 7932 a7bd
00000320: 9d3b 1e3e df1a fb3c 5369 0c3e e481 5f3e
00000330: 66e8 023a 7eaf 583e 00b6 3ebe 9118 d43d
00000340: eaa8 0dbe 6c70 293e c7d9 5dbe 0794 66bd
00000350: f577 86bd ce4a 123e 64b1 ce3d 92ce 01be
00000360: 683d cdbc 27f3 e0bd 2176 19bd 74a8 0a3e
00000370: f21c 0fbe ee06 423e 18f4 90bd 7bd5 143e
00000380: 4d14 8f3d 3bd5 703d 74fb c23d 7b75 a3bd
00000390: aeb2 d83d 5c1b 4b3e c96f 963d b894 333d
000003a0: 5c2b 153e 033f 0c3e 0639 763d 4fba 4dbe
000003b0: 994c a9bc 85af 9bbd e6ad 5a3e e77f 7fbd
000003c0: 3050 643d fc5c 473e bb14 d1bd 900a a7bc
000003d0: a040 0ebe 341f 50be b636 1f3c 809f 3f3d
000003e0: 4409 2fbe b19a 09be c4d5 1bbe 0e32 57be
000003f0: fb29 363c b5e3 10be afa5 1b3e 584b 4ebd

feature_net.0.bias f4 [128]
0.104627766 0.01987627 0.0851714 0.1802444 0.07595379 -0.16813219 0.20985885 0.15132074
-0.13624819 0.12828383 -0.056955636 0.13332884 -0.08559988 -0.19764103 -0.17027433 -0.036533803
0.18949506 0.0017580551 -0.12816633 0.09908994 0.19830166 0.18598118 0.16731854 -0.16242205
0.19410582 -0.19916445 0.014347517 -0.21430358 -0.18434355 0.07104343 -0.13676615 0.2115859
0.17713128 0.07395217 -0.077552676 0.103775285 -0.09968709 -0.08421918 0.0064198477 0.19629407
-0.07994163 -0.0531845 -0.1742934 -0.13217679 -0.044367537 -0.20978141 -0.22197014 -0.16305704
0.015133885 -0.18552242 -0.079460874 -0.11698205 -0.0871175 -0.20605925 0.0076675834 -0.017445553
0.06403434 -0.17791323 -0.20954853 0.097352 0.111447915 0.11273483 -0.20429441 -0.109710336
0.16826616 -0.12889914 -0.18193835 0.14637956 -0.040330045 -0.17650354 0.19384585 0.15520446
-0.18922609 0.1983216 0.06508289 -0.027488403 0.034989625 0.218026 0.1729562 0.18492733
0.18911612 0.022209674 -0.15996386 -0.009351728 -0.053454172 -0.16916868 0.05705515 0.12178509
-0.06475372 0.22098081 -0.18064019 0.18412714 0.20880125 0.21849746 -0.19824697 -0.09785262
-0.23118833 -0.08182611 -0.12740551 0.12774557 -0.063688904 0.07517377 -0.009431415 0.2102836
0.17880547 -0.18048358 0.05791665 -0.03323464 -0.035717513 0.14109893 -0.027013503 -0.018918743
0.13388 0.016453736 -0.1382022 -0.13531543 -0.18041724 -0.06882467 -0.12344495 0.08817357
-0.022301702 0.044538315 -0.19471967 -0.049899086 -0.049971357 -0.04740441 0.18194053 -0.1396749
00000000: 1547 d63d 8fd3 a23c 586e ae3d fd91 383e
00000010: a98d 9b3d d82a 2cbe 3de5 563e d3f3 1a3e
00000020: a584 0bbe d65c 033e 504a 69bd 5b87 083e
00000030: fd4e afbd 6962 4abe 655c 2ebe 78a4 15bd
00000040: fe0a 423e 8a6e e63a 093e 03be abef ca3d
00000050: 970f 4b3e da71 3e3e 8d55 2b3e f751 26be
00000060: adc3 463e c4f1 4bbe d911 6b3c 6672 5bbe
00000070: 8ec4 3cbe 387f 913d 6d0c 0cbe f9a9 583e
00000080: e761 353e 3c74 973d f0d3 9ebd 2388 d43d
00000090: bf28 ccbd 1b7b acbd 965d d23b 5001 493e
000000a0: 70b8 a3bd fed7 59bd f879 32be 5a59 07be
000000b0: bcba 35bd f0d0 56be 244c 63be 6df8 26be
000000c0: 1df4 773c 97f9 3dbe 62bc a2bd 4994 efbd
000000d0: a96a b2bd 3201 53be 5a40 fb3b fae9 8ebc
000000e0: 7024 833d e32e 36be e493 56be 7c60 c73d
000000f0: ce3e e43d 85e1 e63d 8e32 51be d0af e0bd
00000100: f74d 2c3e 23fe 03be 0c4e 3abe 86e4 153e
00000110: 1e31 25bd 58bd 34be 877f 463e ebed 1e3e
00000120: 7cc4 41be d114 4b3e 2e4a 853d 5c2f e1bc
00000130: 4851 0f3d 3542 5f3e 6e1b 313e 975d 3d3e
00000140: a8a7 413e 10f1 b53c 91cd 23be fd37 19bc
00000150: c3f2 5abd 8e3a 2dbe a9b2 693d 766a f93d
00000160: 999d 84bd cb48 623e bef9 38be d38b 3c3e
00000170: ffcf 553e ccbd 5f3e 4101 4bbe f466 c8bd
00000180: a2bc 6cbe 7394 a7bd 9776 02be bccf 023e
00000190: 546f 82bd b5f4 993d 3986 1abc 9654 573e
000001a0: c818 373e b0d0 38be 023a 6d3d 0c21 08bd
000001b0: 874c 12bd 3d7c 103e 6c4b ddbc 7bfb 9abc
000001c0: d717 093e fcc9 863c e184 0dbe 2190 0abe
000001d0: 4cbf 38be f3f3 8cbd b5d0 fcbd 5894 b43d
000001e0: 0fb2 b6bc cf6d 363d 9864 47be fc62 4cbd
000001f0: c4ae 4cbd 202b 42bd 9e4e 3a3e f006 0fbe

feature_net.2.weight f4 [64, 128]
-0.07347232 -0.036667965 0.01891158 0.05736893 0.021232575 0.05853137 -0.030008167 -0.023866467
0.07824678 -0.020015754 -0.061821952 0.06729032 -0.0006762655 0.069909014 -0.009782623 0.048071083
-0.026190475 -0.08749364 -0.004509695 -0.02862428 -0.084991634 0.07622467 -0.017239153 0.061876997
-0.08161173 0.02290754 0.007694995 -0.015554928 0.0008642241 0.07049448 0.030890446 0.0077345935
0.019665133 0.07885884 0.063485816 0.03681984 0.00072066573 -0.06248201 0.0043054633 0.009687369
0.07271443 0.053338077 0.07506534 0.025390469 -0.073244676 0.001273714 -0.046815377 0.03792748
-0.0036297862 -0.05289464 -0.054924242 0.031879976 -0.08447217 0.08113237 -0.042171873 -0.04219347
0.081175454 0.03060822 0.024693632 -0.084966965 0.03254697 -0.06175765 0.028106105 -0.054874204
-0.08884254 0.03983388 -0.046340555 -0.038501646 -0.0025631243 0.0482414 -0.011362844 0.08592596
-0.071914695 0.025996566 0.06314255 -0.059899747 0.00033840915 -0.042315062 -0.07929277 -0.03141898
-0.05414982 -0.01830915 -0.041055545 0.026915694 -0.082659565 0.059943967 0.046530724 -0.08985335
-0.021427449 0.020687087 0.0020508517 0.07894704 0.0035170063 -0.02519453 -0.077429906 -0.036629427
0.031714443 -0.034937598 -0.07303849 -0.037831295 -0.035702746 -0.043348182 -0.035199814 0.032078058
-0.02357887 0.025498442 0.0028785442 0.06953499 0.0070736012 -0.015865786 -0.083591215 0.06055847
-0.092897035 -0.07596385 0.034482013 0.009842033 -0.013158741 -0.034490276 0.03460551 -0.07783662
-0.07675948 0.061486978 -0.07063892 0.07943841 0.042570587 -0.04692785 0.072898895 0.022100551
-0.028988378 0.01850255 0.05717035 0.032936778 -0.042993408 -0.051722303 -0.03013934 0.013682824
-0.007967961 0.051941495 -0.08223982 -0.042530976 0.054141324 -0.017268956 0.05973497 0.023507897
0.08276295 -0.039394844 -0.009293277 -0.0037776583 0.06323044 0.0010844887 0.039105818 0.043544017
0.030186057 0.017699186 0.024124637 -0.045347214 0.049832385 -0.050904028 -0.021244055 0.00068084145
-0.0392462 -0.057506807 0.03331646 -0.03567101 -0.06476227 -0.016852703 0.011359241 0.08235128
-0.022512604 -0.05025863 -0.07767288 -0.07792241 -0.04277116 -0.0570883 0.07442265 -0.07027332
0.030120404 -0.04426349 0.08613664 0.02929815 0.017375367 0.035779927 0.042742442 0.07980045
0.070817776 0.07090319 0.039364595 -0.06850918 -0.057464465 -0.011025291 0.05184842 0.017777631
0.05110065 -0.049772758 -0.017055243 -0.019846762 0.061267246 -0.005213795 0.072162144 -0.08530347
0.003823206 0.018275376 0.0036906332 0.036174763 -0.08047282 -0.0738994 -0.0036160257 -0.029053617
0.0019530682 0.0009389434 0.026589958 -0.029271157 0.076843634 0.070948206 -0.018655915 -0.011853589
-0.032896753 -0.008669984 -0.061839655 -0.08703127 -0.0047143893 -0.00308481 -0.06266458 0.07244392
0.026934296 -0.07626588 -0.055741478 -0.09434349 0.008312086 0.06212926 0.008575336 -0.0075576766
-0.0922567 0.07500909 0.04499297 0.009722451 -0.038424883 -0.08005051 -0.068641216 -0.01462172
-0.036968753 0.07077704 0.013292514 -0.077088974 0.01286865 -0.011034092 -0.021590983 -0.090087876
0.08415057 -0.0652845 0.032127704 -0.03261566 -0.077104695 -0.04018362 0.08020712 -0.020674203
00000000: a878 96bd 2631 16bd 75ec 9a3c affb 6a3d
00000010: f0ef ad3c 97be 6f3d b0d3 f5bc 9c83 c3bc
00000020: d93f a03d 14f8 a3bc 0439 7dbd 82cf 893d
00000030: 6947 31ba 752c 8f3d 4b47 20bc 2fe6 443d
00000040: 688d d6bc de2f b3bd 10c6 93bb 777d eabc
00000050: 1810 aebd ae1b 9c3d 2039 8dbc bc72 7d3d
00000060: 0d24 a7bd 98a8 bb3c 4c26 fc3b 19da 7ebc
00000070: 198d 623a 695f 903d f60d fd3c 7972 fd3b
00000080: c618 a13c be80 a13d da04 823d 67d0 163d
00000090: 0feb 3c3a 23ed 7fbd d814 8d3b c5b7 1e3c
000000a0: 4eeb 943d 0779 5a3d dbbb 993d acff cf3c
000000b0: 4e01 96bd c0f2 a63a 7bc1 3fbd d859 1b3d
000000c0: b5e1 6dbb 0da8 58bd 3ef8 60bd 9494 023d
000000d0: bfff acbd ba28 a63d 6abc 2cbd 0fd3 2cbd
000000e0: 513f a63d 17be fa3c 4d4a ca3c 2903 aebd
000000f0: f94f 053d 97f5 7cbd c63e e63c c6c3 60bd
00000100: 14f3 b5bd da28 233d 98cf 3dbd e7b3 1dbd
00000110: 17fa 27bb c698 453d 392b 3abc f3f9 af3d
00000120: 0348 93bd c0f6 d43c e250 813d 7059 75bd
00000130: 826c b139 8f52 2dbd 3f64 a2bd 30b1 00bd
00000140: 34cc 5dbd 12fd 95bc dc29 28bd 4d7e dc3c
00000150: 6b49 a9bd ce87 753d 0097 3e3d 0805 b8bd
00000160: 9e88 afbc f777 a93c 9567 063b fcae a13d
00000170: 937d 663b c264 cebc 9293 9ebd bd08 16bd
00000180: 01e7 013d ba1a 0fbd 3495 95bd fdf4 1abd
00000190: 0b3d 12bd dd8d 31bd ae2d 10bd 4864 033d
000001a0: 7928 c1bc 1ce2 d03c f5a5 3c3b 5c68 8e3d
000001b0: abc9 e73b f7f8 81bc df31 abbd 290c 783d
000001c0: cd40 bebd ef92 9bbd 033d 0d3d 7a40 213c
000001d0: c397 57bc ad45 0dbd 82be 0d3d ce68 9fbd
000001e0: 1334 9dbd c5d9 7b3d 23ab 90bd 9bb0 a23d
000001f0: 7f5e 2e3d 6b37 40bd 044c 953d 370c b53c
00000200: 0979 edbc a992 973c 752b 6a3d b7e8 063d
00000210: db19 30bd c4da 53bd c7e6 f6bc ec2d 603c
00000220: 0d8c 02bc 9bc0 543d 5a6d a8bd f634 2ebd
00000230: 4bc3 5d3d a077 8dbc a8ac 743d a293 c03c
00000240: 9f7f a93d 7d5c 21bd d442 18bc 9792 77bb
00000250: f67e 813d 6725 8e3a 6c2d 203d 365b 323d
00000260: c048 f73c e2fd 903c 08a1 c53c 00be 39bd
00000270: 0b1d 4c3d be80 50bd 0308 aebc 7f7a 323a
00000280: a0c0 20bd 428c 6bbd d776 083d c41b 12bd
00000290: 15a2 84bd ae0e 8abc 1c1c 3a3c caa7 a83d
000002a0: 5a6c b8bc fedb 4dbd f512 9fbd c995 9fbd
000002b0: d030 2fbd 6cd5 69bd e76a 983d 75eb 8fbd
000002c0: 11bf f63c a24d 35bd 6868 b03d ad02 f03c
000002d0: c956 8e3c f98d 123d b312 2f3d 6b6e a33d
000002e0: e908 913d b135 913d c53c 213d 8a4e 8cbd
000002f0: dc5f 6bbd 6ca3 34bc 025f 543d 65a2 913c
00000300: ea4e 513d 85de 4bbd 70b7 8bbc ad95 a2bc
00000310: 5df3 7a3d 7cd8 aabb bfc9 933d 96b3 aebd
00000320: c18e 7a3b 3eb6 953c 8dde 713b fd2b 143d
00000330: efce a4bd 9258 97bd d8fa 6cbb da01 eebc
00000340: 18fe ff3a 6d23 763a 2fd3 d93c 11ca efbc
00000350: 3260 9d3d 4b4d 913d 4ad4 98bc 8e35 42bc
00000360: bfbe 06bd 8c0c 0ebc 944b 7dbd 733d b2bd
00000370: 2a7b 9abb 862a 4abb 4a56 80bd 7a5d 943d
00000380: 50a5 dc3c 4931 9cbd 2d51 64bd 2937 c1bd
00000390: 6a2f 083c 407b 7e3d 917f 0c3c 63a6 f7bb
000003a0: 15f1 bcbd 5e9e 993d 8c4a 383d ea4a 1f3c
000003b0: 6963 1dbd 86f1 a3bd c493 8cbd f08f 6fbc
000003c0: 8c6c 17bd 8ef3 903d d8c8 593c d3e0 9dbd
000003d0: 08d7 523c 56c8 34bc 93df b0bc fe7f b8bd
000003e0: 2257 ac3d e1b3 85bd 5798 033d 0098 05bd
000003f0: 11e9 9dbd 9497 24bd a143 a43d f25c a9bc

feature_net.2.bias f4 [64]
0.0012519059 0.050278764 0.033832155 0.002578007 -0.024977386 -0.06411034 0.077424124 0.030576702
0.023118582 0.063608535 0.021659873 -0.08155927 0.070937194 0.019707208 -0.05669348 0.0668771
-0.082707725 0.07863846 0.023415167 0.081327796 0.077385224 0.05957337 -0.07037004 -0.04875133
0.051440194 -0.0383892 -0.01582408 0.016453234 0.07092821 -0.0076941107 -0.08107282 -0.017399356
0.034402553 0.0015019336 -0.0093669975 -0.026539203 -0.0060836356 -0.06584019 -0.080321245 -0.0505761
0.05508546 -0.06418256 0.07286295 -0.045762017 0.093624264 0.043414116 0.04322627 0.046011448
0.031324692 0.0183371 0.026927544 -0.04314158 0.079023235 -0.0072988467 -0.08123387 0.016743248
-0.055334534 -0.016437333 -0.022723468 -0.018568391 -0.03290501 -0.070142075 0.027654847 -0.031309623
00000000: fe16 a43a 1bf1 4d3d 9693 0a3d c8f3 283b
00000010: 609d ccbc 484c 83bd 8a90 9e3d fe7b fa3c
00000020: 2e63 bd3c 3145 823d 0c70 b13c 8c08 a7bd
00000030: 8547 913d 0371 a13c 6c37 68bd dcf6 883d
00000040: ab62 a9bd 330d a13d 2ad1 bf3c 308f a63d
00000050: 257c 9e3d 3503 743d 2b1e 90bd 79af 47bd
00000060: f4b2 523d fe3d 1dbd 80a1 81bc efc8 863c
00000070: cf42 913d e11e fcbb 8209 a6bd 1889 8ebc
00000080: b1e9 0c3d 87dc c43a 0978 19bc be68 d9bc
00000090: 3c59 c7bb 39d7 86bd 777f a4bd e228 4fbd
000000a0: 4ba1 613d 2572 83bd 2c39 953d f470 3bbd
000000b0: 14be bf3d 00d3 313d 070e 313d 8076 3c3d
000000c0: 524e 003d b037 963c 2797 dc3c 3ab5 30bd
000000d0: efd6 a13d 2a2b efbb f15d a6bd 2329 893c
000000e0: 77a6 62bd 96a7 86bc 9126 babc bd1c 98bc
000000f0: 67c7 06bd a6a6 8fbd 6b8c e23c 853e 00bd

actor_mean.weight f4 [1, 64]
0.07497317 0.0014305735 -0.11263864 0.12121882 0.14652683 0.06479739 0.06784762 0.13286316
-0.06141767 -0.031293664 0.08762045 -0.041455116 0.00856251 0.07642796 0.08601273 0.09272593
0.030717542 0.087883875 0.054197025 0.09520925 0.06105727 0.0015905784 0.01413983 0.017980292
-0.022428498 -0.04119426 0.09134612 0.033813644 -0.10836747 0.037265677 0.03158751 -0.1266174
-0.11620207 0.067849554 -0.11184614 0.08283899 0.07354256 0.09910276 -0.0597233 0.05496653
-0.09385385 -0.0027856636 -0.10105002 -0.09242802 0.045187786 -0.06905001 0.0088641215 0.04053682
-0.050224617 0.008014518 -0.023734128 -0.104030706 -0.052827425 0.053246833 -0.050121397 -0.08906379
-0.11805432 0.06592179 -0.086912714 -0.028733693 0.085518435 0.066543765 -0.10751973 0.06666328
00000000: 898b 993d 1582 bb3a 16af e6bd 9341 f83d
00000010: 210b 163e 7eb4 843d b1f3 8a3d 480d 083e
00000020: 1891 7bbd c92d 00bd 5a72 b33d d7cc 29bd
00000030: c549 0c3c 4386 9c3d 7127 b03d 18e7 bd3d
00000040: 5ba3 fb3c 76fc b33d b3fd 5d3d 11fd c23d
00000050: 3017 7a3d f47a d03a bfaa 673c 684b 933c
00000060: f8bb b7bc 50bb 28bd ad13 bb3d 2d80 0a3d
00000070: c4ef ddbd e5a3 183d e861 013d fea7 01be
00000080: 5afb edbd b5f4 8a3d 970f e5bd 7da7 a93d
00000090: 7b9d 963d 63f6 ca3d 6ba0 74bd 9624 613d
000000a0: 7336 c0bd ae8f 36bb 50f3 cebd e74a bdbd
000000b0: d416 393d 176a 8dbd d23a 113c f009 263d
000000c0: 54b8 4dbd 534f 033c 136e c2bc 0d0e d5bd
000000d0: 9261 58bd 5a19 5a3d 184c 4dbd 1467 b6bd
000000e0: 77c6 f1bd 0102 873d 4bff b1bd ec62 ebbc
000000f0: 4a24 af3d 1948 883d 4e33 dcbd c286 883d

critic.weight f4 [1, 64]
0.08651514 0.09991451 0.04995229 -0.055745047 0.10483227 0.07309066 -0.0065498124 0.11164883
-0.1156117 -0.068228796 0.073756784 0.117383614 0.07734411 0.04669329 -0.034948096 -0.008601854
-0.02879666 -0.058227055 -0.06248287 -0.03840662 -0.012226471 -0.035419974 0.07989693 0.03861237
0.03331953 0.022301998 -0.110625215 0.09257478 -0.052951496 -0.034007188 0.022403777 0.08474133
0.09501403 -0.040582214 -0.06426943 0.08699447 -0.0987916 -0.00014261942 0.013611155 -0.04022753
0.012273694 -0.07204977 -0.08432085 0.036205713 -0.021019565 -0.006725315 0.03486463 -0.10128625
-0.08344852 -0.026271416 0.10792716 0.04024111 0.058677547 0.09760787 0.06503941 -0.10174575
-0.090769105 -0.10762816 -0.0026766015 0.11751633 0.09756726 -0.10433907 -0.06751818 0.030828435
00000000: da2e b13d fb9f cc3d c69a 4c3d eb54 64bd
00000010: 4db2 d63d 8eb0 953d cf9f d6bb 24a8 e43d
00000020: d4c5 ecbd 8abb 8bbd cc0d 973d d266 f03d
00000030: 9766 9e3d 7741 3f3d bc25 0fbd caee 0cbc
00000040: f9e6 ebbc 7e7f 6ebd 0aee 7fbd 4350 1dbd
00000050: 8951 48bc 8914 11bd 00a1 a33d 0128 1e3d
00000060: 0f7a 083d aeb2 b63c 798f e2bd d997 bd3d
00000070: abe3 58bd 1f4b 0bbd 2088 b73c dd8c ad3d
00000080: b796 c23d 8939 26bd b19f 83bd 282a b23d
00000090: 4053 cabd 1c8c 15b9 5201 5f3c 9fc5 24bd
000000a0: 9b17 493c d48e 93bd 69b0 acbd 714c 143d
000000b0: 3931 acbc 0860 dcbb 37ce 0e3d 2a6f cfbd
000000c0: 0fe7 aabd 2737 d7bc ea08 dd3d ddd3 243d
000000d0: de57 703d a3e6 c73d 6233 853d 1360 d0bd
000000e0: 27e5 b9bd 276c dcbd ec69 2fbb 67ac f03d
000000f0: 58d1 c73d b9af d5bd f946 8abd ea8b fc3c
