RL M/ppo_rope_lift_final.pth (torch, 46987 bytes, 6 tensors)

feature_net.0.weight f4 [128, 20]
-0.15110408 -0.12595144 0.19571158 -0.20434962 0.13363975 0.12826681 -0.13928513 0.08755621
0.20626216 -0.14854318 -0.19575727 0.14243779 0.11431671 0.096872516 -0.17473654 0.11735534
-0.21696949 -0.08064505 0.084182695 -0.031240389 0.10108814 -0.2089128 0.048292503 -0.18009228
-0.0955093 0.048644546 -0.06876842 0.11675726 -0.05033118 -0.067122355 0.034331392 0.20825875
0.11859207 -0.197444 -0.17377181 -0.13480832 -0.028072353 -0.028163914 -0.13468067 -0.08391637
-0.1668107 0.2181581 0.053878028 -0.021016689 -0.22286133 0.14192447 -0.19244118 -0.105125666
-0.11939036 -0.013670374 0.12626508 0.030356634 0.04103415 0.21016097 -0.11498125 0.11864541
-0.036442813 -0.04814286 0.035503797 -0.035637476 -0.1548857 -0.18365335 0.123855695 -0.15433548
0.023188194 0.16079834 -0.07847459 0.060754985 0.20760179 -0.18050517 -0.15516856 0.09814638
-0.21629775 -0.17446753 0.13738944 0.09106884 0.059364617 0.11510307 -0.20423456 -0.050190967
0.06652028 0.10884711 -0.17596465 -0.13527285 0.05017812 -0.039101485 0.13944824 0.07157285
0.026605068 -0.021271788 0.04912206 -0.04946598 -0.022721367 -0.026879065 0.16566844 0.10643135
-0.048138443 -0.15141912 -0.16409433 0.17487875 0.1460139 -0.18899976 -0.154883 -0.19035044
0.025190992 0.10419212 0.15233625 0.21224853 0.019911824 -0.18603513 0.042065125 0.18701516
0.026000349 0.19895129 0.19168124 -0.14181001 0.19959626 -0.09065565 -0.19031984 -0.13160513
0.14862542 0.043317664 0.14837368 -0.05822357 -0.01564585 -0.12469203 0.07051788 -0.10041883
-0.20103532 -0.14629176 -0.060041696 0.18555878 -0.13000366 -0.072787985 -0.03631993 -0.10066156
0.19634989 0.13655078 0.09380157 -0.033338457 0.11783573 -0.0026139948 0.20196441 0.00898566
0.15311746 -0.11651503 0.05407968 0.14438951 -0.00588538 0.07764788 0.1802364 -0.12400044
0.17478982 -0.16425042 0.01264377 -0.20277528 0.01392989 0.17271012 -0.016492635 0.1924772
-0.21960114 -0.02456239 0.111278355 0.16292845 -0.061179373 -0.19034733 -0.20178501 -0.22181098
-0.19572552 -0.10032313 0.17659837 0.100903384 0.07854409 0.13453092 0.080614775 0.09616039
0.1593938 0.06410977 0.058975022 -0.053877056 -0.19876263 -0.11188696 -0.055829193 0.12645964
0.20826437 0.14229833 -0.081048466 -0.08353041 0.1983321 0.1516722 0.07683879 -0.11908883
-0.10640065 -0.048611656 -0.007045769 0.14113458 -0.12257095 -0.1700228 0.20520312 0.0696236
-0.11766103 0.08726796 -0.1720572 -0.0711946 0.13133755 -0.1681728 0.03912198 -0.15893665
-0.21967354 -0.2085777 -0.192388 0.15246797 0.0017198722 -0.1264916 -0.0091055855 -0.19388574
-0.15391338 -0.077495016 -0.07061076 0.14223838 0.07585271 0.1748451 0.07148547 0.20361583
-0.20431429 -0.11290927 0.1317529 0.09364509 0.036742 0.0028238574 0.06447089 0.07552766
-0.17279746 0.1272907 0.13856685 0.029417012 0.053460963 -0.21052405 0.15045139 0.06834248
0.17831045 -0.14992113 0.17257768 -0.055788625 -0.13659705 0.15190208 0.2130512 -0.21980512
0.031083757 -0.06916325 -0.07838786 -0.1905538 0.0131050795 0.10765311 0.19125995 -0.19856155
00000000: 07bb 1abe 6af9 00be 9e68 483e 0741 51be
00000010: dcd8 083e 6058 033e c3a0 0ebe ac50 b33d
00000020: 6336 533e b41b 18be 9874 48be 36db 113e
00000030: e11e ea3d 1965 c63d 23ee 32be ff57 f03d
00000040: 402d 5ebe 3b29 a5bd fa67 ac3d d8eb ffbc
00000050: 4c07 cf3d 3ded 55be 5cce 453d 1c6a 38be
00000060: 619a c3bd 813f 473d 75d6 8cbd 6e1e ef3d
00000070: 1128 4ebd 7277 89bd 139f 0c3d c841 553e
00000080: 66e0 f23d c32e 4abe 3df1 31be 310b 0abe
00000090: fef7 e5bc 02b8 e6bc bbe9 09be 59dc abbd
000000a0: 6dd0 2abe d664 5f3e 35af 5c3d 312b acbc
000000b0: c335 64be a654 113e 4d0f 45be 204c d7bd
000000c0: ef82 f4bd b4f9 5fbc a24b 013e 7aae f83c
000000d0: 6d13 283d 7034 573e 4a7b ebbd 5dfc f23d
000000e0: 0f45 15bd 7331 45bd 6e6c 113d 9af8 11bd
000000f0: 5b9a 1ebe a00f 3cbe 0ea8 fd3d 1f0a 1ebe
00000100: 2bf5 bd3c 52a8 243e 49b7 a0bd 38da 783d
00000110: 9095 543e 59d6 38be 82e4 1ebe f800 c93d
00000120: 287d 5dbe 9ea7 32be d1af 0c3e 4d82 ba3d
00000130: 5028 733d 29bb eb3d dd22 51be 0b95 4dbd
00000140: c93b 883d 3ceb de3d 1430 34be f784 0abe
00000150: 9387 4d3d e128 20bd 85cb 0e3e c994 923d
00000160: dff2 d93c 2c42 aebc 3734 493d d79c 4abd
00000170: 2922 babc 7c31 dcbc fda4 293e aef8 d93d
00000180: d12c 45bd 9d0d 1bbe 5808 28be 6a13 333e
00000190: ab84 153e 2789 41be a699 1ebe 3aeb 42be
000001a0: 575d ce3c ae62 d53d 09fe 1b3e ae57 593e
000001b0: 1f1e a33c fe7f 3ebe 7b4c 2c3d e780 3f3e
000001c0: affe d43c e3b9 4b3e 1648 443e a536 11be
000001d0: f662 4c3e aba9 b9bd 34e3 42be 7fc3 06be
000001e0: 4331 183e dd6d 313d 45ef 173e d77b 6ebd
000001f0: ba2b 80bc 895e ffbd ae6b 903d 63a8 cdbd
00000200: 34dc 4dbe 82cd 15be 48ee 75bd 1f03 3e3e
00000210: ae1f 05be de11 95bd 35c4 14bd a627 cebd
00000220: f20f 493e f8d3 0b3e 0a1b c03d e88d 08bd
00000230: dc53 f13d 8e4f 2bbb c2cf 4e3e 9738 133c
00000240: d3ca 1c3e 6f9f eebd a882 5d3d d8da 133e
00000250: 25da c0bb da05 9f3d e48f 383e f1f3 fdbd
00000260: 1afc 323e 4331 28be d127 4f3c 53a4 4fbe
00000270: 313a 643c ecda 303e 901b 87bc be18 453e
00000280: 1fdf 60be 1137 c9bc e8e5 e33d b7d6 263e
00000290: 3997 7abd 69ea 42be bba0 4ebe 6b22 63be
000002a0: 456c 48be 3776 cdbd 34d6 343e 6fa6 ce3d
000002b0: b9db a03d 79c2 093e 5c19 a53d bdef c43d
000002c0: 2138 233e fc4b 833d cb8f 713d 30ae 5cbd
000002d0: 6e88 4bbe fe24 e5bd 27ad 64bd a37e 013e
000002e0: 4143 553e a7b6 113e bdfc a5bd fe11 abbd
000002f0: 9217 4b3e f54f 1b3e a85d 9d3d d8e4 f3bd
00000300: 96e8 d9bd 041d 47bd 32e0 e6bb 9585 103e
00000310: 7a06 fbbd 751a 2ebe c420 523e d196 8e3d
00000320: 44f8 f0bd 8bb9 b23d c32f 30be 79ce 91bd
00000330: 5a7d 063e 7e35 2cbe 5f3e 203d 4ac0 22be
00000340: 1af2 60be 6595 55be 5c01 45be 9020 1c3e
00000350: 566d e13a 0487 01be 982f 15bc fc89 46be
00000360: 789b 1dbe b5b5 9ebd 609c 90bd f0a6 113e
00000370: aa58 9b3d 980a 333e f966 923d ab80 503e
00000380: c437 51be fa3c e7bd 3bea 063e ffc8 bf3d
00000390: c87e 163d 7710 393b 5009 843d 3fae 9a3d
000003a0: d1f1 30be 7e58 023e 78e4 0d3e f2fb f03c
000003b0: e2f9 5a3d 9e93 57be ee0f 1a3e 24f7 8b3d
000003c0: 0497 363e ed84 19be 34b8 303e 9d82 64bd
000003d0: 19e0 0bbe 388c 1b3e 182a 5a3e 9814 61be
000003e0: 5da3 fe3c 76a5 8dbd d089 a0bd 8920 43be
000003f0: b0b6 563c 3c79 dc3d a6d9 433e b853 4bbe

feature_net.0.bias f4 [128]
-0.05364662 -0.08621885 -0.009847559 0.18044253 0.021306308 -0.22209941 0.19499934 0.0024450358
0.01660827 0.09274968 -0.17678794 -0.04818473 -0.20330653 0.15501119 0.047111 0.015148256
0.0038960539 0.15952723 0.08403701 -0.018222678 -0.18159539 0.20697917 -0.12367073 0.15540944
0.13025607 0.16126466 -0.17384626 0.22234915 0.0754022 0.054962583 -0.13319914 -0.0064185713
-0.09564912 0.11916427 -0.025575358 -0.0688713 -0.046647966 0.17714109 -0.15852225 -0.16594173
0.19005778 0.10620518 -0.16473193 -0.08088198 0.1195996 0.12916249 -0.14990139 0.048524454
-0.0355067 -0.0056403023 0.09035769 0.13077542 0.14441372 0.20620105 0.18562403 -0.13466783
0.16790757 0.01051635 -0.096909225 -0.10181065 -0.10212769 -0.10119941 0.11293432 0.07354089
0.17285118 0.09149062 -0.11712371 -0.07828665 -0.087847054 -0.17323914 -0.009443165 -0.08599252
-0.10129836 -0.1437637 -0.08257516 -0.018869428 0.21545403 0.022436222 0.055681042 -0.08706334
0.15676576 -0.025416601 -0.05503803 -0.028799158 0.0850504 0.05775633 0.17805797 0.0860712
-0.014091788 -0.05292113 0.011449454 0.020792505 0.13165922 0.2171416 -0.22875302 -0.18970825
-0.14875048 0.07995404 0.014372394 -0.11753099 -0.03744297 0.12762065 0.08581186 -0.20653608
-0.14476953 -0.11996088 0.21411712 0.11829668 0.17082116 -0.1906108 0.13615638 0.12264153
0.114293255 0.15352726 0.19898662 -0.0057261484 0.17222066 -0.0905177 -0.06651187 -0.05295106
0.19438082 0.013079089 -0.12658867 0.03554015 0.07720546 0.096063204 0.09210748 0.04413163
00000000: 8fbc 5bbd 8293 b0bd a857 21bc edc5 383e
00000010: 918a ae3c 076e 63be e8ad 473e e53c 203b
00000020: 110e 883c 8bf3 bd3d e607 35be 5a5d 45bd
00000030: 962f 50be 41bb 1e3e 77f7 403d 6430 783c
00000040: f054 7f3b 1b5b 233e 991b ac3d ba47 95bc
00000050: 24f4 39be 59f2 533e 1447 fdbd a723 1f3e
00000060: d961 053e 9022 253e c104 32be 7faf 633e
00000070: 786c 9a3d 7220 613d 5b65 08be e152 d2bb
00000080: b0e3 c3bd 660c f43d 6a83 d1bc 650c 8dbd
00000090: f011 3fbd 7964 353e a853 22be a1ec 29be
000000a0: 829e 423e 1a82 d93d 7daf 28be 74a5 a5bd
000000b0: a3f0 f43d 2c43 043e c07f 19be 94c1 463d
000000c0: 796f 11bd 49d2 b8bb 740d b93d fee9 053e
000000d0: 31e1 133e 5e26 533e 3a14 3e3e 5de6 09be
000000e0: f6ef 2b3e c54c 2c3c 5878 c6bd 1a82 d0bd
000000f0: 5328 d1bd a341 cfbd 1c4a e73d 9b9c 963d
00000100: e6ff 303e 6f5f bb3d 8ede efbd c054 a0bd
00000110: 28e9 b3bd 9a65 31be 81b7 1abc d91c b0bd
00000120: 8475 cfbd cb36 13be 2a1d a9bd 0f94 9abc
00000130: fb9f 5c3e 2bcc b73c ce11 643d 444e b2bd
00000140: 3487 203e 7a36 d0bc 8f6f 61bd 36ec ebbc
00000150: e72e ae3d e791 6c3d d454 363e 1946 b03d
00000160: 3ee1 66bc d4c3 58bd 7e96 3b3c 0b55 aa3c
00000170: add1 063e 5e5a 5e3e 3b3e 6abe e142 42be
00000180: 0c52 18be f2be a33d 317a 6b3c 16b4 f0bd
00000190: cd5d 19bd fdae 023e 21be af3d 327e 53be
000001a0: 773e 14be 0dae f5bd 8541 5b3e 8845 f23d
000001b0: beeb 2e3e 7a2f 43be 946c 0b3e 7c2b fb3d
000001c0: 9512 ea3d 4036 1d3e 26c3 4b3e 6aa2 bbbb
000001d0: 9d5a 303e 5861 b9bd 6037 88bd 36e3 58bd
000001e0: c40b 473e ad49 563c 76a0 01be 8c92 113d
000001f0: e51d 9e3d c9bc c43d d9a2 bc3d 5ec3 343d

feature_net.2.weight f4 [64, 128]
-0.04737827 0.02487052 0.055959046 0.08236854 -0.07536205 0.0054855905 0.04490204 -0.033650905
-0.08898611 0.07713929 0.031753793 -0.0665974 0.00976043 0.031941067 -0.009079596 0.05887138
0.06445115 -0.09352847 -0.017923139 -0.06722226 0.077422574 -0.0928615 0.03967094 -0.060455453
0.0512336 0.048902985 -0.08363824 0.009336298 0.07977569 -0.06325628 0.072956376 0.04110196
-0.0844234 -0.08072366 -0.0070843063 0.09357519 -0.08781552 0.08189285 -0.052316636 -0.023160208
-0.035832807 0.055018816 0.04890993 0.06152827 0.021157572 -0.07890583 -0.005021573 0.013860819
-0.004143606 -0.05050742 -0.08592921 0.055358626 -0.06398773 -0.048328165 0.06906286 0.047880072
0.075145766 0.07350555 0.03074096 0.03248029 -0.023457816 0.044995856 0.009757591 -0.07937864
-0.030531911 0.03123717 0.030683132 -0.089055404 -0.08953287 -0.08749075 -0.024073046 0.08521258
0.075777754 -0.085064024 0.004389443 0.01864336 -0.053364117 -0.034042183 -0.051459048 -0.06970033
-0.04806345 0.073892385 -0.040418755 0.07561564 -0.001938987 -0.0671309 -0.02047168 0.007221957
-0.080929175 0.03192305 -0.067911044 -0.028093392 -0.0430291 0.06866267 -0.025791112 0.01762949
-0.057397656 -0.0038957049 -0.049213044 -0.08055823 -0.01729594 0.048761327 0.040863667 -0.06300643
-0.03818481 0.064760536 -0.030144218 -0.016856324 0.019285109 -0.03204472 -0.03435782 0.086859375
0.021879626 -0.012092528 -0.08893592 -0.048278306 0.028102372 -0.083296716 -0.09221769 -0.06863783
0.041014217 -0.079229675 -0.033276692 0.027981253 -0.05133118 -0.04932001 0.03310154 -0.09024824
-0.067055725 0.018761463 -0.012920903 0.06782047 -0.062823884 0.08030968 0.03328283 -0.020898316
-0.009498975 -0.00834856 -0.04936891 -0.012167327 -0.027427275 -0.024771852 0.058374345 -0.024961341
-0.035076037 0.08546461 0.06783773 0.059392102 0.07450488 0.022455288 -0.01464365 -0.008730074
-0.03807612 -0.08143753 0.092457294 0.045306955 -0.06493071 0.049158815 -0.01398986 0.081077665
-0.049129263 0.053755555 0.054286957 0.009777485 -0.067158036 0.07675265 0.029847845 -0.011950513
0.009989994 0.041018628 -0.076223515 0.08087709 0.05869961 0.017990604 0.032310512 -0.041894536
0.051256783 -0.082169555 0.07013523 -0.0071594086 0.06354295 -3.7568447e-05 0.00040133743 -0.007381905
0.033179484 0.0666216 0.056679063 -0.058843818 0.058206007 0.02874553 -0.00041021197 0.058856815
0.032261647 -0.06093992 -0.02183271 0.038666118 -0.041445695 0.040687002 -0.049282994 -0.056240615
-0.014070523 0.053102624 -0.06921412 0.0024872224 -0.041260354 -0.07689214 0.07723473 -0.016956473
0.0701343 -0.09531165 0.00702012 0.030763272 -0.05009867 -0.02807183 0.031830177 -0.057758782
-0.0047650575 -0.012781646 -0.07504933 -0.052579056 -0.03215099 0.05241428 0.0014629305 -0.05983778
0.060418967 -0.0015210719 -0.055623494 0.030356761 0.05188293 -0.015325577 -0.019103443 0.052440464
0.011643985 0.07705452 0.05893286 0.035070572 0.003067215 0.09506459 0.008470814 -0.046624742
0.05225345 0.05400205 0.039138928 -0.075778835 0.060194056 0.058005124 0.012287475 0.009499588
-0.019431898 -0.07181605 -0.012868738 0.007939493 0.015684497 -0.032966442 -0.024926262 0.07741005
00000000: b80f 42bd 43bd cb3c 5035 653d d6b0 a83d
00000010: 6b57 9abd 78c0 b33b 34eb 373d 88d5 09bd
00000020: 5a3e b6bd 34fb 9d3d 4410 023d 3864 88bd
00000030: 36ea 1f3c a3d4 023d 96c2 14bc 1e23 713d
00000040: f7fe 833d db8b bfbd 8cd3 92bc d3ab 89bd
00000050: ba8f 9e3d 2c2e bebd ff7d 223d 23a0 77bd
00000060: 53da 513d 7f4e 483d 874a abbd 46f7 183c
00000070: 7061 a33d 828c 81bd 276a 953d 875a 283d
00000080: 2de6 acbd 7252 a5bd 7823 e8bb 59a4 bf3d
00000090: a0d8 b3bd 70b7 a73d f849 56bd 7aba bdbc
000000a0: 6cc5 12bd 695b 613d c755 483d 1105 7c3d
000000b0: a552 ad3c 6199 a1bd 028c a4bb 7d18 633c
000000c0: 16c7 87bb dee0 4ebd a7fb afbd babf 623d
000000d0: 000c 83bd c1f3 45bd d470 8d3d e51d 443d
000000e0: 06e6 993d 148a 963d 77d4 fb3c 0d0a 053d
000000f0: 9b2a c0bc 934d 383d 4ede 1f3c 4591 a2bd
00000100: 0f1e fabc 18e5 ff3c 315b fb3c ae62 b6bd
00000110: 025d b7bd 5a2e b3bd d634 c5bc ef83 ae3d
00000120: 5e31 9b3d 0c36 aebd 51d5 8f3b f6b9 983c
00000130: 5594 5abd d16f 0bbd b9c6 52bd 0cbf 8ebd
00000140: 2ede 44bd e454 973d 238e 25bd 5fdc 9a3d
00000150: 9c25 feba ed7b 89bd 3ab4 a7bc 2ba6 ec3b
00000160: 32be a5bd bec1 023d f214 8bbd 1d24 e6bc
00000170: 483f 30bd 049f 8c3d e247 d3bc b86b 903c
00000180: ce19 6bbd 154f 7fbb 9e93 49bd b7fb a4bd
00000190: 37b0 8dbc f5b9 473d a960 273d 8409 81bd
000001a0: ad67 1cbd 2ca1 843d 02f1 f6bc 4616 8abc
000001b0: cefb 9d3c 5341 03bd c9ba 0cbd 54e3 b13d
000001c0: e73c b33c bd1f 46bc 0924 b6bd 79bf 45bd
000001d0: f236 e63c 7897 aabd a1dc bcbd fe91 8cbd
000001e0: 86fe 273d 2b43 a2bd 244d 08bd f138 e53c
000001f0: a540 52bd c703 4abd 7b95 073d 12d4 b8bd
00000200: 8354 89bd a4b1 993c 32b2 53bc 75e5 8a3d
00000210: cfa9 80bd 6779 a43d 9453 083d f232 abbc
00000220: 97a1 1bbc 66c8 08bc 0e37 4abd 7859 47bc
00000230: 2aaf e0bc 57ee cabc f019 6f3d ba7b ccbc
00000240: e4ab 0fbd 1208 af3d 82ee 8a3d 2245 733d
00000250: 0496 983d 27f4 b73c ebeb 6fbc 9608 0fbc
00000260: b5f5 1bbd b8c8 a6bd 405a bd3d c993 393d
00000270: 64fa 84bd c15a 493d ba35 65bc 0c0c a63d
00000280: c43b 49bd c92e 5c3d 005c 5e3d bf31 203c
00000290: 278a 89bd 7e30 9d3d 7883 f43c 16cc 43bc
000002a0: 12ad 233c 2603 283d 131b 9cbd e3a2 a53d
000002b0: 016f 703d 0861 933c 0758 043d 9b99 2bbd
000002c0: a2f2 513d 8348 a8bd 0fa3 8f3d 7999 eabb
000002d0: ce22 823d d092 1db8 996a d239 e8e3 f1bb
000002e0: 36e7 073d e870 883d 4e28 683d 3706 71bd
000002f0: 6c69 6e3d bf7b eb3c b811 d7b9 d813 713d
00000300: ca24 043d 239c 79bd 83da b2bc 5d60 1e3d
00000310: f6c2 29bd 6aa7 263d f7dc 49bd 8f5c 66bd
00000320: 0d88 66bc 2382 593d 22c0 8dbd ab00 233b
00000330: 9e00 29bd a079 9dbd 3e2d 9e3d 4de8 8abc
00000340: 92a2 8f3d c132 c3bd 0909 e63b 4203 fc3c
00000350: 4334 4dbd e5f6 e5bc 5c60 023d 7994 6cbd
00000360: 3324 9cbb 1c6a 51bc 77b3 99bd 235d 57bd
00000370: c2b0 03bd 5bb0 563d cdbf bf3a 7618 75bd
00000380: e179 773d b45e c7ba 76d5 63bd beae f83c
00000390: 3283 543d 2118 7bbc d37e 9cbc d0cb 563d
000003a0: 6ac6 3e3c c3ce 9d3d 9563 713d 29a6 0f3d
000003b0: 5403 493b 39b1 c23d 2bc9 0a3c 96f9 3ebd
000003c0: b707 563d 4131 5d3d 2450 203d ef31 9bbd
000003d0: 0b8e 763d c896 6d3d 6851 493c 29a4 1b3c
000003e0: a52f 9fbc 4b14 93bd 66d7 52bc a614 023c
000003f0: c67c 803c d207 07bd 2932 ccbc 2989 9e3d

feature_net.2.bias f4 [64]
0.06564162 -0.04969738 0.039232448 -0.011088426 -0.092285015 0.085350804 -0.006741544 0.052961994
-0.081945255 -0.0043097488 -0.020515937 -0.02385108 -0.046103857 -0.006720169 -0.028135972 0.06443263
-0.025831757 -0.022068158 -0.009389945 -0.05878712 -0.022977185 0.041919433 0.045101866 0.08179921
-0.044765092 0.03811422 -0.06442067 -0.06360295 0.067537665 0.03288513 -0.07126807 -0.032367744
0.045170978 -0.003755928 0.048746694 -0.031949516 0.07150552 0.076627634 0.026100866 0.046058476
-0.028450944 0.050639246 -0.059535276 -0.007833726 -0.06921321 -0.022284182 0.085887544 0.055185176
0.06602539 0.0006419595 -0.061176725 0.015907183 0.0069675916 -0.048105072 -0.04195371 -0.025681404
-0.049706355 0.07652462 -0.09232126 0.02329219 -0.06721869 -0.0014771294 -0.0630588 0.070649624
00000000: 1d6f 863d 7b8f 4bbd 34b2 203d 3bac 35bc
00000010: edff bcbd 67cc ae3d 2ce8 dcbb adee 583d
00000020: ead2 a7bd cb38 8dbb 0a11 a8bc 5763 c3bc
00000030: 66d7 3cbd dd34 dcbb 697d e6bc 41f5 833d
00000040: 1f9d d3bc 48c8 b4bc 49d8 19bc c3ca 70bd
00000050: a63a bcbc b6b3 2b3d bcbc 383d 5886 a73d
00000060: 9a5b 37bd a81d 1c3d fcee 83bd 4342 82bd
00000070: 3051 8a3d 8fb2 063d fef4 91bd 0a94 04bd
00000080: 3405 393d 0426 76bb 9daa 473d 7fdd 02bd
00000090: 7c71 923d f3ee 9c3d 7cd1 d53c d0a7 3c3d
000000a0: f411 e9bc 196b 4f3d 43db 73bd 0759 00bc
000000b0: a8bf 8dbd 518d b6bc cfe5 af3d da09 623d
000000c0: 5238 873d 2c49 283a 7294 7abd c84f 823c
000000d0: 6550 e43b d309 45bd a7d7 2bbd cf61 d2bc
000000e0: e498 4bbd f1b8 9c3d ee12 bdbd 43cf be3c
000000f0: f4a9 89bd 3d9c c1ba f924 81bd c0b0 903d

actor_mean.weight f4 [1, 64]
-0.10605637 -0.0150651615 -0.024084393 -0.10327437 0.07604594 0.021776903 -0.023354203 -0.0056199087
0.075940706 -0.0039571887 -0.088276304 -0.10256636 -0.025426762 -0.046956856 0.017668758 -0.0196729
-0.055481292 -0.09796566 -0.04540069 0.09294447 0.010137889 0.11181428 -0.11764462 0.062285677
-0.09790271 -0.021728823 0.05565904 0.055003863 -0.0833959 0.03467762 -0.025190225 0.12641564
0.097445905 0.065553986 0.05518306 0.0049695484 -0.03970097 0.085139565 -0.05382908 0.122602955
0.016005792 -0.11991442 -0.061058912 0.048903976 -0.091671064 0.016637528 0.0630189 -0.035695314
0.07009727 0.05409697 0.11634081 -0.026889574 0.0952877 -0.08673717 0.068810366 0.0034660066
-0.11109533 -0.10258206 0.107316226 0.004673562 -0.11721015 -0.006865976 -0.033347216 0.035423253
00000000: 1534 d9bd ded3 76bc a24c c5bc 8381 d3bd
00000010: f9bd 9b3d 7a65 b23c 5051 bfbc 3627 b8bb
00000020: cd86 9b3d 4eab 81bb 35ca b4bd 500e d2bd
00000030: c94b d0bc d555 40bd 12be 903c 1029 a1bc
00000040: 5a40 63bd 38a2 c8bd 13f6 39bd ac59 be3d
00000050: 6319 263c e3fe e43d aaef f0bd 441f 7f3d
00000060: 3781 c8bd a500 b2bc bcfa 633d bb4b 613d
00000070: 78cb aabd 1f0a 0e3d bb5b cebc 1a73 013e
00000080: b891 c73d 2b41 863d a207 623d 98d7 a23b
00000090: 7c9d 22bd a75d ae3d e27b 5cbd 4217 fb3d
000000a0: 941e 833c b195 f5bd e918 7abd 894f 483d
000000b0: 0abe bbbd 6d4b 883c 0e10 813d 4035 12bd
000000c0: 288f 8f3d c994 5d3d 1744 ee3d 8647 dcbc
000000d0: 3326 c33d 42a3 b1bd 73ec 8c3d f125 633b
000000e0: f385 e3bd 8b16 d2bd 9cc8 db3d ae24 993b
000000f0: e00b f0bd fbfb e0bb 1797 08bd f917 113d

critic.weight f4 [1, 64]
0.025163408 0.10201652 0.06252824 -0.024766821 -0.05247181 -0.054272532 0.08968124 -0.046010498
0.061693884 -0.06868212 -0.054021273 -0.09116767 0.03363824 -0.0871433 0.09900703 0.018400826
0.017255452 -0.0031669287 0.0833163 0.026079936 0.06608094 0.04670119 0.060984127 0.013262518
0.093883045 -0.032092564 -0.008098726 -0.076825805 0.045530334 0.06050216 -0.054652467 -0.03072368
0.04638727 -0.025510129 0.02841239 0.023437487 0.017899876 -0.044777337 0.04492558 -0.099000424
0.009389291 0.10974893 -0.076899104 -0.04079383 0.09461938 -0.058305565 0.07164392 0.014856308
0.014517408 0.023525327 0.010789512 0.012326414 -0.03232643 0.03115995 0.009726242 0.028710837
-0.06368041 -0.0950703 -0.0268166 -0.09754315 -0.08446375 -0.07763115 -0.0028187206 0.06942595
00000000: 7e23 ce3c 0aee d03d ce0e 803d cae3 cabc
00000010: aeec 56bd e04c 5ebd ccaa b73d 8175 3cbd
00000020: bab2 7c3d 36a9 8cbd 6945 5dbd 1eb6 babd
00000030: 40c8 093d 3078 b2bd 33c4 ca3d 54bd 963c
00000040: 4e5b 8d3c 3f8c 4fbb bca1 aa3d 97a5 d53c
00000050: 7255 873d bf49 3f3d 7eca 793d 084b 593c
00000060: c145 c03d 7e73 03bd 85b0 04bc d956 9dbd
00000070: 047e 3a3d 1dd1 773d 44db 5fbd 3ab0 fbbc
00000080: 9400 3e3d 9efa d0bc 1ac1 e83c f9ff bf3c
00000090: c3a2 923c 7168 37bd e303 383d bcc0 cabd
000000a0: 8ad5 193c 0cc4 e03d 477d 9dbd 6e17 27bd
000000b0: cec7 c13d d1d1 6ebd 0cba 923d df67 733c
000000c0: 6cda 6d3c 30b8 c03c 7ec6 303c baf4 493c
000000d0: b868 04bd 2743 ff3c d15a 1f3c fd32 eb3c
000000e0: e06a 82bd 38b4 c2bd 7cae dbbc b4c4 c7bd
000000f0: 55fb acbd 15fd 9ebd 49ba 38bb 312f 8e3d
