RL M/ppo_rope_lift_final.pth (torch, 48024 bytes, 6 tensors)

feature_net.0.weight f4 [128, 20]
-0.05413835 -0.11269747 0.086677045 -0.02828613 0.10095368 0.13397354 0.1992496 -0.11134883
-0.06310895 0.1664465 0.041099086 -0.16931808 -0.16049817 0.17254633 -0.026426153 -0.075173765
0.070191205 0.20214224 0.13102503 0.06328574 0.09950978 0.0020876452 0.035686184 -0.02049082
0.08365172 0.12642488 -0.18601198 0.066382684 0.177757 -0.101361625 -0.17888851 0.038491916
0.050450012 -0.17031267 -0.13909432 0.12403603 -0.10770809 -0.059215 -0.111817494 -0.16735688
0.10482766 -0.16684517 -0.030296471 0.11086079 0.18153784 0.028869016 -0.05099774 -0.12100145
0.11112871 0.13953575 -0.13330457 0.20526516 -0.0649592 0.093440555 0.03318441 0.028284179
-0.1809991 -0.12946826 -0.15253381 0.16473532 0.1105346 -0.12770408 0.186083 -0.0084231915
-0.039683066 0.040982466 -0.20993555 -0.16216147 0.113407105 -0.13379674 0.1671454 0.14037429
0.11645631 0.17285432 0.059144642 0.08581803 -0.09404501 0.077103935 -0.19323787 -0.1977981
-0.18803982 0.1528327 0.02445238 -0.01057052 -0.1897267 0.12331884 0.01691361 -0.1466374
0.17498061 0.046124354 0.045747384 0.11657496 0.106899306 0.040903617 -0.01780768 -0.08260114
0.21232711 0.06646552 0.07008549 0.103547074 0.13793378 0.046921395 -0.16416329 -0.002626763
0.15134388 -0.17533088 0.2214993 -0.08336165 0.19418003 0.15916291 0.15791066 -0.055380974
-0.19305074 0.007305772 -0.17108071 0.100635104 -0.10970402 0.05856294 -0.057707664 -0.21188593
-0.018513264 0.09716773 0.124302 0.028937282 0.121094 0.16403516 -0.1200164 -0.1084586
0.11927729 0.19538082 0.17484173 -0.08795696 0.071266405 0.005505905 -0.1748467 -0.20028467
0.20954826 0.008928405 0.19731355 -0.19774596 -0.055686053 -0.1817122 0.14596643 0.12444544
-0.07104015 -0.19505723 0.075064786 -0.025442706 0.08038852 0.053068165 0.1326344 0.054296687
0.15607794 0.026303135 -0.04472457 -0.061673634 -0.060116965 0.0072498037 -0.0054970193 -0.07528683
0.21274959 0.20568103 -0.20116606 -0.05593022 0.06411985 0.04438204 0.042100765 -0.027410746
0.07539673 0.15698336 0.080671154 -0.12686597 -0.21276937 0.062507674 -0.20883425 -0.036105104
-0.14846209 -0.07479992 0.108949706 0.1409436 0.17214052 -0.0028790887 -0.20204899 0.09686566
0.1672062 0.07325582 -0.07701123 0.040640682 -0.16294628 -0.10533377 -0.11887446 -0.07133774
0.16309743 -0.0001346928 0.20447978 -0.0020899884 -0.076709725 0.20072071 -0.0152460355 -0.16624154
0.08588264 -0.10705895 0.1425426 0.13974625 -0.09047212 0.11317573 -0.14883643 0.19455124
-0.023712065 -0.21615607 0.06322085 -0.19884565 0.0014001601 0.20358731 0.019538667 0.19659993
0.09153609 0.0718264 0.12630919 -0.022470115 0.121255 0.18983693 -0.19535151 -0.08988742
-0.2022694 0.12297157 -0.16199677 0.0982465 -0.19443636 0.10888886 0.16642497 0.009664988
-0.04891873 -0.17907876 0.16417752 -0.22523691 -0.041364074 -0.18196985 0.011790053 -0.01911881
0.19325037 -0.06036074 -0.078489065 -0.1844926 -0.19642414 -0.019015996 -0.19813497 0.05076767
0.21348596 0.12858728 0.20087327 0.15364422 0.096538246 -0.20059322 -0.13985565 -0.080420166
00000000: 2dc0 5dbd eecd e6bd bc83 b13d 50b8 e7bc
00000010: cec0 ce3d 5c30 093e 1608 4c3e db0a e4bd
00000020: 443f 81bd f470 2a3e 8457 283d b861 2dbe
00000030: a259 24be fcaf 303e a97b d8bc b4f4 99bd
00000040: 68c0 8f3d 60fe 4e3e 6d2b 063e f49b 813d
00000050: c9cb cb3d e0d0 083b ad2b 123d 5ddc a7bc
00000060: 9851 ab3d 8675 013e ed79 3ebe a5f3 873d
00000070: ee05 363e af96 cfbd 8d2e 37be b3a9 1d3d
00000080: aca4 4e3d 7266 2ebe be6e 0ebe 9a06 fe3d
00000090: 0f96 dcbd 6e8b 72bd 9200 e5bd 9a5f 2bbe
000000a0: e2af d63d 76d9 2abe 4e30 f8bc fb0a e33d
000000b0: 0ee5 393e b77e ec3c 02e3 50bd 9ccf f7bd
000000c0: 7397 e33d 76e2 0e3e fe80 08be 0831 523e
000000d0: 5409 85bd c35d bf3d 60ec 073d 39b4 e73c
000000e0: d457 39be 5493 04be d331 1cbe 60b0 283e
000000f0: f75f e23d dcc4 02be 8b8c 3e3e 6d01 0abc
00000100: b68a 22bd 3bdd 273d 58f9 56be a80d 26be
00000110: fc41 e83d 0302 09be 2a28 2b3e 47be 0f3e
00000120: a580 ee3d b900 313e a741 723d 5dc1 af3d
00000130: ac9a c0bd abe8 9d3d 26e0 45be 968b 4abe
00000140: 838d 40be 2d80 1c3e 5c50 c83c f92f 2dbc
00000150: b747 42be 978e fc3d 698e 8a3c 1d28 16be
00000160: 1e2e 333e e4ec 3c3d 9c61 3b3d dabe ee3d
00000170: 06ee da3d 8d8a 273d 69e1 91bc c92a a9bd
00000180: 476c 593e 131f 883d fb88 8f3d 7d10 d43d
00000190: 833e 0d3e a630 403d 6c1a 28be c525 2cbb
000001a0: e4f9 1a3e f089 33be b6d0 623e 83b9 aabd
000001b0: 21d7 463e 9afb 223e 55b3 213e 29d7 62bd
000001c0: 18af 45be 4265 ef3b c82f 2fbe c719 ce3d
000001d0: 80ac e0bd b2df 6f3d df5e 6cbd a0f8 58be
000001e0: 21a9 97bc e0ff c63d 0c92 fe3d e10d ed3c
000001f0: 2200 f83d d5f8 273e 29cb f5bd 8b1f debd
00000200: a747 f43d e911 483e b609 333e c722 b4bd
00000210: 1ff4 913d e16a b43b 030b 33be 6d17 4dbe
00000220: d293 563e 7248 123c 900c 4a3e eb7d 4abe
00000230: 0f17 64bd c312 3abe 3978 153e 40dd fe3d
00000240: 807d 91bd 15bd 47be 91bb 993d 396d d0bc
00000250: bda2 a43d 015e 593d 50d1 073e 3466 5e3d
00000260: e5d2 1f3e ac79 d73c 1c31 37bd 7e9d 7cbd
00000270: 353d 76bd c38f ed3b 5720 b4bb fb2f 9abd
00000280: 07db 593e 0c9e 523e 7afe 4dbe 1617 65bd
00000290: 4551 833d f1c9 353d da71 2c3d 808c e0bc
000002a0: 9a69 9a3d 3fc0 203e eb36 a53d 27e9 01be
000002b0: 37e0 59be 0604 803d a5d8 55be f2e2 13bd
000002c0: 7206 18be b330 99bd 0621 df3d 8553 103e
000002d0: 9b45 303e 18af 3cbb eee5 4ebe 8161 c63d
000002e0: 1a38 2b3e 2607 963d 10b8 9dbd d876 263d
000002f0: 64db 26be 3bb9 d7bd 7474 f3bd 8519 92bd
00000300: 0303 273e 533c 0db9 2663 513e 30f8 08bb
00000310: fd19 9dbd bb89 4d3e 82ca 79bc 393b 2abe
00000320: 3de3 af3d b941 dbbd b0f6 113e a419 0f3e
00000330: 7249 b9bd adc8 e73d 9468 18be 7138 473e
00000340: ce3f c2bc 0458 5dbe ef79 813d 329e 4bbe
00000350: 9485 b73a 3179 503e 8e0f a03c 7e51 493e
00000360: 4677 bb3d b819 933d 3257 013e 3f13 b8bc
00000370: 8b54 f83d 9d64 423e 3a0a 48be e516 b8bd
00000380: b61f 4fbe 85d8 fb3d 7be2 25be 7635 c93d
00000390: 531a 47be 1f01 df3d 4f6b 2a3e e659 1e3c
000003a0: 025f 48bd 6c60 37be 271e 283e 81a4 66be
000003b0: 606d 29bd 4e56 3abe 112b 413c 0d9f 9cbc
000003c0: 6de3 453e d33c 77bd e0be a0bd a1eb 3cbe
000003d0: 6923 49be 6fc7 9bbc e5e3 4abe c3f1 4f3d
000003e0: 109c 5a3e 62ac 033e b9b1 4d3e e954 1d3e
000003f0: d8b5 c53d 4f68 4dbe 5236 0fbe 54b3 a4bd

feature_net.0.bias f4 [128]
-0.076496266 0.20536177 -0.20167232 0.04206601 -0.0176605 0.011258297 0.0699456 0.13327871
0.21490468 -0.038955085 -0.065304525 0.051479064 0.055928387 0.2058747 -0.015506311 -0.23489785
0.05689119 -0.0018773549 -0.04177315 0.16578436 -0.03673014 -0.058492605 0.11092469 0.15441363
0.11953865 0.0029185428 -0.1603805 -0.1301739 0.2057241 0.0022136066 -0.106823154 0.19000518
0.051164456 -0.02709026 0.15965372 0.09464834 0.009358678 0.2043118 0.18982126 -0.13527866
0.12311763 -0.06469313 -0.0063134716 0.19998686 -0.03269622 0.2273801 -0.04789006 0.17720173
0.13902348 -0.034556694 -0.2288746 -0.15879157 0.011268384 -0.20765364 0.18354245 0.15122373
-0.108322114 0.15375341 -0.07855614 -0.13112451 0.07177444 0.086889625 0.05148658 -0.19934668
0.09598667 0.13423917 -0.04661381 0.042659115 -0.05550517 0.13396065 0.012995655 0.098162025
0.16032162 0.10770893 0.012795062 0.118288495 -0.033961475 0.17578876 -0.10453998 -0.08287718
0.022368882 0.116967954 0.005829262 -0.06828986 -0.14607987 0.04390755 0.003237161 0.018765198
0.11862419 0.00013574501 0.0009436325 -0.103881784 0.14551467 0.15802085 -0.17699483 -0.115489185
0.21019925 -0.04312568 0.20478268 -0.22567265 0.15210094 0.15407227 0.18227172 0.0003031876
-0.17043799 0.16104554 -0.042446077 -0.00388319 -0.024728758 0.042395443 0.14122397 -0.101025
-0.13423592 0.041464265 -0.18474074 -0.19103292 0.03211329 -0.13066387 -6.594675e-05 -0.19157165
0.097040616 -0.05099704 -0.15604375 0.0017056064 -0.15495132 0.04229496 -0.022832531 0.16475168
00000000: 13aa 9cbd 5b4a 523e 3083 4ebe 694d 2c3d
00000010: c1ac 90bc b874 383c a43f 8f3d 377a 083e
00000020: f90f 5c3e 5e8f 1fbd 61be 85bd b6db 523d
00000030: 2a15 653d d1d0 523e 2f0e 7ebc 1089 70be
00000040: bd06 693d 9411 f6ba 531a 2bbd 60c3 293e
00000050: 5872 16bd f195 6fbd 7c2c e33d 9b1e 1e3e
00000060: aed0 f43d 0645 3f3b c93a 24be 4f4c 05be
00000070: 57a9 523e 2812 113b 19c6 dabd b890 423e
00000080: d291 513d 65ec ddbc 447c 233e fdd6 c13d
00000090: 2455 193c 1d37 513e 8160 423e 7d86 0abe
000000a0: 1925 fc3d d57d 84bd 3de1 cebb 5bc9 4c3e
000000b0: 79ec 05bd 54d6 683e 5e28 44bd 5f74 353e
000000c0: 2c5c 0e3e 528b 0dbd 1a5e 6abe 429a 22be
000000d0: 079f 383c 28a3 54be 8df2 3b3e 65da 1a3e
000000e0: fcd7 ddbd 8971 1d3e 0be2 a0bd 8145 06be
000000f0: 7afe 923d 30f3 b13d 98e3 523d 8921 4cbe
00000100: a994 c43d fe75 093e 1fee 3ebd 53bb 2e3d
00000110: 6459 63bd fb2c 093e baeb 543c 2c09 c93d
00000120: 5a2b 243e 8096 dc3d 61a2 513c 3d41 f23d
00000130: 301b 0bbd f801 343e 0f19 d6bd 83bb a9bd
00000140: f23e b73c e58c ef3d 6503 bf3b 8edb 8bbd
00000150: f695 15be 67d8 333d 8d26 543b 79b9 993c
00000160: 3df1 f23d c656 0e39 1b5e 773a f9bf d4bd
00000170: cc01 153e 38d0 213e 223e 35be 9885 ecbd
00000180: 793e 573e 8ea4 30bd 8db2 513e bb16 67be
00000190: 59c0 1b3e 1fc5 1d3e 70a5 3a3e 27f5 9e39
000001a0: 4c87 2ebe 1fe9 243e f0db 2dbd 1e7d 7ebb
000001b0: f793 cabc d8a6 2d3d 049d 103e 32e6 cebd
000001c0: 2475 09be 6fd6 293d ad2c 3dbe 229e 43be
000001d0: 3a89 033d c0cc 05be e44c 8ab8 5c2b 44be
000001e0: 3bbd c63d 46e2 50bd efc9 1fbe a78e df3a
000001f0: 8fab 1ebe 7b3d 2d3d 4a0b bbbc aab4 283e

feature_net.2.weight f4 [64, 128]
-0.0633314 -0.06774175 0.03623456 -0.07004473 0.07355455 -0.088168085 -0.0021713362 0.056656506
0.04257267 -0.06456101 0.014623674 -0.004289741 -0.0028325282 0.032513615 -0.057297982 0.015445408
0.08438181 -0.041881505 0.02584779 0.013233798 -0.071992464 0.08101349 0.05013341 -0.04382618
0.002527189 -0.023833176 0.049634643 0.011035405 0.07648888 -0.009196291 0.05733351 -0.085200645
-0.07616513 0.064965755 0.05025651 0.022886442 -0.056089774 -0.06743443 -0.042251166 0.078898646
-0.06397921 0.015147354 -0.08555247 0.003358859 -0.04101723 -0.076347575 -0.02940245 0.08019513
-0.049441475 0.021588925 -0.044400577 0.06250061 -0.081813596 -0.056525894 -0.04651349 -0.08094796
-0.007850846 -0.06082202 0.022127567 0.014160675 0.037927933 0.05951393 -0.08557159 0.09082139
0.044457156 -0.045593727 -0.04870594 -0.0013492558 0.0633188 -0.019244127 0.09252817 0.039843664
0.03758462 -0.0362246 0.020952221 0.045043617 0.029007725 -0.03361645 -0.0049508577 0.055782013
0.029612908 -0.06833374 -0.0009495019 -0.06315072 -0.08176755 -0.019399382 0.055970438 -0.034025323
-0.015652742 0.017758874 -0.004761053 -0.044165518 -0.030224683 0.0064220177 -0.04779742 0.075310215
0.05645654 0.06509487 -0.051000927 -0.05443771 0.04125371 -0.016741354 -0.06462549 0.06454224
0.026707236 0.024567712 -0.0368205 0.053641062 -0.00056960376 0.021801138 -0.015900025 0.015354273
0.001916613 0.08006977 -0.079963416 0.0825469 0.054363035 0.06913193 0.04221522 -0.045790635
-0.015473415 -0.080363095 0.04624437 0.04238558 -0.053318154 0.00085829804 0.04968019 0.013990718
-0.038588263 -0.038991347 -0.02779855 -0.036818314 0.018504549 -0.07717519 -0.07729984 0.04817279
0.015959194 0.050336655 -0.069334894 0.045598302 -0.018869711 0.061527215 0.05127439 -0.01662497
0.06438217 -0.04391237 -0.00022907282 0.004959722 0.02064293 0.07078736 -0.08621273 -0.041789927
-0.0023904326 -0.008815859 0.04729264 0.025185935 -0.06525765 0.052769236 0.042092796 -0.061253753
-0.026149644 -0.059230506 0.0012988201 -0.07467263 -0.07572656 0.08411025 0.03419583 -0.066662885
0.059936885 0.05323779 -0.043834615 -0.04762679 -0.008746236 -0.08183732 -0.08676293 -0.031888302
0.04329025 -0.081685565 0.07933723 0.072715014 0.07844681 -0.05718933 -0.06448506 -0.046647727
-0.0786911 -0.08809785 0.048384983 0.04729744 0.059007525 0.016498838 0.057573818 0.014299239
0.00050433085 0.000118334654 0.07476114 0.07934343 0.03909304 -0.03018514 0.03639587 -0.07741989
-0.06818232 0.0087491525 0.055435993 0.0096913185 -0.08910361 -0.04367243 -0.046523176 0.057190925
0.046676356 -0.091143616 0.05843598 -0.075799145 -0.027879652 -0.08928875 -0.037636396 -0.02490474
0.011241953 -0.063415006 0.025402337 0.07859976 0.03997898 -0.09080195 -0.0710642 -0.019459618
-0.036574475 0.014177391 0.0052704434 -0.0611488 0.08197298 0.0059364284 -0.020655708 -0.032567784
-0.07727336 -0.03704926 -0.028668104 0.031842735 -0.035458125 0.020564277 -0.03413729 -0.07518515
0.012778684 0.05101401 0.05463014 -0.06680574 -0.024930762 -0.031593487 0.08475639 -0.031922515
-0.049496964 0.014219484 -0.04714372 0.03953048 0.017000342 -0.048624415 0.03445793 -0.072437145
00000000: e5b3 81bd 30bc 8abd b16a 143d 9d73 8fbd
00000010: c5a3 963d 7891 b4bd fa4c 0ebb a710 683d
00000020: ae60 2e3d 9038 84bd 2298 6f3c f590 8cbb
00000030: f0a1 39bb ff2c 053d 4ab1 6abd bd0e 7d3c
00000040: 5fd0 ac3d f18b 2bbd bfbe d33c 92d2 583c
00000050: c970 93bd 67ea a53d b158 4d3d 1583 33bd
00000060: 329f 253b cb3d c3bc b24d 4b3d d8cd 343c
00000070: 34a6 9c3d 0aac 16bc 8bd6 6a3d ad7d aebd
00000080: 77fc 9bbd c40c 853d c5d9 4d3d 597c bb3c
00000090: 64be 65bd 101b 8abd 8f0f 2dbd 9d95 a13d
000000a0: 8807 83bd 9c2c 783c 2236 afbd 4e20 5c3b
000000b0: af01 28bd 1e5c 9cbd 68dd f0bc 583d a43d
000000c0: 2583 4abd 42db b03c 61dd 35bd 5200 803d
000000d0: e38d a7bd b287 67bd ee84 3ebd 0bc8 a5bd
000000e0: d6a0 00bc 8320 79bd df44 b53c 2d02 683c
000000f0: 525a 1b3d e1c4 733d 2840 afbd 9100 ba3d
00000100: b518 363d 7dc0 3abd e17f 47bd 83d9 b0ba
00000110: 49ad 813d dca5 9dbc 697f bd3d 1c33 233d
00000120: 55f2 193d 3f60 14bd fea3 ab3c a87f 383d
00000130: 9ca1 ed3c 67b1 09bd ce3a a2bb ae7b 643d
00000140: c596 f23c 8ff2 8bbd fee7 78ba 2a55 81bd
00000150: bf75 a7bd 74eb 9ebc 4241 653d 235e 0bbd
00000160: 2e3a 80bc 0f7b 913c 9b02 9cbb e7e6 34bd
00000170: c199 f7bc ca6f d23b 3ac7 43bd 3e3c 9a3d
00000180: f93e 673d 7650 853d 59e6 50bd 14fa 5ebd
00000190: a6f9 283d 2a25 89bc 5e5a 84bd b92e 843d
000001a0: 22c9 da3c 3a42 c93c 18d1 16bd bbb6 5b3d
000001b0: 7651 15ba 4d98 b23c c540 82bc 7d90 7b3c
000001c0: dc36 fb3a 9ffb a33d dcc3 a3bd 590e a93d
000001d0: c6ab 5e3d 0b95 8d3d dee9 2c3d f68e 3bbd
000001e0: 3584 7dbc 6895 a4bd bd6a 3d3d 809c 2d3d
000001f0: 2364 5abd 68ff 603a 747d 4b3d 5339 653c
00000200: ba0e 1ebd 64b5 1fbd c9b9 e3bc cdce 16bd
00000210: da96 973c 070e 9ebd 614f 9ebd d550 453d
00000220: dbbc 823c cf2d 4e3d 74ff 8dbd 49c5 3a3d
00000230: a794 9abc f603 7c3d 1805 523d 1731 88bc
00000240: cdda 833d 75dd 33bd 4433 70b9 2a85 a23b
00000250: 5d1b a93c f7f8 903d 4d90 b0bd ea2b 2bbd
00000260: cea8 1cbb 6570 10bc edb5 413d bc52 ce3c
00000270: cea5 85bd 8e24 583d 7f69 2c3d 37e5 7abd
00000280: c737 d6bc b09b 72bd 2c3d aa3a f7ed 98bd
00000290: 8716 9bbd ff41 ac3d ed10 0c3d 8d86 88bd
000002a0: 6180 753d de0f 5a3d ed8b 33bd 4f14 43bd
000002b0: 5f4c 0fbc 539a a7bd c3b0 b1bd 4f9d 02bd
000002c0: 1e51 313d c34a a7bd 8f7b a23d 9ceb 943d
000002d0: b9a8 a03d 5c3f 6abd be10 84bd b011 3fbd
000002e0: cd28 a1bd a56c b4bd 552f 463d f6ba 413d
000002f0: e0b1 713d 9228 873c 86d2 6b3d 5b47 6a3c
00000300: 1235 043a 6f2a f838 5e1c 993d cf7e a23d
00000310: 0620 203d d446 f7bc d613 153d 528e 9ebd
00000320: 2ca3 8bbd 9b58 0f3c da10 633d 56c8 1e3c
00000330: f47b b6bd dde1 32bd 168f 3ebd 0841 6a3d
00000340: b52f 3f3d 81a9 babd 915a 6f3d 953c 9bbd
00000350: de63 e4bc 05dd b6bd 9f28 1abd 0605 ccbc
00000360: 2b30 383c badf 81bd 9018 d03c e9f8 a03d
00000370: 00c1 233d 5ff6 b9bd 1b8a 91bd c769 9fbc
00000380: 1ecf 15bd 4a48 683c afb3 ac3b 2a77 7abd
00000390: 73e1 a73d 5f86 c23b 2936 a9bc cc65 05bd
000003a0: 7f41 9ebd f7c0 17bd 5fd9 eabc 876d 023d
000003b0: 8a3c 11bd 6a76 a83c 8bd3 0bbd acfa 99bd
000003c0: af5d 513c 11f4 503d dbc3 5f3d 73d1 88bd
000003d0: 993b ccbc 2c68 01bd c294 ad3d 2fc1 02bd
000003e0: 54bd 4abd d7f8 683c c619 41bd b6ea 213d
000003f0: 4d44 8b3c 652a 47bd c223 0d3d ed59 94bd

feature_net.2.bias f4 [64]
-0.08515922 -0.04648195 0.032638714 0.07586702 -0.072461836 -0.08797055 -0.01376785 0.050080456
-0.044859268 -0.02759339 -0.056032002 0.03360458 0.05695421 0.0396043 0.06269907 0.08157523
-0.08366666 0.06311479 -0.011658255 -0.08185805 -0.015942309 0.06960732 0.044771455 -0.018035736
-0.020507274 -0.07053669 -0.06552974 0.063219324 0.0345698 -0.07666542 0.066043645 0.043354783
0.022334974 0.07294875 0.006743748 -0.08430913 -0.08555533 -0.011686439 -0.041227944 -0.0607038
-0.024601785 0.0809972 -0.031350546 -0.00082417426 0.01387735 0.0485209 0.02144603 -0.009470658
-0.049325515 -0.05318142 -0.07064831 -0.05454468 0.079719834 0.075845405 -0.0495118 0.05874751
-0.0014776789 0.047851376 -0.014216384 -0.071690336 -0.01880813 0.095671795 0.08542361 0.07534048
00000000: f567 aebd db63 3ebd 2cb0 053d 2b60 9b3d
00000010: df66 94bd e729 b4bd 8c92 61bc 2a21 4d3d
00000020: 5abe 37bd 880b e2bc d081 65bd f5a4 093d
00000030: d148 693d 1e38 223d 5f68 803d ea10 a73d
00000040: 6d59 abbd 5442 813d 4402 3fbc 31a5 a7bd
00000050: 7299 82bc 488e 8e3d 4662 373d aebf 93bc
00000060: dffe a7bc 8a75 90bd 7534 86bd 2279 813d
00000070: 1099 0d3d c202 9dbd e441 873d c994 313d
00000080: d6f7 b63c 2766 953d a9fa dc3b 44aa acbd
00000090: a237 afbd 7a78 3fbc a2de 28bd 8ca4 78bd
000000a0: af89 c9bc dce1 a53d 6e69 00bd 660d 58ba
000000b0: d35d 633c dabd 463d 96af af3c d22a 1bbc
000000c0: 8d09 4abd c3d4 59bd 10b0 90bd 3e6a 5fbd
000000d0: 2744 a33d d654 9b3d e3cc 4abd 3ba1 703d
000000e0: adae c1ba ceff 433d d6eb 68bc 62d2 92bd
000000f0: 8213 9abc 93ef c33d 93f2 ae3d 1c4c 9a3d

actor_mean.weight f4 [1, 64]
-0.077531844 -0.119038485 -0.02856841 0.048829824 0.05802052 -0.017971536 -0.0648414 -0.12386657
0.06563675 0.055519234 0.10115387 -0.04185909 0.12651336 -0.005915783 0.019970229 -0.008655403
0.053415824 0.076654255 -0.09657658 -0.06896389 -0.086126536 -0.032001995 0.11284156 -0.083493195
0.12363573 0.043299444 0.02931809 0.0522811 0.10228121 0.025339225 -0.1119028 0.09104046
-0.08239051 -0.021542443 -0.0807646 0.111108385 0.0049000247 0.12932922 0.055162374 0.051520467
0.11172569 0.04383994 -0.03204444 0.060812037 0.09658247 0.09645448 -0.124893986 -0.0468426
-0.052687403 0.021463938 -0.11540292 0.0952551 -0.093536645 -0.017153831 -0.07690657 -0.12573199
0.06567273 0.054085277 0.05517026 -0.09093073 -0.025255121 -0.13510059 -0.07539293 -0.10760795
00000000: 04c9 9ebd 73ca f3bd 4c08 eabc c801 483d
00000010: eda6 6d3d 0b39 93bc 91cb 84bd c2ad fdbd
00000020: 8f6c 863d 2368 633d c329 cf3d 7074 2bbd
00000030: b88c 013e 2fd9 c1bb 9b98 a33c 64cf 0dbc
00000040: 8dca 5a3d e8fc 9c3d f1c9 c5bd f13c 8dbd
00000050: 1c63 b0bd 8614 03bd 7a19 e73d 7bfe aabd
00000060: bb34 fd3d c25a 313d 7e2c f03c b524 563d
00000070: d078 d13d 3594 cf3c 4c2d e5bd 6c73 ba3d
00000080: 5bbc a8bd c779 b0bc e967 a5bd cb8c e33d
00000090: 6390 a03b e16e 043e f1f1 613d 2007 533d
000000a0: 70d0 e43d 8291 333d 0841 03bd 0b16 793d
000000b0: 08cd c53d ed89 c53d 6bc8 ffbd 07de 3fbd
000000c0: bfce 57bd 24d5 af3c 5e58 ecbd 1b15 c33d
000000d0: 2490 bfbd 3186 8cbc 3181 9dbd e3bf 00be
000000e0: 6d7f 863d 8688 5d3d 36fa 613d e439 babd
000000f0: d4e3 cebc cf57 0abe 9c67 9abd 8f61 dcbd

critic.weight f4 [1, 64]
0.039446685 -0.09389063 0.052037396 -0.041348383 0.09747775 0.03456645 -0.063071534 0.07978622
-0.03608142 0.027435148 -0.07349495 0.06665545 0.09431425 -0.08272722 -0.11605799 -0.075438224
-0.104121886 0.058704592 -0.03871601 0.008108575 0.11057788 -0.12070275 -0.062826015 -0.11884878
-0.036704637 0.03212599 -0.0148877 0.09689828 -0.0054122033 -0.013073126 0.015322455 0.09093587
-0.009241473 -0.0045220833 -0.058029093 0.119073994 -0.011304192 -0.028583156 0.00027867637 0.051114656
0.019801749 -0.10684987 -0.06521438 -0.10909245 0.056655005 0.08773842 -0.01187485 0.026721861
-0.02253548 -0.0008858998 0.038083605 -0.021035237 -0.09523285 -0.08937968 0.053362124 0.010496911
-0.06686784 -0.030223453 0.051211912 -0.06437885 -0.02398462 -0.025753539 0.04715735 -0.008846178
00000000: d992 213d bb49 c0bd 2a25 553d ec5c 29bd
00000010: 6aa2 c73d 8d95 0d3d a62b 81bd f566 a33d
00000020: 1cca 13bd adbf e03c 8584 96bd a782 883d
00000030: d427 c13d e46c a9bd d0af edbd 5b7f 9abd
00000040: db3d d5bd 3a74 703d ae94 1ebd d4d9 043c
00000050: a876 e23d 0133 f7bd edaa 80bd fd66 f3bd
00000060: 9a57 16bd 8b96 033d 8aeb 73bc 9b72 c63d
00000070: da58 b1bb aa30 56bc 090b 7b3c 963c ba3d
00000080: 8c69 17bc fc2d 94bb eaaf 6dbd 11dd f33d
00000090: 3835 39bc 3927 eabc 4f1b 9239 9a5d 513d
000000a0: 4737 a23c 1bd4 dabd 1e8f 85bd dd6b dfbd
000000b0: 140f 683d 33b0 b33d bb8e 42bc cee7 da3c
000000c0: 549c b8bc bb3b 68ba 8efd 1b3d 1752 acbc
000000d0: 7109 c3bd b20c b7bd 3e92 5a3d 3cfb 2b3c
000000e0: 02f2 88bd 2d97 f7bc 95c3 513d 0fd9 83bd
000000f0: 657b c4bc 16f9 d2bc 1128 413d 8fef 10bc
