RL M/ppo_rope_lift.pth (torch, 48715 bytes, 6 tensors)

weight f4 [128, 21]
00000000: c67a 123e 959c 5f3e 8baa a7bd a7c0 3cbe
00000010: 4146 92be 1d81 bc3d ffea f2bd f808 81bc
00000020: c7f6 3abe 99ec 20be 98c5 99bd 389d 83bd
00000030: 2d52 45bd 8b96 a83c edef 903d d23b 09be
00000040: bfda 4abd 7682 a4be f58f cf3d b41f 92bd
00000050: c608 323e 3a46 e13d f33b 1f3d 5125 27be
00000060: d43a 7ebe 5cd4 30be 9be4 10be 59b5 f93d
00000070: 2528 7bbe 0d88 12be 016d 91be 3e2d 273e
00000080: efbb a8bd b418 d0bd 3952 25bd fdc8 61be
00000090: 508a babc 49b9 a4be 02e2 623d 4f7f c0be
000000a0: 0ce9 babe e538 453e 99a5 153e 6913 273e
000000b0: f223 35be eb49 1f3d 98fe 17bd 9f48 10bd
000000c0: e666 373c 835c be3d 2af3 c8bd 539e cd3d
000000d0: fa2c 5f3e cd04 97bd 0492 883d 0b81 2abd
000000e0: 244c 80be 157e 42be b956 44be 32bf 103e
000000f0: 6754 8f3e 7e30 bcbd 8e6b 2d3e 5e7d 2e3e
00000100: c10d 95be de53 0abe 1eb3 7ebd 90c8 24bc
00000110: 11ce ccbc ae7e e8ba 757f e8bd a70a 74bd
00000120: 7c60 633e 7a8b 093e cd00 023e a2c0 9f3b
00000130: a710 5a3e 2d4c 303e 3316 383d fc98 9f3d
00000140: 294b 50be 7c23 b3be 531e 873c 33b9 06be
00000150: 8af0 0a3e 2c15 25bd 01b6 cfbc f374 5bbe
00000160: b13c 2ebe d63e 0f3e 3e12 e93d 47c1 63be
00000170: b721 e0bd 5344 85be 5923 633d 3f93 dc3c
00000180: 6c75 bfbd c5ad f93d 1a6a 3b3e b54f 06be
00000190: ab84 96be 558e 59be 955c afbe f616 a2be
000001a0: 64f9 50bd 1f27 9c3e 1911 02bb f318 9fbe
000001b0: 4552 61be 714d 27be e12c 173e 5776 01bd
000001c0: c17c 143e 47b1 10bb 33a9 643e ec9f 25be
000001d0: dc73 02bd 167a 823d e7ca d73d c834 783e
000001e0: 82b5 31be a946 343e 45ff 91be 21dd ca3d
000001f0: ec03 71be b326 b5be 0e9b 813e 601f 173d
00000200: 7005 4ebd cc31 7ebc c174 d1bb c8ba 5cbe
00000210: 6092 7f3e 1987 993d 50f3 663e a22d 5d3e
00000220: f321 0dbe a20f 4fbe cb75 50be c2e7 b3bd
00000230: 6774 133e e156 3f3d 5ba4 a2be aaca 66be
00000240: 9b6e 8b3c 6c5a 75be 3f75 b6be 7db4 843e
00000250: e000 2b3e 3bdd 4abe ba28 3bbe 7f2e bfbc
00000260: ea29 ecbd 0afd 81bd 1797 f83d 6282 9abd
00000270: 2029 d73d 9bc0 35be 2558 11be 8fe1 1d3e
00000280: 0c0e 0c3e 7f15 a6bc 8a98 473d 8422 ea3d
00000290: 33a3 523d d866 b7bd 6cf0 fb3b 4666 95be
000002a0: 51cb fabd 50e7 273d 220c 51be d701 22be
000002b0: dec5 96bc 51e5 38bc 9531 943e d5bf 863e
000002c0: 1131 00be 2862 78bc e122 513e 5dc5 27be
000002d0: e3ba 79be d6fd 1c3e 5664 ee3d 0258 4dbe
000002e0: a606 dc3d 75b6 34bd 7999 94be f3f6 743e
000002f0: d3b1 e9bd f01e 9bbd 40f6 5c3d 423c c83d
00000300: 2724 0a3d 6260 81be 57db a5bc 7bad c2bd
00000310: 3b74 70bd 08e5 bebd 171e 60bd f1f3 8f3d
00000320: 4bb0 0ebe bad1 463e 1f96 393e d10f ebbd
00000330: 0519 5e3e 9fc8 94be 4e38 5b3e fe46 a6be
00000340: 8e15 113e cf8c 32be 5bcb 8a3e 7f04 3c3e
00000350: 49bd 8bbe ea8f f9bd 26aa a0bd 4195 4f3e
00000360: 3e38 8e3d 6cbb 003d c143 9dbc 92e4 0a3e
00000370: 1381 2fbe 899a 333e 306b 663d 2958 be3d
00000380: 84e1 11bd 371e 1f3e f69c 83be b77d bbbe
00000390: 517f 70be 53b1 443e 09e3 75be 90b8 933e
000003a0: fcd4 2ebd 6f61 a6be e08c 44be b98e 743d
000003b0: cd55 823c c016 3dbe 9956 65be ab09 f7bd
000003c0: d4da 80be e9e0 22be 0ad6 7fbe 17b6 6a3b
000003d0: 102b 33ba 578c 893b 63ee 4ebe 420d a1be
000003e0: db8e c3be de14 8ebe fcd3 91be 2c43 84ba
000003f0: 758f bcbc 9f08 babd 2317 d9bd 8ab2 783b
0.14304647 0.21837075 -0.08186825 -0.18432866 -0.28569224 0.09204314 -0.11861228 -0.015751347
-0.182582 -0.15715255 -0.07508391 -0.064264715 -0.048174072 0.020579597 0.07077012 -0.13401726
-0.04952502 -0.32130784 0.101348795 -0.07134953 0.1738616 0.10999723 0.03887553 -0.16322829
-0.24827129 -0.17268509 -0.14149706 0.121927924 -0.24527033 -0.14309712 -0.28403476 0.16325852
-0.082389705 -0.10160962 -0.040361617 -0.22049327 -0.02277103 -0.3217261 0.05539132 -0.3759713
-0.36505926 0.19259985 0.14613952 0.16315998 -0.17689493 0.038888853 -0.037108034 -0.035225507
0.0111939665 0.09294989 -0.09812005 0.100399636 0.21794501 -0.073739626 0.06668475 -0.04162697
-0.2505809 -0.18993409 -0.19173707 0.14135435 0.2799408 -0.09188937 0.1693556 0.17040011
-0.29112056 -0.13508555 -0.06218254 -0.010057583 -0.025000604 -0.0017737949 -0.113524355 -0.05958047
0.22204775 0.13432112 0.12695618 0.0048752585 0.21295415 0.17216559 0.044943046 0.07792851
-0.20341171 -0.3498801 0.016493952 -0.13156585 0.13568321 -0.040303394 -0.02535534 -0.21431331
-0.1701534 0.13988814 0.113804325 -0.22241698 -0.109439306 -0.2602869 0.055453632 0.026925681
-0.09348568 0.12191347 0.18302193 -0.13116343 -0.29398093 -0.21245702 -0.34250322 -0.31658143
-0.051019087 0.30498597 -0.0019846617 -0.31073722 -0.2200404 -0.16338135 0.14763214 -0.031607
0.14500715 -0.0022078322 0.2233017 -0.16174287 -0.031848773 0.06370942 0.105367474 0.24238884
-0.17354396 0.1760508 -0.28515068 0.09905458 -0.23536652 -0.35381088 0.2531361 0.036895156
-0.050298154 -0.015514802 -0.006392092 -0.21555626 0.24958181 0.07496471 0.22553754 0.21599439
-0.13782482 -0.20220807 -0.20357434 -0.08784439 0.14399873 0.046713714 -0.31766018 -0.22538248
0.017020514 -0.23960274 -0.35636327 0.25918952 0.16699553 -0.19810955 -0.18277255 -0.0233376
-0.11531432 -0.063470915 0.12138193 -0.075444 0.10505891 -0.17749254 -0.1419378 0.15418075
0.13677233 -0.020273922 0.048729457 0.114323646 0.05142517 -0.08955163 0.0076885726 -0.2917959
-0.12245811 0.04099208 -0.20414785 -0.15821014 -0.018404897 -0.011285142 0.28944078 0.2631823
-0.12518717 -0.015160121 0.20423461 -0.16383882 -0.24387698 0.15331206 0.11640231 -0.20053104
0.107434556 -0.044119317 -0.2902334 0.23922329 -0.114108704 -0.0757426 0.05394578 0.09777118
0.033725884 -0.25268847 -0.020246191 -0.09505745 -0.058704596 -0.09321028 -0.054716196 0.0702895
-0.13934438 0.19415942 0.18123673 -0.11477626 0.21689232 -0.29059312 0.21408197 -0.32476038
0.14168379 -0.17436527 0.27108273 0.1836109 -0.2729285 -0.121856526 -0.07844953 0.2027178
0.06944321 0.03142874 -0.019197347 0.13563755 -0.17139082 0.17539419 0.056254566 0.09294159
-0.03561546 0.1553887 -0.2570569 -0.3661935 -0.23486067 0.19208269 -0.24012388 0.28851748
-0.042683586 -0.3249621 -0.19194365 0.059706423 0.015910054 -0.1846571 -0.22396316 -0.12062391
-0.25166953 -0.15906109 -0.24983993 0.00358141 -0.0006834725 0.004197638 -0.20208125 -0.31455427
-0.38194928 -0.27750295 -0.28482044 -0.001009082 -0.023017624 -0.090836756 -0.10600116 0.0037948214

bias f4 [128]
00000000: 4e75 0b3e 9679 54bd f9f0 363e 1375 de3c
00000010: 771d c23d e006 11bc 39b1 d13d c1f9 0e3e
00000020: e945 293e dc59 093c 94e4 01bd bdbb 033e
00000030: b4e0 8f3e 6f70 9d3e eb19 863e 001c 9b3e
00000040: f52a cdbc b9b0 aa3d a931 b4bb d7d6 f33d
00000050: ed22 e03d f061 b8bd c802 983e 86a4 cc3d
00000060: c953 403d 7545 843e bcd5 0c3d f030 103e
00000070: 0941 a33e 8350 8e3e 6253 45bd 287a ab3d
00000080: d01c fc3b 3658 ba3d 895c 45bc 6c6c 993e
00000090: a97e 04bd eddb 813d 6072 513e 9fee 433e
000000a0: 66c3 9fbc 6d6d b63c 6721 cc3d 3b06 9a3e
000000b0: ad3b ecbd 6b51 0d3d 2000 263c 9d6d b43d
000000c0: 995c e83d bd40 c63d 6b3a 3a3e eea6 843e
000000d0: 74cc 863c d70b 9a3e f4c7 3d3e 3229 433e
000000e0: 8d25 99bd 5ead 76bd cf22 1d3d 1b0d 583d
000000f0: 04d8 613e e66d 41bd 6591 883e 780b 843e
00000100: 70da 80bd 4708 5d3d d1c1 9f3e 70bf 613d
00000110: c0b8 8e3e bd0c 92bd e930 9dbd 84ac 743e
00000120: 609d 88bd b3cb b63d 25de 253e fc64 183e
00000130: 78db 353e 0e01 693e 624c 883e 6e50 563d
00000140: 39fb 2fbd 2b8d 14bd 7ba5 723d ee5b 52bd
00000150: 670b 95bc 9518 9f3d 660a febc 625a 5c3b
00000160: ebcd 8f3e 1b42 333e 166c 303e 0dbc 35bb
00000170: bc23 303e 43a8 033e d3ee 0d3e 41ae 093d
00000180: 5151 efbb 3c5f 853d b21e 7d3e 34b2 673e
00000190: 2716 123e 5753 d9bd 781c 9e3e 8aea 803e
000001a0: 4a72 3a3e 8e86 36bd a1de 2d3d cbe1 143c
000001b0: 93da 8b3a 1ab3 153d 36d6 903c 718f ec3c
000001c0: 6b41 9a3d 8d60 a73d e3b8 553d adad 923c
000001d0: 16eb 67bd 8968 af3e ce0b 043e d607 693e
000001e0: 4193 38bc 6097 993e af4d dcbd 7794 d63d
000001f0: 08c0 04be eaa3 7d3d cba8 153e 7bfa 4e3e
0.13618967 -0.051873766 0.17865361 0.027155435 0.09478276 -0.008851737 0.10238881 0.13962461
0.16530575 0.008383241 -0.03171213 0.12864585 0.28101122 0.30749843 0.2619165 0.302948
-0.025044898 0.083344884 -0.005499084 0.11906212 0.109441616 -0.09003055 0.29689622 0.09992318
0.046954904 0.25834242 0.03438352 0.14081168 0.31885555 0.277958 -0.048175223 0.08372909
0.0076938644 0.09098856 -0.012045988 0.29965532 -0.032347355 0.06340776 0.20453787 0.19133995
-0.019502353 0.022268975 0.099673085 0.30082878 -0.1153482 0.034501474 0.010131866 0.088099696
0.113457866 0.096803166 0.18186347 0.25908607 0.016454913 0.30087158 0.18533307 0.19058684
-0.07477865 -0.06022393 0.038363274 0.052746873 0.2205506 -0.047223948 0.26673427 0.2579
-0.06291664 0.053962972 0.31202558 0.05511421 0.27875328 -0.07131336 -0.076753445 0.23893934
-0.06670642 0.08925571 0.16198023 0.14882272 0.17759502 0.22754309 0.26620775 0.052322797
-0.042964194 -0.03626744 0.059239846 -0.051357202 -0.018193914 0.077683605 -0.031010818 0.0033623208
0.2808679 0.17505686 0.17228732 -0.0027730495 0.17201132 0.12857156 0.13860635 0.033613447
-0.007303395 0.06512305 0.2471874 0.22626573 0.14266263 -0.10611599 0.30881095 0.2517894
0.1820766 -0.044561915 0.042448644 0.009087036 0.0010669999 0.036547758 0.017680269 0.028876992
0.07532009 0.081727125 0.052178275 0.01790508 -0.05662068 0.34259441 0.12895128 0.22756895
-0.011265577 0.29998302 -0.107570045 0.10477536 -0.12963879 0.0619239 0.1461517 0.20212738

weight f4 [64, 128]
00000000: 6f9b 443e f55a 723e c961 da3d e9fb e13d
00000010: 7786 253e 2079 1c3e 55cf 1f3e 89bd e93d
00000020: 1dd1 393e f8cb 233d 6eb6 793e 6738 c43d
00000030: a50e 163e ea38 bb3d a84f a53d ed84 023a
00000040: 02f0 393e d339 ff3d c071 143e c567 f93d
00000050: cf27 303e 884d 5b3d 8b81 f73d 5ff9 c53d
00000060: 880f a33d b032 c43d 9fc4 4f3d e31f 2c3d
00000070: 307f a73d 941e 293e 6626 413e ba78 f63d
00000080: 3a01 103e d01d 7b3d 90cd 243e 188d 2f3e
00000090: 21d5 6e3e 0c23 383e 6da3 213e 8862 d23d
000000a0: 8a41 1b3e ef26 583d 1513 a13d 7b84 ac3d
000000b0: 3f96 26bc c1b2 2e3e 508a 023d f481 eb3d
000000c0: ee0d 0e3e 38ee 503e 04cc 673d 7603 123e
000000d0: ecc9 8e3d 5677 393e 6d3f 1d3e fa09 4e3e
000000e0: e39f 083d c247 a63d 4cce 283e fafb 233e
000000f0: 8498 2f3e dc94 203e 34a4 093d a6a5 1c3e
00000100: e859 943d 18a2 ca3d 13bd 2e3e 327e f83d
00000110: 3612 1c3e 1497 2d3e 5bc2 bc3d 4597 0f3e
00000120: 0bf3 da3d 991c 143e 15d7 fc3d 9aa1 213e
00000130: 6a97 793e 5fd4 8c3d 1aa4 a73d aaa9 7c3e
00000140: 6d9e 053e dea7 533e cbf2 253e f065 bd3c
00000150: b78e 893d 09ae 113e 8395 0c3e 3595 6c3e
00000160: bde5 0e3e 8381 c73d bc7e 6b3d d64d 693e
00000170: 071f 5e3d 7f38 383e b934 153d 1d44 e33d
00000180: 1bb1 233e 2853 c83d f0a2 bd3d 43c1 503e
00000190: daf0 1f3e 34d4 073e 9e4b 9d3d 1fae 223e
000001a0: 52c9 023e f33a 093d 4c2f 2f3e 41e7 e23d
000001b0: 6fe6 4b3e c594 983d de40 e13d 57d8 aa3d
000001c0: 95b9 1e3e 9828 3a3e 92ad 6b3d e1db 353e
000001d0: c68e 0b3e 318a 373e 393d f93d e5c3 113d
000001e0: 21e8 283e fa32 143e 8d15 773d 0382 dc3d
000001f0: ed7a 023e a8d8 043d c094 f23d 4bf2 423e
00000200: 6f83 8b3c 5e3d 17bb 7a29 4fbd 2a96 9d3d
00000210: d449 003c e6b1 d6bc 5114 e83c 18dd 433d
00000220: 9b0f 9dbd b130 a7bd 1c48 073d f627 ebbc
00000230: d494 7abd b555 71bc e9fe 10bd da33 a03d
00000240: 9e2a 973d 76c9 fb3c be33 363d 2df6 00bd
00000250: 467a 4bbd 22da 8dbd c704 2f3b bf41 abbb
00000260: 300a fe3c 53d1 883c 136d 59bd ffba 933d
00000270: dee5 74bd 5ff1 15bd dde9 8dbd b5d3 a2bd
00000280: 8d5d afbd 4cc2 8e3d a20e ba3b 6323 a4bd
00000290: 60f8 b6bd 934b d7bb c9cb 9b3d 54c1 cd3b
000002a0: c4cf 54bb 25cf 52bd 2b4d 4cbc 3328 81bc
000002b0: d49c 3fbd dd59 623d 9823 23bd 1ad8 863d
000002c0: a3ef 533c a82e f7bc 9a7b 82bc 18f8 4cbc
000002d0: fcc5 c73c d522 87bd f580 99bd cab6 16bd
000002e0: 6553 56bd 599f bcbc 51be 693d 4e10 2e3d
000002f0: bee7 c8bc 5d78 23bd 2477 bcbd 60d0 833d
00000300: f314 a63c ae3a 443d c2c8 aabc 00c3 0a3d
00000310: 3b58 f93b d591 013d 35ad 9dbd c51f 903c
00000320: 5a45 7a3c 10f0 b0bd 7ca2 e63c 2783 13bd
00000330: 594b 7ebd a664 00bd 196f b4bd d365 b5ba
00000340: 7f91 b3bd 3e2a 733d b286 0a3d 8056 7e3d
00000350: 61d2 223d 2fca 7d3d 5a72 763c a4bc 933d
00000360: 2039 af39 019b a0bd 9f34 b73a b166 883d
00000370: 46e6 89bd 2ecb 76bd 2d67 7ebd 639b a93c
00000380: 189d 00bc 7446 d3bb a204 9d3d 3955 88bd
00000390: 1d12 90bd 680a a43c ee30 7a3d 51c7 a7bd
000003a0: caca a13c 5d09 55bd 8f6a 823d e193 433d
000003b0: 5305 243b 9c68 3c3d 1b60 593b 296b 873d
000003c0: f63c e73c c5aa 0dbd 9fb7 abbc bbdb 213d
000003d0: 2ac5 4a3d 6346 01bd 2a3c 1ebd 6888 ec3c
000003e0: 9056 543d 3191 3c3b fbf4 b1bd 9968 3d3b
000003f0: e705 4bbd ae56 8d3d a46e b8bd 79e5 783d
0.19199918 0.2366751 0.10663182 0.11034376 0.16164576 0.1528058 0.15606435 0.11413104
0.18146177 0.03998944 0.24385998 0.095810704 0.14654024 0.09141715 0.08071834 0.0004978914
0.18157962 0.12462201 0.14496517 0.121779956 0.17202686 0.053540736 0.12085255 0.096667044
0.07961947 0.095799804 0.05072462 0.042022597 0.08178556 0.16515571 0.18862304 0.120347455
0.14062968 0.06130773 0.16094041 0.17143667 0.2332349 0.1798212 0.15784998 0.102726996
0.1516172 0.052771505 0.07864968 0.08423706 -0.010167657 0.17060377 0.031870186 0.11499396
0.13872501 0.20403373 0.05659105 0.14259133 0.06972107 0.1811193 0.15356226 0.20120993
0.033355605 0.081191555 0.16484946 0.1601409 0.17148024 0.15681785 0.033603862 0.15297565
0.07243711 0.09894198 0.17064314 0.12133445 0.15241322 0.16952163 0.09216758 0.14022548
0.10690888 0.14464034 0.12345711 0.15784302 0.24374166 0.06876444 0.08185597 0.24674097
0.13048716 0.20669505 0.162059 0.023119897 0.06716674 0.14226545 0.13728909 0.23103793
0.13954826 0.09741499 0.05749391 0.22783598 0.05422881 0.17990302 0.036427233 0.11096976
0.15985529 0.09781486 0.092595935 0.20386223 0.15619221 0.13264543 0.076804385 0.15886734
0.1277211 0.033503484 0.17107886 0.110792644 0.19912122 0.074502505 0.109987006 0.08342045
0.15500481 0.18179548 0.057538576 0.17759658 0.13628682 0.1792381 0.121698804 0.03558721
0.164948 0.14472571 0.060323287 0.10766985 0.12742205 0.032433182 0.11844778 0.1903774
0.017030446 -0.002307735 -0.050576665 0.07694657 0.007830102 -0.026207875 0.02833 0.047818273
-0.07668992 -0.08163584 0.033027753 -0.028705578 -0.06117709 -0.014729907 -0.03539935 0.0782239
0.073811755 0.030735712 0.04448294 -0.03148477 -0.049677156 -0.06926371 0.0026705728 -0.0052263434
0.031010717 0.016701376 -0.053082537 0.07213401 -0.05978953 -0.036607143 -0.069293715 -0.07950536
-0.08562765 0.06970653 0.005678014 -0.08014562 -0.089340925 -0.0065702884 0.07607228 0.00627915
-0.003247247 -0.05146708 -0.01246957 -0.015766239 -0.046780422 0.05526148 -0.039828867 0.06584187
0.012935552 -0.030173615 -0.015928078 -0.012510322 0.024386398 -0.065984406 -0.074953 -0.036795415
-0.052325625 -0.023025202 0.057066265 0.042496018 -0.024524566 -0.03990971 -0.09202412 0.06436229
0.020273661 0.047907524 -0.020847682 0.033877373 0.007609395 0.031633217 -0.07699052 0.017593274
0.015275324 -0.08639538 0.02815365 -0.03601375 -0.062083576 -0.031345986 -0.08810253 -0.001383955
-0.087679856 0.059366457 0.03381986 0.06209421 0.039751414 0.061960395 0.015041912 0.07213715
0.00033421163 -0.07842065 0.0013977474 0.06660212 -0.06733374 -0.06025236 -0.062110115 0.020703977
-0.007849954 -0.0064476077 0.07666899 -0.0665688 -0.07034705 0.020024493 0.06108182 -0.081923135
0.019750018 -0.052010883 0.06367981 0.04774845 0.0025027588 0.0459982 0.0033168856 0.06612236
0.02822731 -0.034586687 -0.02096158 0.039516192 0.049504437 -0.031561267 -0.038631596 0.028873637
0.051840365 0.0028773064 -0.086893044 0.0028901456 -0.049566176 0.069012985 -0.09005478 0.060765717

bias f4 [64]
00000000: dd56 723d 4320 b6bd 20b9 8a3b bd5e ba3b
00000010: 3c6d 9c3b a496 063e 6037 063d 2b3d 53bc
00000020: 1df8 86bd edb7 033e 88bd 083e 26e5 083b
00000030: 99e6 86bd 48f3 813c 8669 b33d 0718 8c3d
00000040: 1bfa 183d 81fb 43bd b6e5 c33d c224 883d
00000050: 1192 753d 6c3d 573d 69d7 95bd bc03 093d
00000060: 7cc8 4e3d e5ac c33c 2a1b 8c3c b486 a23d
00000070: 163e f23c e273 023e 10dc dbbc 3c98 8d3d
00000080: ac68 cb3d 1f08 fb3d e75c 663b d15a d73c
00000090: 3341 523d 2ebd b93d 5d6f 8fbd e4fd cc3d
000000a0: 6d50 86ba 729f 4cbd a9dd 6d3d 73b0 973d
000000b0: 5e75 aa3d b155 8cbd 674e e83d 68f8 b53d
000000c0: cc90 f63c 16c7 243d 99e7 ec3d 4a71 b63a
000000d0: 41a1 a43d 0d95 47bc c4b0 47bc e11d 833d
000000e0: 52e2 da3c ec4e 0a3e 010d 983c ae64 fc3c
000000f0: fada 703d f416 6f3d 526a c63d 23ca 9dbd
0.05916487 -0.08892872 0.0042334944 0.005687563 0.004773764 0.13143402 0.032767653 -0.012893002
-0.065902926 0.12863131 0.1335355 0.0020888536 -0.06586952 0.015863076 0.087603614 0.0684052
0.037347894 -0.047847275 0.09565298 0.06647636 0.059953753 0.05254881 -0.07316477 0.033450827
0.050484166 0.023886153 0.017102797 0.07935849 0.02957062 0.12739518 -0.026838332 0.06913802
0.09932074 0.12257408 0.003515059 0.026288422 0.05133171 0.09069286 -0.07003663 0.10009363
-0.0010247357 -0.049956746 0.05807272 0.07406702 0.08323167 -0.06852282 0.11343079 0.0888527
0.030098341 0.040228926 0.11567611 0.0013919261 0.08038569 -0.012181533 -0.01218814 0.06402183
0.026719246 0.13506669 0.018560888 0.030809727 0.058802582 0.0583715 0.09688248 -0.0770457

weight f4 [1, 64]
00000000: df01 81bd 8592 8fbd 523d f53d 0e46 483d
00000010: 8e01 ee3d 266d b6bd 5ce8 a03d d757 8b3d
00000020: 828c dfbd dbf0 d43d 51f8 c53d 6418 cfbd
00000030: 3eb0 c2bd e937 a3bd 67e5 a23d 80d3 d9bd
00000040: f19d cc3d 5273 80bd 0695 7c3d a1de c63d
00000050: 7cc1 cdbd b1a1 2abd 1a66 c13d 22ed e1bd
00000060: 5fc2 bfbd 59ea c13d 2f66 4c3c e5ce 83bd
00000070: c2b6 913d 09d8 bebd d684 68bb aec0 813d
00000080: eefc 8bbc 4e32 fc3d e595 b4bd 2051 253d
00000090: 54cb a4bd 3dd0 0ebd e923 813d aabe e8bd
000000a0: d061 91bc a19c f43d f8b6 873d 386d 8dbc
000000b0: 4435 84bd 0ffe d9bd 807c 01be 7aad be3d
000000c0: 6f7b 26bd f6e3 03be e775 ce3d fd1c c2bd
000000d0: 2a8d 263d a7e7 093c 6875 1e3c 1f5b 3dbc
000000e0: 9b4d a13d 7529 b1bd 1936 63bd 05ee b23d
000000f0: 92ae 84bd af8f ebbd f90a a83c ccef 7c3d
-0.06299185 -0.07010368 0.119745865 0.048894934 0.1162139 -0.08907537 0.07856819 0.068038635
-0.109154716 0.10397502 0.09666503 -0.10112074 -0.09506272 -0.079696484 0.07953911 -0.106360435
0.099910624 -0.062719956 0.061665557 0.09710432 -0.1004667 -0.041658107 0.094433025 -0.110315576
-0.09363245 0.094685264 0.012475534 -0.064359464 0.071149364 -0.09318549 -0.0035479567 0.06335579
-0.01708838 0.12314282 -0.088176526 0.04036057 -0.08046594 -0.03486656 0.063056774 -0.11364491
-0.017746836 0.11943937 0.066266954 -0.017263994 -0.06455472 -0.10644161 -0.12645149 0.09310432
-0.04064506 -0.12879929 0.10081082 -0.09478185 0.04066197 0.008417047 0.0096715465 -0.0115573695
0.0787613 -0.086504854 -0.055471513 0.08736805 -0.06478609 -0.11502015 0.020513045 0.061752126

weight f4 [1, 64]
00000000: b485 16be d0bd 8c3d 8bbb 6c3c adeb a93d
00000010: 3927 89be 7b68 2cbe 8492 7ebe efcc 34be
00000020: e9ac 6c3d d8d3 40be fe43 1ebe 56cf 6abe
00000030: f0e0 9f3d 2a9b 56be 5bd8 3bbe 05b2 7ebe
00000040: bd51 5f3d e165 333d 2215 5cbe cb0e f43c
00000050: b1c9 783d afae 87be 5730 ee3d 3bff 67be
00000060: dd5c d63d 9135 453d fa0e 4cbe 1f51 23be
00000070: 5802 24be b39d 4cbe b16b 53be 657a 933d
00000080: 3878 65be 8576 33be 64af 85be e99b 42be
00000090: c902 31be 2f45 3abe 3272 063d 1572 75be
000000a0: 8810 773d 5a4a 833d 4ea5 c73d 40a0 7cbe
000000b0: 62c9 1ebe 28cb a03d 8a83 0ebe e1df 47be
000000c0: c0a1 19be 710a 37be ca00 41be 551c 80be
000000d0: 297e 17be 20cd a53d 972f 163d dcf3 583d
000000e0: 780f 6ebe bb98 27be 4755 953d fba8 3ebe
000000f0: fd81 a83c d99f 47be 5bd8 14be 6cf7 0b3c
-0.14699441 0.06872141 0.014449011 0.08296905 -0.26787737 -0.16836731 -0.24860579 -0.17656301
0.057782087 -0.18830812 -0.15455624 -0.22930655 0.07806575 -0.20957628 -0.18344252 -0.24872597
0.05452131 0.04379833 -0.21492437 0.02979221 0.060739223 -0.2650046 0.11630314 -0.22655956
0.10466931 0.048146788 -0.19927588 -0.15948914 -0.16016519 -0.19982032 -0.2064655 0.07201079
-0.22409141 -0.1752568 -0.26110375 -0.19004788 -0.17286219 -0.18190454 0.03282375 -0.239693
0.0603185 0.06410666 0.09748326 -0.24670506 -0.15506509 0.07851249 -0.13917366 -0.19518997
-0.15003109 -0.17875077 -0.18847957 -0.25021616 -0.1479422 0.08095765 0.03666648 0.052966937
-0.23248088 -0.16366856 0.07291656 -0.18619148 0.020569796 -0.19494571 -0.14535658 0.008542877
