RL M/ppo_rope_lift_final.pth (torch, 48024 bytes, 6 tensors)

feature_net.0.weight f4 [128, 20]
0	0x3d86fc5d	0.06591103
1	0xbe0fa570	-0.14027953
2	0xbe505cb6	-0.20347866
3	0xbcdd5cf3	-0.02702186
4	0x3e5936c8	0.21212304
5	0x3e336720	0.17519808
6	0xbe54520f	-0.20734428
7	0x3d4b72b8	0.04966995
8	0xbe56b4f8	-0.20967472
9	0x3dc238e3	0.094835065
10	0x3d7718be	0.06032633
11	0x3e2a366e	0.16622326
12	0xbe24331a	-0.16035119
13	0xbc9c2e76	-0.019065123
14	0x3dcdac46	0.10042624
15	0x3da2d226	0.07950239
16	0xbc0db0b0	-0.008648083
17	0x3e1470c9	0.14496149
18	0xbdb1e6a0	-0.08686566
19	0xbe6d3247	-0.2316371
20	0x3db94b7c	0.090476006
21	0xbe58db3e	-0.21177384
22	0x3d2ff1a6	0.042955063
23	0xbd6d86a0	-0.057989717
24	0x3d911e42	0.07085849
25	0xbe2f624a	-0.17127338
26	0xbe647877	-0.22311579
27	0x3d3c3439	0.04594824
28	0x3dd51019	0.10403461
29	0xbd987776	-0.0744466
30	0x3e2f6312	0.17127636
31	0x3e120e20	0.14263201
32	0x3e320e17	0.17388187
33	0x3d985f3e	0.07440041
34	0xbd8f1979	-0.069872804
35	0xbdc85630	-0.09782064
36	0xbd365b11	-0.04452044
37	0xbd7d4b43	-0.061839353
38	0xbd37e7e0	-0.044898868
39	0xbd9fb37d	-0.077979065
40	0x3e267617	0.16255985
41	0x3e608c9e	0.21928641
42	0x3e6496f6	0.22323212
43	0xbd3cbcd1	-0.046078507
44	0x3df86701	0.121290214
45	0xbe08211b	-0.13293879
46	0x3d1838d3	0.037163567
47	0x3dee77a2	0.11643912
48	0x3e0809a0	0.13284922
49	0x3d541a21	0.05178273
50	0xbdf47d34	-0.11937943
51	0xbdfe1a3c	-0.124073476
52	0xbda5313e	-0.08066033
53	0xbd3d2215	-0.04617508
54	0xbdf09c64	-0.11748579
55	0xbe44525c	-0.19172043
56	0xbd967f8c	-0.073485464
57	0xbe3d47c7	-0.18484412
58	0xbd6151a0	-0.055009484
59	0x3b0b94d7	0.0021298432
60	0x3e0d717d	0.13812824
61	0x3df3285f	0.118729346
62	0x3e488a1a	0.19583932
63	0xbd8b3b6a	-0.06798442
64	0xbbf2b40e	-0.007406718
65	0xbe193337	-0.14960943
66	0x3df1fd13	0.11815848
67	0xbdc371a4	-0.095431596
68	0xbe2eca69	-0.17069401
69	0x3e2b9b8b	0.16758554
70	0xbe150fb4	-0.14556772
71	0x3e391882	0.18075755
72	0xbd998d20	-0.074976206
73	0x3d439414	0.04774864
74	0x3e46a1cb	0.19397657
75	0x3e3824eb	0.17982833
76	0x3dfc7cb8	0.12328476
77	0xbe3e0211	-0.18555476
78	0x3d1e7ddf	0.03869426
79	0x3d4cf3bc	0.05003713
80	0x3d75be18	0.05999574
81	0xbdc25bf7	-0.09490197
82	0xbdab32b5	-0.08359281
83	0xbdc94ea1	-0.098294504
84	0xbd0122ac	-0.031527206
85	0x3e16bf41	0.14721395
86	0xbe319e9a	-0.17345658
87	0xbe593add	-0.21213861
88	0x3e18c435	0.14918597
89	0x3e3c7891	0.18405367
90	0x3e3dce3f	0.18535708
91	0x3e293d67	0.1652733
92	0xbe386ff0	-0.18011451
93	0xbe64acc5	-0.22331531
94	0x3daf3407	0.08554845
95	0x3e5d4760	0.21609259
96	0x3de40b20	0.111349344
97	0xbdbcdc9c	-0.092217654
98	0x3b451bba	0.003007634
99	0xbe1b9a59	-0.15195598
100	0xbda1bf53	-0.0789782
101	0x3ce16e58	0.027518436
102	0x3d450eec	0.048109934
103	0xbb1dc533	-0.0024073839
104	0x3e24fcbd	0.16112037
105	0xbd6e7389	-0.05821565
106	0xbd423fa3	-0.04742397
107	0xbe1d1728	-0.15340865
108	0xbe321d1d	-0.17393918
109	0xbe522b6c	-0.20524377
110	0x3e4af86f	0.19821332
111	0xbdd6b543	-0.10483792
112	0xbd44795c	-0.0479673
113	0xbe383c3a	-0.17991725
114	0x3dc1b0e0	0.09457564
115	0x3e200f85	0.1563092
116	0xbe33aae2	-0.17545655
117	0xbcb7c406	-0.022432338
118	0x3e1d315a	0.15350857
119	0xbdfa4eca	-0.12222059
120	0x3dc826d7	0.09773033
121	0xbc275071	-0.01021205
122	0xbdfb6fc6	-0.122771785
123	0xbdb2e591	-0.087351926
124	0x3e0562e7	0.1302601
125	0xbdb603d7	-0.08887451
126	0xbd43540b	-0.04768757
127	0x3db0f5c6	0.086406276
128	0x3dc82433	0.097725295
129	0xbb6c4fed	-0.0036058382
130	0x3d07e437	0.033176627
131	0xbd2d6a1c	-0.042337522
132	0xbc80ba71	-0.015713902
133	0x3e5de0f1	0.2166784
134	0xbe355593	-0.17708425
135	0x3da9cd2b	0.08291086
136	0xbe0f9916	-0.14023241
137	0x3e50131f	0.20319794
138	0xbe24e1d2	-0.16101769
139	0xbd9eecd8	-0.07760018
140	0xbda5fcc5	-0.081048526
141	0xbd0c7c22	-0.03429807
142	0x3e2cb663	0.1686645
143	0x3c53bc13	0.012923258
144	0x3df725d6	0.120677635
145	0xbd1e3158	-0.038621277
146	0xbdc07bc1	-0.09398604
147	0x3bcba01c	0.006214155
148	0x3de4ef25	0.11178426
149	0x3d96fb49	0.073721476
150	0x3e447c69	0.19188084
151	0xbd0794aa	-0.03310076
152	0xbe163369	-0.14668049
153	0x3cce88b9	0.025211679
154	0x3d8110fb	0.06302067
155	0xbd9dd88a	-0.07707317
156	0xbd7fefd2	-0.06248457
157	0xbe35fd14	-0.17772323
158	0xbca207f9	-0.019779192
159	0xbb3bd053	-0.0028658106
160	0xbc0bce64	-0.008533094
161	0xbdd682d7	-0.104741745
162	0xbce86da8	-0.0283726
163	0xbe0bb81c	-0.13644451
164	0x3e599553	0.21248369
165	0xbe3052f9	-0.17219152
166	0x3e05449c	0.13014454
167	0x3e3fbbe6	0.18724021
168	0xbe42155e	-0.18953463
169	0xbe49ff07	-0.19726191
170	0x3cf8c75a	0.030368496
171	0x3d3aa8ff	0.045571323
172	0x3e00240c	0.12513751
173	0xbda9541f	-0.08267998
174	0xbd39562d	-0.0452482
175	0xbe2ec88a	-0.17068687
176	0xbc1188a8	-0.008882679
177	0x3e0a2d98	0.13493955
178	0x3dcb674b	0.09931811
179	0xbd3961c0	-0.045259237
180	0xbd9bd90e	-0.07609759
181	0xbe501b2a	-0.20322862
182	0xbdb383a8	-0.08765346
183	0x3ca67359	0.020318674
184	0xbe488789	-0.19582953
185	0xbd907381	-0.070532806
186	0xbd1b6e37	-0.037946906
187	0xbd49314f	-0.04911929
188	0xbd84b4ee	-0.06479822
189	0x3d2d71a1	0.042344693
190	0x3dc2ff8f	0.095214
191	0xbdbbeacb	-0.091756426
192	0xbe553629	-0.20821442
193	0xbe36643c	-0.17811674
194	0xbd2e9abf	-0.042628046
195	0x3d4d48cf	0.050118264
196	0x3de0e575	0.109812655
197	0xbaec4078	-0.0018024584
198	0xbe315362	-0.17316964
199	0xbe1f9c36	-0.15586933
200	0x3e61ef6f	0.22063993
201	0x3e56167d	0.20907016
202	0x3d673f3a	0.056456782
203	0x3e27dcc3	0.16392808
204	0xbd4c1940	-0.049828768
205	0xbde872ff	-0.11350059
206	0xbce6adb7	-0.028159006
207	0x3d260609	0.0405331
208	0xbe1f859e	-0.15578315
209	0xbe04f8e3	-0.12985568
210	0x3da20a2d	0.07912097
211	0x3cfdfac3	0.031003362
212	0x3e23bb75	0.15989478
213	0xbb95c484	-0.0045705456
214	0x3dd16e13	0.10226073
215	0x3e0c7c9d	0.13719411
216	0x3d1127d6	0.03543838
217	0xbd933048	-0.07186943
218	0xbd083964	-0.033257857
219	0x3a46e4bc	0.00075871847
220	0xbdf3d425	-0.11905698
221	0xbd81acce	-0.06331788
222	0xbe6317ac	-0.22176999
223	0x3e54cc38	0.20781028
224	0xbd8a5779	-0.06754965
225	0xbe2a5192	-0.16632679
226	0xbcacd899	-0.021099376
227	0x3d672c55	0.056438763
228	0xbded476a	-0.11585887
229	0x3ce4cec0	0.027930617
230	0xbe23013c	-0.1591844
231	0xbe01a8e1	-0.12662078
232	0xbdc4e87e	-0.09614657
233	0x3d5c8784	0.053840175
234	0xbe283862	-0.16427758
235	0x3e5e83b3	0.21729927
236	0x3e6cd9f2	0.23130015
237	0x3d8b7464	0.06809309
238	0xbd95a245	-0.07306341
239	0x3e373916	0.1789287
240	0xbdaea2a1	-0.08527113
241	0xbd092b85	-0.03348877
242	0xbe2cfa50	-0.16892362
243	0xbe1c0a5e	-0.1523833
244	0xbd2a697d	-0.041604508
245	0xbd831aa0	-0.06401563
246	0x3e27b059	0.16375865
247	0x3e11fbaf	0.14256166
248	0x3c8582f8	0.016297802
249	0xbc89e422	-0.016832415
250	0xbddc5ade	-0.10759519
251	0x3de6c1e2	0.11267449
252	0x3e61d529	0.2205397
253	0x3de21d74	0.11040774
254	0x3e110968	0.14163744
255	0x3da79323	0.08182361

feature_net.0.bias f4 [128]
0	0xbe166519	-0.14687003
1	0x3dcd1656	0.10014026
2	0x3cd7726c	0.026299678
3	0xbe289f1f	-0.1646695
4	0xbca7d63f	-0.020487903
5	0xbe1da952	-0.15396622
6	0x3e5b8ffa	0.21441641
7	0x3e41f559	0.18941249
8	0xbdf450ee	-0.119294986
9	0xbd0e9e9f	-0.03481924
10	0x3aa61d64	0.0012673554
11	0xbda3815b	-0.07983657
12	0x3e6119ce	0.219825
13	0xbdc1c9af	-0.09462296
14	0x3caf7804	0.021419533
15	0x3e0ea22e	0.13929054
16	0xbe39b101	-0.18133928
17	0xba7b4f89	-0.0009586742
18	0x3e6445d9	0.2229227
19	0xbde5ac42	-0.11214496
20	0x3e04afd1	0.12957694
21	0x3e37801e	0.17919967
22	0x3e642385	0.22279175
23	0x3e2d5a7e	0.16929051
24	0x3e1f9289	0.15583242
25	0x3de3a268	0.11114961
26	0x3e526d4e	0.20549509
27	0xbe2d4e9e	-0.16924521
28	0xbc7afc5d	-0.015318957
29	0xbdc48fd7	-0.09597748
30	0xbe5555ab	-0.20833461
31	0xbe480fcb	-0.19537275
32	0x3e3a6226	0.18201503
33	0xbd354c3f	-0.044262167
34	0x3d3b2faf	0.04569977
35	0xbd00f4d7	-0.031483497
36	0xbdc34e7d	-0.09536455
37	0x3e20901e	0.15679976
38	0xbb9fa61e	-0.0048720976
39	0x3d8548a5	0.065079965
40	0x3dabc035	0.0838627
41	0xbe3a0bbf	-0.18168543
42	0xbd80ac87	-0.06282907
43	0x3e60a7bf	0.2193899
44	0x3e20d343	0.1570559
45	0x3e0d0746	0.13772306
46	0x3d8ecf45	0.06973127
47	0x3c85532a	0.016275007
48	0x3d112195	0.035432417
49	0xbe26f7ff	-0.1630554
50	0x3d3d79cc	0.046258733
51	0xbd2a2db8	-0.041547507
52	0xbd2888cf	-0.041146096
53	0x3e0c7e0c	0.13719958
54	0xbdaca912	-0.08430685
55	0x3c51016e	0.0127566885
56	0x3d98d069	0.07461626
57	0xbda41bc1	-0.08013106
58	0xbdd2b33f	-0.10288095
59	0xbe2f56cf	-0.17122959
60	0x3e0cb5f1	0.1374128
61	0xbe475f12	-0.1946986
62	0x3e2e71f5	0.17035659
63	0xbdd54c22	-0.10414912
64	0x3e07d6b0	0.1326549
65	0x3e3f5cb7	0.18687712
66	0x3dff16d4	0.12455526
67	0x3d2047f8	0.039131135
68	0xbd033950	-0.03203708
69	0x3e40638b	0.18787973
70	0x3da4ed4c	0.08053073
71	0x3d49cab2	0.04926557
72	0xbd9f83bd	-0.07788799
73	0x3dc36a87	0.09541803
74	0x3d09b384	0.033618465
75	0xbd1bed5b	-0.038068157
76	0x3e1b7d59	0.15184535
77	0xbd61a7ea	-0.055091776
78	0x3d508c23	0.050914895
79	0xbd242287	-0.04007199
80	0x3dc9c862	0.09852673
81	0x3d935f4b	0.0719591
82	0xbd9104fc	-0.07081029
83	0xbe2e260d	-0.17006703
84	0x3b763979	0.0037570877
85	0x3dcd5825	0.10026578
86	0x3dc71434	0.0972065
87	0x3e415785	0.18881042
88	0x3dac8f4f	0.084257714
89	0xbd45cdec	-0.048292086
90	0xbbc3be06	-0.0059735803
91	0xbdf964ec	-0.121774524
92	0xbdeb257d	-0.1148176
93	0x3de2c369	0.11072428
94	0x3daae80b	0.0834504
95	0x3cfe601e	0.031051692
96	0xbd673c82	-0.05645419
97	0x3dc42bff	0.09578704
98	0x3d8e7a15	0.06956879
99	0xbe178a0d	-0.14798756
100	0x3e5d2271	0.2159517
101	0x3d4bf74e	0.049796395
102	0x3d058d0b	0.032605212
103	0x3e1d6dd3	0.15373926
104	0x3e177c55	0.14793523
105	0x3e2aee7a	0.16692534
106	0x3e5214ce	0.20515749
107	0xbca05492	-0.019571576
108	0xbd8be38e	-0.06830512
109	0xbe22e31d	-0.1590695
110	0x3dec3061	0.11532665
111	0x3e0520c4	0.1300078
112	0x3e20e3fb	0.15711968
113	0x3d908577	0.070567064
114	0x3d990f7c	0.074736565
115	0xbde9c49c	-0.114144534
116	0xbdb99b03	-0.09062769
117	0x3e165eb0	0.14684558
118	0x3e461dce	0.19347307
119	0xbd93effe	-0.07223509
120	0x3e2fcfa4	0.17169052
121	0x3e3bb9c7	0.18332587
122	0x3dce5380	0.1007452
123	0xbdf74581	-0.12073804
124	0x3e5d6365	0.21619947
125	0xbbfb474d	-0.007668412
126	0x3d7fb574	0.062428907
127	0x3e4606ce	0.19338533

feature_net.2.weight f4 [64, 128]
0	0x3d825705	0.06364254
1	0xbd923da4	-0.07140663
2	0x3d4eee49	0.050520215
3	0xbd8778d9	-0.06614847
4	0x3d73f439	0.05955908
5	0x3d959805	0.07304386
6	0x3d61d788	0.055137187
7	0x3da4ffe2	0.08056618
8	0x3cfc57ab	0.030803522
9	0x3c296ef8	0.010341398
10	0x3cf16e19	0.029471444
11	0xbd8d90e3	-0.069124006
12	0xbd74e1d9	-0.059785698
13	0xbd4ff56c	-0.050771162
14	0xbcccd053	-0.02500168
15	0x3d2db43d	0.042408217
16	0x3d00b0ab	0.031418484
17	0x3d947b2a	0.07250054
18	0x3d092f94	0.03349264
19	0x3d7a861d	0.061163057
20	0x3d0b24d1	0.033970658
21	0x3d03986b	0.03212778
22	0xbdac99d1	-0.08427776
23	0x3c93995f	0.018017469
24	0x3db94741	0.09046794
25	0xbd5b9065	-0.053604502
26	0xbd8692f7	-0.06571
27	0xbd7aff0a	-0.06127838
28	0xbd1b3273	-0.03788991
29	0xbd2dc1ac	-0.042421028
30	0x3cb5daec	0.022199117
31	0xbd69e7d3	-0.05710585
32	0xbcd13af7	-0.025540812
33	0x3c88f8e8	0.01672025
34	0x3b141168	0.0022593383
35	0xbdaf4a41	-0.08559085
36	0x3d563e9f	0.052305814
37	0xbdcedca9	-0.10100681
38	0xbd8b94e8	-0.06815511
39	0x3d320cb7	0.043469157
40	0xbdc231b1	-0.09482134
41	0x3c87a4d1	0.016558083
42	0x3d880cfe	0.06643103
43	0x3d1b573a	0.037924983
44	0xbbd399ff	-0.0064575667
45	0xbd345d7f	-0.044034477
46	0xbd377a02	-0.04479409
47	0x3b81b583	0.0039584055
48	0x3cbdb929	0.02315958
49	0xbd7a8120	-0.0611583
50	0xbccf09b9	-0.02527319
51	0xbda78f08	-0.08181578
52	0xbd6a5a02	-0.057214744
53	0x3c82e29c	0.015977196
54	0x3d42ff1d	0.047606576
55	0x3d018a4a	0.031626023
56	0x3d097fab	0.03356902
57	0x3da629c8	0.08113438
58	0x3cc65591	0.024210723
59	0xbdb147ea	-0.08656295
60	0xbd77660b	-0.06040005
61	0xbd7cb0fd	-0.061692227
62	0xbce41974	-0.027844168
63	0x3b0cde06	0.002149464
64	0xbcb769cf	-0.02238932
65	0x3d96ce57	0.07363575
66	0x3d5215b0	0.051290214
67	0x3da67688	0.08128077
68	0x3d97c90e	0.07411395
69	0x3d3a28db	0.04544912
70	0xbd7e43e0	-0.06207645
71	0x3a484cb5	0.0007640825
72	0xbd836d11	-0.06417287
73	0xbd96ed78	-0.07369512
74	0x3b73ae2d	0.0037182674
75	0x3d5a3b5e	0.053279273
76	0x3cb57cdf	0.02215427
77	0x3d98daf1	0.07463635
78	0xbd8786bb	-0.06617495
79	0xbd90f07c	-0.07077119
80	0x3cd7b3c9	0.026330845
81	0x3d2e0c9e	0.0424925
82	0xbcce3409	-0.025171297
83	0x3bd0ada7	0.006368357
84	0xbd86f80f	-0.06590282
85	0xbd28d7ad	-0.04122131
86	0x3c6d6647	0.014489717
87	0xbd141e50	-0.03616172
88	0xbcecd71c	-0.028911166
89	0x3d6c3c72	0.057674833
90	0xbd3ff58f	-0.046865042
91	0xbd9a7c24	-0.07543209
92	0xbcdee606	-0.027209293
93	0x3d9ec332	0.07752074
94	0xbc602994	-0.013681788
95	0x3d819688	0.0632754
96	0xbd856e7b	-0.06515213
97	0xbd0c83fe	-0.034305565
98	0x3d86706a	0.0656441
99	0x3ce77199	0.02825241
100	0x3c113da1	0.008864791
101	0x3d987471	0.074440844
102	0xbd8a83dd	-0.06763432
103	0x3c1b4965	0.009477948
104	0xbd074ec2	-0.033034094
105	0xbd09e3a8	-0.033664376
106	0xbd945a2b	-0.07243761
107	0x3d944ad1	0.072408326
108	0x3da618a8	0.081101716
109	0xbba5cd9f	-0.0050599123
110	0xbd9e7ce9	-0.077386685
111	0xb9b90dc2	-0.000352962
112	0xbc98aa83	-0.018635994
113	0x3d1a06fe	0.037604325
114	0xbb8e6b2d	-0.0043462724
115	0xbd8c2da1	-0.068446405
116	0xba509267	-0.0007956386
117	0x3cb8ac62	0.022543136
118	0x3b5df0e3	0.0033865504
119	0x3d1d8441	0.038456205
120	0xbd88051f	-0.06641602
121	0x3d42ad14	0.04752834
122	0x3d3eca88	0.046579868
123	0xbd717410	-0.058948576
124	0x3daedd1d	0.08538268
125	0x3cc88299	0.024476336
126	0x3da1c0b2	0.07898082
127	0x3cc1edca	0.023672957
128	0xbd8af7c7	-0.06785541
129	0x3d36a2cc	0.04458885
130	0x3d1ba9b4	0.03800364
131	0x3caabab3	0.020840978
132	0x3cdb1675	0.026744107
133	0x3cd84538	0.026400194
134	0xbdaac671	-0.08338631
135	0x3d2f6cb6	0.042828284
136	0xbd17a255	-0.037020046
137	0x3cd9e835	0.026599983
138	0xbd8d9471	-0.069130786
139	0x3d9f7147	0.07785278
140	0xbdb93d3a	-0.09044881
141	0x3cac13bd	0.021005506
142	0x3cede498	0.029039666
143	0x3d9e99bf	0.077441685
144	0xbd59f875	-0.053215463
145	0x3bbe58df	0.005808934
146	0x3d14eee9	0.036360655
147	0xbd99c449	-0.075081415
148	0x3d361c9a	0.04446087
149	0x3bccbcb8	0.006248083
150	0xbd12a000	-0.03579712
151	0xbd092c4c	-0.03348951
152	0x3d03e789	0.03220323
153	0x3d80bc26	0.062858865
154	0x3d3bf131	0.045884315
155	0xbcb226f8	-0.021747097
156	0xbc9e7020	-0.019340575
157	0x3d8b62fb	0.068059884
158	0xbd93b9d2	-0.07213177
159	0x3d573888	0.052544147
160	0x3d7debaf	0.061992344
161	0x3d2b332a	0.04179684
162	0xbd26e1ef	-0.04074281
163	0x3ae721f1	0.0017634017
164	0xbd440194	-0.047853068
165	0x3cf1c3cf	0.029512314
166	0xbced1ab4	-0.028943397
167	0x3d9b8e07	0.07595449
168	0xbd20bbed	-0.03924172
169	0xbd8c3cc4	-0.068475276
170	0xbda527c5	-0.08064226
171	0x3d3ad4a1	0.045612935
172	0xbd6db2c8	-0.058031827
173	0xbd66bd21	-0.05633271
174	0xbd794400	-0.060855865
175	0x3c077422	0.008267434
176	0xbd857120	-0.065157175
177	0xbdb70c04	-0.08937839
178	0xbdac02f3	-0.08399
179	0xbc8ad32b	-0.016946396
180	0xb9652858	-0.00021854171
181	0x3c831a07	0.016003622
182	0x3d125c48	0.035732538
183	0xbd299af8	-0.041407555
184	0x3d560cc0	0.052258253
185	0xb8178156	-3.612166e-05
186	0xbd56fcc2	-0.052487142
187	0xbdc0f399	-0.094214626
188	0xbd1cf916	-0.038323484
189	0x3ca19cbc	0.019728057
190	0x3cdc2d5c	0.026877098
191	0x3d179e20	0.037016034
192	0x3c4d629a	0.0125357155
193	0x3b4d3003	0.0031309135
194	0x3d36b558	0.044606537
195	0xbcd4dc13	-0.025983846
196	0xbd6f6125	-0.058442254
197	0x3d87d404	0.06632236
198	0xbd85d741	-0.06535197
199	0x3d99e514	0.07514396
200	0xbd8515b7	-0.064982824
201	0xbdbb5785	-0.091475524
202	0x3c62930a	0.013829002
203	0xbce9f7e1	-0.02856058
204	0xbdc138f1	-0.09434689
205	0xbd0fb1dc	-0.03508173
206	0x3d0ba0e1	0.034088973
207	0x3cdd2353	0.026994383
208	0xbd48ba5a	-0.049005844
209	0xbcd658e1	-0.026165428
210	0x3da904e9	0.0825289
211	0x3c9e7ae4	0.019345708
212	0x3cbea384	0.02327133
213	0xbd814abe	-0.06313084
214	0xbd148ad9	-0.036265228
215	0x3d07273f	0.032996412
216	0xbd49eb30	-0.049296558
217	0x3d909fe5	0.070617475
218	0x3d8e1cbc	0.069390744
219	0xbd9f08ae	-0.077653274
220	0x3cd12209	0.025528925
221	0x3d597ecc	0.05309944
222	0xbd31630d	-0.043307353
223	0xbd99142d	-0.07474551
224	0xbbec0b9c	-0.0072035324
225	0xbcf8948d	-0.030344272
226	0xbd830711	-0.06397832
227	0x3d88728f	0.06662475
228	0xbc2c80c9	-0.010528752
229	0xbd7ed2c5	-0.062212724
230	0xbd0187a0	-0.031623483
231	0xbc58e1dd	-0.013237444
232	0x3d0b2690	0.033972323
233	0xbcfd33d1	-0.030908497
234	0xbda47ffa	-0.08032222
235	0x3d3812ab	0.04493968
236	0xbccc208f	-0.024917869
237	0xbd152377	-0.036410775
238	0x3bdcdb52	0.006740012
239	0x3d8463dd	0.0646436
240	0xbcbe5c2b	-0.023237308
241	0xbc816175	-0.015793541
242	0xbca423f9	-0.020036684
243	0xbd80dd40	-0.062922
244	0x3cc54468	0.02408047
245	0xbd8cc3dc	-0.06873295
246	0xbd5105f4	-0.051031068
247	0xbb220294	-0.0024720775
248	0x3d98ad8b	0.07454976
249	0x3cbd75a2	0.02312738
250	0x3c409e67	0.011756516
251	0xbd080176	-0.03320452
252	0xbc60ce94	-0.013721127
253	0xbdbb74a6	-0.09153108
254	0xbce79d07	-0.028273119
255	0xbcb69b97	-0.022290988

feature_net.2.bias f4 [64]
0	0xbc03a2b0	-0.008034393
1	0xbd6b0c57	-0.057384815
2	0xbd6a9809	-0.0572739
3	0x3d688d98	0.05677566
4	0x3cf45abc	0.029828422
5	0xbd063a20	-0.032770276
6	0xbd81f458	-0.06345433
7	0xbda27b96	-0.079337284
8	0x3a3a3774	0.00071036
9	0xbd649c4b	-0.055813115
10	0x3d410bdf	0.04713046
11	0x3d040e00	0.032239914
12	0x3d969e22	0.0735438
13	0x3c20767d	0.009793875
14	0x3d48ccd6	0.04902347
15	0x3d977b08	0.07396513
16	0x3cfa8c58	0.0305845
17	0x3d16aaf2	0.03678412
18	0xbd5d0914	-0.053963736
19	0xbd1470e2	-0.036240466
20	0xbc45d4d4	-0.012074668
21	0xbae2ffd6	-0.0017318677
22	0xbd2f0b9f	-0.042735692
23	0x3bb6403e	0.0055618575
24	0x3d8f641a	0.07001515
25	0x3d53d5ba	0.051717497
26	0xbdbb8dc9	-0.09157903
27	0xbd80a70d	-0.062818624
28	0xbd277c4a	-0.040890016
29	0x3daf86dc	0.08570644
30	0x3da53be6	0.08068065
31	0x3da7ca17	0.081928425
32	0x3c82f7d3	0.015987312
33	0x3d0b72bb	0.034044962
34	0x3c2e1328	0.010624684
35	0xba683226	-0.00088575704
36	0xbb7caec7	-0.0038556324
37	0x3d130057	0.035888996
38	0xbcfc594d	-0.0308043
39	0x3cf59838	0.02997981
40	0xbc00c57d	-0.007859585
41	0xbc97fa85	-0.018552074
42	0x3d5e825e	0.054323547
43	0xbd15641e	-0.036472432
44	0xbda1af70	-0.0789479
45	0x3d9bf0b6	0.07614271
46	0x3a66698b	0.0008789531
47	0xbd059036	-0.032608233
48	0x3c96036e	0.018312182
49	0x3d570978	0.052499264
50	0x3d43b62c	0.047781155
51	0x3d031165	0.03199901
52	0x3cbc8e08	0.023016945
53	0xbd4ed6ee	-0.05049794
54	0x3b0f3d9f	0.0021856797
55	0xbd26f5a8	-0.04076162
56	0x3ce1308d	0.027488971
57	0xbda6443c	-0.081184834
58	0x3d76c609	0.060247455
59	0x3c91b1d4	0.01778499
60	0x3c1eb9e0	0.009687871
61	0x3c068ace	0.008211805
62	0x3d75b24a	0.059984483
63	0xbd095855	-0.033531506

actor_mean.weight f4 [1, 64]
0	0x3cb46626	0.022021364
1	0x3d8add91	0.06780542
2	0x3d9e0979	0.077166505
3	0x3db54a95	0.08852116
4	0x3de941c3	0.11389496
5	0xbae98a1f	-0.0017817653
6	0x3d27a4b8	0.040928572
7	0x3dcf5cc0	0.101251125
8	0xbd94c457	-0.07264011
9	0xbdf370c7	-0.11886745
10	0x3dbf08cd	0.093278505
11	0xbda8650c	-0.08222398
12	0x3c8b9b76	0.017041903
13	0xbcce403c	-0.025177114
14	0xbd377fe6	-0.044799708
15	0xbdee2ee9	-0.11630041
16	0xbdbb6769	-0.09150583
17	0xbd00d52d	-0.0314533
18	0x3e091dd5	0.13390286
19	0x3dc801ee	0.09765993
20	0x3dcd5f28	0.10027915
21	0xbcc408e3	-0.023930019
22	0x3e0374c3	0.1283751
23	0x3cf2aef5	0.029624442
24	0xbd219200	-0.039445877
25	0xbd5ff3b5	-0.054675777
26	0xbd1ad2bc	-0.03779863
27	0xbdfe0357	-0.12402981
28	0xbd2f4027	-0.04278579
29	0x3dc0dfb5	0.09417669
30	0xbdee5d73	-0.11638918
31	0xbcdb2a3c	-0.026753537
32	0xbce74f8e	-0.028236177
33	0x3da05d10	0.0783025
34	0xbd0b2d6b	-0.03397886
35	0xbd8877ce	-0.06663476
36	0xbd4c52be	-0.049883597
37	0xbdcd5ce7	-0.10027485
38	0x3de670b5	0.11251966
39	0xbbf0f7d4	-0.007353762
40	0x3d5b7092	0.053574152
41	0xbdd2a06a	-0.10284503
42	0x3df9a4e6	0.12189655
43	0xbe06e8ae	-0.13174698
44	0x3d8fcf72	0.07021989
45	0x3d707b22	0.05871118
46	0xbd5f84c1	-0.054569963
47	0xbaee8f62	-0.001820069
48	0x3d49ab51	0.049235646
49	0x3d0f40eb	0.03497402
50	0x3dc5a0bc	0.09649798
51	0xbd00fcb2	-0.03149099
52	0xbd735fc1	-0.05941749
53	0x3d734eac	0.0594012
54	0x3d5d94d5	0.054097015
55	0xbd90321f	-0.0704081
56	0x3e033e11	0.12816645
57	0xbce9cd81	-0.028540375
58	0x3df84caf	0.12124001
59	0x3dfd6828	0.12373382
60	0xbe0fbcc5	-0.14036854
61	0x3d15e989	0.03659967
62	0x3bc8a582	0.0061232457
63	0xbe10eb18	-0.14152181

critic.weight f4 [1, 64]
0	0x3db82ab6	0.089925215
1	0x3d8c16c1	0.068402775
2	0xbc8a8cb1	-0.01691279
3	0x3b9d1e29	0.004794855
4	0x3da05a8f	0.07829773
5	0x3d5d4256	0.05401834
6	0x3dcc0c36	0.099632666
7	0xbdd312ba	-0.10306306
8	0xbd38b60f	-0.0450955
9	0xba3ce6de	-0.0007206033
10	0xbcff6648	-0.031176701
11	0xbdbdc36d	-0.0926579
12	0xbdf531ac	-0.11972365
13	0x3c3c4e95	0.011493345
14	0xbb4b77b0	-0.003104668
15	0xbd795d2a	-0.060879864
16	0x3de0abac	0.10970244
17	0xbdc94ece	-0.09829484
18	0x3daad1b3	0.08340778
19	0xbd552267	-0.05203476
20	0x3cd3ab46	0.025838505
21	0x3dc86b9f	0.09786152
22	0xbd066d46	-0.032819055
23	0xbdbe98aa	-0.09306462
24	0x3da99698	0.082806766
25	0xbda9af76	-0.0828542
26	0x3db25302	0.08707239
27	0x3c8e2972	0.017353747
28	0xbb6ec0a3	-0.0036430738
29	0xbc6001ed	-0.013672334
30	0x3ca2a683	0.01985479
31	0x3d781cdd	0.0605744
32	0x3dab0391	0.083502896
33	0xbd8ca85a	-0.06868048
34	0x3dd66c2f	0.10469853
35	0xbdea5b51	-0.114431985
36	0x3dba0e99	0.090848155
37	0x3da7d7cd	0.081954576
38	0x3da25f83	0.07928374
39	0xbd9ea8be	-0.07747029
40	0x3dcb3628	0.09922439
41	0xbd4b9969	-0.04970685
42	0x3d39e6db	0.045386177
43	0xbd8539d0	-0.065051675
44	0x3de0ade2	0.109706655
45	0x3da6f45a	0.08152075
46	0xbd1c64f8	-0.03818223
47	0x3cbfc63e	0.023409959
48	0x3d819389	0.06326968
49	0xbdad7294	-0.0846912
50	0xbdc39782	-0.09550382
51	0x3d9eebd9	0.07759828
52	0xbc802dc0	-0.015646815
53	0x3db96ea4	0.09054306
54	0x3d9a46c6	0.0753303
55	0xbd8fe676	-0.07026379
56	0xbbce13b3	-0.0062889694
57	0x3deaf142	0.114717975
58	0xbd1a5201	-0.03767586
59	0x3b679773	0.0035338074
60	0xbc41dabc	-0.0118319355
61	0x3d8a2fe7	0.06747418
62	0x3ca2d27a	0.019875754
63	0x3d406d43	0.0469792
