RL M/ppo_rope_lift_final.pth (torch, 47499 bytes, 6 tensors)

feature_net.0.weight f4 [128, 21]
00000000: 661c 0f3e 2617 46bd a3b3 473e 7328 2c3e
00000010: c5ac a73c d63b 32bd bf93 d43d 2584 55be
00000020: cda9 22bd 3dd3 393d 3016 0cbe defa a53d
00000030: fc1d d9bd 3f9b 5e3d 77de 193d 9b41 b63d
00000040: 3444 e93d 819d 283e 6ca8 0a3d c779 13be
00000050: a8d5 4ebe bc41 4fbe cddb f93d 1c64 1d3e
00000060: 743d c6bd 8540 b43d 1099 80bc b047 063e
00000070: c8fa 2c3e df06 273d 161a db3d 4fb9 483d
00000080: 8d87 94bd 68c6 33be 1aba 3a3e fcef 2d3e
00000090: 8d2f 6bbd e6bb 62bc 0304 3dbe eb78 54be
000000a0: d06b 7ebd de86 3b3d 2534 c73d c9ea 38be
000000b0: 73a3 3dbe d142 033c b67a 5d3e 6727 443d
000000c0: 53b3 12bd 7eed cf3d 3610 29bd bfed c1bd
000000d0: 1c4d 0b3e 59dc 3cbe e935 edbc 193c 223e
000000e0: 2bbf 1a3e 687b 27be 57bf b7bc df7d debd
000000f0: 8704 253e dab7 293e 2b76 52bd b21b 6bbc
00000100: bb70 3bbe c517 b0bd 65da 213e 803d 13be
00000110: dad2 ecbd ba45 41be 98b3 36be 31cc 43be
00000120: 25a7 8c3d 5e7f 1f3e 67b9 5ebc 4fed d6bd
00000130: 54be 72be d111 e93d e893 0b3e 4de7 843c
00000140: 0ec6 54be 3990 1fbe 468d 2a3e a42d e2bc
00000150: 2045 23be 6b2e 5dbe f07c cbbd 255d e3bd
00000160: 2053 e7bd 702e 56be c68c 6cbe 3a41 0bbe
00000170: 08f0 ae3c 7c4b 0a3e 5fa2 3bbd bec2 25bd
00000180: 37df 473e 4811 e03c fbb8 463e 3e1a e83d
00000190: 241b 753d 015b f33d 4b02 f6bd faad f3bb
000001a0: 8fcd da3d d914 563e b988 b03c cae9 c43d
000001b0: 3542 3f3d 024b e4bc 5087 eebc 3cfc da3d
000001c0: 6685 a23d b6c2 093d b2bd 39bd 7d2e 05bd
000001d0: d2d2 d2bc 346a b2bd 3609 3fbe efab c13d
000001e0: bac3 12be 2b47 64bc 50d2 d7bd f8f1 44be
000001f0: 3041 dabc bdc1 203e 5f22 a4bd 9502 3f3c
00000200: 82d4 04bd e307 ccbd f0b6 ccbc 643f 37bd
00000210: 4bd7 f5bd a02f 4fbe 631c 283e d6a0 b7bd
00000220: c838 0e3e b0d7 0b3e a63a 9dbd da52 fbbd
00000230: 8175 1cbd a47a 0f3c c59c 4f3e 4d34 f2bd
00000240: 6ab4 84bd cd04 49be 3a68 953c c495 6c3d
00000250: 7746 c43d 9956 75bc 0e31 473e 44b9 0cbd
00000260: 8918 4b3e 0de5 3e3e c891 35be c8a4 49be
00000270: 0c87 b0bc 5a65 343c a823 043e 1d8e 7a3a
00000280: df9d 46be 6b83 d93d b30b 653d b100 01be
00000290: 86ba 9e3d 29c0 d83d e2b0 06be ed77 43bd
000002a0: 433c 5ebd 8b72 b13c 5169 873d c556 85bd
000002b0: 2ff0 4d3e 5251 10be 86c9 a73d a340 f93d
000002c0: f85d c6bd 9095 3cbe 121e 143e 4869 413e
000002d0: 565f 5dbd 66bc 2abd 5170 163d a856 0bbd
000002e0: 693c 1abd 53f8 35be fbc1 1cbe a390 bfbd
000002f0: bd28 17be 05df 3fbe ba62 103d 044f 303b
00000300: 12a0 8f3c e1a3 6cbd 9738 a43d 727e 47be
00000310: 5c0e e9bc fbfc ee3d b192 be3a 7d1e 40be
00000320: b7a0 3bbe 5747 cd3b 77d6 353d 3421 263e
00000330: 1232 f53d 462e 54bc 8220 1f3e bfb5 2d3e
00000340: 5702 08be 0799 4fbe 52e0 94bd 0c0a 2bbe
00000350: edd6 11be 68cf 3b3e 4ba6 d6bd ad6b 993d
00000360: a813 153d 83fd 0ebe ff0b babd 9d20 a33d
00000370: 6d01 2abb 82c5 b03d 104b 6bbd f9c2 053d
00000380: 1abd be3d 0b31 813d 9d02 20be 311e 38be
00000390: 312f 4e3e ed0e 47be 9cf0 4e3d be44 cdbd
000003a0: 743c 1f3d 3e3b d6bd afa9 0a3e b0df c8bd
000003b0: c8c9 443c a962 2bbe 03c8 1abe 308d bbbd
000003c0: 22c8 f4bd 0be3 a83d 95e4 ca3c 7f2b c33d
000003d0: c63c babc 04fa 39be d32d bf3c fe65 c8bb
000003e0: 9d38 9bbc 404d 143e e0c4 efbd f75e dcbc
000003f0: 5cee acbd 2318 3dbd 23ce 78bd 5340 58bd
0.13975677 -0.04836192 0.1950212 0.16812305 0.020468125 -0.043514095 0.10379743 -0.2085119
-0.039712716 0.04536747 -0.13680339 0.0810449 -0.10601422 0.054347273 0.037565675 0.08899232
0.11389962 0.16466333 0.033852026 -0.14401923 -0.20198691 -0.2023992 0.12200127 0.1537022
-0.0967969 0.088013686 -0.015697986 0.13113284 0.1689254 0.040778037 0.10698335 0.04900485
-0.07252417 -0.17556155 0.18235055 0.16986078 -0.057418395 -0.013838744 -0.18458562 -0.20749252
-0.062114537 0.045782916 0.09726743 -0.18058313 -0.18519382 0.008011536 0.21628842 0.04788914
-0.03581555 0.1015272 -0.041275226 -0.094691746 0.13603634 -0.18443431 -0.02895637 0.15843238
0.15111987 -0.1635567 -0.022430105 -0.10863852 0.16115008 0.1657404 -0.051382225 -0.014349865
-0.18304722 -0.08598284 0.15805967 -0.14378929 -0.11563654 -0.18874255 -0.17841947 -0.19120862
0.06867818 0.1557593 -0.013594008 -0.10494482 -0.23705417 0.11380351 0.1363064 0.016223574
-0.20778677 -0.1558236 0.16655454 -0.027609654 -0.15944338 -0.21599738 -0.09935939 -0.1110175
-0.11295152 -0.20916152 -0.23100576 -0.135991 0.02135469 0.13505358 -0.045809146 -0.040468924
0.19518743 0.02735199 0.19406502 0.1133313 0.059840336 0.11882592 -0.12012156 -0.007436511
0.106837384 0.2090639 0.02154957 0.09614904 0.046694 -0.027867798 -0.029117256 0.10692641
0.079356 0.033632956 -0.045346923 -0.032515038 -0.025735293 -0.08711663 -0.18655857 0.09456622
-0.14332476 -0.013932983 -0.10538161 -0.19232929 -0.026642412 0.15698905 -0.08014368 0.01165833
-0.032429226 -0.09962442 -0.024989575 -0.04473819 -0.120039545 -0.20233011 0.16417079 -0.08966224
0.13888848 0.13656497 -0.07677202 -0.12271662 -0.038197998 0.008757267 0.20274647 -0.11826382
-0.06479724 -0.19630738 0.018238176 0.057760015 0.095837526 -0.01497426 0.19452307 -0.03435637
0.19833578 0.18642063 -0.17731392 -0.19691765 -0.02154877 0.011010492 0.12904227 0.00095579197
-0.1939616 0.10620769 0.05591936 -0.1259792 0.0775042 0.10583527 -0.13153413 -0.047721792
-0.05425669 0.021661064 0.066118844 -0.065106906 0.20111154 -0.14093521 0.081927344 0.121705316
-0.09685892 -0.18416429 0.14464596 0.18887818 -0.054045998 -0.041683577 0.036728207 -0.03401819
-0.037655268 -0.1777051 -0.15308373 -0.09353759 -0.14761634 -0.18737419 0.035250403 0.0026902566
0.017532382 -0.057773475 0.08018606 -0.19481829 -0.02844923 0.11669346 0.0014539567 -0.1876163
-0.18323027 0.006264608 0.044393983 0.16223603 0.11972441 -0.012950486 0.15539744 0.16963862
-0.13282143 -0.20273219 -0.07269348 -0.16703051 -0.14242144 0.18340838 -0.104809366 0.07491241
0.0363957 -0.13963895 -0.09084319 0.07965205 -0.0025940791 0.086314216 -0.057444632 0.032656644
0.09313412 0.06308182 -0.15625997 -0.17980267 0.2013519 -0.19439287 0.05052243 -0.10022877
0.038876012 -0.10460518 0.13541292 -0.0980829 0.012010999 -0.16736855 -0.15115361 -0.09157789
-0.11952235 0.0824643 0.0247672 0.095297806 -0.022734057 -0.1816178 0.02333728 -0.006115674
-0.018947894 0.14482594 -0.11707473 -0.026900752 -0.08443901 -0.046165597 -0.060743462 -0.05279572

feature_net.0.bias f4 [128]
00000000: f20f a2bd 0fdb 08be 016c 113e 1b51 5c39
00000010: 8933 efbb dae8 683e ed35 00be 84e6 1c3e
00000020: fb96 59be 31d3 433e 7056 a1bd 23b5 253e
00000030: ad16 4ebe 763d 61be 5cca 3b3e 688f c6bd
00000040: 0f1b 36be 6b5e 24bd 0758 1fbd 38d8 12be
00000050: f0a3 15be 530c 7a3c da44 53be 42c3 e73c
00000060: a855 2a3b 8970 8d3b 8bb2 31be c833 24be
00000070: 0940 37be d1e8 81bc 7ec8 a3bc 13ae 73bd
00000080: 836c 44be 274b 04bd 3a54 a6bd fdf0 64bd
00000090: 4796 85bd 7c58 c43d 4337 293e d8fc 523e
000000a0: 5ae8 2a3e fbc4 b1bd 2b17 11bd 72c8 513e
000000b0: da4b 1e3b c77c 5c3d 4a2a 2e3e a547 23be
000000c0: d3eb a6bd 7397 7bbc 9ec4 b3bd d278 af3d
000000d0: 093c 93bc 3e31 43be a36e 3f3e 3a29 243e
000000e0: a33e bf3d ce87 6cbd 45ef b1bd 455c 76bd
000000f0: 4bc8 55be b281 53be f6dd 9ebb eca2 453c
00000100: 81f5 573e 342b 083e d7fc 003e 8231 213e
00000110: 8406 19be 9af7 22be 1e1c 3cbc 08cb 3ebe
00000120: cd77 5fbe 7850 efbd 2e65 f73c 9e25 85bd
00000130: 472e 2f3e 931b 13bd 132e 7f3d 7be2 0ebe
00000140: fec8 e7bd 25d8 1d3e 707b acbb 8f9f 2b3e
00000150: ccf4 10be 6435 043e a21d 21be 7ea5 083e
00000160: 8083 a43c 19e9 f23d d870 20bd cfb5 4a3e
00000170: 7566 2d3e a5ff bfbc fa02 473e 83ed fc3d
00000180: ac14 ad3d 858e d8bc 8d44 0cbe 0e84 43be
00000190: 6616 4c3e 1e3a e33d 7452 41be 02f6 4cbe
000001a0: 8ba2 8f3c f7b5 cd3d 5f2e e83d c52a 83bd
000001b0: aebf 07be 7e52 a23d 1bc3 0f3e bf94 343d
000001c0: b673 68bd a520 0e3d 5c76 c43d 1a09 b8bd
000001d0: 47c8 d13d 870d 77bd e0e3 633e 9298 4f3e
000001e0: 8e60 133d 2e36 30be b38f 81bb 9830 11be
000001f0: 72e2 abbb 9b8e 473e b2f3 a53c 90a3 dabd
-0.079131976 -0.13364814 0.14201356 0.00021011049 -0.0072998446 0.22745076 -0.12520571 0.1532231
-0.21249 0.19123532 -0.07877815 0.1618238 -0.20125838 -0.21996102 0.18338913 -0.09695321
-0.1778376 -0.040129106 -0.03890231 -0.14340293 -0.14613318 0.015261727 -0.20631734 0.028291348
0.0025990997 0.0043163938 -0.17353265 -0.16035378 -0.17895521 -0.015858086 -0.019993063 -0.059492182
-0.19182019 -0.032298233 -0.08121534 -0.055893887 -0.06522804 0.095871896 0.16524987 0.20604265
0.16690198 -0.08680149 -0.035422485 0.2048662 0.0024154098 0.053829934 0.1700832 -0.15945299
-0.08150449 -0.0153559325 -0.08777736 0.085679665 -0.017972963 -0.19061753 0.18694548 0.16031352
0.09338119 -0.0577467 -0.08688215 -0.06014659 -0.20877187 -0.20654944 -0.004848237 0.012062769
0.21089746 0.1329773 0.12596451 0.15741542 -0.14943892 -0.15914765 -0.011481313 -0.18632138
-0.21823044 -0.1168527 0.030199613 -0.065013155 0.17107497 -0.03591497 0.0622998 -0.13953583
-0.11317633 0.15414484 -0.0052637383 0.16760086 -0.14155883 0.12910992 -0.1573396 0.1334438
0.020082235 0.11860866 -0.039170116 0.19795917 0.16933616 -0.02343733 0.19434729 0.12349989
0.084512085 -0.026435146 -0.13698025 -0.19093344 0.1993042 0.11095069 -0.1887911 -0.2001572
0.017533561 0.10044473 0.113369696 -0.06404642 -0.13256714 0.079258904 0.1403927 0.044087168
-0.056750976 0.0346991 0.09592888 -0.08986111 0.10243278 -0.060315635 0.22254896 0.20273045
0.035980754 -0.17208168 -0.003953898 -0.14178693 -0.0052455002 0.19487993 0.020257805 -0.10675728

feature_net.2.weight f4 [64, 128]
00000000: f83c e1bc 1220 a0bd bd82 abbd bbfc a53d
00000010: 2f11 58bc 369d 953d ed75 b13d 0a73 1cbd
00000020: 7ce3 28bd 78b1 013d 62ca eb3b b7c6 5bbd
00000030: 595e 14bb 0e7a 213d 1c5c caba cf14 64bc
00000040: c908 213d d66d f53c 9986 49bd 7223 05bc
00000050: e0b3 873c 2778 8abc 7e96 a13d 1946 2f3c
00000060: ebac 3fbd 3814 02bb f580 1abd 844a 823d
00000070: 973d 8b3d 87b8 3abd 4299 093d 69fa a5bd
00000080: 2cd3 3b3c 458a 113d 5609 893d 315f ba3d
00000090: 1cb2 b33c a155 2a3d 163f 103d 9282 203d
000000a0: 8e1e 6abd 8838 c2bd 3f99 a83c 875f 913d
000000b0: 6a34 67bc 2b1f ae3d 5435 3ebd a17f a23c
000000c0: 5db1 c2bd 8f6f 3b3d d796 6cbc e9d1 38bd
000000d0: e5d4 9dbd ada2 b83d 953d f33c b638 c23d
000000e0: 1a1c 223d 5426 73bd 06f6 2ebd 757e 8bbd
000000f0: a2a2 7d3b c275 2f3d 006e 4d3c 4fff 983d
00000100: 3f81 a0bd 2007 61bd b684 b33d 30fa 5abd
00000110: 7905 983d b6da 21bd e803 7d3d 7ef0 d0bb
00000120: 94b5 6fbd 33ae bd3d 3ccf 533d e709 4f3c
00000130: 2d77 933d d54c 6abd a3d9 6b3d 2acc 963c
00000140: 3bba 8f3d 194d 9bbd 925e 553c bbfd 5a3d
00000150: d27c 9a3d 01dd 2b3d afb1 3a3d 1a05 3fbd
00000160: f5c5 453d 7678 193a 79de 0b3d 4503 c23d
00000170: f90c 4c3d 2868 0dbd 9948 713d 3339 03bd
00000180: e380 673c 14e6 803d a0b9 51bd ac16 79bd
00000190: 9c73 373d c8b5 6b3d 4148 57bd f041 473c
000001a0: 09c9 a3bd 65b0 60bc 3735 823d cfd8 e73a
000001b0: e3b2 6fbc 0474 8ebd cb50 96bd 305e 43bd
000001c0: 9f93 153c bef6 9bbc 0778 833d 9fe2 e33c
000001d0: 632f 853d 7878 b8bb 0484 ad3d b38c 07bd
000001e0: 28ce 3dbd 7172 45bd ebae 9abd 0912 a73c
000001f0: c9f7 b03d 8b14 9a3d a22b 84bd a063 103d
00000200: 576f 3f3d 378d ac3c ba5d 0cbd 8aad 06bd
00000210: c4bf f739 804e a7bc 2333 803d db3f 22bd
00000220: 6a2a 813b d5d8 043d 3520 7b3d f701 f33a
00000230: 9853 b2bd 87ad 9cbd 267a 1d3d 2498 42bc
00000240: 2a1a 38bd 3f6b e53b f4a4 8fbd 9c57 173d
00000250: ff2b 8abc 38e7 c3bd 7021 e5bc e4b6 93bd
00000260: 2ce2 c1bd 7868 493d 46bb 03bd 6f1f ffbc
00000270: 2e2d adbd 0c76 b23c 8db4 babd 6b99 bcbd
00000280: f149 71bc 3db0 44bd 2dce 84bd 5310 2cbd
00000290: c2d5 b2bd 1fb9 9b3d 2cde 7cbd eac8 debc
000002a0: 6e07 0f3a cadc f93b c569 adbc 0b41 173b
000002b0: 6975 b23c be21 e33c 2299 5b3d 0b6e 1f3c
000002c0: d12d b1bd 4be9 603d 19a0 f1bb 3131 993d
000002d0: 49fd 9f3d 410a 5d3d 0b4a d73b 3be0 993d
000002e0: 1539 a63b c3ab 62bc 03c6 033d ca96 a3bd
000002f0: 546b ae3c e623 353d 6328 573d c4ad ec3c
00000300: d158 2abd 1c34 8ebd e615 a73d b2f0 e9bc
00000310: c84b ea39 e409 d6bc 373a 8e3d 055f 4bbd
00000320: ae0e 8b3d fff7 a9bd 91ec bc3c 43a4 a53d
00000330: 0674 b83d 184e 3b3d 3541 833d d383 d2bc
00000340: 7db7 a93c a5a1 9ebd c304 533d 7400 4d3c
00000350: 5d8e 273d e98a 2c3d 71c4 7cbd 0dfe 94bd
00000360: 52b7 9dbd 03d8 67bc 18d5 84bd 6fbe 69bd
00000370: e9a4 9d3d 6d79 9bbd ecda 92bc 6603 9d3c
00000380: 6289 b7ba 5fbd af3a 96c7 913d 4281 1abd
00000390: 787e bebd 866d 813d c143 813d 0f37 9b3d
000003a0: 73ed cabd 8c3b 04bd 967b e5bc 61a9 3e3c
000003b0: eeab 6a3d a24b 4dbc 8d5f f33c f6e4 a3bd
000003c0: 6501 813c 6eab ac3d 3e5f afbc 07b8 a53d
000003d0: b1f6 ebbc 0936 acbd ca2a b73d 5aba 723d
000003e0: 002d a63c cfd5 3abd 47a8 0dbc a0ea cc3c
000003f0: a891 e73c e273 a13d 82d0 913d 8f6b 0bbd
-0.027494892 -0.07818617 -0.08374546 0.08104845 -0.013187691 0.07305376 0.08665071 -0.038195647
-0.04123257 0.031663388 0.007195757 -0.053656306 -0.0022639243 0.03942304 -0.0015438828 -0.013920977
0.03931502 0.0299596 -0.049200628 -0.008126127 0.016565263 -0.016902996 0.07890032 0.010697865
-0.046795767 -0.0019848477 -0.03772064 0.06361869 0.06798857 -0.045586135 0.033593424 -0.081044026
0.0114639215 0.035532255 0.06691234 0.091001876 0.021935515 0.04158557 0.035216413 0.03918702
-0.057158045 -0.09483439 0.020580886 0.070982985 -0.014111618 0.085020386 -0.046437576 0.019836249
-0.095064856 0.045760687 -0.01444026 -0.04512206 -0.07706622 0.09015403 0.02969245 0.09483473
0.03957758 -0.059362724 -0.042715095 -0.06811229 0.0038701673 0.042836912 0.012538433 0.07470571
-0.07837152 -0.054938436 0.08765547 -0.053461254 0.07422919 -0.03951522 0.061771303 -0.006376325
-0.058522776 0.092617415 0.051711306 0.012636638 0.07200465 -0.05720218 0.0575806 0.0184079
0.070179425 -0.075830646 0.013023036 0.053464632 0.07543339 0.041958813 0.04557961 -0.046635725
0.04828449 0.0005854437 0.034147713 0.0947328 0.04981706 -0.03452316 0.058907125 -0.03203697
0.01412985 0.06293884 -0.051202416 -0.060812637 0.044787988 0.057546407 -0.05255914 0.012161717
-0.07997329 -0.013713931 0.06357806 0.0017688515 -0.014630052 -0.06955722 -0.07339629 -0.047697246
0.009129434 -0.019038554 0.06419378 0.027818022 0.06503179 -0.0056295954 0.084724456 -0.033093166
-0.046339184 -0.048204843 -0.07552894 0.020394342 0.08641011 0.075234495 -0.06453635 0.03525126
0.04673704 0.02106343 -0.034269072 -0.032880343 0.00047254388 -0.020423174 0.062597536 -0.03961168
0.0039418237 0.03243335 0.061310012 0.0018540014 -0.087073505 -0.07650285 0.038446568 -0.011877093
-0.044946827 0.00700131 -0.07013884 0.036948785 -0.016866682 -0.09565586 -0.027970046 -0.07212618
-0.09466967 0.049171895 -0.03216102 -0.031142918 -0.08455883 0.021784805 -0.091164686 -0.0920895
-0.014727102 -0.048019636 -0.064846374 -0.042007755 -0.08732177 0.076036684 -0.061735317 -0.027195413
0.0005456124 0.007625197 -0.021168599 0.002307954 0.021784501 0.02772605 0.053612836 0.009730826
-0.08651317 0.054909986 -0.0073738215 0.07480086 0.07811982 0.053964857 0.006570106 0.07513472
0.0050727227 -0.0138348965 0.03217126 -0.07987745 0.021291412 0.04422369 0.05252875 0.028891452
-0.04158861 -0.06943533 0.08158474 -0.028557155 0.0004468842 -0.026127763 0.06944697 -0.049651165
0.06789909 -0.082992546 0.023062022 0.08087971 0.09006505 0.045728773 0.06408922 -0.025697624
0.020717377 -0.07745675 0.051518213 0.012512315 0.040907253 0.042124663 -0.06171078 -0.07275019
-0.07700981 -0.014150622 -0.06485957 -0.057066377 0.0769747 -0.075915195 -0.017926656 0.01916666
-0.0014002735 0.0013407877 0.07118146 -0.037720926 -0.09301466 0.06319718 0.06311751 0.07578861
-0.09908571 -0.03228335 -0.028013032 0.011637063 0.05729287 -0.012530239 0.029708648 -0.08002655
0.015747735 0.08431135 -0.02140772 0.08091741 -0.028804155 -0.08408744 0.08943708 0.05925975
0.02028513 -0.04561406 -0.0086460775 0.025014222 0.028267696 0.07883431 0.07119848 -0.034038123

feature_net.2.bias f4 [64]
00000000: a9aa 4cbc 2cb9 203d d690 acbc 5507 863c
00000010: c0a9 5d3c 3315 79bc 67ee b53d d3f9 11bd
00000020: d4a8 a93a c661 bf3b bcb7 f1b8 e7cf 6bbd
00000030: b8e2 ed3c d1ad 903c 49af 4a3d fa7c fd3b
00000040: 63b6 213d 452d 0c3d 58a0 a8bd 0fd0 0fbd
00000050: 9b1d 60bc 3724 65bd 9bb4 79bd 54f4 713d
00000060: 7a8f 98bd 02cb e03b b762 0d3c 483e 8ebb
00000070: fc61 483d cf71 87bd 59cc 8abd e5a5 3abd
00000080: ec40 553c 507c b23d 0308 9abd 9952 ba3d
00000090: bc65 87bd c090 97bd b5f7 b63d 6a7f 89bc
000000a0: 16a9 9e3d d0ad 443d 1bac 49bc ca28 953d
000000b0: b722 89bd 41f1 68bc a99b 6a3d 8ed3 8c3d
000000c0: 9d91 e2bc 4e87 643d 1673 1b3d e5da a43c
000000d0: d00b a43d f964 7a3c 1e02 453b 6835 563d
000000e0: 3010 693d d8ce cbbc 6bb2 3fbd 4c97 4ebd
000000f0: f40e 383d 496b c03b ff52 07bd 8629 b5bb
-0.01249186 0.039239094 -0.021065157 0.016360918 0.013529241 -0.015202808 0.08883362 -0.03563864
0.0012943991 0.005840513 -0.00011525999 -0.057571318 0.029038772 0.017661007 0.04948357 0.0077358456
0.03948058 0.03422286 -0.08233708 -0.03511053 -0.0136789335 -0.05594274 -0.060963254 0.0590709
-0.07449241 0.006860138 0.0086294925 -0.0043409206 0.04892157 -0.06613504 -0.067772575 -0.045568366
0.013015967 0.08715117 -0.07521059 0.090977855 -0.06611201 -0.07400656 0.08933965 -0.016784389
0.07747094 0.048017323 -0.0123091 0.072831705 -0.066960745 -0.014217676 0.057277355 0.06876288
-0.027657324 0.0557931 0.03795155 0.020123908 0.080100656 0.015282863 0.0030061076 0.052297026
0.056900203 -0.024878904 -0.046801012 -0.050437257 0.044936135 0.0058721644 -0.033038136 -0.0055286316

actor_mean.weight f4 [1, 64]
00000000: 6d76 f3bd d2ae ecbd a4e9 293d 55a5 bebd
00000010: 45e2 cd3c c66a f6ba 8c29 b13d bffc 6c3c
00000020: 34ae f2bc f84d 2b3d 3755 08bd 2580 dbbc
00000030: 302d babd 39b9 0dbe ac3a f4bd e301 a33d
00000040: faea a1bc bc37 813d 3e71 013e 94ce 93bc
00000050: 9155 a93d 2a1e 4cbd d57b dabd 7649 dcbd
00000060: 600e ec3b 0c02 d73d d4e3 12bd 3b66 08bc
00000070: 179e 09be dbf9 d13d 1d91 8d3c 966e 3ebd
00000080: 2358 0b3e 5fa4 d93d aabf 1cbd 6595 dc3d
00000090: 9493 9abc 2da8 c6bd 228a b53c 5842 603c
000000a0: 7303 f63c 40ac 85bd d6c2 d03d 4637 a5bd
000000b0: 0bff 203b e7d8 723d 78d1 aabd 4ae1 463d
000000c0: e4e0 adbd 7d7c bdbd d2a0 dfbd 7670 823d
000000d0: d4fa a63d 1f28 a83d 7594 5abd aa5a 083e
000000e0: bfb4 1ebd 84c8 c6bd b769 133d 6521 42bd
000000f0: bf01 9cbd a6f5 1bbd fa4d dc3d 0efa 1f3d
-0.11887822 -0.11556782 0.041482583 -0.09308878 0.025132308 -0.0018800132 0.086505026 0.014464556
-0.029624082 0.041822404 -0.033284392 -0.026794503 -0.0909065 -0.13840188 -0.11925253 0.07959344
-0.019765366 0.063094586 0.12640855 -0.01804284 0.082682736 -0.049833454 -0.1066815 -0.10756199
0.007203862 0.10498437 -0.035861805 -0.008325155 -0.13439213 0.10252734 0.01728111 -0.04649218
0.1360784 0.106270544 -0.038268723 0.10770682 -0.018869199 -0.09700046 0.022160593 0.013687693
0.030030942 -0.06526995 0.10193412 -0.08067183 0.002456608 0.059288885 -0.08340734 0.048554696
-0.0849016 -0.0925226 -0.10919346 0.063691065 0.081533104 0.082107775 -0.053364236 0.13315836
-0.03874659 -0.09706214 0.03598949 -0.04739513 -0.076175205 -0.038076065 0.1075706 0.03905683

critic.weight f4 [1, 64]
00000000: 1572 95bd ffef 093c aab8 a6bd b809 b53d
00000010: 47de 2b3c 7368 e4bd a283 c1bd be7d 79bd
00000020: c487 d8bc 1bd2 e43c 4038 2cbc 74e9 cbbd
00000030: cb65 873d b7cc 693d 228e 4cbd 5204 a03d
00000040: b962 a63d f946 a3bd 7008 3b3d a3ce 423c
00000050: c0c3 d2bb cfe1 c03d 5ce9 a33d e1cb a73d
00000060: dac3 73bb 7242 783c 824d c13d 6449 363d
00000070: 77de ab3c e565 dcbd c875 3a3d 32f1 8e3d
00000080: d6b3 1f3d 48ea b93c 001b 543d cc9b 783c
00000090: b9b7 243c 0954 f6bc 8a70 c9bd 11fc bbbc
000000a0: 9e12 e13c f97d 8b3d f47b a73d 3c6b 9ebd
000000b0: ab5d 9dbd e7c2 183d 9dd5 bbbd b908 d5bd
000000c0: 8114 5bbc 9f7b 51bd bdab 1abd e75a 65bd
000000d0: 9185 99bd 0e1a 863d e2c6 93bd dbcd dcbc
000000e0: 2515 2cbd 5772 1dbd 98c7 3dbc 1db8 bcbd
000000f0: c096 7d3d 740c 763d a28e 44bd 8774 10bd
-0.0729715 0.008419036 -0.081406906 0.08839744 0.010490007 -0.111527346 -0.09448935 -0.060910933
-0.026431926 0.027932217 -0.010511458 -0.09956637 0.06611212 0.057079997 -0.049940236 0.07813324
0.081242986 -0.07972521 0.045662344 0.011890086 -0.0064320266 0.094180696 0.08003494 0.08193184
-0.0037195594 0.015152561 0.094386116 0.044503585 0.020980103 -0.10761622 0.04552248 0.06979598
0.038989864 0.022694722 0.05178356 0.015173864 0.0100535685 -0.030069368 -0.09835918 -0.022947343
0.027474698 0.06811137 0.08177939 -0.07735297 -0.07683881 0.03729525 -0.09171603 -0.10402054
-0.013371588 -0.051143285 -0.03776144 -0.055994894 -0.07496179 0.06547938 -0.07215668 -0.026953628
-0.042012352 -0.03843912 -0.011583231 -0.09214804 0.061911345 0.06007047 -0.047987588 -0.03526738
